classification_model.pt (torch, 760117 bytes, 16 tensors)

conv1.weight f8 [16, 2, 3, 3]
000000 3c 7c 4c 4c b8 bd c1 bf 07 f5 0e f6 1c 4c ae bf
       -0.1386022923042861 -0.059174447094372744
000010 1d 3a 6e a8 1c 88 d4 3f 9e e6 67 21 ef 01 c9 3f
       0.3208076138334109 0.19537152415414466
000020 d8 df 7a 50 7d 82 81 3f ef 63 19 55 9f e6 d9 bf
       0.008549670237115878 -0.4047010737463656
000030 bd ff 84 99 cc 86 b8 3f d5 4f 08 d9 47 9d 8c 3f
       0.09580687282595952 0.0139718640430501
000040 2c 21 55 76 55 e5 b4 bf 29 72 33 8e 0e 62 ce 3f
       -0.08162435664155926 0.23736745780378612
000050 6c c1 ae a9 c6 56 a6 3f 4a c2 65 ed 28 87 bd 3f
       0.04363079854317928 0.11534362598264028
000060 11 cd ab e5 46 05 b2 3f a0 f6 d2 c7 b6 b2 a3 3f
       0.07039301974491631 0.03847285451182114
000070 6b f6 7c 34 ac 02 c1 bf 09 8d 93 bd f1 2c c0 3f
       -0.13289406359574527 0.1263715911546586
000080 f7 9d 5c 10 64 ba 89 bf b6 be 32 a8 46 43 bb bf
       -0.012562543629953444 -0.10649530035402219
000090 ec 1c 0b 87 fd 95 c5 3f 7c f4 18 64 67 33 cb 3f
       0.16863984197536952 0.21250622165272037
0000a0 79 d7 f5 2b 59 f3 a2 3f ae f9 b3 87 f5 2a cd 3f
       0.03701285039544095 0.2278735077488369
0000b0 72 93 13 78 b9 12 e0 bf 68 ae 19 7f 7f f2 a5 3f
       -0.5022857041591193 0.0428657381679301
0000c0 28 40 55 9a 05 7f 90 3f f2 89 39 6f 5e a5 86 3f
       0.01610955004190387 0.011057603616056764
0000d0 0a 75 2f 11 52 3c 9e 3f 77 0d 34 d2 c9 20 96 3f
       0.029526979731476145 0.021609452681344146
0000e0 dd 5e 4a 7c 47 42 b6 3f 02 6d 09 ee a5 b0 c2 3f
       0.0869488409465435 0.1460158741273077
0000f0 dd 59 60 eb 76 a6 b7 3f 18 cb 2d c0 37 3d a6 bf
       0.0923837971352905 -0.04343580456670376
000100 35 b6 d1 2d d8 89 74 bf 38 4f dc 68 82 be a3 3f
       -0.005014271210809042 0.03856284647022651
000110 25 16 0e c6 86 d0 a0 3f b6 b5 a9 84 42 74 b3 3f
       0.03284093063033947 0.07599273432580031
000120 65 2b 2b a1 04 f1 86 bf d7 57 17 3f 8b 68 a1 bf
       -0.011201893013454709 -0.03400073189884239
000130 7a 45 6b 39 66 e8 7d 3f 9d e3 f3 0b 9d ea c1 3f
       0.007301711381573534 0.13997233470561535
000140 45 28 d3 6d 19 2f b3 3f d8 4f 20 7e 64 2d ca bf
       0.07493742877264349 -0.20451027067667726
000150 aa 3a 1c 36 35 ab ba bf 7d 25 22 82 85 9c a0 bf
       -0.10417492457438962 -0.032444164405272403
000160 e1 88 15 d6 29 fb c6 3f 32 9e 46 0c 5e 16 e2 bf
       0.17953989938093343 -0.5652303924334261
000170 96 21 12 04 00 53 da bf 1c 47 2a 67 4b 5c c9 bf
       -0.4113159217600012 -0.19812910592423172
000180 ce 78 c3 0e c1 b7 ce bf aa e9 45 ea c0 ab db bf
       -0.23998273106457763 -0.43235800626976106
000190 a2 07 79 d5 e8 1e e5 bf 99 42 14 8a 24 df dc bf
       -0.6600231332197277 -0.45111955150881894
0001a0 10 b4 ba 15 ce 4b d6 bf 16 7b 08 1e d5 6c b6 bf
       -0.3483767711830419 -0.08759815200071971
0001b0 9d e7 08 10 93 8e c5 3f a9 e5 9f 3e 80 65 a2 3f
       0.1684135273260922 0.035930640835384615
0001c0 ae e7 13 24 f5 e4 97 3f 7b 26 b2 67 8a 12 b7 3f
       0.02333434136105666 0.09012665778768707
0001d0 7c 55 71 25 9f 43 c4 3f 3b fd 56 9f 29 7d ad 3f
       0.1583136494470344 0.057595539761218416
0001e0 d6 c4 88 f9 1d fe d2 3f aa 9e ce 04 8a d8 d1 3f
       0.29676007622317735 0.2788414999908847
0001f0 03 5f 5b 4e 4a ab d2 3f e6 dd 9d f8 c5 35 bd 3f
       0.2917047276691706 0.11410176582091189
000200 cb f0 46 40 34 c6 7c bf 81 a1 0a 15 bc 01 b0 3f
       -0.007024959665099038 0.06252646936139251
000210 d4 60 c8 64 ae fa b4 3f 35 fa 55 47 e7 a4 ae 3f
       0.08195009193912323 0.05985186334418239
000220 c9 2e 1e 89 fd 9a 9c 3f 3b 80 3f f7 49 58 a7 bf
       0.027934991354000602 -0.04559546607174566
000230 21 9d 8d 49 f6 ee b1 3f 5c c7 4d 37 53 f1 b1 3f
       0.07005252166492372 0.07008857822600362
000240 12 1c c6 5b ee 28 cc 3f 9d 73 28 ba 96 cf bd 3f
       0.21999911767144958 0.11644880337594406
000250 f4 58 36 55 ff 45 db bf 24 49 51 c3 f3 be a5 3f
       -0.4261473018790547 0.042472474663229925
000260 85 79 8c 95 fb 45 a5 bf 71 b5 39 27 a2 d5 c3 3f
       -0.041549551015339005 0.15495707431129405
000270 c4 00 60 ce 3c d4 d8 bf e8 2f aa 89 e6 c3 af 3f
       -0.3879539504414533 0.06204147749403416
000280 de 67 92 e4 c0 9a d9 3f 5e 5d 82 b4 3f 28 79 3f
       0.40007040330385546 0.00614189991770017
000290 25 b2 54 fb a8 75 6b bf 48 5b 28 d4 29 cc c3 bf
       -0.003352003138067399 -0.15466807231197266
0002a0 c3 b3 f6 f5 d2 23 9c bf 4b 2a 0a 08 a8 41 9a 3f
       -0.02748040796511809 0.02564108418531878
0002b0 9e 92 a5 e0 42 c0 b6 3f 1b 93 d8 ac 9c 36 aa 3f
       0.08887117371120687 0.051197906588902074
0002c0 b7 58 e7 e4 35 60 b4 3f 05 82 7e f1 a0 99 cb 3f
       0.0795930560919683 0.21562587539393988
0002d0 06 f5 0f b8 e7 cb c7 bf da d7 b1 11 51 f8 d2 3f
       -0.18591019141596393 0.2964060471343807
0002e0 75 0c 5d 17 44 85 d2 3f 60 7e 9d 33 09 a0 b8 3f
       0.2893839100035572 0.09619195470940545
0002f0 06 53 d6 95 d5 04 ca 3f 92 ff 4e 2f 94 36 d0 3f
       0.20327253166455977 0.25333122844676226
000300 69 5e d2 4a 0c a8 8f 3f 36 8e 57 42 f3 9b b3 bf
       0.01545724490487928 -0.07659836167982167
000310 40 9a 6d 95 0b 57 d5 bf 2e e9 91 30 c3 9b af bf
       -0.33343782036391545 -0.061735248259497374
000320 6c bb 9d e7 c8 0e c2 3f 33 a4 7c 75 81 ed c4 3f
       0.14107619580633057 0.16349809872306906
000330 33 1a 48 35 48 2c b9 3f 0e 43 c2 46 0d de bc 3f
       0.09833194065877464 0.11276324250708233
000340 18 7f 57 5c 02 3d a3 3f 43 82 80 04 59 f6 bc 3f
       0.03757483842104942 0.11313396797096069
000350 60 f6 25 0e 15 4b a4 bf d6 d0 ab 65 74 35 81 bf
       -0.0396353320856917 -0.008402737953908373
000360 97 42 71 12 c7 3e d8 bf c3 a8 d8 3e 1e 80 ba 3f
       -0.37883164216058546 0.10351742777189359
000370 72 77 5c 00 f7 fa b9 bf ae 3c ce 9d 73 34 da 3f
       -0.10148566969698239 0.40945139322952684
000380 07 a1 bd 17 d2 4f b7 3f df cc ec 42 ea 04 9b 3f
       0.09106171683891172 0.02638593705632963
000390 06 d1 e2 81 e4 c7 b7 bf 68 0f c0 5c 28 fe b2 3f
       -0.09289386912388772 0.07419063820276295
0003a0 4d 88 66 ec 03 0e d2 3f 2a 41 31 0c 30 16 a1 bf
       0.2821054276083757 -0.033372403610544346
0003b0 d2 7f c8 75 a7 fa b6 3f a8 e4 b5 f8 12 b1 84 3f
       0.08976217866484085 0.010103367056887372
0003c0 24 f3 7b 48 64 1c d3 3f 9a 91 85 04 4d 53 ba 3f
       0.29860789373906216 0.10283357010263786
0003d0 af 55 f1 78 6f cb 7c 3f 40 41 a2 f5 24 a6 bf 3f
       0.007029948653401715 0.12362891194266457
0003e0 1f c5 e2 b3 df 2c 78 3f 53 f9 cb 3d 21 8b 9f 3f
       0.00590217002734164 0.030804175755286888
0003f0 b0 71 54 9d 2e 81 cd bf 46 cc 50 16 d6 08 cb 3f
       -0.23050482446786935 0.2112071618044828
000400 23 63 12 f3 66 46 b4 3f 20 23 89 54 13 69 cf bf
       0.0791992515027116 -0.24539415004462573
000410 0a fb 5a f8 9a d9 c5 bf be eb 59 39 eb 95 a7 3f
       -0.17070328833320786 0.04606566500748198
000420 38 00 a5 17 57 76 d1 bf 8f 01 5a 65 9f 28 c6 3f
       -0.27284791287457066 0.1731147045975487
000430 21 c5 b7 b4 5e 9b a7 3f fc 5b 19 40 93 ab 6c 3f
       0.04610725360897506 0.0034997821792717137
000440 a8 9c b8 16 0e 34 b5 3f f1 b2 c0 cb 65 58 be 3f
       0.0828255467864546 0.11853634094650169
000450 b1 a7 cd 2a a4 ad 7c 3f 7f bb d4 d9 9a c7 9a 3f
       0.0070015347272178044 0.026152057214115395
000460 76 cf c5 3a bc 0e b0 3f ec 0d 30 64 0e 53 a5 bf
       0.06272484240417761 -0.041649293641991963
000470 ab 2d 3e 0d e7 ba a6 3f 07 31 12 2e 98 82 a6 3f
       0.0443947032609587 0.043965106605442776
000480 e6 e6 e2 80 d5 02 c4 bf 07 16 4e a1 db e3 bb bf
       -0.15633648675230133 -0.10894558609114578
000490 7a 3d 2f 73 f9 e2 cc 3f 1d f4 4d bd 10 73 c4 3f
       0.2256767094063255 0.15976151698478783
0004a0 c0 b7 9f b8 50 d5 a5 3f 9f eb c6 3e 46 18 be bf
       0.042643091713997716 -0.11755789787905123
0004b0 df bd 20 c0 04 ab dc bf c4 a9 b7 60 75 43 a8 3f
       -0.4479381443261143 0.047389667564704335
0004c0 00 70 c2 c5 70 3c d6 bf 7b db a9 55 e6 6b b2 bf
       -0.3474389964337661 -0.0719589194430749
0004d0 c2 c0 db 2b b6 19 a2 bf 0b 0f df 57 0b 05 be 3f
       -0.035352413991746726 0.11726447005554179
0004e0 50 e7 e5 0b e3 40 c0 3f c5 08 2b 77 52 15 35 3f
       0.12698019104919434 0.0003217054683483207
0004f0 4d c3 6c 71 d7 83 b8 3f 5c 31 ae e4 dc 44 c4 bf
       0.09576174277459622 -0.15835152784382955
000500 31 23 13 fd 1e f5 b4 3f 2a 27 c8 9f 3c fb b1 3f
       0.08186525038321403 0.07023981953548444
000510 bc 78 1c 29 0c 46 94 3f db f1 64 25 45 8b b0 bf
       0.01979846001551587 -0.06462509310671953
000520 e7 f0 07 52 ce 18 74 3f 85 ce fa 74 31 2d d6 bf
       0.004906469287103677 -0.34650837348747415
000530 fe 7e 26 33 00 ad d9 3f d5 23 be 59 e0 a0 d7 bf
       0.40118412966874917 -0.36919411434115307
000540 aa f7 7b fa 5c 44 c3 bf d6 06 79 bd 88 8a bf bf
       -0.15052377920795595 -0.12320761323737925
000550 ca 78 28 45 e6 45 ab bf 29 35 23 cc ce 37 96 3f
       -0.053267665807867084 0.02169726487118343
000560 fe f6 a8 a4 c4 54 b3 3f b3 41 af 5e 32 63 c3 3f
       0.07551220912952414 0.1514647447898035
000570 8c e4 e9 00 c8 6d a3 bf 6a 50 7a 97 b3 6c b6 3f
       -0.0379469395747459 0.08759615371883603
000580 d2 c9 6e c6 cb a8 ba bf 2f f7 bb 97 0c 29 a9 3f
       -0.10413812250661827 0.04914130546784034
000590 39 68 a2 3c 60 c1 b0 3f c9 70 bb 35 79 c1 a0 3f
       0.06545068245250797 0.03272608548079032
0005a0 e5 b3 bf c1 54 56 ab 3f 7b 9d 55 f7 17 90 bd 3f
       0.05339302888010148 0.11547994411886535
0005b0 db ca d2 9d 55 c0 d7 bf c6 82 9c 3d b6 09 dc bf
       -0.37111416256372615 -0.43809276596770663
0005c0 1a 59 04 ba 89 59 83 3f 1d 41 35 32 ff 1b de 3f
       0.009448123921668872 0.4704587927162878
0005d0 8d 6b fd 7d d7 89 d8 3f 9b f9 7b 57 d8 2b ba bf
       0.3834131937380157 -0.10223152290197961
0005e0 7f 54 e4 d0 51 08 c7 bf b0 d0 c7 15 88 cd ad 3f
       -0.17994139385033134 0.05820870653033816
0005f0 9c 95 12 1c 11 df 6a bf 73 38 df 43 31 90 92 3f
       -0.0032801946805018477 0.018128175513816246
000600 1f 57 a0 e7 76 2a bf bf f4 22 97 3a e7 90 b6 bf
       -0.12174170641841585 -0.08814854793957833
000610 6c 6b 8a e1 5d f6 c6 3f 3a d1 24 f1 10 f1 bd 3f
       0.17939351570825168 0.11695962798404916
000620 68 e4 08 94 fb fe 7c bf 4b 55 80 e8 0b e2 a8 bf
       -0.007079107978421019 -0.0485995980563226
000630 b5 7c 1e 67 89 34 d8 bf 37 21 8e e8 dd fc d2 3f
       -0.37820658750747366 0.29668376646488376
000640 5e 58 4d df 3c f6 9d bf 52 a8 6e 01 ae d0 6c bf
       -0.029259635094910023 -0.003517474989583249
000650 b0 f2 b6 5e 47 1e ba bf bc d7 ab c1 53 15 c5 bf
       -0.10202451765412479 -0.16471335369686624
000660 72 d1 b0 5b c4 18 ac bf 07 d1 70 e2 67 42 ce bf
       -0.05487645739813986 -0.2364015441577367
000670 dc 46 28 11 59 98 c2 3f e3 c3 2f f0 fd 2f ac bf
       0.14527428949127497 -0.055053649491931166
000680 4b b9 6c 40 72 0a c1 3f 43 fb ed 1c 88 e6 95 3f
       0.13313129564034862 0.021387221112941345
000690 c9 f7 0c 37 96 bc ac 3f 4c 4e 2c 2b 8a 1a a4 3f
       0.05612630292897298 0.03926498200430881
0006a0 16 ff e5 78 bd 85 9a 3f 67 62 89 9d 55 0a 9f 3f
       0.025900803093008205 0.030312860241198083
0006b0 17 a2 be c3 ba 24 96 bf 42 ef 43 81 0f 23 c1 3f
       -0.021624487111383397 0.13388246356759664
0006c0 02 73 77 9f bc b2 af 3f e5 54 1e dd 99 a5 a2 3f
       0.06191052862752679 0.036419685594560915
0006d0 db 01 b9 ca 0f cd 9c bf e2 96 28 5b 0a 3c ad 3f
       -0.028125998256884315 0.05709869730735108
0006e0 6b 27 de 42 7e 0e 94 3f 97 4a b0 a4 ec 59 79 3f
       0.01958653720024676 0.006189274204205695
0006f0 0e 62 2b 7f 4a 71 a5 bf cc 42 1e 61 db de 63 bf
       -0.04187996675836213 -0.002425602412536731
000700 a1 e8 74 a3 f2 92 91 bf 6f df 44 48 88 13 df 3f
       -0.017162123896220852 0.4855671602012909
000710 10 19 0a b0 2d 87 cd 3f 15 23 1d 02 50 c3 d6 3f
       0.23068781943965933 0.3556709309237232
000720 ba 90 a7 52 39 06 d4 3f 5d 92 44 03 24 63 e0 3f
       0.31287987777455906 0.5121021331620558
000730 16 de 14 cb e4 19 d5 3f 13 6c fb 5e ba 80 dc 3f
       0.3297054274766834 0.4453569343147034
000740 4c 7e 6d ed a7 ac d7 3f 90 df f2 20 40 6c e0 3f
       0.3699130838994946 0.5132141726999055
000750 c6 fe 72 c4 72 ed ce bf 34 a7 ab f3 9b f8 c2 bf
       -0.24162134735342117 -0.14821195028280842
000760 8a 47 17 bc e0 18 d4 bf a0 b0 3e 93 52 fd bd bf
       -0.3140184246850529 -0.11714664549680487
000770 73 95 1e e3 ac af d2 bf d7 6f fb e4 a3 08 ce bf
       -0.29197237186084307 -0.2346386783673313
000780 1f dd 0a 80 a5 38 d0 bf 30 00 cb 10 7b 50 c4 bf
       -0.2534574270643634 -0.15870607681245152
000790 57 2b b4 07 bc 6c d6 bf b0 9b 3f 49 0e bb a2 bf
       -0.3503866267425812 -0.03658337253710131
0007a0 3c 9a d1 8a e5 cc b7 bf 65 33 b4 54 6b 54 c6 bf
       -0.09297022475366473 -0.17445127139981334
0007b0 91 3b 3a 3d 92 38 a5 bf 5b 8c 22 33 45 06 c5 bf
       -0.04144722936063439 -0.16425385472129758
0007c0 a9 66 73 af d1 a1 b9 bf 96 ea cf c0 0d 11 b2 bf
       -0.10012541326013981 -0.07057271916702698
0007d0 65 fc 55 8b a1 36 bc bf 76 8e 3b 4b 13 ec b3 bf
       -0.11020860339884704 -0.07782097422346532
0007e0 59 bf d0 9a 0f f4 c0 3f 94 00 fd 08 17 8f b6 bf
       0.1324481492933909 -0.0881208798355167
0007f0 71 de 13 89 98 93 c9 3f 99 3d 9a d6 6c 80 bb bf
       0.19981676762812442 -0.10742836226767451

conv1.bias f8 [16]
000000 78 06 89 8c 98 e6 ce bf c1 ba fa 9b 84 2a d6 bf
       -0.24141222822258945 -0.3463450930820891
000010 c1 28 2d 85 a5 55 ba 3f 30 c4 fa 78 c6 ce d1 3f
       0.1028693628442481 0.27824556173715376
000020 5e bb dd cd f7 7c d1 bf 1f d6 f8 00 6d 23 97 bf
       -0.27325244049182185 -0.022596076187445854
000030 f3 cc cc 79 c4 9a c9 bf 3a 89 6e 56 85 26 90 bf
       -0.2000356287695478 -0.015771945381524356
000040 ca a0 17 de 95 29 cd bf c6 78 99 ba 49 6e da bf
       -0.22783158630705308 -0.41298144552810034
000050 5b 44 ec c2 6a 67 d8 bf c6 36 e8 54 aa 5f c1 bf
       -0.38131207499924863 -0.1357319750390415
000060 85 19 61 90 cc 75 be 3f cd e0 73 61 ad 56 d2 3f
       0.11898497128377102 0.2865403606115365
000070 39 c1 ca 0e 94 01 ac bf 31 93 88 18 e9 55 cb bf
       -0.05469954186026133 -0.21355928132938964

conv2.weight f8 [16, 16, 3, 3]
000000 36 75 46 77 11 96 c6 bf 0e f5 87 ad 71 ea c6 bf
       -0.17645471881852764 -0.17902966473767673
000010 85 72 c8 1a 2a b7 a7 3f 06 1a 0e d8 59 4b cb 3f
       0.0463193090147103 0.21323702859463384
000020 ce 86 af 65 40 af b2 3f ee ea 39 67 20 a1 a6 3f
       0.07298662645873863 0.04419804821096372
000030 25 72 35 d2 de a3 d0 bf a6 f6 a5 95 88 19 68 bf
       -0.2600018551654862 -0.0029418628375300236
000040 3e db 13 b0 3d bc d5 bf f7 bd 99 7b 49 96 b9 3f
       -0.33961431689333554 0.09994944827644035
000050 91 af 76 06 98 e3 c0 bf 2a b8 8f 11 f2 2f d4 bf
       -0.13194561305624267 -0.31542636599522444
000060 5d 32 f2 08 5b 53 b6 bf be 91 0c c6 57 2b d0 3f
       -0.08720940559778385 0.2526454385827285
000070 85 58 fa 0a 28 8c cb bf 93 83 dc a7 d5 09 cf bf
       -0.21521473442107122 -0.24248762794834686
000080 92 de fe 73 df af c6 bf 36 0a c1 d9 6c 1f b6 3f
       -0.17724221385809763 0.08641701046239167
000090 c6 61 4c 28 a2 31 ae 3f d8 8c 5c 1a 28 76 bf 3f
       0.05897242299960541 0.12289667743293664
0000a0 83 ca 2b 5b d8 0b c1 3f 37 f5 43 3e c3 b2 c4 3f
       0.1331739850207506 0.16170540371232686
0000b0 60 08 b8 a8 62 14 b0 3f e0 62 dd 86 19 e6 a8 3f
       0.0628110563193629 0.04863052150057512
0000c0 a4 d3 ed c8 ec 06 b0 bf 31 2c 06 25 58 2c d5 3f
       -0.06260566621297287 0.33083156219135207
0000d0 aa 00 83 af 18 80 c9 bf 11 8f 83 fd 09 85 bc 3f
       -0.19922169275196683 0.1114050144129204
0000e0 75 2e d5 c0 93 44 c5 bf 32 68 2f 2e c8 99 bd bf
       -0.16615530887280597 -0.11562777640884361
0000f0 67 bf 8a a1 11 26 a2 3f f6 93 3d ed 53 72 b0 3f
       0.03544669243763004 0.06424450437550874
000100 23 c0 2d d7 ad ca cf 3f dc 41 dd f8 10 ed d2 bf
       0.2483727741887388 -0.29571937850144336
000110 bf c3 57 22 db 8f cc 3f 5a 11 67 52 97 85 b5 3f
       0.22314013649841333 0.08406968843252596
000120 d8 8e b7 7c 33 87 c0 bf 54 83 36 77 84 b3 ad bf
       -0.12912601079653174 -0.058010234405861866
000130 a0 4f d1 04 55 b9 c4 bf 55 af e3 5b 5d c1 94 bf
       -0.16190588698611652 -0.020268877728923346
000140 55 f0 d0 74 51 52 a2 bf d7 c6 da a2 7d ca b8 3f
       -0.0357842879388676 0.09683976388876246
000150 e4 ff 26 ae 52 56 b0 3f 1e 7f ea 60 8d 68 b9 bf
       0.06381718398824848 -0.09925159088242849
000160 77 25 cd f4 34 c1 c3 3f 17 86 22 c2 35 fc c0 bf
       0.15433370545569478 -0.13269683818093433
000170 33 e1 d1 fc 69 48 c0 bf 67 83 bf c7 5f 2c de 3f
       -0.12720990032881616 0.4714583826699283
000180 fd ee 61 15 27 19 d1 bf 8f 29 a7 4b f9 da a1 bf
       -0.2671601971448892 -0.034873762593252804
000190 c1 2d d2 96 80 0c 9c 3f e8 3f f3 49 f8 50 cd bf
       0.02739144249475856 -0.22903350458955107
0001a0 38 7e 81 47 6b 75 d0 bf 93 9e 73 4d e0 6c b7 3f
       -0.2571666906642096 0.09150506869229451
0001b0 65 89 31 43 7a 6b a0 bf 5d 49 98 ce 33 e8 c3 bf
       -0.03206998892052829 -0.15552375400199994
0001c0 5a c2 1e 95 62 8e ce bf 50 18 64 1b f3 5a b4 bf
       -0.23872024804360842 -0.07951278132176864
0001d0 92 f9 60 e2 e2 7a c1 3f c4 bd 4c 0a eb fc d4 bf
       0.1365626912465357 -0.32793689733349773
0001e0 f7 50 1e 9a 8d dd 89 bf 6f 28 80 b9 a3 79 cb 3f
       -0.01262961031515218 0.21464964444777787
0001f0 0e ba e9 a5 05 50 c4 bf 1c f7 68 07 7d 78 78 bf
       -0.1586920795557067 -0.005974281687086049
000200 ef 11 a7 cb 30 f8 8d 3f be ce 6c 9e 2c fa 9f bf
       0.014633542265877401 -0.031227776689049185
000210 9b 7f 78 e9 5e d8 af 3f 6f c1 68 10 e8 9b b6 3f
       0.062197652816620784 0.08831644440284035
000220 af 1a 6d cf c7 76 bb bf d0 03 58 a0 66 ff c6 3f
       -0.10728119672885826 0.1796692164353133
000230 31 bf 8a 0b 13 6a ab bf c1 e0 14 db 9a 04 d2 3f
       -0.053543658408101165 0.281531061121779
000240 10 35 83 02 27 6c b3 bf a1 d1 9e 25 0b 8e ac bf
       -0.07586902438488985 -0.05577120622857313
000250 eb a8 e0 d6 52 92 9e bf 5d ce 9a 2c c5 6c b7 3f
       -0.029855055203520314 0.0915034517191144
000260 a6 57 47 46 7a 60 94 bf dc f2 9d 6f a5 76 c6 bf
       -0.019899282969923292 -0.17549579572723573
000270 76 00 06 1e 44 1a ad 3f f5 d8 96 cb d6 79 c1 3f
       0.05684101931092382 0.13653073254472017
000280 bc e1 48 34 8c b6 bd bf 1d 58 8a 24 e0 e2 c6 3f
       -0.11606670643312261 0.17879869255256234
000290 b7 72 f8 9e 52 af cb bf 12 25 77 cd 2e c0 ae 3f
       -0.21628792536002603 0.06005998857615159
0002a0 7b 59 08 ab c7 c6 be bf 28 f6 d0 64 1f da 93 3f
       -0.12022064138031922 0.019386759308181706
0002b0 24 f0 6d 53 28 6e 98 bf a9 54 46 bf 0f 91 64 bf
       -0.023857717601899378 -0.0025105769693235147
0002c0 4a 8f 77 47 91 fc c2 bf bd e6 3b 46 e1 4d 50 bf
       -0.14833274831391413 -0.0009951305336798743
0002d0 1c b3 56 57 4e 70 b3 bf fa 3a a8 8a 4d e7 b2 bf
       -0.07593240387241135 -0.07384190211471867
0002e0 20 3b fa cd 02 77 bc 3f 20 94 79 52 5d 50 ba 3f
       0.11119096306559273 0.102788765559652
0002f0 95 dd af e0 b7 cf b9 3f fb 9b 67 15 41 e6 a1 3f
       0.10082577929994437 0.03495982538498051
000300 41 0c 10 45 69 fd bc bf 46 d3 8d 3f b7 50 b5 bf
       -0.11324174820042378 -0.0832628755723138
000310 d4 fd f6 4a d1 11 cf bf 96 5d bf 91 f2 8c cb bf
       -0.24273124847785132 -0.2152388774545499
000320 fb 72 28 16 55 3f 74 bf 77 76 36 a3 31 7a b4 3f
       -0.004943210954050366 0.0799895308941475
000330 99 36 86 bd fe 37 96 3f 2f 84 14 f5 13 6a c4 3f
       0.02169797927631709 0.15948724238208586
000340 32 9c 38 69 c0 a9 9d bf 3e 99 43 33 40 8b b8 3f
       -0.028967863485515895 0.09587479831279652
000350 2c af 4d 0f b3 ad b5 3f fb 96 09 85 9d 3d d5 bf
       0.08468169330234038 -0.33188570014895874
000360 2a bc af c1 40 95 cb 3f 94 2e aa 86 9f 35 b0 3f
       0.21549233872744483 0.06331822431291761
000370 95 12 08 2c 09 76 95 bf b2 26 c7 33 c4 c4 92 3f
       -0.02095808345076707 0.01832872930552893
000380 8e 73 de 19 3a d5 a3 bf 00 a9 43 fd 45 c9 7b 3f
       -0.03873616758139696 0.0067837461431088375
000390 2a 1e 4f bf 73 05 bf 3f e4 73 75 ff 5d 0a a6 3f
       0.12117694302207185 0.043047845300612925
0003a0 e0 bc fc a3 d1 35 c7 3f ee 49 6c 24 9a 67 b5 3f
       0.1813299227446583 0.08361209286912416
0003b0 9b d6 60 6e 6f 2c a9 3f 9d 8b 0d 29 a5 f5 83 3f
       0.0491671392668824 0.009745874705634533
0003c0 a9 b1 d7 6c c0 b3 b0 3f 97 68 0c 40 83 c8 bc bf
       0.06524279267586643 -0.11243458093341228
0003d0 d7 35 a2 24 77 0a c7 bf 18 8b 4a 23 98 8c df 3f
       -0.18000687874557172 0.4929561943665006
0003e0 b3 c0 72 c8 19 51 cc 3f b2 80 9f 2b db a8 95 3f
       0.22122499740135523 0.02115194753412259
0003f0 3d 21 b3 69 90 d4 c6 3f d4 b9 79 95 04 36 62 bf
       0.17836194192046576 -0.002223023369700908
000400 84 5e 6c e2 28 61 c6 3f 6d 11 64 3b 83 17 77 3f
       0.1748400788862804 0.005637657761557652
000410 ba 34 0b 10 c6 17 95 bf 31 27 e9 46 2f f9 c1 bf
       -0.020598501900896272 -0.140417012810127
000420 0d 5b 25 a6 9d 10 c0 bf 1f c9 63 69 ad 0a b5 3f
       -0.12550707447618273 0.08219417403214323
000430 1b c6 24 50 c2 92 b5 bf 1b a3 0a 96 d0 e9 9a 3f
       -0.08427061516410854 0.026282557637986686
000440 4d 5a 63 0c 1c f0 af 3f ba 90 e7 72 fc cb b4 bf
       0.06237876559469111 -0.08123758130347172
000450 6a dd 35 0f e0 5c aa bf 75 08 df af 82 3f ab bf
       -0.05148983178781459 -0.05321892163148415
000460 a4 1e 6c 2a 54 82 c1 bf c3 51 97 b9 b9 ef d4 bf
       -0.1367898184910149 -0.3271316826260568
000470 93 a3 27 e2 48 66 cd bf 8a d3 e2 d1 64 c4 ba bf
       -0.22968398134915144 -0.1045592319886294
000480 0c c5 91 97 e6 94 d8 3f 13 dd 75 52 46 71 ca 3f
       0.38408818055820926 0.2065818693770117
000490 d8 88 c1 3b b9 a5 c3 bf 1f 23 a3 4d ec 90 cb 3f
       -0.15349498193524513 0.21536020079499793
0004a0 37 0c 1b 2e 57 1b c7 3f e8 06 57 ba eb df a7 3f
       0.18052186728718464 0.046630255219055006
0004b0 9f cc 52 d9 63 5a b2 3f 47 92 5a 37 91 08 c5 bf
       0.07169174247501296 -0.16432395174810407
0004c0 ff 9e 98 93 63 bd c3 3f 42 6a 8f de 0c ac d5 bf
       0.15421719271511589 -0.33862611517330177
0004d0 2f ac e2 bd ea ac be 3f 24 48 dc c0 96 ef 88 3f
       0.11982600341677661 0.012175729523310315
0004e0 2a 17 30 bc 22 15 ab bf 27 be f3 b5 89 6b ad 3f
       -0.052895627472066956 0.0574610743150255
0004f0 2b 72 10 9f 36 ff cc bf 7a 7e 4e 51 be 0a 8c 3f
       -0.22653849379357047 0.013692366462975548
000500 cd 45 75 aa 3f 73 a3 3f 5b dd a0 59 cc 99 8b 3f
       0.03798865276133832 0.013476940617791191
000510 ad 7e b9 88 60 15 c8 bf 7a 4a 65 b0 f4 99 a2 bf
       -0.18815237689977007 -0.03633083966510227
000520 62 7c d2 53 83 80 d9 bf 59 ec 5f f0 98 16 b4 bf
       -0.39846881089937913 -0.07846980923197701
000530 2a 89 f5 53 c0 9f a1 bf 41 e3 34 d9 12 79 b8 bf
       -0.03442193055049565 -0.09559743693251922
000540 a8 22 46 bd 6e 1e cc bf f0 4b a4 45 07 5a c1 bf
       -0.2196787285031594 -0.1355599489257595
000550 b6 db a7 22 55 15 d5 bf 58 5e f3 d3 ff 25 ca bf
       -0.3294270361361059 -0.20428464745667685
000560 32 4a 35 3e 41 21 cb 3f b9 af e4 87 d1 56 8d 3f
       0.21195235764987924 0.01432574935878238
000570 a0 06 43 67 dc dd c0 3f e1 63 78 05 85 1f a1 bf
       0.13177065889435813 -0.033443600576170025
000580 7f e8 29 e6 87 a0 b8 bf f0 e0 57 cc 23 31 a7 bf
       -0.09619950646620799 -0.04529678220200306
000590 9d 64 ec 79 dc 8d aa bf 2c a2 72 52 8d 44 bf 3f
       -0.051863565333584584 0.12213977110753466
0005a0 12 87 51 6c 56 84 93 bf 17 39 d6 fe 34 eb a2 3f
       -0.019059515343889784 0.036950737102517
0005b0 e5 bd 2c 11 dd 37 b1 3f 4f 60 9c 8f 11 e3 c4 3f
       0.06725866002374621 0.1631795836663081
0005c0 e0 f1 93 b6 2a fe 94 3f 95 e3 73 6b d4 da d4 3f
       0.020500819581671936 0.3258563088743867
0005d0 b8 f7 b0 9b 40 0d d0 3f 1a a9 48 62 bf f5 b0 bf
       0.25080886081911613 -0.06624981069095207
0005e0 8e c7 59 5e dd 4c 9c 3f 7b b2 85 b4 4b 3c 9e bf
       0.027636965640744963 -0.029526884930805224
0005f0 f0 99 ba 91 52 75 a8 3f 81 76 5a cf 40 6c a2 3f
       0.04777009991567016 0.0359821560971172
000600 02 63 3a 8f 9e 5f cc 3f 85 3d 22 23 07 0c b6 3f
       0.221668071685393 0.08612103088147734
000610 33 ec 74 8b 35 56 aa 3f 97 0e 4b 44 88 a8 c0 3f
       0.05143897368767405 0.13014319738987432
000620 6b b4 cb 17 15 5e c0 3f d5 49 e2 56 2c 94 bb 3f
       0.12787116681957697 0.10772969361486358
000630 ff 03 66 87 3f 5c c8 3f 54 19 c5 52 d0 8f b4 bf
       0.1903151904225808 -0.080319423873424
000640 dc e8 00 f2 a7 1f 85 3f 2d 5c c2 13 55 c2 a0 bf
       0.010314285347807255 -0.03273263803674129
000650 71 8a 4b ec 8f 98 b4 bf aa 31 b5 97 21 c2 c7 3f
       -0.08045291441843873 0.18561191470724953
000660 be 30 48 42 92 10 c0 3f da 76 86 b2 44 d8 d1 3f
       0.12550571667123295 0.27882497247797533
000670 1c 17 91 88 93 b5 a3 bf 43 77 71 b2 0b 65 c7 3f
       -0.038494692250010426 0.1827711697869124
000680 fb 43 6d 11 32 13 9b 3f 21 7f b6 3e f7 67 d0 3f
       0.026440412820480912 0.25634556888870647
000690 54 c7 59 f6 30 5d bd 3f 80 7d 01 ab ae 1b cc 3f
       0.11470323576375324 0.21959479665654769
0006a0 7b 82 06 d8 5c 08 a3 bf 9e ad 6e 62 ea 70 c8 3f
       -0.03717317711857945 0.1909459095598835
0006b0 12 39 d7 c1 fa 12 b6 3f f1 80 bf 69 61 14 d0 3f
       0.08622710449637719 0.2512439282127295
0006c0 32 a8 dc 64 c3 2b b1 3f 94 0d 81 d3 ab de cd 3f
       0.06707402431916945 0.23335788562154092
0006d0 4c 5f 40 9d db c8 af bf 33 46 34 c1 7c 8a b2 3f
       -0.062079298921331544 0.0724256488504345
0006e0 15 b4 92 d8 53 bf c1 3f f4 35 88 29 c4 4d d9 bf
       0.13865135264259779 -0.3953714757525113
0006f0 f5 96 e8 88 af d5 bd bf 23 1c 7c 6b a8 07 96 3f
       -0.11654183475965481 0.021513587532378985
000700 11 1a a2 e5 04 18 c0 3f 11 b1 e0 57 c1 49 b1 3f
       0.1257330056434545 0.06753166575862603
000710 51 dc 2a 1a 7c 16 c5 bf 87 35 cb cc d6 01 c6 3f
       -0.16474868085581076 0.17193112373062666
000720 38 23 e0 20 d1 e2 c6 3f 13 2e 6a 50 95 cf b5 3f
       0.17879690270663118 0.08519871915103065
000730 f7 98 1c 66 9b d8 d0 3f 09 a4 ec e5 59 3a 64 3f
       0.2632206437287005 0.0024692302535140914
000740 ac ba 69 bb 41 ce c1 bf 0c 72 cd 2b ce 8f da 3f
       -0.1391069569685518 0.415027182365322
000750 8e 2f 1b 81 6d dc b6 3f 30 84 34 56 22 1f a5 bf
       0.08930096055990885 -0.04125315954502928
000760 e0 28 d5 ef 7c ef c2 bf 17 43 02 c8 23 20 b3 3f
       -0.14793359480456214 0.07470916398075321
000770 e1 d9 18 1a 27 52 bd 3f 85 17 d3 ec d1 ce a1 bf
       0.11453480136046991 -0.03478103652882595
000780 6a 49 f8 5c 2b db 8b 3f 5a 34 7d 3f b2 6c a1 3f
       0.013601626181330945 0.0340324118138617
000790 a9 27 c6 ba 28 05 a2 3f b6 5e d3 5a af 6b 96 bf
       0.035195610808912044 -0.021895160597380246
0007a0 49 78 97 a5 6a 43 af bf 41 51 8f e4 95 52 ce bf
       -0.061061222757175466 -0.2368953100218594
0007b0 d3 0e 7d f4 5f 55 d0 3f 74 19 97 10 cd 56 ae bf
       0.25521086574393087 -0.05925598933713419
0007c0 70 c1 54 65 17 cc c1 3f aa ac 37 ae 6e 87 ba bf
       0.13904087493711925 -0.10362903359753042
0007d0 a7 36 3f 60 99 f0 bb 3f 1a eb a5 af 82 e3 af 3f
       0.10914000129488476 0.06228264230863641
0007e0 9d 0e 68 2d 76 46 cc bf 42 b0 e5 dd eb a0 be bf
       -0.22090031830895365 -0.11964296500599494
0007f0 37 89 35 e8 6b 05 a6 3f 3c 27 35 ba 84 26 bd bf
       0.04301011285385175 -0.11386899515232768

conv2.bias f8 [16]
000000 1d 2b 78 14 48 f6 cc 3f 08 0d 40 3e bf f1 dd bf
       0.22626591681940847 -0.46788006857987385
000010 30 8e b5 0c 21 45 c7 bf 05 c5 ff e6 51 d1 dd 3f
       -0.181797152715363 0.4659008746958338
000020 7d 4c c0 ee e6 59 ce bf 20 94 05 28 c9 8e b4 bf
       -0.2371185937668975 -0.08030373789877432
000030 df 89 c5 54 88 35 db bf c0 ab 2c 15 bb 47 dd 3f
       -0.42514236715774517 0.45750310008832784
000040 f1 93 b5 02 55 b1 b4 bf d6 00 87 c7 88 c9 d7 3f
       -0.08083087268967383 0.3716756771573392
000050 46 5b 75 c7 12 d5 a7 bf 9f 4c e3 1e e6 55 d1 bf
       -0.046547495696975846 -0.27086785332103064
000060 53 06 f1 85 cf b0 de bf a5 3c 4c c6 94 73 d6 3f
       -0.4795416648886192 0.350804513597675
000070 54 4c db 04 77 4f b2 3f 3b b8 af 43 28 95 db 3f
       0.07152503841943886 0.4309788380622909

fc_1.weight f8 [128, 400]
000000 57 cc 3a 40 39 f3 d0 3f 87 6b 57 05 0c 24 b3 3f
       0.2648451926463102 0.07476878290564858
000010 82 c0 dd 5e 83 20 c5 3f 1e b4 95 3e 79 0e b4 3f
       0.16505472309245667 0.07834584978054734
000020 b6 4f 34 36 b2 d7 c6 3f a7 7c 6a 92 f0 3e ce 3f
       0.17845752379127838 0.23629576825348872
000030 fb 41 aa 10 6b 20 b2 3f 7f 30 43 a3 a6 8c cb 3f
       0.07080716282712977 0.21522982570457214
000040 5d a9 2a 1f de 6d c6 3f ce 12 19 5a a0 ce c4 bf
       0.17522789499100613 -0.16255573653520233
000050 9c 3f 8f 26 8b 17 97 bf dc 8f 96 03 a8 11 ae bf
       -0.022550749042977367 -0.058728456914905997
000060 6f aa 7b b5 ac 20 93 bf 31 40 0c f5 b6 ef be bf
       -0.018679331375930305 -0.1208452556859363
000070 bb a3 a7 b9 1a 9b d2 3f 67 8f 44 84 52 fc bb bf
       0.29071682100635216 -0.10931888322062165
000080 8e 3c e3 54 11 b5 a3 bf eb 94 4c ce 84 ad c1 3f
       -0.03849081193185909 0.1381078727073722
000090 b2 27 f7 5b 6e f1 b7 3f a5 c9 05 76 4f 45 86 bf
       0.09352769608736258 -0.010874386586441196
0000a0 64 14 79 02 8a e9 9c 3f f0 35 ba 09 ee 81 d7 bf
       0.028234630967081023 -0.3673052878374099
0000b0 4f 3e e1 1d 49 68 ce bf f5 d4 0e 2b 03 bf 99 bf
       -0.23755754431702988 -0.02514271688751975
0000c0 84 9b 85 7f 1f 23 b3 3f 7b 9a 11 21 f0 2f b0 bf
       0.07475468505218258 -0.06323147590010507
0000d0 3b 5f 52 53 0c aa ad 3f 9e e2 c4 7a c1 01 bf bf
       0.05793798939811131 -0.12112054106990874
0000e0 f7 8f 47 eb 76 46 bc 3f d1 75 71 c2 29 24 d8 3f
       0.11045020336274534 0.3772072218760885
0000f0 5b 1f 38 16 bc 8f a1 bf a3 69 ce 63 81 4f d3 bf
       -0.03429973384123627 -0.3017276262923138
000100 8f 73 a5 15 20 fd c2 3f 74 cb 47 8b 01 2a b8 3f
       0.148349772042732 0.09439096117402618
000110 97 02 5b f3 69 e8 ac bf de ce 12 d3 4f 89 86 3f
       -0.05646067710541052 0.011004089001608926
000120 b8 5a 56 93 0b 95 b0 3f 28 0c d7 58 ff de b5 3f
       0.06477424952604849 0.08543392104097391
000130 94 f9 ff 80 8e cc c3 bf d9 f9 aa 00 41 52 9f 3f
       -0.15468007372687664 0.030587211290134284
000140 f6 74 49 6e a7 3a b4 3f 8c 38 0e d1 d0 5f ba bf
       0.07901998941948193 -0.10302453140158913
000150 03 18 f5 d8 38 5f c6 3f 41 ca 20 f0 51 e4 b1 3f
       0.17478094667075092 0.06989013779165366
000160 b5 5a ae 17 b5 bc bd 3f c9 42 3d 04 db eb b4 bf
       0.11616069629813348 -0.08172386983393233
000170 35 cd 6c 8e fb a5 b0 bf 8c fd de 96 a5 bc b8 bf
       -0.06503269412205699 -0.09662852223754309
000180 62 a6 0b f0 5f cb 9d 3f 60 84 ef 57 70 c7 c4 3f
       0.029096125627722798 0.16233639043551573
000190 60 de d7 fe f4 69 a2 3f 05 72 e7 f6 ce 18 5d bf
       0.03596463786010129 -0.0017759343278306316
0001a0 0e d6 62 8a c0 54 ab 3f 38 d1 2b 73 df dc c1 bf
       0.05338098229678333 -0.139553004489821
0001b0 cb 03 b9 f3 d8 89 c1 3f ab 79 27 98 2b 78 b1 3f
       0.13701927090190077 0.06823990311338572
0001c0 c7 6a 50 c9 df 30 d1 bf 92 0d 4d 97 68 03 c5 bf
       -0.26860804233153285 -0.16416652095550127
0001d0 d3 c9 22 33 eb a4 c5 bf e7 af b6 25 1f 9a d0 bf
       -0.16909542080754977 -0.2594068401619993
0001e0 2b 49 d2 ea ac 1e ac bf e8 3e e7 8f c1 44 9e 3f
       -0.05492153517220041 0.029559158714447614
0001f0 2b e9 03 8e ef 7c c3 3f da 76 24 4f b5 0f b9 3f
       0.15225023683871916 0.09789593870342675
000200 38 a0 8f f6 11 c1 bb 3f 57 ec 1b 9b ca 15 ab 3f
       0.10841476697498897 0.05290063041135145
000210 ce 7e 3f b4 1b 9b c1 bf fa 93 62 c8 fd 24 b5 bf
       -0.13754602719472192 -0.0825956930371631
000220 01 1c 00 df 8d 74 b0 3f 94 60 45 08 7f cc d0 3f
       0.06427847570749635 0.2624814587375195
000230 99 49 7f c9 4c fc d7 bf 54 be 8e f4 2a c7 c4 bf
       -0.3747741668459184 -0.1623281187180391
000240 12 3e 5d e0 18 b6 b1 3f 58 93 f0 0a 5d f8 d0 3f
       0.06918483235971731 0.265158901866291
000250 1b 3a 58 a2 9b 93 bc bf 2a b8 38 11 97 6e b7 bf
       -0.11162731851093392 -0.09153122110794301
000260 68 ab 2a ff 7f c8 9f bf 71 a1 03 a4 27 11 d4 bf
       -0.031038284253252085 -0.31354704873094535
000270 ef 70 db 92 cb d6 c0 3f c3 ba 59 db e0 87 a7 3f
       0.13155502959023788 0.045958544517693344
000280 eb 2c 78 d7 1c 9d d5 3f ba e4 51 8b 4b 17 c9 3f
       0.33771439592301417 0.19602340986947359
000290 2c 48 32 5e 53 e3 93 bf f5 70 3f 04 4b 7d b0 bf
       -0.019421866058628875 -0.0644118199701927
0002a0 f8 f5 f2 cc b9 eb a8 3f e8 f7 85 82 be 73 b3 bf
       0.048673445003696914 -0.07598486601452203
0002b0 d5 94 4a ac 48 8e ba 3f 84 89 24 99 3d df 61 3f
       0.1037335796960009 0.0021816447343933638
0002c0 bb 29 87 f5 e3 2c c2 3f 32 43 d0 06 29 af 4e 3f
       0.1419949482791035 0.0009364080739278967
0002d0 dc dc a0 3f 8f ac b3 bf 0f 95 ab 1f 4d 69 b8 bf
       -0.07685179999758723 -0.09535676978301331
0002e0 0c 8b 42 2f 69 8e c4 bf 9c 79 7b 8b ce 93 b4 bf
       -0.16059603507627462 -0.08038035302477059
0002f0 f3 1a d9 92 36 f5 d7 bf b3 4f af db 08 ad bc bf
       -0.37434162464744175 -0.11201529849432638
000300 b6 97 50 6a 9b 2b b8 3f ac 8d 9b 8b cf b0 b0 bf
       0.09441539140297447 -0.06519791754140297
000310 73 19 a5 88 1a e5 cd 3f 9f 67 7c 00 d9 a1 c1 3f
       0.23355418846240247 0.13775169872024848
000320 a2 67 49 be 26 7b b4 3f ca 32 33 63 b9 0e be 3f
       0.08000414033577255 0.11741217300295684
000330 c4 65 98 15 58 3b bb bf 51 29 69 92 fd 78 be 3f
       -0.10637426879147599 0.11903366875154588
000340 f6 f7 c0 44 70 70 ab 3f 5a be eb 8a 7b 02 c5 bf
       0.053592213051601265 -0.16413826258893743
000350 75 09 52 1a e8 37 c6 3f c9 90 2f d0 51 01 d2 3f
       0.17358113560846858 0.28133054094929527
000360 3c 4b e3 b0 34 e6 59 3f 47 44 18 97 6c f2 aa 3f
       0.0015807642517315498 0.05263079971712919
000370 58 05 f2 4a f4 5b aa 3f 3d aa 87 8a 9e c0 a0 bf
       0.051482805393798514 -0.032719568643944964
000380 96 51 2d 04 90 7d ba 3f 28 2e a5 0d d7 1f a9 3f
       0.10347843267419984 0.04907104531829659
000390 d9 9c 06 c6 e8 90 d1 bf c9 bf 59 13 d0 b8 b3 3f
       -0.27446956003627815 0.0770387694590219
0003a0 c0 e4 38 fd b8 c4 c2 3f b4 ae 99 9a 07 0e a0 bf
       0.1466284977375718 -0.031357038137540455
0003b0 68 5a a4 c0 92 c3 a0 3f 37 de a8 f9 1e ab bf 3f
       0.032742105499143304 0.12370484919744561
0003c0 d4 28 ef 98 37 04 a2 3f 41 4d ca 98 52 5c ba bf
       0.03518842450974238 -0.10297123174887181
0003d0 c0 28 64 36 de be c1 bf 2d 6c d2 fe 3c 8e c6 3f
       -0.13863732963392827 0.17621576731184643
0003e0 7b 63 76 fb b7 9c d5 bf c7 6f 9c a1 2f 95 b0 3f
       -0.337690349167637 0.06477639861662886
0003f0 3e 1d f9 f7 e4 88 ac 3f 4d bf 49 f5 9f 71 94 3f
       0.05573192145362292 0.019964694353290558
000400 0f 24 69 38 52 08 c8 bf fd 9e be 26 29 f8 c2 bf
       -0.18775394205502535 -0.14819826499773817
000410 1a ec 8f de 74 ef a9 bf 7b e7 ac d3 63 51 b8 3f
       -0.05065503327201544 0.09499191205841655
000420 be fa 81 0f 1f 9c 7e bf 77 c9 e4 59 c1 d9 bf bf
       -0.007473107653025833 -0.12441643185301197
000430 5e be 65 ab 49 b1 e5 3e 0d d1 55 70 56 1c b7 3f
       1.0343804529993464e-05 0.09027614824828252
000440 fa 92 12 19 b2 47 b3 bf e0 2d f3 d1 06 3a b2 3f
       -0.07531273948786668 0.07119791627626837
000450 64 5e ab 24 8d 3b b7 3f db 8d 4e ec 8a 20 c6 3f
       0.09075243134736294 0.17286812342091093
000460 3b 5a 07 c3 7d c0 a2 bf 53 50 2a 08 db d5 99 3f
       -0.03662484174462973 0.0252298568471619
000470 a1 ca 47 db a6 e7 c6 3f ed 39 bc 39 75 5d 96 bf
       0.17894445139935036 -0.021840888642197177
000480 0d de 89 ae 9d e6 a6 bf ca a8 b3 92 be 65 af 3f
       -0.044728210025763195 0.061323123367246504
000490 98 5f f5 54 2c 9b c5 3f 15 41 b8 a8 89 7c 85 3f
       0.168798009379995 0.010491443120401326
0004a0 ad ba e9 65 35 7b b9 bf d2 38 ba c9 69 75 c0 bf
       -0.09953626382933108 -0.12858316755268234
0004b0 13 77 54 68 8f 89 99 bf f8 ba 84 8e 5d 66 95 bf
       -0.024938812964243228 -0.020898305724752014
0004c0 3f bf 20 06 b7 55 b6 bf 45 bf e2 57 61 be d1 bf
       -0.08724540614707353 -0.27724488813963816
0004d0 ac e4 d9 aa 9f 1e 9b bf 1a 88 4b 14 f5 32 c9 bf
       -0.026484007647444116 -0.19686759463280695
0004e0 6a 83 92 db f9 00 a4 bf 80 d2 7b b1 22 2b af bf
       -0.03906994633985657 -0.06087597290562474
0004f0 77 cd 1c da 05 5c d1 bf ca 0c 80 3a f6 62 c6 3f
       -0.271241629601 0.17489507538275567
000500 e9 23 1d d4 3a 0a c0 3f 41 f4 91 6c cb 9e 9c 3f
       0.1253121886932427 0.027949503423304604
000510 88 f8 fa d4 15 2a ba bf a7 8c ef 94 47 af d0 3f
       -0.10220467042651837 0.260698218770083
000520 77 0b 8d aa 6c 9c c7 bf b8 72 67 e7 8e 93 c3 3f
       -0.1844611962097493 0.1529406194594196
000530 83 fc 51 e9 33 cf 97 bf e6 41 e3 80 b3 8d c0 3f
       -0.023251353374231797 0.1293243769964782
000540 3d 67 49 fd be b2 cf bf 1c 27 c9 ad 38 78 c2 3f
       -0.24764239661709012 0.1442938660205123
000550 dc 80 7e 0e 87 06 ab 3f f9 f7 4b 69 0b c4 b9 bf
       0.05278417636805141 -0.10064765282365319
000560 3e 16 57 ae ee d4 6e bf 8a 73 6a c2 50 e0 c0 3f
       -0.0037636434305763624 0.13184556477508763
000570 36 ef 37 71 ca 90 7e bf cf 9d 4c 2e ae 1c b1 bf
       -0.007462302007748714 -0.06684387808183277
000580 3f 1c 9d 0d b5 31 c7 bf 5f aa 48 73 4f ef 9b bf
       -0.18120444454891246 -0.02728008404862192
000590 30 88 a8 12 ca 10 8b bf cd 2b 4d 54 ca 70 bb 3f
       -0.013215616888434395 0.1071897941412054
0005a0 be 54 c0 2b 2b 5e a7 3f bd 8d 66 1f 6c 35 ab bf
       0.04564032467912103 -0.053141955216485105
0005b0 e0 7e 89 f9 43 f8 d0 3f 11 af a8 b4 f0 09 b6 bf
       0.265152925194327 -0.08608917627924152
0005c0 d9 9f 8f c4 e7 c3 a3 3f 11 66 97 23 63 8d c9 bf
       0.0386040141527812 -0.1996272968088282
0005d0 78 1c 85 c8 f8 eb ad 3f cc e7 48 bb 9a 3b cf 3f
       0.05844094703439223 0.2440064825512408
0005e0 91 c2 11 55 21 37 d1 bf 6b 67 86 5a 91 03 9b bf
       -0.2689898806338898 -0.02638079752941939
0005f0 df 87 db 1c a9 e2 bb bf f0 31 c0 96 3e f1 a2 bf
       -0.10892731623201211 -0.03699679937571776
000600 f7 77 d3 ce ba 24 d5 bf a2 77 f6 a9 a1 49 b3 bf
       -0.3303668041024816 -0.07534227752191083
000610 52 48 ae d5 25 f7 ab 3f 4c f5 f1 7e cd dc b5 bf
       0.05461996301086515 -0.08540043210264975
000620 fd 1f 5c 64 89 06 c3 3f 5b 36 c3 cb bc df c3 bf
       0.1486369838751215 -0.15526542615264102
000630 41 5f 96 ed 36 b9 c8 3f 95 97 7b cb ed f2 b4 3f
       0.19315229989001106 0.0818318006309638
000640 83 23 6b 82 7a cb cc 3f 18 6d 13 3d 61 16 ca 3f
       0.22495967262355174 0.2038079784605109
000650 09 8d d0 f5 0a 84 79 3f 4d f5 18 83 f9 57 b1 bf
       0.006229441464742588 -0.06774863672850025
000660 87 72 24 85 60 03 ad bf 6e 75 cf 6e 9f 9a b9 bf
       -0.05666638970635512 -0.10001560645419769
000670 44 dd 68 f7 ac fe c9 bf be 69 09 4b ca d2 b1 3f
       -0.20308458405063778 0.06962265331222903
000680 da d6 9e bc 93 82 c9 bf d1 f5 e0 0b 3b 3a 62 bf
       -0.19929739675506292 -0.0022250321626688736
000690 5b 4c 60 66 d5 12 9f bf 8b 8d 4b ab 68 46 77 3f
       -0.030345281957192643 0.005682381500011667
0006a0 48 cf 24 d7 97 6a b8 bf 90 70 0c 6e 16 dc c7 bf
       -0.09537648203405269 -0.1864040410372394
0006b0 82 f8 20 42 5f 06 b4 3f 0f 54 2d 56 98 60 aa bf
       0.07822223057243785 -0.051518211860333556
0006c0 6f 78 0e 3b 90 3f ce bf 99 df d0 33 44 61 a3 bf
       -0.23631480105990785 -0.037851458859619665
0006d0 4d 75 26 d7 83 23 cc 3f 87 d5 90 34 fb 2c c9 3f
       0.219833831838438 0.19668521944701586
0006e0 67 ba 93 65 d6 d8 c0 bf ab 8a 4f 50 03 aa 6d bf
       -0.1316173549634698 -0.0036211075516672984
0006f0 af 63 22 4a 50 e8 a3 3f 64 a4 b4 df 3c 50 c5 3f
       0.038881787347413314 0.16651116297842627
000700 d9 bb bc c9 4c 5b e0 bf a7 28 c6 5f ef b1 d2 3f
       -0.5111450138264174 0.29211029389319737
000710 4e 4b 5b 7d b8 28 af 3f 71 49 eb 12 65 f0 b9 bf
       0.06085754900200034 -0.10132438384906607
000720 2f 80 1d 59 43 84 c7 3f 32 d8 c8 f7 8e 31 c4 bf
       0.18372384883241596 -0.15776240443091322
000730 70 83 93 ef 6b ac bf 3f 29 c6 d1 42 42 4d b4 3f
       0.12372469519642748 0.07930387622197856
000740 dc de 77 32 46 5b bf bf ea 34 cd be f3 00 bb bf
       -0.12248648388037559 -0.10548327835313712
000750 2b 14 58 53 c3 40 d6 3f 8b 6d 8f 56 3d 89 ba bf
       0.34770281924312724 -0.10365661013877607
000760 76 b1 4d 75 eb 61 9f 3f 2e 73 4c 53 fb 21 a3 bf
       0.030646971735607896 -0.03736863509968767
000770 fa 6b 62 00 1b 1c a9 3f e1 2c 74 93 44 4b bc bf
       0.04904255275433651 -0.11052349662729767
000780 0e c5 33 57 82 28 9e bf 2f 69 7a e3 f0 19 d3 3f
       -0.029451405117417777 0.298458311220787
000790 16 aa 38 c2 ed e0 cb bf 13 30 43 e9 34 f8 cd bf
       -0.2178017805429852 -0.23413716687935046
0007a0 7b dd c2 ef 44 d3 a2 bf 94 05 95 53 e0 2d c5 3f
       -0.036768106715892444 0.16546253281744028
0007b0 66 b4 83 44 fd 76 c5 3f ac 54 d1 84 ee 66 b1 bf
       0.1676937660735433 -0.06797686331386171
0007c0 90 48 46 d3 bf 73 c5 bf 6d 05 bb ad 0f b8 c3 bf
       -0.16759488884105567 -0.15405460341393554
0007d0 03 4c 2b ab 4e 92 b4 3f 84 8e f7 eb 50 78 cc bf
       0.08035747221883587 -0.2224217559988696
0007e0 53 0f 07 e2 75 96 87 bf ba 5e 07 3a bf b2 83 3f
       -0.011517449341120011 0.009618276556394679
0007f0 53 62 58 35 59 ba c1 bf a1 43 07 7e ac cb c9 bf
       -0.13849940399883795 -0.2015281310437134

fc_1.bias f8 [128]
000000 82 e7 7f 56 db ef ad 3f 55 53 a8 e7 80 fc cc bf
       0.058470587071453486 -0.2264557963505022
000010 b1 47 8d 7e 3f 81 c9 bf d5 2f bc 5e c7 07 c7 bf
       -0.1992568366936758 -0.1799248898099665
000020 7c f5 69 5e d9 4d d5 3f dc 2c 87 77 05 cd cb 3f
       0.33287653179271337 0.21719425522164826
000030 2f 2b f4 93 a6 ca 97 bf 37 00 16 40 ea e2 b3 bf
       -0.023233988552458115 -0.07768119873617328
000040 81 e4 42 b5 7d 3d 7c bf 0f 0b 18 e5 90 d9 b1 bf
       -0.006894579932287149 -0.06972604363549471
000050 dd f1 94 75 29 7d d5 3f 98 97 8e b4 86 15 9a 3f
       0.33576427919959234 0.02547274090797877
000060 39 98 18 b6 9a de d9 3f 79 c0 81 03 68 42 d6 bf
       0.4042116907388649 -0.34780311911072875
000070 78 4c f5 ad 21 59 a4 bf 6b 75 ed 88 66 3d d1 bf
       -0.03974251984131966 -0.2693725907500581
000080 07 d1 66 40 e3 52 c0 bd b8 71 f9 47 7b e8 5d bf
       -2.9692782998160124e-11 -0.001825447456119551
000090 46 c8 34 72 89 e2 bb bf 66 d3 40 1b df 4f b8 bf
       -0.10892542875515784 -0.09496874251710849
0000a0 29 75 0f fa 2e 07 c4 bf c3 ab 7e cf 8e f1 ca bf
       -0.15646922311763348 -0.2104967606695408
0000b0 a5 d4 37 f7 09 ea c0 bf 03 5c 64 a1 ed c5 cd bf
       -0.13214230128474927 -0.23260279064626851
0000c0 23 2c 8c 6d ab cf 9e bf 1a 47 38 71 19 a9 d3 bf
       -0.03008907180905508 -0.3071960073149157
0000d0 63 5d 60 33 46 99 c1 bf e9 2a e8 b2 e2 7a d9 3f
       -0.13749005802740574 0.3981253382814161
0000e0 22 75 e7 b2 53 09 bf bf 18 a5 2a a1 00 d5 c0 bf
       -0.12123606794144284 -0.13150031918966287
0000f0 e7 d2 84 5c 92 fd c4 bf 89 39 f4 dd 17 5d c4 bf
       -0.163988394904343 -0.1590909799346714
000100 5e 4a 3a 8a fd 79 9d bf 3a f4 06 96 74 ba d8 3f
       -0.0287856689088336 0.3863803353413605
000110 e5 d0 cd 24 4c a6 c1 3f 65 94 41 f4 f2 ac 62 38
       0.13788749501293932 4.390608271534566e-37
000120 52 a2 da 70 76 0e d2 bf b2 95 9b 39 1b bb a1 bf
       -0.28213273068334843 -0.034630633146473314
000130 02 47 17 e9 2a 66 f9 bb d3 81 4b 52 f0 9a d0 3f
       -8.605547190656241e-20 0.2594567111646288
000140 e2 06 83 c2 d0 0e c3 bf 2b 99 fc 1f 1c be 9e bf
       -0.14888963220260282 -0.030022086574853873
000150 00 98 de 36 a3 e6 31 bf da 43 a5 ea 45 06 b8 3f
       -0.0002731464836592812 0.0938457200875428
000160 c7 6c 3b c0 cc 84 c1 bf 81 18 80 55 8d 3b 94 bf
       -0.1368652285226288 -0.01975842317917698
000170 c1 74 00 aa ae 03 9f bf 00 62 be 8d ba d6 d2 bf
       -0.030287484289250658 -0.29435600130230455
000180 d7 f4 45 bf bd 2a 51 bf ed 43 1d 52 d9 e4 bc bf
       -0.0010477879523869604 -0.1128669572328957
000190 67 ea e0 62 48 dd 8f bc 72 78 e6 4e e6 3d d8 bf
       -5.527589805396315e-17 -0.37877805428605094
0001a0 ca b8 77 cd 57 67 a7 bf e9 5b f7 88 8e d2 d9 bf
       -0.04571031935835064 -0.40347636581048946
0001b0 89 c3 8a 69 67 74 d4 bf 1b 3c 6d fd ad 2b b2 3f
       -0.3196047335323376 0.07097899853873495
0001c0 f8 68 6c 4c 81 57 bc bf 2f df af 68 1b 12 c7 bf
       -0.1107102214413408 -0.1802400838057507
0001d0 32 38 67 b5 7a 9a b3 3f e4 49 11 db 39 4e a9 bf
       0.0765759175185117 -0.04942494200863104
0001e0 b0 d1 c6 18 1d db a4 bf 05 6a 90 b7 54 0a b1 bf
       -0.04073420455407317 -0.06656388742013782
0001f0 dc ac 29 51 14 6a d3 bf e6 e0 b7 ea 97 24 9c 3f
       -0.3033495705228242 0.027483342839304557
000200 b7 16 eb 7d a9 1a d2 bf a2 9c 3b 2d 15 e6 b6 bf
       -0.2828773240729378 -0.0894482837135109
000210 48 7f ce 11 48 21 b6 bf 39 df 21 0a e0 fb 78 bf
       -0.08644533571941537 -0.006099581865889375
000220 4a 80 81 e7 43 cb b5 bf 42 40 d6 d3 a7 c0 f2 bd
       -0.08513283159254673 -2.728856757201383e-10
000230 44 f8 9e de 63 62 58 3f a1 a6 f6 db 3c 3d 71 bf
       0.0014883017815772318 -0.004208791476608604
000240 5d 60 d8 db 6b 19 bb bf ae bd a7 c4 d4 7b d5 3f
       -0.10585664861025763 0.3356830521069821
000250 b7 88 f8 c3 24 1d b7 bf 1d 3a 5c 77 9b b1 a4 3f
       -0.09028844627804032 0.040417536087364626
000260 6b f9 3a 2f 2a ae c0 bf 83 18 9c dd 41 63 cb bf
       -0.13031508737726524 -0.2139665920332768
000270 18 ec 39 26 c9 51 be bf 30 1b 59 a4 c9 eb bd bf
       -0.11843545134790678 -0.11687908422855453
000280 ca 20 c0 4e 90 56 d2 bf 2d 4a cc a5 ac b4 9c bf
       -0.28653342905500934 -0.028032968158252004
000290 a4 79 5f 4b 9e 4c 6d bf bf 2a 1c d7 2b be 76 bf
       -0.0035765735328674043 -0.005552455187862903
0002a0 fe 25 21 da ba 48 ad bf 3c 78 b6 b9 95 77 d1 bf
       -0.05719551003182842 -0.2729238809205332
0002b0 c6 00 1f a8 60 01 b8 bf 61 8c 06 e2 f7 96 66 bf
       -0.09377101997870615 -0.002757534166634865
0002c0 3c af 00 de 9a 0b ba 3f 39 89 77 a6 6f a1 87 bf
       0.10173957748400836 -0.0115383837391546
0002d0 04 ab 8c 81 b6 b0 9e bf ee 51 f6 ce 17 d3 77 bf
       -0.029970981270859745 -0.0058165483491347935
0002e0 04 b1 fe f6 8c e6 b2 bf 41 c7 a0 ba 6e fa 78 bf
       -0.07383042364262243 -0.006098206076829816
0002f0 21 c6 88 25 0a 01 cb bf 98 fb 8b 8e e3 0d c9 3f
       -0.2109692271492785 0.19573635540288303
000300 7c 64 86 6a b6 43 cd bf 5f 60 86 55 8a a9 b0 bf
       -0.22862892342962826 -0.06508698070536088
000310 40 4d 35 40 9f 7a c4 bf 0a a9 6c d8 a7 f7 81 bf
       -0.1599921287075663 -0.008773146908045
000320 67 ec a6 28 34 35 be bf 42 95 35 30 39 33 82 3f
       -0.11799932472688256 0.00888676336644301
000330 d9 e3 58 77 4b 21 73 bf 68 41 ab eb e2 2b c3 3f
       -0.004670424260944516 0.14977680690072792
000340 09 00 23 08 44 11 d4 bf 43 63 0e fa 4b 78 cd 3f
       -0.31355381769753926 0.23023366651320928
000350 0a 2d 60 7e 86 e3 bd bf cc 70 07 ea d2 e2 ce bf
       -0.11675301156372 -0.2412971155853313
000360 a9 1e 4f 5c 56 0f b3 bf 42 f4 05 31 a8 82 6b bf
       -0.07445277932776641 -0.0033582005491426268
000370 1c 62 28 00 c5 53 84 bf 57 f5 1d ab b9 08 87 bf
       -0.009925402705492074 -0.01124711087663381
000380 92 24 7c 68 4a f7 b4 bf 5a 8f cc 76 08 39 b9 bf
       -0.08189835596944509 -0.09852650547378286
000390 ad fa 60 00 0d 0c 93 bf 91 1f 54 a3 cb 48 de 3f
       -0.018600657604333538 0.4731930823331761
0003a0 c2 e9 22 2e f0 77 b0 bf 14 c1 43 fc 28 e6 e6 3f
       -0.0643301117551465 0.7155957152408825
0003b0 8f eb 86 3a 56 30 c6 3f 82 c1 0d 8a bd fc b4 bf
       0.17335012300267436 -0.08198151226475228
0003c0 12 6f 68 31 f8 4f cc bf 3d a0 8b 1f f5 1e 71 3f
       -0.22119047558305077 0.004179914009661498
0003d0 c4 ec f8 22 bd a8 65 bf df 66 2f 83 9b 07 d1 bf
       -0.0026439374994687587 -0.2660893231492149
0003e0 cb 2b 25 70 10 2f 8a 3f 99 e5 fe 0b 3a b9 fa ba
       0.01278508035888661 -1.3815747387670163e-24
0003f0 de 64 45 41 23 95 86 bf f2 9e 96 d2 46 dd c0 bf
       -0.01102664511624812 -0.13175282747874167
