classification_model.pt (torch, 759093 bytes, 16 tensors)

conv1.weight f8 [16, 2, 3, 3]
0.29294303520617926 -0.06052788499620044 -0.05668858240395272 0.34209307495903585 -0.072324239054626 -0.019284022589055462 0.40826406291559997 0.03772050539720104
0.01500210256878231 0.35892422238328625 -0.15268712422452657 -0.1820005380389129 0.41069808488994486 0.3508290064381912 -0.05796040702958016 0.3567814469239366
0.11320763579886296 0.17535929888822496 0.25509666533141506 0.004629938086580064 -0.2270065029930591 -0.33504744778093526 0.18685979089464536 0.05183278587758928
0.058640239637949204 0.008263002989369208 0.2567364961699894 -0.11942987389269226 -0.7433103718839116 0.4804930860562623 0.1290949660578122 -0.399183123087613
-0.5283731495008 -0.5351489689560577 0.016553861787606653 0.5840540783547372 -0.09864137092192259 -0.034552135230169284 0.24832506849227443 0.0019251634666822054
-0.06251990344228017 0.12493855420501462 -0.104662634727111 -0.006375260842483595 0.023456736802865034 -0.23020094449080927 -0.4997220638928764 -0.12598264156233355
-0.13456174536510224 -0.4370370975833851 -0.9135341737368387 -0.7461599989158512 -0.09745004916908967 -1.0314150810752019 -0.04315488360475399 0.36104673743262145
-0.10947888207818497 0.1133987208193399 -0.03134842113247419 0.060143100520087714 0.05259404022586463 -0.2689689273087037 0.0395535731614222 0.8653745534970146
-0.19065917745579813 0.7887606547119053 0.1881170453047565 -0.7841528689581395 0.09288245795618516 0.04581034353562328 0.6319430738559725 -1.0627185786165827
0.16043554044409578 0.0971581376252683 0.015027829956584998 -0.19641332508546974 -0.20660510444079036 0.014955796518231318 -0.3004518547156952 -0.3570979218217862
-0.0011253402225114147 0.1447368692939239 0.11756410936885413 0.004124401231475453 -0.20180959254713313 -0.04753679589674359 -0.16783931102461216 -0.873145715101715
-0.8125611281324292 -0.049072402771060064 -0.02918073741024131 -0.029536602009059505 0.022776102558884882 -0.17517632945693 0.19170383666282265 -0.22751308556309072
-0.032123372423261735 -0.002132805923157101 -0.03739934072015022 0.02115971779893256 0.050018328094828556 0.17951233484389104 -0.1514041502032005 0.35542183704179153
-0.15072455540869373 -0.2976167920698949 -0.06391767424782235 0.09342804041604254 0.09323181951668015 0.07733382665895919 0.2688769772021353 0.20355289673919458
0.23550875453745712 -0.09244365061653301 0.050040933130344654 0.1400482359648277 0.365383220841065 0.42313186818663856 -0.011072120897787066 -0.18735715464651828
-0.40347965481880854 0.6481117915490696 0.29199820779889835 1.0131764915363466 -0.08514798281451359 0.27850235642383253 -0.012665276301666738 0.015408940888218767
0.015324047428444558 -0.01679506272401667 0.013212565352300063 0.018817836699643466 0.28124245270148535 -0.2793532898487992 -0.2916528363796055 0.0917238851811821
0.02007353271543348 -0.16190897124372644 -0.04265644703040745 -0.044494826862902605 0.2996812070007587 0.3303391295298177 -0.24743273871580931 -0.22373444675629128
-0.24456981929172134 -0.17365536170004042 0.0005896262162971768 -0.3064873214532468 0.011583081451102662 -0.14530440790531832 0.11127234758377395 0.11589222634171871
0.19635525526521233 0.055109222257191205 -0.2599770374175084 0.026122191310609923 -0.22849393127945766 -0.299594894153852 -0.19027365330843032 -0.36752975861438675
-0.012713485539833895 0.26227653166369375 -0.2422024934699425 0.08273617821388976 -0.00276177119666097 -0.2551765572920867 -0.07744057581350265 0.026107929635655596
0.5024736255048834 0.06656458828503982 0.05541549481901007 -0.7059524093484314 -0.021740479690809535 0.2195683251945677 -0.37088998349255475 0.2359984957603275
-0.27459359825367613 0.2724826009679536 0.3753450739048484 0.11922371749213101 -0.057879715754344606 -0.040459666148372424 -0.04284736979274265 -0.018544836120818205
-0.13343837062199462 -0.02530834313810473 0.21797452293253103 0.21170806741265555 0.1970761827311169 -0.47697141915855334 -0.22836184628572964 -0.6017983151735495
-0.32944940125354794 -0.42176128849460026 -0.22626985063934052 -0.8933426861750722 -0.05236654540458307 -0.9360796744324229 0.30044616929708073 0.03974174184069669
0.16617392142089868 -0.08381378107419171 0.19024271748973254 0.3308092797466242 0.12470536026179903 -0.0038617076077552192 -0.12196858091527528 0.36312812533429867
0.606646850543202 1.0261507185638767 0.464512457424729 0.8228430041218711 0.3601722658863791 -0.10926893966558378 -0.6257738356637705 0.0196542667105988
-0.22957353611860715 0.09614789831669461 -0.23468473755786284 0.11060352389490852 0.09751418087069572 0.1337109661837234 -0.26551682599218634 0.09572872382274408
-0.23064386082333374 -0.014545515606343387 0.08776445756179506 -0.09792782967030353 0.08888202767572129 -0.05264317186657903 -0.04331476776409891 -0.3233497340806217
0.11927338298587727 -0.328892422725698 -0.0729723249843021 0.23984775007788448 -0.11353314850871235 -0.09992968276437818 -0.17990443265069292 -0.18726598462113409
-0.024293612937993703 0.2521784362496364 -0.09860813055780247 -0.002473847039728456 0.21275984609757242 -0.020113407402895175 -0.04522847714563906 -0.11687446942930899
-0.10437450636532172 0.560011813163546 0.35557822115508236 0.11883641410736306 0.27573144089716783 -0.0037081164979230973 -0.0977868429354522 -0.00524228037491808
00000000: 0c4c f324 94bf d23f 9105 1ccd 82fd aebf
00000010: 6491 f62e 4906 adbf d4c6 485a dae4 d53f
00000020: c59c 7261 d783 b2bf 9ad8 6bd9 30bf 93bf
00000030: 93b1 9697 ff20 da3f ac9e 2322 1a50 a33f
00000040: fcb6 3b1f 6cb9 8e3f 7438 384d 9df8 d63f
00000050: d445 886e 408b c3bf efa2 5d2b cb4b c7bf
00000060: 1075 c89e e048 da3f 1df9 4881 fb73 d63f
00000070: 704e 4f89 fcac adbf 4de7 96d9 81d5 d63f
00000080: 61e1 69f5 2cfb bc3f 0b20 e36a 2c72 c63f
00000090: 84b1 baf6 8053 d03f 723e a18a d7f6 723f
000000a0: 63d1 2a91 8c0e cdbf dff3 b4d9 6a71 d5bf
000000b0: 2d3a 6a89 05eb c73f b9dd 68b0 d389 aa3f
000000c0: 14fe f2ee 1706 ae3f 3b46 d97c 31ec 803f
000000d0: cc57 afe9 5e6e d03f 23d6 88ca f492 bebf
000000e0: a29b 40d5 32c9 e7bf 6a35 a412 66c0 de3f
000000f0: cff4 a510 2f86 c03f 33b1 b15e 378c d9bf
00000100: 3518 a6ce 6ee8 e0bf bdf0 04bb f01f e1bf
00000110: 0148 00dc 7ef3 903f ea20 b42d 92b0 e23f
00000120: 576b 2496 8f40 b9bf ac1e a445 d1b0 a1bf
00000130: 80c3 f9a7 1dc9 cf3f 1725 3f88 b88a 5f3f
00000140: 4638 a2ec 4d01 b0bf 86ef 511c f9fb bf3f
00000150: 7721 44a1 2bcb babf d5a6 260d f21c 7abf
00000160: b1b9 c1f5 0a05 983f c754 0c7c 3977 cdbf
00000170: 159c 6040 72fb dfbf 61dc affe 3220 c0bf
00000180: b061 d1bb 5139 c1bf 019a 5072 6af8 dbbf
00000190: a14c ff04 ac3b edbf caa9 1def 8ae0 e7bf
000001a0: ccc1 2c86 7cf2 b8bf 5d1b 9d19 ad80 f0bf
000001b0: 667e 7d9b 6518 a6bf 5d70 66c6 631b d73f
000001c0: c5e1 20da ce06 bcbf e1c9 53d5 b207 bd3f
000001d0: 0526 1777 e60c a0bf aaac a093 13cb ae3f
000001e0: 1a1d 7825 9bed aa3f e096 9b72 c936 d1bf
000001f0: 1525 56ae 5d40 a43f d1ed c1f9 25b1 eb3f
00000200: ce6d ed19 8567 c8bf 6a7e 0bfc 863d e93f
00000210: e1b8 b326 3814 c83f 4dac e7c1 c717 e9bf
00000220: b43d 4b0f 25c7 b73f 6da9 9b0e 7474 a73f
00000230: c7a4 64ae e038 e43f 4128 4032 e500 f1bf
00000240: af67 a9db 2689 c43f 1b0b a40f 5bdf b83f
00000250: b00b 8c31 e9c6 8e3f 8dcf de63 1224 c9bf
00000260: 0f43 613b 0972 cabf c393 7307 25a1 8e3f
00000270: 6db1 816a 9a3a d3bf bb6c ec3d b1da d6bf
00000280: c1bd f6dc 0470 52bf 3f48 12dc bc86 c23f
00000290: 3b2f ec74 ae18 be3f 44ef 7986 bfe4 703f
000002a0: a327 0190 e5d4 c9bf 385e 772f be56 a8bf
000002b0: a1bc ea2f c27b c5bf 0a24 6048 cff0 ebbf
000002c0: 7c8c ea31 8000 eabf 2060 139a 0420 a9bf
000002d0: c48d 6623 8ee1 9dbf c2cf a7ce d73e 9ebf
000002e0: 8aa6 7b5e 9e52 973f ca81 068f 2d6c c6bf
000002f0: b405 7e56 c089 c83f 39e8 f316 261f cdbf
00000300: a782 fd83 7972 a0bf d09f 0976 d178 61bf
00000310: 58ec 91a2 0126 a3bf 628a c19f e4aa 953f
00000320: a35b bc96 009c a93f db09 b19b 42fa c63f
00000330: 43fb cc10 3661 c3bf 363d 983b 3bbf d63f
00000340: 069d 1736 f14a c3bf 748f 2b4d 270c d3bf
00000350: 18e1 87a0 e85c b0bf cdc3 1d6a e6ea b73f
00000360: a14d c55f 0ade b73f 72f0 5f50 26cc b33f
00000370: a8c0 eec7 4735 d13f ae1d 4075 050e ca3f
00000380: 2c7d 549f 2625 ce3f a6f0 1e18 63aa b7bf
00000390: 8326 8316 f79e a93f 2b6c aac0 19ed c13f
000003a0: d03f 014e 7062 d73f 9d72 f0af 9714 db3f
000003b0: 7511 3ae9 faac 86bf c16f f0b9 51fb c7bf
000003c0: ea14 8354 9cd2 d9bf fd5d 9bf0 54bd e43f
000003d0: 0d29 3f40 19b0 d23f 1598 838d f835 f03f
000003e0: 8d3a 8219 42cc b5bf 45c1 2c8c fbd2 d13f
000003f0: 596d 159c 40f0 89bf 057a 7209 b98e 8f3f
00000400: 5c53 61d4 3662 8f3f 6522 8994 b932 91bf
00000410: 72d5 ac80 300f 8b3f 4a64 d3a4 fb44 933f
00000420: 9761 2658 e0ff d13f f98e fb9e ece0 d1bf
00000430: 8e4e 82a8 70aa d2bf 1e80 1d6f 377b b73f
00000440: eca4 1cfa 278e 943f 16dd 35e4 6eb9 c4bf
00000450: 8916 ebd9 10d7 a5bf 5d48 6fa4 06c8 a6bf
00000460: f5d1 d215 fa2d d33f f4db 7abb 4624 d53f
00000470: 213f 5f40 e0ab cfbf 4c49 e791 54a3 ccbf
00000480: 4e29 b957 104e cfbf b66b a3c1 563a c6bf
00000490: ba1e 6ea8 2452 433f fff0 91ff 7c9d d3bf
000004a0: 07b6 27e0 deb8 873f 9180 f5b7 5599 c2bf
000004b0: cb4a d235 587c bc3f 5991 ffe9 1cab bd3f
000004c0: 4783 e143 2b22 c93f 85f2 9aa6 4637 ac3f
000004d0: a1d3 5aba 76a3 d0bf ea04 8495 c6bf 9a3f
000004e0: ca01 1705 4a3f cdbf bc1e 1c10 902c d3bf
000004f0: ee04 2017 e35a c8bf 628e 6389 9b85 d7bf
00000500: 0fe0 e424 8709 8abf 753f 8081 23c9 d03f
00000510: 7045 3bc6 7d00 cfbf 4eeb 9fbb 322e b53f
00000520: d489 ff9e da9f 66bf df9f 110e d054 d0bf
00000530: 739d 8044 25d3 b3bf 6b3e ce7f 09bc 9a3f
00000540: 3eac 9491 4314 e03f fd85 c179 600a b13f
00000550: adec e073 6b5f ac3f a7e2 d581 2997 e6bf
00000560: 6ae4 15e5 2243 96bf 585d f99b d01a cc3f
00000570: 9ced 6057 a9bc d7bf 0410 99de 3235 ce3f
00000580: 2e31 0c07 f192 d1bf 6eba f8dc 5a70 d13f
00000590: aab4 4858 a705 d83f 6847 890f 7285 be3f
000005a0: 138b 88fc 68a2 adbf 1724 d41d 21b7 a4bf
000005b0: 357a f527 17f0 a5bf f228 98e2 6afd 92bf
000005c0: e92e ed2e 8214 c1bf 475d 6028 6eea 99bf
000005d0: 439f add3 96e6 cb3f 9b19 ebfc 3f19 cb3f
000005e0: 0f49 d3d7 ca39 c93f 9669 9a21 b386 debf
000005f0: 14c7 b902 f63a cdbf 5caa 4e8a ee41 e3bf
00000600: 7e87 04f1 b215 d5bf 7866 330f 23fe dabf
00000610: fe8b 4814 69f6 ccbf 6ac4 a766 4396 ecbf
00000620: 0f99 d5af c9cf aabf 1667 845c 5df4 edbf
00000630: 67b9 d591 823a d33f 02d6 fb92 0759 a43f
00000640: ebb4 f9e2 2f45 c53f 22f2 aae8 d174 b5bf
00000650: 30d5 f594 df59 c83f 7c67 6eaf fa2b d53f
00000660: d9d7 f5c3 b0ec bf3f 6e88 397c 96a2 6fbf
00000670: dfae 2b3a 5539 bfbf f963 a4bf 7d3d d73f
00000680: 13be e9a7 a669 e33f e2fa 0f04 1d6b f03f
00000690: cc52 4e75 92ba dd3f 3c44 0eda ba54 ea3f
000006a0: 3020 baf9 0f0d d73f 4510 559a 0cf9 bbbf
000006b0: b6c9 dbd9 5606 e4bf 46db fe82 3f20 943f
000006c0: f207 d466 aa62 cdbf 236e d90e 269d b83f
000006d0: ee36 5744 260a cebf dc73 f335 8350 bc3f
000006e0: c661 bc79 b0f6 b83f 6e15 70e1 701d c13f
000006f0: 7d25 0b49 3afe d0bf b643 1b7a ad81 b83f
00000700: d333 a1ef bc85 cdbf e85f a90e 0aca 8dbf
00000710: 9fa5 fa42 bb77 b63f c65d cd59 cc11 b9bf
00000720: 88c3 11fa f8c0 b63f caa0 0cbb 0bf4 aabf
00000730: 6e16 f66d 5a2d a6bf f3fa 4215 c3b1 d4bf
00000740: f526 354f b388 be3f c594 e0cd 920c d5bf
00000750: db16 5275 50ae b2bf e345 4dc1 54b3 ce3f
00000760: 4259 db27 8210 bdbf 9766 5fdf fd94 b9bf
00000770: c9f0 51c3 1b07 c7bf e4ed ccef 54f8 c7bf
00000780: e00d 48c4 6ce0 98bf 03b6 1c06 b123 d03f
00000790: c78e dde7 613e b9bf 5ca9 3084 0844 64bf
000007a0: 7a0e 72f2 b63b cb3f 6cb7 06ec 9b98 94bf
000007b0: 6276 60dc 2f28 a7bf 06ad ef37 7ceb bdbf
000007c0: 260d 60a3 49b8 babf ab27 dde4 9deb e13f
000007d0: d3fa c127 cbc1 d63f e43f 2a30 106c be3f
000007e0: 7c77 487c 95a5 d13f b3a9 d3e2 7b60 6ebf
000007f0: fc08 63fc 8e08 b9bf bb8c 44ec ed78 75bf

conv1.bias f8 [16]
-0.4979957339086469 -0.22814610549237085 0.33975588561295966 -0.23687972104594682 0.005261448508861195 0.13049759227748348 0.20496756754086892 0.2635964418045987
-0.09815399272200862 -0.3648125571389781 0.3037230783669789 -0.11614236654975965 0.08586314731428607 -0.03064881206222416 0.33290636430088694 -0.06830772872414889
00000000: 9bd9 ab7f 29df dfbf fa55 e63e e433 cdbf
00000010: 0832 5578 8fbe d53f 492d 7d1f 1352 cebf
00000020: 5400 6754 078d 753f acee 8425 25b4 c03f
00000030: f212 aa93 603c ca3f 4d22 399c c3de d03f
00000040: 467d b6bc 9e20 b9bf 2e40 85c4 1659 d7bf
00000050: 891a 28ec 3270 d33f 12e2 0292 81bb bdbf
00000060: 4c80 a591 20fb b53f 46bf dff5 6662 9fbf
00000070: 545d d37e 564e d53f 9e2b ef84 9d7c b1bf

conv2.weight f8 [16, 16, 3, 3]
0.014681770030820112 -0.09498086013442868 0.4398186923068839 -0.0010596676403937582 0.04394025044089157 0.21600276942310037 -0.07645338623755155 -0.027081797650069423
0.1503315406232267 -0.015302011790308575 -0.18693464616783947 0.4423644721850717 -0.052487242003850965 -0.08827362964004351 -0.1874181634534166 -0.08192159071293442
-0.017954367511278747 -0.12957157716901518 0.23984380733439037 -0.2623720447733296 -0.15282744242741708 -0.028104850239930635 -0.09191220807676945 0.07276802604592132
0.10365218235643707 -0.18813467355669053 0.09761388359661904 -0.143390849238396 0.17979174220520525 -0.03934107096634612 0.024944035749509066 0.1499832103775435
-0.013623795129085018 -0.012081853805138123 -0.2516371059908234 -0.1319803494877562 -0.1046040003802226 0.3195411638751162 -0.1212734174941137 0.04991833799803357
0.08655735320384209 -0.03084085935706557 0.03942074339025992 0.0006474844282772242 -0.0545119419735193 0.016371184277826953 0.11712913324032248 0.18705519983232236
-0.035335915234892185 -0.04530189188951342 0.14002813087689275 -0.009515973689109674 0.031326149758270534 0.1010385819856177 0.01825480510130305 0.04482168290814201
0.004673224641462902 0.11292478813897465 0.04377797952465602 -0.12545344363909983 -0.01844539736264037 -0.04901593450960722 -0.1952901900899451 0.0825788324766321
0.034834902717583875 -0.13611870644881233 -0.11027035279762282 -0.05089476374594381 -0.04622699969799411 0.18224429118107935 0.05519899545864668 -0.04701206874688873
0.02999898564941226 0.1508599181786977 0.19798568125347135 0.00364758825999438 0.12857786826559814 -0.163672800811863 0.1276024221486906 -0.18391461568074588
-0.0491499205728216 -0.14898579490410416 0.08174376007852269 -0.08719635563669878 0.06831633773147444 -0.14437606898091815 -0.19121000515897288 0.044404611700291176
-0.10604757614097238 -0.21622676135790128 0.23979068134459952 -0.030678236374901698 -0.1112870595619212 0.11005624432340064 -0.16738110505622875 0.019198234976925528
0.3185669657884563 -0.059066171547424655 -0.05853601841877397 -0.13406666654839874 -0.0019461309408068644 -0.03678323293407609 0.05636367303302176 -0.20021289702283918
-0.050627372089004544 -0.12267517191494554 -0.01755826158095332 -0.005607244899322456 -0.16083346206419252 0.14114224405740078 -0.22090414483201187 0.022238395594875962
-0.07569100162912322 0.11402322515472221 -0.017216659070246405 -0.060211224830804044 0.048671637184846926 -0.006495769052251327 -0.03870652706741442 0.006530848418829021
-0.1740671781587693 0.017732499728065898 -0.14103335849128634 -0.007338574573288596 -0.27358145414209967 0.04651475266939284 0.3372248309612587 0.10272755651086998
-0.06538594419431586 0.11654607936815377 -0.020821022819987475 -0.023223364271408687 0.1860237328009631 -0.08144738611084737 0.032397872220135876 0.07605891741755624
-0.14995278941143 0.2765716863856171 -0.03566259952434304 -0.13853556474363726 0.025359012304350663 -0.09561456350376975 -0.005223927502475636 -0.018946100493849184
-0.19682215765032496 -0.22350868071238547 -0.17430604203500316 0.03457670987935387 -0.02628382804147448 0.044855878183131005 0.045475311565831476 0.08786196348353127
0.062429393136094226 -0.4649680862192084 -0.008240753122040532 -0.16448964837051816 0.025756803528756707 0.0009608488338308947 -0.019436697385730756 0.03734539622664988
0.01883660538779992 0.04790199159220461 0.37239098368324364 -0.015465888924635707 0.053483700895707344 -0.049065807628802985 -0.04185634977673092 0.07849519221895838
0.011990854367601436 -0.029124748608529573 -0.08570453247874908 -0.4807032297606507 -0.0647105027661258 -0.2136301052621324 0.016963340786932655 -0.012488379021338845
-0.024820978483444167 -0.03006142726224512 0.07319870792079958 0.02976447215311893 0.38823048112592445 0.15668864694411774 0.08948209564091358 -0.014947268919840488
0.07629434837606652 -0.06200848289678204 0.08853380543770854 0.06868610714611866 0.08490525404016949 0.08346915925900147 0.06984942504243176 0.009695413048297834
-0.1742606770293037 -0.013314576062215111 -0.14470326037656364 -0.016981115579903262 -0.002310447216120467 -0.020093817256030055 -0.7075923817977895 0.023960209200826862
-0.07162667864880785 -0.0251857994303478 -0.04864484579183332 -0.01124522891677265 0.0005694701674783928 -0.01790697873040349 0.005458413111130009 0.26618239677533834
-0.09525545838769396 0.19325393448934147 -0.04719180842840044 -0.0263771829820998 -0.08021433203517382 -0.015498055017479513 -0.052909319530776454 -0.02063031996870564
0.41665441654497537 0.18422983993398054 0.24715453957677302 -0.0896173303809518 -0.052204929369732075 -0.03321901996212514 -0.05063914943648156 0.040276722913058775
0.1083319862728535 -0.5407924681553563 -0.13803093813335665 -0.20632753628010742 0.0693752131091129 0.07546938640509401 0.011861557565664425 0.07676969237091463
0.08845540278952946 0.025399239230396223 0.3515027520496433 -0.03399405879300313 0.0971410302203737 0.04162476077676981 0.02658234452874734 -0.016265931858360973
0.0491896545188408 -0.04577310506939751 0.06421682100781173 -0.5379317811868096 0.03982593730649061 -0.0045563348792900405 0.03549554788708985 -0.04598649567621584
-0.026280537365565546 0.020167838882958648 -0.01947523727835618 0.020915262387471326 0.28548906597186285 -0.04782716782802745 0.11187767013736208 -0.034808323331467765
00000000: 63c2 09d1 7911 8e3f 63f8 0568 aa50 b8bf
00000010: d529 e84c fd25 dc3f 9c37 0c77 915c 51bf
00000020: b24c 3e25 567f a63f 3042 428f faa5 cb3f
00000030: 9c09 8ff9 7292 b3bf f54f e5ac 54bb 9bbf
00000040: e35b 445d 103e c33f 517a 9e41 a956 8fbf
00000050: abdd e377 79ed c7bf ac9e 3c13 b34f dc3f
00000060: 0841 ba97 9bdf aabf 5238 67c0 1999 b6bf
00000070: 2eba 5a81 51fd c7bf 1cc7 f238 d0f8 b4bf
00000080: fa0e 2035 a162 92bf c24d 372b cd95 c0bf
00000090: 4c1d 53ae 33b3 ce3f 09e9 eb1d b4ca d0bf
000000a0: 2c1b 9481 d98f c3bf cdd3 8e92 84c7 9cbf
000000b0: a6f9 caf7 8e87 b7bf 1dcc 0fe4 eca0 b23f
000000c0: cb42 610d f388 ba3f 2bb6 1507 cc14 c8bf
000000d0: 08db ae35 39fd b83f 5a25 03a0 a15a c2bf
000000e0: 355d 6e72 6a03 c73f 1451 614a 8324 a4bf
000000f0: 57fb 18e7 ed8a 993f 3da4 c25b a632 c33f
00000100: a2ef 36d4 cae6 8bbf 6eb6 bef7 5ebe 88bf
00000110: f933 2c85 d21a d0bf 35dd 616a bbe4 c0bf
00000120: 9cf0 a9e8 53c7 babf 1071 24c8 5c73 d43f
00000130: 51e9 0252 c60b bfbf 4f2e 587a e58e a93f
00000140: 7a23 3d69 9f28 b63f 98ca 4609 bf94 9fbf
00000150: 5154 4aa7 f42e a43f 0bec d838 7e37 453f
00000160: f411 0940 fde8 abbf ccbc 4794 9bc3 903f
00000170: 180f adc4 2cfc bd3f 05cd e9be 6cf1 c73f
00000180: fcbd 9d90 8c17 a2bf e48a 3940 cf31 a7bf
00000190: 0a71 5119 71ec c13f e34a 465e 1c7d 83bf
000001a0: 7157 7129 fb09 a03f 732f 431d aadd b93f
000001b0: 5dab 9e3b 63b1 923f 5cfb 7b1c def2 a63f
000001c0: f2f6 0730 3b24 733f a7f1 f68f a3e8 bc3f
000001d0: 42cc af3c 116a a63f 9cdd ccc2 db0e c0bf
000001e0: faaf bca9 59e3 92bf 773d 67d7 9d18 a9bf
000001f0: 713d d5d9 44ff c8bf 2f39 d4e8 e223 b53f
00000200: c7db dc5f e1d5 a13f 0926 4978 566c c1bf
00000210: b4f2 fb86 ad3a bcbf bf27 a7e3 e00e aabf
00000220: ca48 cab7 10ab a7bf 29b2 40eb c753 c73f
00000230: 5cac 88f0 0a43 ac3f 8704 9243 f711 a8bf
00000240: 7a0e 1cd9 0db8 9e3f 3468 6db7 604f c33f
00000250: 1bac 0745 9857 c93f 5f7f 2609 8ce1 6d3f
00000260: 8456 9855 3d75 c03f 7da7 5df7 3af3 c4bf
00000270: fe6e 02b3 4655 c03f 9977 cd9d 838a c7bf
00000280: 1b2b ecaa 2d2a a9bf a541 576e f711 c3bf
00000290: a077 30b8 28ed b43f de3d ca17 8052 b6bf
000002a0: 14d4 56f4 2d7d b13f 008e 4c3f ea7a c2bf
000002b0: 27b3 69c7 9179 c8bf 5db2 1686 33bc a63f
000002c0: b875 5817 ef25 bbbf ebad 468a 51ad cbbf
000002d0: be5b 2107 76b1 ce3f d275 b797 1d6a 9fbf
000002e0: 2855 4909 4f7d bcbf 76ef 1662 a52c bc3f
000002f0: eda8 177a be6c c5bf 429f 77bd b3a8 933f
00000300: 856e e9b2 6663 d43f ef35 31d6 eb3d aebf
00000310: de4d 7ed9 6ef8 adbf e990 27b6 1829 c1bf
00000320: f3df a52f aae2 5fbf 686b fc7c 40d5 a2bf
00000330: a9f1 b708 b3db ac3f 50aa 7982 93a0 c9bf
00000340: 8a34 cfb6 d4eb a9bf 04e7 67db a367 bfbf
00000350: c429 0ffd cafa 91bf ba7b 6957 9ff7 76bf
00000360: 6286 d5dd 3096 c4bf 4ec1 27f5 f210 c23f
00000370: f65a cd46 9646 ccbf 4498 2e77 a9c5 963f
00000380: af3b 9948 7c60 b3bf 5223 0647 a030 bd3f
00000390: a5c3 9c6e 3ea1 91bf 4835 0073 01d4 aebf
000003a0: 9344 e723 7deb a83f e0c3 44ba 4e9b 7abf
000003b0: b3e5 ca87 57d1 a3bf 92eb fb45 17c0 7a3f
000003c0: 99dc bf52 d547 c6bf 402c a2e9 7728 923f
000003d0: 36bc 2e8f 610d c2bf 1e1d aa9c 0d0f 7ebf
000003e0: ba46 95c9 5b82 d1bf 8c3e fe1a c8d0 a73f
000003f0: cd2c 1875 1795 d53f bab7 9c67 5a4c ba3f
00000400: 4fc3 ee1b 22bd b0bf 59fd 5cbf f6d5 bd3f
00000410: 0c10 5330 1b52 95bf 5df7 3198 ddc7 97bf
00000420: 317a 542c a0cf c73f 92d6 b063 bcd9 b4bf
00000430: 1c7b 4a33 7496 a03f 5aa8 e0e2 9878 b33f
00000440: 15a8 3b2b a731 c3bf 9ba6 01bb 59b3 d13f
00000450: d177 4b45 5e42 a2bf 7012 f48b 88bb c1bf
00000460: 5e31 0682 b6f7 993f 211f 452f 327a b8bf
00000470: c317 7a5c af65 75bf caff 0748 9b66 93bf
00000480: 243f 1eed 7731 c9bf 1312 04b5 ee9b ccbf
00000490: 928c 040f a94f c6bf 7b2c 45dc 09b4 a13f
000004a0: aa43 68d7 25ea 9abf a5e9 a883 59f7 a63f
000004b0: 7bbc e63f 8a48 a73f 795f b923 1f7e b63f
000004c0: 0545 a8d3 bef6 af3f 7eb1 ff80 09c2 ddbf
000004d0: ff84 3a29 87e0 80bf cc15 242e ff0d c5bf
000004e0: f2d6 38d3 fd5f 9a3f 8b81 aa28 2f7c 4f3f
000004f0: 88b2 74ae 36e7 93bf fe34 e68e ef1e a33f
00000500: 33db 6e30 e749 933f aa83 9a1e 9c86 a83f
00000510: d2aa 0ffe 40d5 d73f 6d3b 1479 94ac 8fbf
00000520: d5a5 6e34 3762 ab3f b22d 3c4e 271f a9bf
00000530: d08c d70a 326e a5bf c741 79cb 4218 b43f
00000540: db2b e13a a98e 883f 4a86 1ccb e0d2 9dbf
00000550: 8f7d 1d74 bbf0 b5bf 12d4 b97a d7c3 debf
00000560: 1a96 1615 de90 b0bf db5c c535 3b58 cbbf
00000570: 29a3 a487 d65e 913f 9249 d0db 8193 89bf
00000580: 904c 5dab ab6a 99bf 1986 d93b 6cc8 9ebf
00000590: 2c19 a188 26bd b23f 7be0 ebe9 937a 9e3f
000005a0: 97c1 efa8 c4d8 d83f dfc5 23a3 5f0e c43f
000005b0: d8f2 5a72 4ce8 b63f 1ce0 6679 ac9c 8ebf
000005c0: 0014 25c3 0688 b33f ac85 3b6c 93bf afbf
000005d0: c304 f2c6 26aa b63f 5fd3 e1a7 6995 b13f
000005e0: 0a71 5cc9 59bc b53f 7af5 3d1d 3c5e b53f
000005f0: 319f 33e4 a6e1 b13f 968e b54f 30db 833f
00000600: 34eb 6882 2c4e c6bf 0d82 fa25 ac44 8bbf
00000610: 9f90 78ed a285 c2bf ead8 4260 7f63 91bf
00000620: ac96 6fe7 5bed 62bf f3a4 dd3f 7993 94bf
00000630: 4d0c 57c7 98a4 e6bf bf04 b16b 0689 983f
00000640: d556 5142 2056 b2bf 9a01 8263 4eca 99bf
00000650: 79fb 962b fae7 a8bf 9ef4 7713 bd07 87bf
00000660: 6e32 68df 0fa9 423f 24aa 1100 3556 92bf
00000670: 5747 ce9c 8f5b 763f 3df1 3ae4 2109 d13f
00000680: 0567 8a66 a962 b8bf 043f 3a80 8bbc c83f
00000690: 829b ad53 8629 a8bf 032d 13c9 9e02 9bbf
000006a0: 61f5 c22c ed88 b4bf 170c 9dbb 71bd 8fbf
000006b0: eb9b 132a ee16 abbf 3553 4956 1d20 95bf
000006c0: 3adb 3249 77aa da3f 875c bbe8 d794 c73f
000006d0: 8c24 458c c2a2 cf3f 9319 244f 29f1 b6bf
000006e0: 8e7d aac0 9aba aabf fb5b af58 1502 a1bf
000006f0: 2732 74e5 5fed a9bf 873d 678f 269f a43f
00000700: 8b12 2722 a5bb bb3f e3cf 9401 2c4e e1bf
00000710: 483a 8f6e ffaa c1bf 222d 4bd2 f068 cabf
00000720: 5ae8 74ef 92c2 b13f 5685 7532 f651 b33f
00000730: ffdb 974e df4a 883f 6c9b 0eb6 2da7 b33f
00000740: 80b2 2266 03a5 b63f a1f0 5917 4202 9a3f
00000750: 3676 2066 057f d63f 746a 8c55 ab67 a1bf
00000760: d170 e50b 3cde b83f d2e7 7a34 d74f a53f
00000770: 2a9f 9bf1 6638 9b3f 1785 7b35 04a8 90bf
00000780: dc7f ebea 622f a93f 266e 9e8a 926f a7bf
00000790: 2ce6 147a 8370 b03f dea4 f5b5 bc36 e1bf
000007a0: fb20 87b4 1064 a43f d221 bdd4 a9a9 72bf
000007b0: 2e45 a8f2 782c a23f 1357 f9bd 8a8b a7bf
000007c0: 5990 0602 49e9 9abf 31b4 bbc1 e0a6 943f
000007d0: 39ff c40c 51f1 93bf 010b c47f cf6a 953f
000007e0: 42be 6dee 7345 d23f 5305 5d73 cd7c a8bf
000007f0: 7284 64d6 03a4 bc3f bfab ac84 65d2 a1bf

conv2.bias f8 [16]
0.0835521312285818 -0.11526275549823026 -0.1130047276498605 0.18484826695799114 -0.028086288148027775 -0.08779936573998491 0.029079200616111623 -0.022036066418529877
-0.005699407116722486 -0.12101857761726077 -0.009525291553140578 -0.1321775625445663 0.13717145750169057 -0.04243047535785091 0.14908682537025733 -0.1653232976527969
00000000: bc4a 2327 ac63 b53f 66ce 4f25 dc81 bdbf
00000010: 82ae 8cb9 e0ed bcbf d746 a7a6 1ba9 c73f
00000020: 914b 3fe4 a6c2 9cbf 9f78 76ec 047a b6bf
00000030: 0d62 8f1e f0c6 9d3f aa78 6662 9f90 96bf
00000040: 2440 c4f2 4258 77bf 3117 13d1 12fb bebf
00000050: 9f13 a5fd fe81 83bf 8a6b 32c2 31eb c0bf
00000060: 8c0b f595 d58e c13f 4c0a 0880 72b9 a5bf
00000070: 6967 9def 4615 c33f eec2 5756 5029 c5bf

fc_1.weight f8 [128, 400]
0.003258669024614911 -0.029353031475813536 -0.08541029770960722 0.11177389724150912 -0.09990931320489062 -0.10765083213166486 -0.037820328460845716 0.06792036654890092
0.18861079257766536 0.04746293191433253 0.01463119132104223 -0.03983718944196515 -0.05328866254130632 0.014471930800559231 -0.08612484483831843 -0.1528936342348815
-0.027850682942915237 0.0707296535128859 0.17499872879348055 -0.05683641980274123 0.12271401080481638 -0.03499856479655366 -0.05422584966522797 -0.12243122170126815
-0.17576069594543806 0.07530149380296472 -0.1541787259911063 -0.011845301177215209 0.08822681269461395 0.053494683867617014 -0.05685045393507362 -0.05112774513319734
0.04416306143456233 0.08390099708268464 0.04508682741490351 -0.03691027535416871 -0.03033514651664871 0.038218339650030325 -0.05044590454730724 0.1092052323686873
0.03210996449288661 -0.06760669245457569 0.05253929502319666 -0.06858329234031121 0.2020546954998203 -0.10322318978867315 0.0634193735281764 -0.014433654116300796
0.11304976406835998 0.013803071018234478 -0.01481711954965796 -0.021950677697286616 -0.08449280471642613 0.011521786540806687 -0.015173132272185653 0.007515514330375085
0.003594283836900293 -0.008498566703520321 -0.029350046393254663 0.17685741967855745 0.06164659378495193 0.03791440850387154 0.10251335022289913 0.06928589471114677
0.0518086654786519 0.04647011100746441 -0.01226315882200368 -0.04112955222914207 -0.0059083705205464675 -0.12380097847377808 -0.159928467226488 0.07127995310815356
-0.09197829840598239 -0.03747474237728611 0.0967571668979996 -0.0757095246827211 -0.05329236416672709 -0.0544146873158273 0.1308538142700897 0.049148582758011095
0.08625503941463776 -0.18103870315719098 -0.2678409381001842 -0.09906985587112557 -0.028848196888958486 -0.012454688367494634 -0.10929509197260898 0.032568811303097585
0.10358694169658178 0.0725377061800539 -0.11858101009267094 -0.07647210340776031 -0.08741375494077953 0.12085028355476171 0.15475525722711309 -0.366662527273282
-0.11006712580932453 0.01402213227613456 0.11379035695844704 -0.015671701699008923 0.038482932176898646 -0.022365171324207754 0.030509537572825974 0.027507032771547806
-0.0755978310132187 0.22235741219641206 -0.023470495191797888 -0.013596206697436289 0.016465277971177725 0.347685527893268 -0.04300139503518057 0.1181329421809741
0.09855147379535051 0.09697381015790374 -0.013280170875980393 -0.07530827972213039 -0.12986220448682664 0.054511903362033695 0.040574866659175014 -0.034586333520883035
-0.49122253808269445 -0.5404763271917677 -0.15290118366146754 -0.14699196969274145 -0.19333154043537754 -0.03378240923419204 -0.04362290135960408 0.21177799825542262
-0.012640045343077982 -0.02928455328928689 0.057620131121577975 0.15964368606706494 -0.19049176654152625 0.08092510752212631 0.17266464966209308 -0.08660037867901922
0.025402439135872472 -0.081072830523767 0.09712447118175863 -0.10696052918759344 -0.0684905898011657 0.013374022402360963 -0.04590866854874101 0.12228108191174512
0.08732719187432096 -0.2851712797736834 -0.188746672355429 0.04241876415852822 -0.0657944162490881 0.1006706735695626 0.0025530978693385897 -0.05842893573305351
0.14119310750939135 -0.12741318992733824 0.09889820768857296 -0.00671665449923965 -0.006620665357607179 0.02657835329283848 -0.07235547397419469 -0.1390821329536129
0.11669436232245378 -0.03331109561946813 -0.07411648995114152 -0.026846699843555547 -0.01537956512229369 -0.03017568115204344 -0.00816891728423468 -0.1500525551592361
0.18160351776512818 0.24043114546854294 -0.06092734248705118 0.08730874200955137 0.09295110309020216 0.10818678877456153 -0.022532524568830824 0.09696284812915794
-0.006412367298796571 0.15294391207930663 0.09058339376531725 0.20325314974351608 -0.27305609611228554 -0.0630382901007065 -0.027123281595856603 -0.0824053608564987
-0.18256340508296098 0.05505493499333663 0.11748251313604088 -0.0188317493316448 -0.05981400357001039 -0.16973994790193167 0.03424409432770238 0.1144555577036547
0.06192831768892517 0.07630537175063962 0.025707260729367944 0.03478007630358988 -0.03299619540756464 -0.12127978191327439 0.037649065799016015 -0.06524098077734306
-0.081054477699677 0.03650794788471705 -0.0824733590860209 -0.008991674714350292 0.2879960605923148 -0.050873490375508305 -0.0567577647239178 -0.15756123102693312
-0.12394383574194025 0.02474739211423151 -0.041960963254038385 -0.008562273461102964 0.13353944200085796 0.10857790938469734 0.01644923416018257 0.024296968943896675
-0.04308814472265278 0.050294127564831134 0.011422594839829844 0.13324578628494937 -0.028184192169420627 -0.02182469132703263 0.03158321932577664 -0.04612092480414208
-0.0060302125567732465 -0.02239661693031578 0.21996169688300082 -0.010681041982113528 0.028392736966551174 -0.2270050691176553 0.016440032107752786 0.06503116962351509
0.017725959975995863 -0.1640765213396113 -0.3138385330136624 0.11281220454360369 -0.1817055783155338 -0.014068524464572863 -0.07224717420667462 0.048903936834677336
0.022019528610524582 0.05446177528430102 0.07152609085891758 -0.15492857992704304 -0.21500220920995164 0.14497564310053354 0.07343906196684977 -0.12550946681926473
0.11234602345638453 0.15532013521909793 0.04926452367504988 0.011425741735035197 -0.06850769317757356 -0.09579035946529088 -0.05220567552706553 0.11027944851842303
00000000: fb66 749c ecb1 6a3f 1287 e898 b80e 9ebf
00000010: e385 6703 73dd b5bf 09e1 32d1 369d bc3f
00000020: 39e4 c720 a893 b9bf 1b87 6443 018f bbbf
00000030: d103 baa3 2f5d a3bf 1b53 0fa9 3a63 b13f
00000040: 5d98 e500 6624 c83f 674c b0b8 0f4d a83f
00000050: 1c9c cd41 f5f6 8d3f 43b6 a243 8a65 a4bf
00000060: 6898 b9cd a648 abbf 14ad fcab 75a3 8d3f
00000070: 8b22 f41f 470c b6bf 6a17 67c3 0492 c3bf
00000080: b9f3 a4b1 e384 9cbf 54fc b1ac 561b b23f
00000090: ac39 81bc 5b66 c63f 4f8b 8cc8 a919 adbf
000000a0: e1ec 2a77 2f6a bf3f a790 6af6 54eb a1bf
000000b0: 27e7 d195 7dc3 abbf 9d5d 370d a757 bfbf
000000c0: 6f01 8194 537f c6bf 1a43 396d f546 b33f
000000d0: a174 efe4 20bc c3bf dbda 5669 5942 88bf
000000e0: df57 274b 0896 b63f cf4a 71bb a763 ab3f
000000f0: 23ea d3b0 801b adbf 27d6 8772 6a2d aabf
00000100: 67f9 1a71 8a9c a63f 7a69 9226 897a b53f
00000110: aa6e 74e2 9e15 a73f 13a5 1053 e7e5 a2bf
00000120: 2260 d538 2d10 9fbf 7400 cfad 5a91 a33f
00000130: 90e2 7eac 0bd4 a9bf 095a 93c5 dff4 bb3f
00000140: 80ce be9e b770 a03f 2d48 1515 ac4e b1bf
00000150: 2151 c233 6ee6 aa3f 3655 a7b5 ac8e b1bf
00000160: 4e65 96a2 eddc c93f 66c6 54c0 d56c babf
00000170: d97f 3c87 403c b03f 725b 2143 648f 8dbf
00000180: c87e 7e4f d4f0 bc3f a588 dcd4 c844 8c3f
00000190: d7f7 171f 7058 8ebf 77eb 560b 3d7a 96bf
000001a0: 0d1e 0109 52a1 b5bf b2f5 1203 bc98 873f
000001b0: 4769 1857 1713 8fbf db6e 2f84 96c8 7e3f
000001c0: ea5f 0671 c271 6d3f b69a 6f50 b267 81bf
000001d0: 1e98 9445 f00d 9ebf 5684 c990 43a3 c63f
000001e0: 3bad 6e70 2490 af3f 1483 2471 8469 a33f
000001f0: db59 9c9e 503e ba3f 00c5 db6b b8bc b13f
00000200: 6cab c257 aa86 aa3f 4a7f 092e eeca a73f
00000210: 7e74 b050 6d1d 89bf f352 72c3 ee0e a5bf
00000220: e5cb 8822 6033 78bf 1cf7 c1c1 6bb1 bfbf
00000230: 50f5 3738 8978 c4bf 2dbe 752b 673f b23f
00000240: a96d 98c7 e38b b7bf e278 dfb1 e32f a3bf
00000250: 7e03 7be3 13c5 b83f c20b 820c b361 b3bf
00000260: 9dfa 7102 2349 abbf 3c18 e3ec 3ddc abbf
00000270: 0167 6c5a d1bf c03f d849 2ec7 002a a93f
00000280: e1ab 666d cf14 b63f d968 afb6 462c c7bf
00000290: 67e5 6a51 4e24 d1bf 1e65 fc5e a45c b9bf
000002a0: 0920 bfb8 618a 9dbf 3e18 c3f9 d781 89bf
000002b0: 1ebb a25d c3fa bbbf 4932 d5f6 dbac a03f
000002c0: 7025 e17e ac84 ba3f 142b c5c3 d491 b23f
000002d0: 9e50 4638 535b bebf 3652 31ff ac93 b3bf
000002e0: e9f2 b072 bf60 b6bf ba7c 944f 0bf0 be3f
000002f0: 9e56 5630 05cf c33f 55ad d31a 6677 d7bf
00000300: 773c b7f1 5b2d bcbf b495 5ebc a2b7 8c3f
00000310: 1d98 bc65 5d21 bd3f 8a63 1419 3e0c 90bf
00000320: 9ad4 4eee 08b4 a33f d6ac a03d e5e6 96bf
00000330: 4d90 5d68 e43d 9f3f aeba a7b8 cd2a 9c3f
00000340: d7ad d923 615a b3bf 6911 b42a 3576 cc3f
00000350: 7f2b 1445 a608 98bf 28d1 ebf8 53d8 8bbf
00000360: e97e 9f19 46dc 903f 7005 e6cc 7a40 d63f
00000370: 578a b762 4704 a6bf f55e 3fe3 f53d be3f
00000380: 1c73 ec5c ab3a b93f 885b 328f 46d3 b83f
00000390: e8f0 c75c a232 8bbf 384a 8646 6747 b3bf
000003a0: fdf1 a020 539f c0bf ee83 5df4 fbe8 ab3f
000003b0: 8572 ae9a 3ac6 a43f 11b3 b8c6 4cb5 a1bf
000003c0: f0e3 07a8 3070 dfbf 77a0 b102 954b e1bf
000003d0: a83f ac17 4492 c3bf ed6e 4d03 a2d0 c2bf
000003e0: 9245 ba81 16bf c8bf 1c90 ae8d ed4b a1bf
000003f0: 9b6b 64ad bd55 a6bf 377b 429c 8a1b cb3f
00000400: 16a4 f22a 06e3 89bf f82f 9f1a c5fc 9dbf
00000410: 364e 84c5 6280 ad3f 31e1 554d 346f c43f
00000420: e9ff b9c1 0862 c8bf d699 3b02 82b7 b43f
00000430: 9dab bc0f e019 c63f ed62 3f42 712b b6bf
00000440: 3e0e 4fd5 1803 9a3f 4798 b163 30c1 b4bf
00000450: 4af0 5d3b 26dd b83f 4ed5 d2e6 c361 bbbf
00000460: 359e 476b 9988 b1bf c042 ace6 d663 8b3f
00000470: 341c 0a4c 5781 a7bf 47fe ba1f d04d bf3f
00000480: 7bd7 2629 135b b63f 60bb 180a 3f40 d2bf
00000490: 1969 7fd8 d928 c8bf 1561 9889 e9b7 a53f
000004a0: 489b 0c22 e7d7 b0bf afc6 a5a2 8dc5 b93f
000004b0: 5c03 46fb 3bea 643f 4e23 3ac0 65ea adbf
000004c0: 8a33 96a1 9d12 c23f f691 e84d 134f c0bf
000004d0: b2ca a797 6451 b93f 0eb0 9a36 ec82 7bbf
000004e0: 71d8 0453 451e 7bbf 3275 b218 5b37 9b3f
000004f0: edde 676a e385 b2bf 4731 3f7e 71cd c1bf
00000500: 8871 cd85 aedf bd3f 7420 8fe4 260e a1bf
00000510: 2139 6f5c 4cf9 b2bf 149b 5587 b37d 9bbf
00000520: 12cd d049 527f 8fbf 6fee baae 5fe6 9ebf
00000530: dbd9 a284 ddba 80bf 348a 8b10 ec34 c3bf
00000540: 54e4 d1b8 c83e c73f 3c15 5da1 72c6 ce3f
00000550: c901 d45e de31 afbf 25ff 959f dd59 b63f
00000560: 7048 e6bb a4cb b73f 5e60 a51f 21b2 bb3f
00000570: c34f 7a20 c412 97bf 9b49 a4a5 8ed2 b83f
00000580: fe8e 69bd da43 7abf ba5f 4086 aa93 c33f
00000590: db60 c829 7930 b73f d58b 7aff 3204 ca3f
000005a0: 0ea5 b146 c079 d1bf f0d7 6002 4723 b0bf
000005b0: 3559 a89d 34c6 9bbf 2dcc e489 8418 b5bf
000005c0: 408c 23d7 3c5e c7bf 3740 8f12 2930 ac3f
000005d0: 726c c57f 5513 be3f 8706 064e a148 93bf
000005e0: 8a1f 5aea f09f aebf 1722 88e2 09ba c5bf
000005f0: 12ef 6f22 7188 a13f 5ac1 2e9d f54c bd3f
00000600: a328 5786 11b5 af3f 3c99 2db4 bf88 b33f
00000610: 6ad6 6810 0153 9a3f 9a77 8db4 b1ce a13f
00000620: 06f9 5598 e0e4 a0bf 59c8 fb18 310c bfbf
00000630: fad7 a904 bd46 a33f fe32 cc06 a2b3 b0bf
00000640: f81a ea7a fcbf b4bf 26f9 6a74 2bb1 a23f
00000650: 4dd3 105c f91c b5bf 58dc ac26 3a6a 82bf
00000660: 9fbb 6707 876e d23f f7d7 ca12 170c aabf
00000670: 500b 918e 5a0f adbf 2568 3067 f72a c4bf
00000680: 016c 0d81 c8ba bfbf 25eb 2a5f 6157 993f
00000690: 4bfe c449 e87b a5bf cc71 f5e3 1889 81bf
000006a0: bf54 0f08 d217 c13f 6715 e009 c3cb bb3f
000006b0: 1086 0c6b 11d8 903f 651b 06fc 4de1 983f
000006c0: 22b4 db38 a60f a6bf 36c3 24e2 26c0 a93f
000006d0: eb22 2eba ba64 873f 963a 36ab 320e c13f
000006e0: 4c01 871e 51dc 9cbf 10c7 fa3d 3659 96bf
000006f0: 0a95 36fc ac2b a03f 9edf 636f 299d a7bf
00000700: e120 82db 22b3 78bf 79e8 0685 23ef 96bf
00000710: 8419 3e73 b427 cc3f 8ec7 0030 f1df 85bf
00000720: 186f dc52 fc12 9d3f 717a f189 800e cdbf
00000730: 9cf0 fde0 a7d5 903f a1ed c0fa e1a5 b03f
00000740: d365 8c09 c126 923f 45f8 989e 7500 c5bf
00000750: c42b e136 ee15 d4bf 9cbc 1ab9 42e1 bc3f
00000760: 94d8 2ede 2042 c7bf 8797 d363 f5cf 8cbf
00000770: 7232 7272 ca7e b2bf 6480 b3d2 ef09 a93f
00000780: 1fac 058d 498c 963f 38d3 74ef 69e2 ab3f
00000790: 17be 0cad 884f b23f b94d 0020 b3d4 c3bf
000007a0: 5def 8f40 3185 cbbf 87ab ead6 8f8e c23f
000007b0: 7683 6501 e7cc b23f b2df a9b7 b110 c0bf
000007c0: a6b0 9480 b5c2 bc3f c491 96ba 87e1 c33f
000007d0: 7420 131c 3339 a93f 0518 ad18 6166 873f
000007e0: 49da b85d b889 b1bf 1eee 2c8d b785 b8bf
000007f0: abd1 1bca b3ba aabf 1cbb ce20 463b bc3f

fc_1.bias f8 [128]
-0.24868853432865576 0.035542735478716884 -0.0009231508622422961 0.06238035292462168 0.027726353167226127 -0.0068119560176285125 -0.03991943396172671 -0.03360845961238658
0.10472617489555738 0.18387729553684015 -5.101359618573182e-05 -0.06673830448057444 -0.003859972189913393 -0.11186087944704609 -0.005732772855202229 -0.014408236955494362
0.0029464446367564404 0.10331150380251977 0.07458804180485595 0.04482453388965861 0.04173219848925337 -0.2064166671518948 -0.11824427280888543 -0.022013812096117778
0.1546989726390227 0.21116487248668758 0.0477888704417987 -6.860042522636728e-24 -0.0008714712314852836 -0.25281392227630684 0.04100001709554496 0.028818657093973053
-0.1891957337009446 -0.0014510087080656813 -0.026931414837399546 -0.005776565927850645 -0.003463632488487972 -8.418983677032533e-20 0.004233362448550625 -0.0069477906352975235
0.18854225661145418 0.051539190969838646 -0.01272015485271014 -0.005501341334969277 -2.869512130363381e-09 -0.003154299496967118 0.016980088139035378 -2.5480537940091717e-17
0.06647800693109528 0.021920632355287135 -0.006192644660996394 -2.0853918603148834e-13 0.02178621839785468 0.07117181424385521 0.034336235103750445 -0.006159375098543768
-0.02070175919174501 0.09501868056580591 -0.0013994096621432618 0.1018338019873354 -0.004090074565969771 0.10464340079341591 -0.025372523666472628 -0.004984225535916775
-0.04174600919381686 -0.10851902066344138 -6.966750289923501e-14 0.037860278534399223 -0.00022739660960179606 -6.993338756420666e-06 -0.04719301152129242 -0.03516540956323099
-0.09647712666817608 0.10136377354558272 -0.004380940011167784 0.15765633221272413 0.09843603890017694 0.033394953979320526 -0.009760469936114737 0.09979121682952392
-0.002838210187523318 0.04462297109233235 -0.004101697526312164 -0.017297074920116114 0.021387963627511233 -0.0014441759256088866 0.10935692748609116 -0.03719859918895151
-0.0013151730595830468 -0.00036582381509462204 -0.014773911672386933 -0.0028959588360834665 -0.08817552679127083 -0.040745072965930496 0.18714676021138912 0.08004104715876285
0.0030405615958036146 0.17561988385349314 0.2340869236705139 0.05021662676588303 -4.840072214573347e-15 -0.006158186649474579 -0.04285598394249011 -0.00979945547041012
-0.0035957520813417747 0.01481230644915468 -0.007232351398311007 0.07196422488578058 -3.5897184554037343e-39 -0.0008640069747792048 -1.7165902578520004e-09 -0.08697126039587119
-0.008382248483011423 -0.05116903785601596 0.24790591316770783 0.22039335744490146 0.1423282853718033 0.15298848888775685 -0.10212809297326664 0.3000639525838363
0.06474863037805728 0.0556158750527409 0.0633257187980044 0.09337153000217459 -0.003445465361263586 -5.229702227180611e-30 -3.130834791637127e-06 0.11783342807061001
00000000: c776 eaa0 06d5 cfbf afa1 fb4c a832 a23f
00000010: 4109 9d61 f33f 4ebf c7c8 724f 51f0 af3f
00000020: 97c1 5c10 4c64 9c3f fa7f 1485 dae6 7bbf
00000030: 314f aeee 5170 a4bf 12eb cec5 2035 a1bf
00000040: 1a2b 36a8 55cf ba3f 3f61 678d 4a89 c73f
00000050: 0572 72d1 edbe 0abf 5c72 22f3 c215 b1bf
00000060: de74 36ca f29e 6fbf cc46 ed22 eaa2 bcbf
00000070: 7418 db7e 3f7b 77bf 1c8b 22d4 1082 8dbf
00000080: 34c8 566b 2423 683f 1ae5 216a 9f72 ba3f
00000090: 447b 39b0 3318 b33f 56a3 3ac6 3df3 a63f
000000a0: 222e 6737 ec5d a53f 6923 6281 dc6b cabf
000000b0: 7b49 a7b4 4145 bebf 096e 0dec c98a 96bf
000000c0: aacd 1a0a 2dcd c33f 8479 b256 7307 cb3f
000000d0: b113 5267 c877 a83f 6f67 af20 2996 20bb
000000e0: d829 2538 6e8e 4cbf 449d 0972 1a2e d0bf
000000f0: 0822 1f49 f4fd a43f c9d9 ee56 a382 9d3f
00000100: 6ee6 64d8 9037 c8bf ca6f a1bc f8c5 57bf
00000110: 36b8 d8a7 e893 9bbf 4595 e41b 2ba9 77bf
00000120: 8ded 6d88 c35f 6cbf 0205 5b47 34d9 f8bb
00000130: d858 4c94 0057 713f 26ce ed58 4975 7cbf
00000140: ccb5 0715 2722 c83f c502 5b47 5863 aa3f
00000150: 3254 bd48 060d 8abf 8b9d e211 9388 76bf
00000160: ce6f 5ab8 1fa6 28be 1ce8 cca5 0bd7 69bf
00000170: 7a1f f66c 3a63 913f 7047 6a03 8760 7dbc
00000180: df1c ace1 b304 b13f 325d 4bbc 5c72 963f
00000190: 4035 b764 755d 79bf 3d71 3d7f 6a59 4dbd
000001a0: a5d5 165e 204f 963f 4808 93e6 5038 b23f
000001b0: 883f addd 8494 a13f d3ec caa9 923a 79bf
000001c0: 24f8 ca8a d732 95bf 7b09 8aed 2453 b83f
000001d0: 431c e3ae 8ced 56bf c9b6 29b1 c711 ba3f
000001e0: 0113 fc07 c1c0 70bf 9662 26f0 e8c9 ba3f
000001f0: ce3b 753d 41fb 99bf 4c2d c3da 566a 74bf
00000200: ddb0 73a0 bb5f a5bf 5c51 be0c e7c7 bbbf
00000210: 55f6 a298 129c 33bd f1d1 3e24 6c62 a33f
00000220: d07e bf00 2ace 2dbf 90f7 e551 0a55 ddbe
00000230: 02db 2ab2 ae29 a8bf 3f8e 0c58 3301 a2bf
00000240: df13 da97 b9b2 b8bf 1b9f 60ec f9f2 b93f
00000250: bbe3 2da1 bff1 71bf fc33 6e2b 152e c43f
00000260: 88f4 d2af 1a33 b93f 599d 62b6 2419 a13f
00000270: a187 5a19 4cfd 83bf 45fa b5cc ea8b b93f
00000280: 5222 e87d 2840 67bf 0cdd fb72 d2d8 a63f
00000290: f2cd bc0b f1cc 70bf 9fb8 640c 53b6 91bf
000002a0: 5498 3bf1 b9e6 953f 7eb6 b017 50a9 57bf
000002b0: 68d0 24cb d0fe bb3f 4f76 f2dd b10b a3bf
000002c0: b327 e351 3c8c 55bf 4af6 6952 81f9 37bf
000002d0: 3533 bcdb c841 8ebf 97b3 ba0f 44b9 67bf
000002e0: c846 e0db ab92 b6bf 883e b9c7 89dc a4bf
000002f0: bd83 54cf 6cf4 c73f 4b6d e2ef 917d b43f
00000300: 66c4 b113 85e8 683f 0ccb d65c b67a c63f
00000310: 8105 cb70 8ff6 cd3f 438d 5963 feb5 a93f
00000320: 07f4 cf2c 39cc f5bc adcb 31a4 5339 79bf
00000330: 4d19 f132 38f1 a5bf 64b6 1ca6 bc11 84bf
00000340: 011f 01b3 d674 6dbf 4e37 381e ea55 8e3f
00000350: f0ad a98b ab9f 7dbf 80cd 5d58 3f6c b23f
00000360: 8112 8258 568b f3b7 17e9 9fd9 d04f 4cbf
00000370: 6513 b8cf a47d 1dbe 3e98 179f bf43 b6bf
00000380: 93d4 cf58 b62a 81bf 8999 5100 d432 aabf
00000390: 3c29 c586 61bb cf3f 76a1 3d7b d935 cc3f
000003a0: f8db 7b31 d037 c23f e8fb 3776 2095 c33f
000003b0: f0b1 5213 1125 babf ad96 c36f 3f34 d33f
000003c0: 8c3e efc1 5d93 b03f ffd9 fa18 af79 ac3f
000003d0: d7ad 3b43 1d36 b03f 69a0 bc53 32e7 b73f
000003e0: 46e1 7921 aa39 6cbf bb07 0aa7 8a84 dab9
000003f0: edcd 07a1 6a43 cabe b657 f0df 542a be3f
