classification_model.pt (torch, 759093 bytes, 16 tensors)

conv1.weight f8 [16, 2, 3, 3]
000000 1f ee 07 82 cf 75 d1 3f 63 dd 9a 0c 5f 91 d0 3f
       0.2728155870279085 0.2588727591605304
000010 75 2e 1b 02 f6 21 d0 3f 47 d3 86 24 44 e4 89 bf
       0.25207281308823976 -0.0126424144408276
000020 ec d3 e6 b8 bf c5 9d bf a5 59 01 d5 86 88 b4 bf
       -0.029074664745809928 -0.08020823192905498
000030 ae 98 3e 4b c2 ad 7d bf d3 04 f1 5d 9c 81 a7 bf
       -0.007245787583008019 -0.04591072699305134
000040 27 f1 37 d5 cc 07 b5 bf 61 9f 18 3c 83 58 ed bf
       -0.08215027051477773 -0.9170547651055864
000050 9c 98 09 3e 5e b8 c7 3f 06 21 98 bb 75 c8 ed bf
       0.18531396893667285 -0.9307202018690368
000060 30 aa 1f 26 0f ee cd bf 57 a7 25 6c c8 fe ce bf
       -0.2338274894858201 -0.24215035706157081
000070 c7 25 05 e3 be 69 99 bf 13 af 32 ba e9 05 e0 bf
       -0.024817450147826905 -0.5007218014411329
000080 ea 7e dc 97 9a 52 aa bf be af 22 1b 3d 1b d5 bf
       -0.05141146758819366 -0.32978751802397344
000090 01 19 b7 f6 1d 9b dc bf 8e e0 af ba 73 d1 8a 3f
       -0.44696759312900275 0.013094810614333843
0000a0 82 89 53 31 f5 41 ab 3f 76 a8 1f 66 3e d4 b2 3f
       0.0532375929558553 0.07355108254674456
0000b0 89 cb 62 22 5d ef d5 bf 14 f5 3d 73 2d 68 bf 3f
       -0.3427346072959883 0.12268337310338878
0000c0 83 03 ac a2 41 1f af 3f ab d6 bc a3 64 99 a9 3f
       0.06078534231892887 0.049998421657091306
0000d0 2a 6b 4a a7 ce 3f d7 bf 0e 5b 4b 6e 76 cc 9b 3f
       -0.3632694848726482 0.027147150499184973
0000e0 30 0a aa 8e cb 20 8d bf 0f b6 88 88 a8 05 dd 3f
       -0.014222708026186387 0.45347035725976154
0000f0 23 7c bd 89 e8 4c c9 3f 8c 43 cd 70 59 72 98 3f
       0.19765955663294318 0.023873708257557122
000100 cd 02 94 8b 9a e3 cb 3f 69 c8 ba 18 fc 4f d5 3f
       0.2178834134611151 0.33300688185693744
000110 73 2c 9f f3 cf 65 d4 3f eb 3c 36 26 03 8e c0 3f
       0.31871413031757995 0.12933387151540585
000120 79 37 61 6f ec c8 cc bf f2 de 42 c5 1a bd a2 bf
       -0.224881700882573 -0.036599003391016086
000130 b7 4e b7 48 6d a1 b5 3f 0a 09 03 4d b0 38 9f bf
       0.08449442887586654 -0.030489687633925157
000140 c2 b5 0b fb 54 32 ce 3f 4c 7c 54 da 4c a0 aa bf
       0.23591100938885573 -0.052004243518461196
000150 e6 b8 5a 14 68 e4 b9 3f 92 ad 96 d2 36 49 9b bf
       0.10114145752843093 -0.026646477320964097
000160 75 a1 ae c6 8c 1d ce bf 17 f7 8c f8 3c 79 c8 bf
       -0.23527679158474837 -0.1911998952509115
000170 db 42 9f f7 60 63 c8 bf 94 60 de 43 43 f5 f2 bf
       -0.1905327996342042 -1.1848786021346642
000180 1c 30 7b e3 0f 30 cd bf f7 9f 3e d6 9c bb f0 bf
       -0.22802923781853301 -1.045803868191795
000190 df c5 95 4a cf 6b ae bf 03 40 05 65 a0 30 f2 bf
       -0.05941627297842066 -1.1368717142213434
0001a0 fd e0 34 76 c0 89 d7 bf bd 34 c8 f9 80 c2 bd bf
       -0.3677827028618735 -0.11624914262957282
0001b0 6c 32 83 04 31 4b 80 3f 5e 19 a7 8a b6 e7 8c 3f
       0.007955916357240876 0.014113832575173898
0001c0 17 f6 3c a9 84 46 9b 3f 9a 31 68 c1 36 6d d5 bf
       0.026636193112827024 -0.33479088675883306
0001d0 97 c3 ed 13 3c ca ce bf ca 6b 43 aa 26 da b6 3f
       -0.24054671261867774 0.08926622063465497
0001e0 28 b1 18 8b bd bb d4 bf c1 db c8 b7 79 83 cf bf
       -0.3239587648738671 -0.24619981263978555
0001f0 19 95 91 a4 01 c6 b6 3f 64 b1 e6 3e 6d 79 9f 3f
       0.08895883815565177 0.03073664375703923
000200 bd 0b c9 9a e0 44 8d 3f 9e de 08 d2 8a 0a 73 3f
       0.014291529391931119 0.0046487257646316265
000210 e9 ef e6 3f a7 b9 d5 bf 2f 0e bc cd c0 fb c5 bf
       -0.3394563793224266 -0.17174539609560344
000220 ed 72 8f 52 fc 02 be 3f 1d be 20 cd fa 05 d2 bf
       0.11723305717118722 -0.2816149714662702
000230 26 5b bd 47 83 0f dd bf 5d 1f 98 dc eb c0 c2 3f
       -0.4540718269903884 0.14651249190523688
000240 c6 92 57 c1 c4 d0 be 3f 1c a1 84 7f fa 22 c1 bf
       0.12037305565133768 -0.13387995935887254
000250 28 40 76 ad a6 ae c8 bf 0f 46 4b 92 43 32 c1 3f
       -0.19282992811031474 0.13434643405211985
000260 9b b7 64 ff 9c da c5 bf 97 11 b3 bf f5 44 b0 bf
       -0.17073404760725172 -0.06355224542773495
000270 27 7a 6e 04 67 e4 bc 3f 28 5e 2b 41 08 1b b9 bf
       0.11286014421646283 -0.09806872931528032
000280 2b 08 89 ba be eb c2 bf c9 cf 94 7e de 0a b1 bf
       -0.14781936748664867 -0.06657209959376965
000290 d0 50 0a f0 e9 34 ca bf b2 e5 6c 28 25 1c d8 bf
       -0.2047398016044384 -0.3767178435114956
0002a0 a6 81 89 f6 20 db ee bf 84 6f b9 07 ff 6e dd bf
       -0.9642491164377602 -0.45989967111903973
0002b0 5c 34 f7 b4 28 33 62 3f ad f1 92 cb 1d 6a b8 3f
       0.0022216601425726745 0.09536920757358898
0002c0 7f 61 76 c1 c0 d2 b6 bf c2 ed 75 60 e7 c1 db bf
       -0.08915333483890285 -0.4337099496840119
0002d0 f2 40 e6 0a ca 89 c2 bf 8f 87 05 3d 0d 17 c6 bf
       -0.14482999355505616 -0.17257848243303583
0002e0 be 58 44 32 8e 5c c1 bf 9c 6d d4 77 2f b3 bc bf
       -0.1356370683140024 -0.11210915256054083
0002f0 42 0f 3c f2 09 75 c8 bf f2 d7 6f 11 3e 71 c8 bf
       -0.19107174232351026 -0.19095588542376124
000300 18 96 bb 18 ee 26 c8 bf 86 b4 5d fc e6 1a bf bf
       -0.18868805129675148 -0.1215042463424699
000310 01 e7 41 8a e2 ae c5 bf 28 d9 d4 ed 55 a8 d9 bf
       -0.16939956427432182 -0.4008993933270113
000320 a0 a9 27 97 5f 0e d0 bf 11 c0 e1 e2 80 6f a8 bf
       -0.2508772827265151 -0.04772570390275644
000330 bb a9 6c a5 1f d4 76 3f 28 01 39 d7 ee 83 ec bf
       0.005573390596320167 -0.8911050990646219
000340 91 3e 9e c9 ec d1 c9 bf 9b e7 04 f3 29 20 eb bf
       -0.20171890110622262 -0.847676252981944
000350 b6 f5 6d fd 0d 70 bc bf a2 53 da 14 ba 76 df bf
       -0.11108481824154279 -0.49162151371393226
000360 ff 0f 3b fb 9f 0c c1 bf 19 a2 02 f3 23 9a cf bf
       -0.13319778220295572 -0.24689149251686685
000370 f5 f2 1a 31 c4 ad e1 3f 14 dc 24 da ec 02 b8 3f
       0.5524617156112003 0.09379463506489599
000380 b9 e2 fe ce 66 de c4 bf 09 a5 3f 77 97 3d d5 bf
       -0.16303715808114363 -0.33188425679561867
000390 e5 b8 77 11 a2 eb c5 bf a0 45 af b0 45 3a c4 3f
       -0.1712534508982976 0.15802832724743343
0003a0 43 7c d4 82 b5 d8 c3 bf 8e 2d 7b ec f1 4e b3 3f
       -0.15505093467888473 0.07542335532632746
0003b0 90 95 b5 9d 23 ab c6 bf 77 08 cd 46 64 1e e0 3f
       -0.17709775162363117 0.5037099249677927
0003c0 41 16 5e 29 80 a7 a4 3f ca 83 9a 30 d9 c0 b4 bf
       0.04034042839979835 -0.08106763302431755
0003d0 c4 90 e0 3e 00 3f cb bf ea cb ed 9f 14 ab c6 bf
       -0.21286013670135706 -0.17709596451786008
0003e0 44 5f e2 f0 f5 d2 d4 3f 97 57 1a a7 aa d8 95 bf
       0.3253760197053348 -0.021334330033446838
0003f0 fc 70 64 53 d5 f6 93 3f e3 c3 08 0a 46 df 8d bf
       0.019496281828751613 -0.014586016827793763
000400 0d 54 8e ab 93 8a 7f bf 01 75 31 94 8d ee d3 3f
       -0.007700516544805869 0.31143512222281805
000410 21 f2 c6 e7 5b ac ce 3f 8a 9a be eb e0 00 b3 3f
       0.23963497941248682 0.07423215632898397
000420 8c 46 e2 b8 b4 2d c0 3f 33 53 23 13 98 13 d6 3f
       0.12639483478101388 0.34494592541641395
000430 37 a3 fd 1c ba 81 b0 3f 20 26 ef e8 29 01 86 bf
       0.06447947700293076 -0.010744407101714037
000440 52 c1 72 f2 59 64 c6 bf db bb ee a9 68 19 bd bf
       -0.17493748033803996 -0.11366895817512505
000450 65 d5 61 04 93 6b b3 3f e9 2e ec c7 e4 1c c6 3f
       0.07586020333277117 0.17275676500172857
000460 a6 04 bb 82 68 94 a7 3f d6 a3 46 9c d4 ac 95 3f
       0.04605414005119117 0.02116710857231737
000470 e7 35 61 de 55 81 b8 3f 1f 3a e2 08 35 a2 97 bf
       0.09572350196068379 -0.023079708735673884
000480 94 e5 7e 22 fe 35 95 bf cf 3f 52 65 ed ac 92 bf
       -0.020713778357934823 -0.01823779040256551
000490 0c 72 8e 39 84 68 ce 3f ea 03 cc e3 ee 1b 46 bf
       0.23756459055302093 -0.0006747166113144608
0004a0 1c e8 68 63 ae 27 7d bf e8 da ba 79 a7 1f cf 3f
       -0.007117921070454638 0.2431535095581332
0004b0 66 f9 16 31 50 0c 9a bf 6c 02 47 f1 a3 04 98 bf
       -0.025437596317482124 -0.02345520172252906
0004c0 21 47 a5 c6 88 5c cf 3f 86 c3 e2 fd 57 4a e1 bf
       0.24501142215245245 -0.54032516085691
0004d0 71 07 b4 f2 61 a2 d0 bf e1 60 d0 7e ba 90 e9 bf
       -0.25991104794967784 -0.7989170529208672
0004e0 d2 bd dd 61 27 eb c7 bf c1 68 8b 01 bb 1a e0 bf
       -0.18686382559415776 -0.5032629995505645
0004f0 c2 de 67 25 ac c0 e9 bf 40 21 44 67 0e 15 d5 bf
       -0.8047695856648363 -0.3294101723154377
000500 e9 9f 51 20 0c 27 be bf 03 43 2d fb ed 7a e9 bf
       -0.11778331555399259 -0.7962560563847493
000510 e8 a9 e0 a7 b0 1b bf bf 2e 92 b6 d8 61 fc 98 3f
       -0.1215162668092159 0.024400261737939903
000520 b7 1f 20 55 ec 1b d1 3f f0 11 a6 be fd 24 93 bf
       0.26732929528270283 -0.01869579769256008
000530 14 33 84 70 35 ae d1 3f 39 4b 1b 7c 81 05 ae bf
       0.2762578581612598 -0.05863575592015597
000540 f1 74 50 93 95 dc bf 3f d8 60 94 d2 30 6b 7d 3f
       0.12445959898510119 0.0071823031551263225
000550 a4 73 e6 5a 8d 53 98 bf b9 fe 15 6c 01 56 d4 3f
       -0.023756226227863345 0.31774936251893454
000560 c6 c6 ea c6 fe f3 e6 3f da 5d 37 ca 28 10 e4 3f
       0.7172845730876467 0.6269725751434934
000570 82 5d 61 9c 46 88 c9 3f 60 14 e5 e2 73 88 b4 3f
       0.19947130809553576 0.08020710267472131
000580 6e b6 98 9f 5b 0e e1 3f 55 41 3c 70 4a 3f d5 3f
       0.5330026738281057 0.331987962345939
000590 6c bb 38 88 6f d7 c6 3f f8 67 fd 5f 3c 8d db 3f
       0.17844957496114533 0.4304953515435268
0005a0 1e 9d 0b 64 16 6b b3 bf 12 a3 db 08 2d bb b9 bf
       -0.07585277502549956 -0.10051232782610622
0005b0 fb 42 b9 c6 bd 81 53 3f 71 a0 a9 78 2e 39 ce 3f
       0.001190600708373234 0.23612004176834803
0005c0 8d 3b a2 f5 f6 a8 cc 3f 19 3c dd bd d8 58 c2 3f
       0.2239063929923443 0.14333638449394995
0005d0 40 a2 ee 86 74 d9 d5 3f b1 8d 0c 6e 7f 4d c6 3f
       0.34139741112679545 0.1742400443409742
0005e0 ca 46 ea 98 52 3e c7 3f fe 37 82 c7 8d 1d 92 bf
       0.18158943621215534 -0.017690863897364288
0005f0 7d 1d c2 ea 3a 57 e3 bf 48 ba 8c f9 ba 81 b8 bf
       -0.6043982110140146 -0.09572952835581205
000600 4e 95 a6 f5 d5 3c 73 3f af 85 35 03 59 0e b4 bf
       0.004696689395506338 -0.0783439286074301
000610 25 03 f5 9b 5e e3 36 3f 05 c8 14 4a 59 d0 b4 3f
       0.0003492456416616544 0.08130415018675315
000620 9e 2a 45 df bb b5 b3 3f d6 cf 8e b2 74 5e ba bf
       0.07699178887302557 -0.10300378188441014
000630 3b 5a d4 57 f0 1b dc 3f 6c 30 3d 0f d2 44 82 bf
       0.4392052514753321 -0.008920327272470462
000640 3a d8 bf 49 96 35 b9 3f c7 d1 c1 14 13 82 b8 bf
       0.09847392368814747 -0.09573477989926636
000650 ff 2a 05 42 32 cc c3 3f a6 5a 88 04 d6 04 b0 3f
       0.15466907714502295 0.06257379160556784
000660 70 03 33 b0 e4 57 c7 3f 74 6a e2 c5 b9 fc 91 bf
       0.18236979106407203 -0.017565634444148562
000670 26 7e 17 8d 21 58 ba bf 0c 09 97 b6 38 c1 d1 3f
       -0.10290727324126489 0.27741830664685163
000680 c2 db c5 a1 90 82 c3 3f 84 51 8b 59 43 e0 ce 3f
       0.15242202662531495 0.2412189662196732
000690 42 4a 5d 46 94 11 97 3f f8 1b b7 74 d4 bb c2 3f
       0.022527996821120284 0.14635711382854288
0006a0 41 5d 2d 1d fc 95 cd bf 30 c0 69 dc 44 4b c3 3f
       -0.23113967346828626 0.15073452722890712
0006b0 69 7a 62 20 bc 5c ad 3f 83 9f cb c2 05 c3 b7 3f
       0.05734813590355687 0.09281955724475037
0006c0 81 dd df 67 4d 86 7c 3f 81 ad a6 0f 0c 58 a2 bf
       0.006964018217323954 -0.035827996168644745
0006d0 58 13 a7 d1 97 f0 a3 bf f1 9c 22 6c a7 83 8c 3f
       -0.03894495424495997 0.013922985065006862
0006e0 82 16 bc 00 a8 8a 9f bf 7e 84 ce 1f 39 4f a5 bf
       -0.03080236916050306 -0.04162004960313313
0006f0 3d 5b 02 70 06 8c d1 3f 69 4c bc 38 2d 31 d1 3f
       0.2741714567031755 0.2686265043313996
000700 b5 27 7d b7 29 6a d1 3f f2 a4 f0 f8 4f d3 da bf
       0.27210467261158594 -0.41914748487995646
000710 bb f1 4d 68 93 f7 bf bf 55 9b 63 9e fe a2 d2 bf
       -0.12487145706649631 -0.2911984011429259
000720 04 9b 73 39 8d 4e b0 bf 5a 39 26 53 56 2f e0 bf
       -0.06369860317827764 -0.5057784675607693
000730 41 a3 3d 0e 91 62 c1 bf 74 b0 55 41 e8 0a ed bf
       -0.13582051463461123 -0.9075814510411093
000740 3c 88 a3 f2 c3 46 ed bf 70 3c a6 70 a9 7d ed bf
       -0.9148883570708288 -0.9215895843680197
000750 e4 25 90 4f d5 48 a0 bf c9 d0 79 37 f2 45 ae 3f
       -0.03180567356327993 0.05912739684291208
000760 39 83 b1 b3 e9 08 dc bf cc 61 6e 0b 20 64 a7 3f
       -0.43804400013145856 0.04568576945820588
000770 2e 3e 98 0a 58 88 d6 bf f3 49 e8 d6 e1 bb a6 3f
       -0.3520717719520431 0.0444021773183926
000780 df f2 8d 60 28 e0 db bf c5 38 ba de 58 b8 a9 3f
       -0.43555650166653764 0.05023458212700541
000790 8b c4 20 28 09 82 a2 bf d0 a8 c9 48 02 f2 d0 bf
       -0.03614834418147791 -0.2647710524385163
0007a0 6f e5 df 6d 9a c4 cb bf b8 f3 64 90 b0 cd e3 bf
       -0.216937354707436 -0.6188586063577679
0007b0 ac 62 5d 5f ed 16 d0 bf f5 29 07 88 44 31 e8 bf
       -0.2513993674561259 -0.7560141236111223
0007c0 01 c6 da 6a b5 37 c6 bf a1 58 a7 80 6b e7 e3 bf
       -0.17357509343632674 -0.6219995033996107
0007d0 30 ab c1 e3 87 ac c8 bf 1d d1 42 1c 47 40 cc bf
       -0.1927652227489829 -0.2207116020196133
0007e0 8a 2f 76 49 04 cd a7 3f 6a c9 02 a7 b6 b7 ce 3f
       0.04648602864025893 0.23998149065807733
0007f0 cc c0 8e 9e 1c b3 7b 3f ff 74 a6 91 8b 18 d6 bf
       0.006762611193082257 -0.34524811957983553

conv1.bias f8 [16]
000000 dc 39 7f 24 4a 39 d0 3f 47 af eb 89 7b 72 dd bf
       0.25349668087156174 -0.4601124617463381
000010 83 11 15 2d 2a 74 d0 3f e3 66 2c f2 2e 94 7c bf
       0.25709013369148453 -0.006977256186269295
000020 84 a6 8e b6 51 3b ce 3f cc 99 cc 45 fe 16 d1 3f
       0.23618527807166256 0.2670283967621827
000030 a6 95 6d 94 5d 8c c6 bf 90 31 71 10 a9 cb d2 bf
       -0.1761586165186319 -0.2936804447715753
000040 c0 4b 9c e6 5b e0 cf 3f 37 65 1d 62 04 fe c3 bf
       0.24903439293174578 -0.15618948736918423
000050 f0 bc 2d 3c 2b 33 d5 3f 42 ff 0b c9 be 9a cb 3f
       0.33124810101339985 0.215659950416006
000060 f4 d5 95 f4 a0 89 d1 3f 43 b1 2a 2d ac 73 d7 bf
       0.27402519116671376 -0.3664350930291855
000070 86 ee 95 01 b8 92 a1 bf 5b 3d 88 56 f9 42 bf bf
       -0.034322500413478216 -0.12211569178201868

conv2.weight f8 [16, 16, 3, 3]
000000 fa 44 fe 14 68 2c c7 bf 6b 6b 21 83 d1 d5 81 bf
       -0.18104268097935244 -0.008708607496534978
000010 05 7f 35 a3 81 65 80 3f 48 59 e5 25 76 66 bc bf
       0.00800610808681724 -0.11093843865578379
000020 3f bd 13 50 7d 2c 95 3f de 78 b6 b2 f6 86 c3 3f
       0.020677526485937788 0.15255626417360352
000030 41 2e 5b 62 c8 7a ba 3f 99 95 84 5b 6f e8 98 bf
       0.1034360160949115 -0.024324169121560855
000040 42 c4 9e f9 00 3c d1 3f 13 d9 1a d9 2f 0b c6 3f
       0.2692873418519107 0.17221639729331936
000050 69 6f b0 1c ce 39 c1 3f 79 16 5a 7b 87 41 aa 3f
       0.13457657242622226 0.051281198318105355
000060 b8 99 60 14 34 aa b2 bf b0 2f bd b2 95 61 a5 3f
       -0.0729095983266238 0.04176013762352626
000070 09 1b 8f 5b e6 86 ac bf 1b f4 db e7 2a 05 9c 3f
       -0.05571670406020785 0.027363462831079582
000080 b1 44 eb 54 79 22 a7 bf 95 ae 32 02 a3 21 c7 3f
       -0.04518489038094609 0.1807140122158343
000090 c6 93 b0 2c d2 f9 b3 3f 7d b1 57 f5 54 8d a8 3f
       0.07803071585710972 0.047953276585618966
0000a0 72 8e 71 21 76 60 aa 3f 5d b5 46 fe 06 bf a6 bf
       0.05151719244238685 -0.0444261727710493
0000b0 8b 4d 72 26 c1 47 b9 bf 2e 25 63 4c 8c 91 a4 bf
       -0.0987511366714015 -0.04017294342481602
0000c0 ae 29 f0 17 94 3a b6 3f a7 13 96 1b 67 7a b2 bf
       0.08683133682658337 -0.07218021796695827
0000d0 a3 da 1d 0b a8 5f c0 3f 33 2d ac bc 81 30 c5 3f
       0.1279192022590979 0.1655428096058614
0000e0 aa e9 ad b9 32 ec b0 3f be 7f 5e b9 e4 45 c1 3f
       0.06610409768283057 0.1349454789278734
0000f0 a4 40 c8 be 70 74 b1 3f 07 8d e8 93 b0 dd bf bf
       0.06818298967141573 -0.12447646723790139
000100 2c 21 cd 3e 48 e3 51 3f 13 ea 26 d5 af 98 ba 3f
       0.0010917859574011797 0.10389231637865519
000110 17 50 89 9d 17 47 90 bf 57 a3 4c 01 3f ad c4 3f
       -0.015896195402390925 0.16153705180593178
000120 05 8a 28 44 b7 82 a3 bf 3e ad b0 59 05 7c b8 3f
       -0.0381066580487364 0.09564240874958771
000130 33 ed 4a cc 00 b5 c4 3f eb 13 ad c9 a1 7b 88 bf
       0.16177377677181823 -0.011954559294858632
000140 67 fe 0a 1e a4 c8 c3 bf ab d2 87 83 c4 c0 bb bf
       -0.15456057993832248 -0.10841015063472052
000150 e6 8c 26 99 96 39 a7 3f c1 40 6f b6 cf a6 81 bf
       0.04536123866571433 -0.008618948702775577
000160 05 8c b9 95 9a 25 a9 3f 80 7a 4c 87 93 63 95 3f
       0.04911501958556389 0.020887665875415795
000170 15 ca 66 49 83 a8 79 3f 1d 06 2e b0 0d 0e 99 3f
       0.00626422199131806 0.02446767223182721
000180 e8 3c dd 5d ba 94 a4 bf 0e 74 1f aa 3d 2c b4 bf
       -0.0401972045498214 -0.07880006221189736
000190 da 51 e3 07 6b 07 90 3f cd a0 13 97 47 0c c0 3f
       0.015653297764247266 0.12537474514761585
0001a0 bf f2 79 43 a9 1e ad bf 8a 7d ac 6f ad e5 b6 3f
       -0.056874551283703216 0.08944210029993918
0001b0 c1 f4 2f 0b 91 8b b8 bf 94 a0 65 53 16 8a 9a 3f
       -0.0958796169579328 0.025917385902545734
0001c0 e0 78 89 13 fe 0f a9 bf 95 9a 73 53 b6 d1 5e bf
       -0.048950137982261444 -0.0018810539748358769
0001d0 08 06 91 69 23 ea a3 3f 98 d4 e9 ab bb 96 9e 3f
       0.03889570869115394 0.029871876113663903
0001e0 67 cd 7a 8f 3d ad a7 3f c1 a1 6c 62 b9 e3 8e bf
       0.046243594898806965 -0.015082786861584265
0001f0 21 1e 93 03 47 9a aa 3f 10 ce 64 fa df 48 77 3f
       0.05195829313884937 0.005684733309226711
000200 bc 72 47 8e 50 ab b1 3f 4c f4 4f de 9b 12 b8 3f
       0.06902030442820267 0.09403394868418607
000210 a7 78 78 bb a0 42 c9 3f ee 99 e3 43 b0 d8 8a bf
       0.19734582094037487 -0.01310861308270447
000220 64 c3 e0 f8 54 80 c7 3f e5 d0 f7 05 0e 24 b2 bf
       0.18360387947316348 -0.07086265226081741
000230 5e 91 ea df 35 62 d4 3f 3a 94 0a cf b2 9e c2 bf
       0.31849429003547935 -0.14546809300841962
000240 37 3f 41 03 b7 62 81 3f c5 60 23 3e 74 5c a2 bf
       0.008489064966994071 -0.03586161860010998
000250 53 2e f9 4f be af b0 bf f7 8c e5 89 ef 39 bc bf
       -0.06518163158869443 -0.1102590285932371
000260 71 f3 70 1e 30 a2 90 bf 62 2b 6b e3 a9 c3 8d bf
       -0.016243697984680453 -0.014533355000272589
000270 9a 9d 33 e3 66 36 b6 3f 99 a1 bb 03 dd 43 90 bf
       0.08676760718264234 -0.015883878090706103
000280 f6 f3 17 a0 40 a6 7d 3f f0 08 b4 e0 f8 6e c0 3f
       0.0072386288097705444 0.12838660213316855
000290 0a 66 e9 3f db ce ab bf 7c 2e a1 fb 91 36 b2 bf
       -0.05431256442234307 -0.07114517586995278
0002a0 b3 b2 db a4 7b 1e b2 bf 2d 7e f5 3a d2 6e 5c bf
       -0.07077763342722214 -0.0017354062109332755
0002b0 a3 af 4c e0 b0 31 b3 bf bd df 3f ef 84 76 d5 bf
       -0.07497697330535273 -0.3353588425084089
0002c0 ef 9c 73 11 e2 01 c9 3f 29 5f 26 60 84 e3 d8 bf
       0.19536996700410422 -0.38888654126775407
0002d0 da 20 e0 bd 32 cf a4 3f d1 8d 2d ba 18 c7 ad bf
       0.04064329688850572 -0.05815961144142146
0002e0 20 e3 06 5a 70 12 92 bf 38 4b 2a 49 a3 d9 c8 bf
       -0.017648463721090413 -0.19414177963752777
0002f0 ff b5 44 55 c6 08 93 3f cf 5b 3b cc f8 62 aa bf
       0.018588160471315614 -0.05153634541573348
000300 4b 65 2d aa 02 43 c5 bf c4 ab 09 28 fe 74 b4 3f
       -0.1661074953979472 0.07991016843304438
000310 f8 ce a2 7a bf 8a d0 bf 0c 40 af 03 ed fe b8 bf
       -0.25846850372475627 -0.09763985958056781
000320 d7 c0 70 b1 de 20 a8 3f 16 9e 3c 9d c5 0e b8 bf
       0.04712577739735629 -0.09397540177143812
000330 fb 21 c0 e6 3a 72 ba 3f 0a c5 f7 ac bb a6 71 bf
       0.10330551274831372 -0.004309399707822745
000340 ae d9 40 dd d3 a2 60 3f af 31 f1 f9 b0 3f ab bf
       0.0020307672475851834 -0.05322030116130649
000350 90 53 cd 71 ac 1c b1 bf 49 ed f5 43 12 05 d2 bf
       -0.06684377458925739 -0.28155953060896316
000360 9d df 5f ee 88 f0 b8 3f c5 fb 75 fb 7b e3 52 bf
       0.09742027110757907 -0.001152869297442059
000370 f0 d0 de 19 e2 b5 94 3f eb 74 35 71 c0 5e bb 3f
       0.020225079373361987 0.1069145466221532
000380 b5 04 39 51 c4 e7 9c bf f0 26 ca be 32 44 b5 3f
       -0.028227870423738383 0.08307187231016733
000390 1d e7 48 9b f9 e8 b3 3f 00 3a a4 c9 43 3e a0 bf
       0.07777366677410354 -0.03172504269069876
0003a0 97 b0 3e 38 cf 57 c9 3f bc 0a cd 90 67 6e c9 3f
       0.1979922318108762 0.1986817795787682
0003b0 8c fa 50 e6 e6 b2 b3 3f e8 d9 0c 58 84 f3 a4 3f
       0.07694857714612108 0.040920387028041294
0003c0 5c 3f cf 64 ce 32 c3 3f 42 8a eb 17 5d bc c0 3f
       0.1499879829630072 0.13074840229008272
0003d0 df c4 c1 41 60 d4 ce 3f 65 7a 00 64 2a 89 d0 3f
       0.24085620127474436 0.25837192312056906
0003e0 0a b6 7f cc 15 7b 92 3f c4 3d 26 b2 61 a9 ca 3f
       0.018047657591457912 0.20829411696148104
0003f0 a7 9e ab 8f a2 de b5 3f 5a 0c 1f 33 b8 26 9c 3f
       0.0854283905751979 0.02749145328540368
000400 53 c3 24 49 a9 ce 92 3f 48 4f b8 a1 8d 5b a2 3f
       0.018366475190478692 0.035854745856481574
000410 9f 53 3e 83 8c c7 ae 3f 8d c5 2e a0 0a d0 c9 3f
       0.06011618711560306 0.20166142293377867
000420 54 ee 3b ad a4 1f a3 bf 9c 3d c8 cc 08 8f ab 3f
       -0.03735079397844446 0.053825640676332415
000430 73 ef c9 77 4a ae c1 3f 9a a2 af 90 ea 81 ac 3f
       0.1381314358621882 0.05567868248164594
000440 a5 c5 bc ef e4 7e af bf 00 fe 92 83 48 d4 ae 3f
       -0.0615150015495474 0.06021334272508838
000450 ce d9 05 ff 28 ea c5 3f 52 64 4b 9b 03 7b aa 3f
       0.17120850040710284 0.05171977301297005
000460 32 8e 07 39 cb 3f b3 3f 31 9d ce 8e 17 60 b1 bf
       0.07519216673204523 -0.0678724979066956
000470 d3 62 b8 28 f6 c0 91 3f 86 3b 39 58 ce 71 b2 bf
       0.017337652430884653 -0.07204904226203554
000480 a1 84 ba 6d 5a 6e d3 3f 04 65 d9 72 32 1b b5 3f
       0.3036104270523286 0.08244624427733888
000490 50 54 8d e5 61 ba 71 bf f3 50 6a a5 a4 a6 bd 3f
       -0.004328138741432744 0.1158240226598684
0004a0 06 20 d2 96 3a 81 ba bf f0 e6 9f fb 3d b5 c0 3f
       -0.10353437597416368 0.13053107057913094
0004b0 c8 1c 35 d9 95 71 ce 3f 86 07 53 ad 2b 81 a2 bf
       0.23784134965737835 -0.03614174357200199
0004c0 44 29 50 d2 46 53 af 3f ae db 6e 6e e0 b1 b6 3f
       0.06118222539233156 0.08865168281668787
0004d0 79 ab 13 a7 b1 e4 64 3f 41 3a 9f 87 56 0a ab 3f
       0.0025504560259056977 0.0528132477335146
0004e0 f3 bd b5 88 33 40 a0 bf 4e ae 7b 77 f5 d1 b0 bf
       -0.03173981708357223 -0.06570371787136617
0004f0 bd 81 25 76 d2 6e b5 3f d4 0f 6b 85 78 b4 ae 3f
       0.08372226128040601 0.05997063282623541
000500 f9 bb 07 5c 64 47 90 bf 54 24 d1 ca 2b 42 c9 3f
       -0.015897338978842133 0.19733188059970763
000510 e7 2b d1 07 21 82 c6 3f c2 b0 72 d8 2a e2 b2 bf
       0.17584622270291492 -0.07376354011893496
000520 79 4f 77 66 ee 55 b7 3f 68 fe 0e 6d b4 e2 c3 bf
       0.09115495683300691 -0.15535598111272297
000530 e5 92 40 8e 43 27 a7 bf 05 20 23 a8 41 38 7a 3f
       -0.04522143470265919 0.006401306602306538
000540 95 89 e9 59 32 b7 b7 3f fc 61 13 2b 46 89 b0 bf
       0.09263910956500461 -0.06459463645604296
000550 03 7e 48 8b 2c 23 a2 bf a9 96 28 2d 31 27 c3 3f
       -0.035424606325474194 0.149633547830651
000560 86 08 71 51 66 13 a9 3f a5 58 ed b8 93 a7 c2 3f
       0.048976132814019954 0.14573904542584618
000570 0c de ce 33 3e a6 a2 bf 5b 91 b2 4f 11 6b c1 bf
       -0.03642458326742934 -0.136079944529352
000580 b4 d2 ce b7 b6 36 d1 3f 16 bb e7 62 2a 68 8c bf
       0.26896446180334554 -0.013870555060717698
000590 4c d1 f2 1a 7c 97 70 bf 13 df f2 a7 bc 30 cb 3f
       -0.00405071714992673 0.212424833303651
0005a0 bf a7 04 ba 24 73 cb 3f ce 5b 83 43 8c 19 a9 3f
       0.21445139964026613 0.04902304004797707
0005b0 cf 8d 3a 7f 76 39 6a 3f b5 71 e9 e0 57 59 b7 bf
       0.0032012285608560074 -0.09120702019703837
0005c0 6f f1 fb e2 77 b6 58 3f e7 58 3c 38 55 9e a6 3f
       0.0015083475845464008 0.04417673408004124
0005d0 eb d2 67 70 93 6b a7 3f 32 72 37 4b 32 e1 b4 3f
       0.04574261424196443 0.08156122528402746
0005e0 8e 4e 00 5c 1f 29 cc bf 1c c4 a5 90 2a 1a 95 3f
       -0.22000495903249767 0.0206076288972704
0005f0 11 1d ec 3c 74 c9 b6 bf 4a d5 33 c1 3c df af 3f
       -0.08901144492493908 0.06225004061154012
000600 c5 59 3c e6 f2 06 a7 bf 57 d9 51 3a 97 69 b3 bf
       -0.044974890332173646 -0.07582993673154213
000610 9a 7c fd dd 7e b0 b4 3f 6d cd 20 09 c9 32 a3 3f
       0.08081810874635878 0.03749683605601715
000620 8c 70 b5 69 8c 68 b3 bf 2c dd e4 15 ea f7 cc bf
       -0.07581403332500453 -0.22631574696581802
000630 7d 59 73 18 94 4f c1 bf 0d e7 cc 3a 8b 21 9d bf
       -0.13524104303241904 -0.028448272193805347
000640 38 a0 43 c6 1e b3 b0 3f b0 74 30 c4 e5 98 96 bf
       0.06523315754350356 -0.022067632770007506
000650 79 8b c7 28 59 65 8e bf f7 29 68 99 9a d7 9e 3f
       -0.014841744000426026 0.030119338620389482
000660 9b 37 eb 91 05 60 b1 bf ac a8 48 85 0e fb b7 bf
       -0.06787142574759601 -0.09367457155227282
000670 d4 69 80 c3 63 93 d2 bf 1e b9 50 0e 68 3f b4 bf
       -0.2902459534831483 -0.0790925059270404
000680 6f 77 a0 1b 3c 4c c0 3f ee 09 0f 4d d9 40 9d bf
       0.12732650135961474 -0.02856769116238838
000690 90 d6 64 d5 91 78 b4 bf 55 ba 57 6a b5 ba c6 3f
       -0.07996474704563128 0.1775728959323312
0006a0 e3 c4 26 75 27 af c3 bf 90 5f 76 a5 b3 29 ab 3f
       -0.15378277988705866 0.05305253405384669
0006b0 9e 58 15 85 a1 4c bc 3f 45 96 57 b8 d2 b9 b1 3f
       0.11054429530244866 0.06924168587246367
0006c0 ae 1a 8e ed 46 27 da 3f 93 26 3f 62 8a ad b4 3f
       0.4086472816347094 0.08077301882362979
0006d0 25 f6 81 96 76 54 d1 3f df 03 fe bc 09 14 b5 3f
       0.27078022668851737 0.08233700622623939
0006e0 73 6e e1 07 13 e2 a4 bf 1b d4 57 4c 78 b0 7b bf
       -0.04078731032560947 -0.006760091700461347
0006f0 50 f6 17 18 8d 0c b6 3f c2 31 8f c8 f6 df d1 bf
       0.08612901533339223 -0.279294677599662
000700 d3 c4 de b3 25 00 d2 bf 55 df 85 47 d8 48 d9 bf
       -0.28125898900459595 -0.39507109627401366
000710 0f 73 03 65 b2 c7 bc 3f 05 09 24 82 2e 7f b3 bf
       0.11242213216923978 -0.0761593883253547
000720 b9 77 f2 17 b2 f8 8c 3f a7 b6 6e 94 07 01 a4 3f
       0.014146224361237235 0.03907035529060226
000730 cc 36 03 27 3d 0e a3 bf 08 10 bf 81 08 01 b8 bf
       -0.03721800900676228 -0.09376576583514418
000740 76 82 ec 6a af 97 ba bf b2 3e 16 bc e8 cf c8 3f
       -0.10387703285642566 0.19384488281183604
000750 c2 59 5e 27 fc fc be bf e4 4f d2 9c f2 62 99 3f
       -0.12104774438043989 0.024791518041254693
000760 02 0b 36 8a 23 57 a0 bf 1f 62 63 16 8c a4 b4 bf
       -0.03191481649539264 -0.08063579126918129
000770 6f ed 58 bd 32 e6 ba bf 0b b6 cc 12 3f c3 bd 3f
       -0.10507504580248449 0.1162604733369436
000780 65 17 b1 42 b0 3e c9 bf 99 2e c7 19 56 2e a2 3f
       -0.19722560173448325 0.035509768149123384
000790 fa 14 3d 8e c8 f5 be 3f 74 cd c1 69 f3 35 24 3f
       0.12093785736677268 0.00015419575072748613
0007a0 9a ad ba d8 12 9f ba bf f4 77 91 d5 7b 24 9c 3f
       -0.10398977080574526 0.02748292437569684
0007b0 25 9f 6c 38 0d 93 b2 bf 36 c5 83 d4 95 be ba 3f
       -0.07255632998987645 0.10447060049388743
0007c0 aa 5a 14 f0 77 50 bb bf 7a 40 6e 6b 2f 05 b2 bf
       -0.10669660197559475 -0.0703916203767693
0007d0 a6 2c d8 b4 cf 61 b0 bf 26 09 ba 5d f4 08 bf bf
       -0.06399248280665634 -0.12123038566827357
0007e0 f6 5b 89 81 0c 83 d1 3f da e0 bd da 79 7f 90 3f
       0.2736235871320213 0.016111282325682243
0007f0 6b 1b 4a e5 3d c8 b4 3f 31 2c 0e 98 e0 dc ba 3f
       0.08118044708144871 0.10493282043732745

conv2.bias f8 [16]
000000 54 95 df 55 df 9f d0 bf 21 5b 0d 63 7f 92 af bf
       -0.25975783716269985 -0.06166456302769619
000010 6f ba eb c4 25 8b c3 3f f1 cc 14 9a 03 68 c5 bf
       0.1526839458014879 -0.16723675750254288
000020 0d ea 42 89 99 7c c1 3f b2 28 16 e4 66 f6 ca bf
       0.13661498262611396 -0.2106445897773646
000030 9e 43 34 68 0c 19 a4 bf fa 8a 22 fe 33 50 b6 3f
       -0.03925360462211035 0.0871613021322836
000040 ee 85 e6 67 ae 61 8f 3f db 69 b0 38 65 3d b0 3f
       0.015323030992308664 0.063436819400898
000050 96 35 bb b5 18 28 9c bf 8b fa 2d aa f1 e5 c0 3f
       -0.02749670609664675 0.13201733407546032
000060 85 6b f2 57 5b 5f b5 3f a1 c9 19 9c 2b 01 d7 3f
       0.08348627946035776 0.3594464325352878
000070 f0 7e c8 44 25 d2 b2 bf 87 8c 9f 12 f8 bd 86 3f
       -0.07351906708981537 0.011104524677597162

fc_1.weight f8 [128, 400]
000000 7b 19 07 4a 98 63 4d 3f ef b2 e0 6b 42 ce 4d bf
       0.0008968824004618592 -0.0009095978091458716
000010 5c 0c 0e 9a 7f da 57 3f 48 2b 2f 28 12 85 48 bf
       0.0014559026824094911 -0.000748285165508158
000020 42 0e a9 a4 c1 4b 2e bf e9 2d d4 91 1c 4c e7 be
       -0.00023113955315255853 -1.110902354153113e-05
000030 36 b4 87 ec bf 94 2e 3f da fd b3 d9 ee fd 08 bf
       0.0002333149225387813 -4.766831554014655e-05
000040 34 35 0f ac 46 99 4f bf 63 63 81 37 8f 91 1c bf
       -0.0009643168524406166 -0.00010898052812659052
000050 75 3d ee 76 dc a5 0b 3f d7 3d 2b 47 91 d3 14 bf
       5.273417524797711e-05 -7.944654661717149e-05
000060 e4 11 ee 91 c9 4e 22 bf 66 77 c6 64 49 cd 25 bf
       -0.0001396771485496904 -0.00016633530539150314
000070 b5 7c 75 94 5a 7a 44 bf 8a 85 69 7e 8d 87 21 bf
       -0.000624937275386281 -0.00013373949259957676
000080 54 a5 89 cb d4 ec 24 3f ef 44 92 7b 0a be 4b bf
       0.00015964601131494372 -0.0008466292557775238
000090 68 4c 47 51 1b d9 47 bf 37 99 3f 2a 24 64 51 bf
       -0.0007277854334070246 -0.0010614731954717413
0000a0 4c d1 be 09 28 20 01 bf 2c bc 96 73 f0 f8 26 bf
       -3.2664510598053893e-05 -0.00017526564788059148
0000b0 04 b3 45 95 aa 4b d0 be 99 af 19 31 d2 16 2a bf
       -3.885167036404806e-06 -0.00019904437845086052
0000c0 68 77 0f e8 37 07 5a bf 19 30 15 51 ad db 12 bf
       -0.0015886350595261892 -7.1937993444127e-05
0000d0 0d f0 98 4c 57 24 a2 be 07 48 0b c9 c6 1b fd be
       -5.406724536481507e-07 -2.7760030721087094e-05
0000e0 30 02 a6 7c 73 49 45 bf ea ba 78 7c 4e 3c 09 bf
       -0.0006496251965444951 -4.813303490568638e-05
0000f0 af 5e 2d c5 96 67 05 3f 1d 5b 5e 46 34 55 31 3e
       4.082611908156946e-05 4.035613709437971e-09
000100 71 22 6d d3 80 55 18 bf c6 e6 10 82 ea c1 93 bb
       -9.282683172985043e-05 -1.045952523530828e-21
000110 a7 0b 8d 9c b8 48 40 bf 8c 61 27 f7 1e 0a e7 be
       -0.0004969502852890565 -1.0986106393427013e-05
000120 d7 cb d9 3f 9f 24 4c bf 77 73 bd ce 12 85 02 3f
       -0.0008588578782123779 3.532374998258582e-05
000130 8f 06 4d 3a c5 1e 46 3e 0d 01 0f 43 4e 41 37 bb
       1.0300519390240607e-08 -1.923616822078012e-23
000140 67 8c 03 05 00 06 f1 be e7 be 13 a3 cf d6 89 be
       -1.623481540570203e-05 -1.9251634023703965e-07
000150 2b 00 03 13 25 3b 20 bf b0 f5 49 1c 42 25 17 3f
       -0.00012383296553331152 8.829322821131999e-05
000160 ea bc 92 90 0a dd e9 3e eb c4 dc 7f f3 dc 39 bf
       1.2332650401651651e-05 -0.00039463944254965075
000170 3d 77 70 4e 12 3f 39 bf ca a3 e7 c9 83 f7 25 bf
       -0.0003852290814750808 -0.00016759380100886254
000180 9f 07 eb da 4b c1 16 3f b9 0a 10 53 0d c8 49 bf
       8.680367930494072e-05 -0.0007867875157219962
000190 7d 0b 42 6b ed 9b 67 bf cb 5c 6d d3 45 87 60 bf
       -0.002881969174326425 -0.002017628077208044
0001a0 c2 20 d5 76 be bc 23 bf ae 15 3e 93 9a 1c 38 bf
       -0.00015058350565256255 -0.0003679158573891239
0001b0 0e 9e b8 e9 51 4e 2d bf 97 5b b3 ed b8 e1 6a bf
       -0.00022358655847763736 -0.0032814609418027707
0001c0 db cd 14 92 e2 24 3c bf e4 cb 20 3d 7d e9 36 bf
       -0.0004294446135475174 -0.00034961040103381595
0001d0 28 71 d4 be 83 a3 49 bf 60 cc 9b 0f 4b b0 36 3f
       -0.0007824319160678926 0.0003462012533496702
0001e0 fc f9 d7 53 59 b9 58 bf f8 6f 5e 25 ee 39 3a bf
       -0.0015090343798643815 -0.0004001814280571998
0001f0 21 fe 99 bc ac c9 59 bf 5a 56 0f 04 d5 02 23 3e
       -0.0015739619142606314 2.213179001591621e-09
000200 d9 98 f9 89 4d ad 36 bf 4c 3a 77 39 5b 47 51 bf
       -0.00034602301636822496 -0.0010546103347796208
000210 9f 9f a3 aa 5f 18 64 bf 5c 6f 68 e7 18 d8 31 bf
       -0.0024530285346493065 -0.0002722798157337358
000220 7a b2 fc 2c 17 8d 5e bf e8 e1 f6 66 d6 1d 17 bf
       -0.0018646932912346468 -8.818265063482262e-05
000230 72 9f f5 af 1f aa 35 bf 11 e2 c8 ec 44 42 10 3f
       -0.0003305747377084701 6.202264484834348e-05
000240 62 67 ec b9 fc 2d 4a bf b3 48 21 d7 85 eb 5a bf
       -0.0007989391341169767 -0.0016430670771297284
000250 83 2b 49 bc 81 21 2e bf d4 14 80 83 15 b5 a6 be
       -0.00022988041577528756 -6.767320490658296e-07
000260 2c 68 65 d0 d8 04 39 bf ca db 98 c1 d1 e5 96 3e
       -0.0003817586260957985 3.4120279366076975e-07
000270 62 08 c5 c6 3c 6b 1f 3f ea 35 37 fa fc 5f e9 3e
       0.00011985357713675948 1.2099720897130806e-05
000280 c4 85 16 5a 34 9b 21 bf a3 79 9f f5 27 42 42 3d
       -0.0001343251615653474 1.2973389284128777e-13
000290 5a 15 49 75 ce 42 40 3f 0b 8e 51 36 d8 6e 45 bb
       0.000496245202676586 -3.5457902028941706e-23
0002a0 50 ab d4 3d af 79 7e be 6d 7f 85 92 02 98 34 3e
       -1.1352945202397247e-07 4.794865206568183e-09
0002b0 34 9e 6d ad e2 d4 31 bf 1b 3b 65 4d 2c d3 4b bf
       -0.0002720883762123733 -0.0008491483993483291
0002c0 14 13 a4 7a bb 47 37 3f 3e 45 5c f3 06 ce a0 3e
       0.00035522772908817943 5.008218752785459e-07
0002d0 42 cd 61 0b 9e 3d 77 be 69 c2 b1 a0 77 4d 31 3e
       -8.657832748105459e-08 4.028577037162483e-09
0002e0 31 be 7f 17 83 6b 50 bf da f4 f5 89 bc 9b 50 bf
       -0.0010021953767099907 -0.0010136929703031179
0002f0 35 6d 2b 88 cd 12 de be d8 59 ad 0c c2 99 03 bf
       -7.170068900132309e-06 -3.738521043910079e-05
000300 bf df 2f f3 a7 6e a9 be 5f e2 40 07 2e 34 d2 be
       -7.579401198878483e-07 -4.340130647811039e-06
000310 39 03 49 52 7b b5 77 bd e7 d0 fb 06 cd 85 b7 be
       -1.3476956715769078e-12 -1.402059776664744e-06
000320 7c fe 09 3a 92 9a 42 bf d2 ac 5f 9c 24 c2 33 3f
       -0.0005677427289611649 0.00030148881739817696
000330 06 73 0b 39 bf 5d 43 bf 4b d8 e9 e3 31 90 1b 3f
       -0.0005910094933728467 0.00010514549738069414
000340 7a c9 4b 38 95 79 3a bf fa f1 cf e6 12 6d e0 be
       -0.00040397542060967957 -7.832560379832956e-06
000350 08 df 9f 9e 4f 25 5b bf 30 0f 39 65 08 f9 41 3f
       -0.0016568448577327106 0.0005484858506368036
000360 78 01 26 9f e8 ab 47 bf 94 f1 c2 f4 36 e7 fc 3e
       -0.0007223974082962012 2.7564222634822425e-05
000370 6c 59 24 75 29 04 5b bf 19 26 6b 05 29 3c 32 3e
       -0.0016489415034520406 4.245667004334348e-09
000380 3b 90 0f 9d 34 7c 3b bf 3f 4f aa 1c 77 d0 4b bf
       -0.0004193905306790789 -0.0008488256074365776
000390 18 cd 13 58 d8 d0 fa 3e 38 5a b8 2d 1b 83 48 bf
       2.5573540828949503e-05 -0.0007480509479503355
0003a0 5b 16 76 a3 ec 18 53 bf 7e e4 d1 85 88 c7 e8 be
       -0.0011656104014447141 -1.1815751515197598e-05
0003b0 fd 68 4f 8a be 6d 1b 3e 0e 3f af 22 e4 d1 51 bf
       1.5965598090465624e-09 -0.0010876396070109181
0003c0 c8 64 e4 21 e8 72 d7 be 08 a0 d6 d4 a7 6e 51 bf
       -5.590642585561949e-06 -0.0010639800051226462
0003d0 4f e7 3a 80 84 3e 1a 3f 0d e2 b5 88 ad 3d 48 bf
       0.00010011371346765645 -0.0007397744497402173
0003e0 ce b0 f4 8b 52 98 57 3f 8a 01 0e 55 3d 81 37 bf
       0.0014401250953808733 -0.0003586554276395973
0003f0 5c bd 64 50 8c 97 46 bf 81 01 4b b0 29 84 ac be
       -0.0006894526602873419 -8.49850807137272e-07
000400 f6 6f c6 b3 c0 35 f0 be 6e 80 e5 05 ac c6 ce be
       -1.5459033635076246e-05 -3.6687925294848677e-06
000410 e9 08 99 e8 7b c0 c2 be 86 69 bd f2 72 fc e2 be
       -2.2353995674805007e-06 -9.053291783513129e-06
000420 04 a5 ef 89 31 18 1d bf 65 68 25 e8 91 f9 5c be
       -0.0001109867321102028 -2.6984962272831547e-08
000430 b8 ff a5 29 0f e8 24 bf d0 19 34 95 28 a1 23 bf
       -0.0001595037945882874 -0.00014976139446094697
000440 88 4f 4f ff e9 16 48 bf ff 87 07 77 27 44 08 bf
       -0.000735153442855894 -4.628415524955686e-05
000450 6c ce be c9 4f aa 52 bf 27 7d 45 7d c0 ba 36 bf
       -0.0011392382793759216 -0.000346824640720516
000460 33 25 85 9c d0 63 66 3e 75 3f 7c 11 a5 65 19 3f
       4.1704442179668496e-08 9.68820571609611e-05
000470 7d 73 de 61 db 93 ea 3e 47 0c e3 03 18 ee e7 be
       1.2673171166538558e-05 -1.1410738917644099e-05
000480 dd 49 36 4e cb a4 33 bf de 1b b3 b3 58 a1 7c 3e
       -0.00029973948968478413 1.0665602883089686e-07
000490 7c 90 2d 16 b4 64 d9 be af 9b d4 e7 fb a3 37 bf
       -6.0542518863540225e-06 -0.00036072635687605775
0004a0 97 66 ea e5 52 e1 28 bf 01 90 f8 ce 93 c1 e6 be
       -0.00018982064189714397 -1.0850983442507735e-05
0004b0 7b 55 69 dd 07 78 37 bf 07 1b bd 1b 12 f3 52 3e
       -0.00035810653699760276 1.764809252839359e-08
0004c0 21 c3 f1 59 a6 11 f7 be 86 7e 5f 36 36 58 44 3f
       -2.2000259943091787e-05 0.0006208672245939385
0004d0 96 a7 23 9f 4f 26 50 bf 96 be 81 c7 67 d6 f4 3e
       -0.0009856965594345671 1.9872208639913786e-05
0004e0 57 e0 b3 78 e8 fc e3 be 55 6f 90 cb 44 8a 05 bf
       -9.530984036207482e-06 -4.108450361447908e-05
0004f0 15 e6 59 ae b4 90 94 bd 0d b1 ef 08 6e 91 35 3f
       -4.675998064651737e-12 0.0003291028633032468
000500 2d 9c 14 e3 15 fc 8d be 74 58 60 9b 68 eb ac bd
       -2.2340349085348346e-07 -1.3151095538530458e-11
000510 42 81 4b f4 fb 4d f5 be b3 ff c1 5e 36 8d f5 3e
       -2.0317674414794798e-05 2.0553217766394477e-05
000520 1a e9 56 69 71 e3 45 bf 0e a6 bf a0 59 bd 3e bf
       -0.0006679824606899171 -0.0004690498178648591
000530 bb 36 f5 f7 70 a9 1b bf 74 5d 86 ac c9 b7 00 bf
       -0.000105521698050749 -3.188690385796502e-05
000540 50 8b 48 c7 96 ac 3c bf 43 50 c1 e7 10 92 23 3f
       -0.00043753319849508965 0.0001493116031975346
000550 69 75 66 6f 6f af 32 bf 79 df b5 82 e1 b3 8d be
       -0.000285114961480057 -2.2130206054813025e-07
000560 9b 1d 64 c3 16 41 53 bf 63 40 3d 9d 8a 48 37 bf
       -0.0011751863763168394 -0.0003552759564984296
000570 25 6a d9 de 2e fc 80 3d 96 21 8b cf 70 91 36 bf
       1.9309811917933988e-12 -0.00034436229865921744
000580 93 91 e5 f3 c5 21 25 bf 34 58 88 81 31 21 f3 be
       -0.00016122380652484596 -1.8243466998489786e-05
000590 c6 a9 3f c2 08 37 22 3f ef fd 80 b0 9e 30 1b 3f
       0.00013896924895047245 0.00010372131885193874
0005a0 1b 5c e9 5e d5 16 37 bf 43 ca 44 60 ee ec ed be
       -0.00035231312987121934 -1.4269596257142645e-05
0005b0 6a 85 43 b3 1c 02 62 be e0 69 c7 d5 7d 2c 19 bf
       -3.3542980311524416e-08 -9.603040729847618e-05
0005c0 b9 19 27 e9 28 7f e1 3e 4b 7d 67 bf 03 b9 75 be
       8.343085288309346e-06 -8.092341361548695e-08
0005d0 d8 51 36 fe c0 92 01 be 38 9f ee 24 d3 31 fb bc
       -5.114491021879676e-10 -6.038420442737258e-15
0005e0 5f 67 71 ad 67 e6 04 3f d9 99 fd a0 fa 62 40 bf
       3.986362360626385e-05 -0.0005000804685380513
0005f0 23 01 49 fd 02 eb 90 3e a4 67 0e 7d 81 6d 44 bf
       2.5209805912600344e-07 -0.0006234056728431259
000600 65 ab 65 eb 7d 1d 2a bf 7b 70 02 6f 89 0f 53 bf
       -0.00019924318412320032 -0.001163372242479559
000610 bd 90 13 c6 c9 ce 52 bf 30 a0 69 a5 29 98 1c bf
       -0.0011479349562302642 -0.00010907892406353324
000620 d7 93 fe 51 88 82 82 be 8d 56 fb ef 3c 03 fa be
       -1.37909446526782e-07 -2.4807594853756962e-05
000630 21 87 10 5f a7 5b 05 bf 7e d7 a3 2e 18 87 39 3e
       -4.0737195270658265e-05 5.943633788474496e-09
000640 69 65 04 89 e1 4f e6 3e c0 eb 10 dd 0d cd 32 bf
       1.0639207431983448e-05 -0.0002868803831607668
000650 8e 03 05 07 b4 c4 61 bb 1c 3e 30 3f 94 b8 ee be
       -1.1758122268309363e-22 -1.4648920091202846e-05
000660 c1 b8 29 9b 29 c2 44 bf b7 10 66 c9 68 56 de be
       -0.0006334975390254392 -7.233032326307303e-06
000670 53 18 73 71 7f 0a 3f bf e2 1d f2 66 d7 a4 41 bf
       -0.0004736481800587989 -0.0005384494560453613
000680 5f 59 07 aa 0e db f5 be d4 b1 68 86 1a 79 26 bf
       -2.0843212611720642e-05 -0.0001714558486168987
000690 05 38 ce 90 11 11 73 3e 7e 3d 58 6b 8d eb 0b 3f
       7.102889672106867e-08 5.325341536998716e-05
0006a0 15 79 53 97 fb e3 33 bf 7e 3c 68 e9 9c d8 f3 be
       -0.00030350582467332635 -1.892675808262385e-05
0006b0 20 13 dc a6 36 50 d6 be 54 d4 27 90 a5 0c dc be
       -5.319913368277679e-06 -6.687498400816361e-06
0006c0 80 8e 4f be f6 90 1a bf 0a 75 d6 f4 b7 a6 4e bf
       -0.0001013422584744076 -0.0009354017471882314
0006d0 4c 97 ac ed c2 c1 d9 3e 12 1b 23 cc 43 3f f0 3e
       6.1409188798817184e-06 1.549446893347589e-05
0006e0 0e ac 48 4b 88 66 0b 3f 96 6e 18 bb d7 e2 38 bf
       5.2262338986551566e-05 -0.0003797318159699329
0006f0 f2 b2 4b 1e b2 2a 24 bf cb 1e 4d 02 3c f2 f7 3e
       -0.00015386032386945737 2.2836902775296216e-05
000700 9d af 7a cf 83 53 48 3f 1e 14 1f 39 b6 8f 4a bf
       0.0007423776250638951 -0.0008105888139132743
000710 80 36 b3 8d 1e c6 76 be 31 f0 83 60 88 63 e0 be
       -8.483940254767627e-08 -7.814788674391587e-06
000720 65 44 3d 3b d9 14 8c 3b ff 04 22 0e d0 e8 46 bf
       7.433095194440839e-22 -0.0006991401571811161
000730 3c c3 85 8b 55 ae 2e bf 68 56 4b ea ae 8a 2d bf
       -0.00023407739878280622 -0.00022538552470645627
000740 0d 9f 19 b1 8d 93 d9 be bd 8e 93 30 8b aa 9c be
       -6.09788436776289e-06 -4.2715946386841776e-07
000750 88 6b aa 5b 45 5c 54 bf f4 25 c9 e1 26 1e 9b be
       -0.0012427022290128781 -4.040864227989752e-07
000760 64 4f 64 48 9c 51 33 bf 61 3b 9d 06 71 58 2a bf
       -0.0002947813558347083 -0.00020100002012176778
000770 55 5c fd d5 28 d8 1d bf ce fb a5 30 ea 2e af be
       -0.00011384724848305498 -9.293335961195721e-07
000780 54 37 fd 74 a8 f6 f1 be 7a bf de 44 fa ff 7f 3d
       -1.713133616414811e-05 1.8189844327164348e-12
000790 92 53 a4 c5 c7 6e 06 bf 35 ce 20 13 b1 b6 10 3f
       -4.2787047919080144e-05 6.375747469249892e-05
0007a0 92 f6 f8 ee 44 f3 32 3f 96 89 22 c0 48 90 19 bf
       0.00028915818163342225 -9.751743349054593e-05
0007b0 1c 26 9f 6d ca c2 13 bf 13 b5 15 8d c5 f4 24 bf
       -7.538185619106918e-05 -0.00015988265526393399
0007c0 48 40 71 3c 98 c5 e2 be f3 24 11 d2 62 61 c9 3e
       -8.951117605488068e-06 3.0255811372155254e-06
0007d0 20 15 7e 09 8c 87 4f bf 5b 57 a9 34 83 da 5d bf
       -0.0009622033858113534 -0.0018221169763327969
0007e0 05 9b 8c 7a ee 88 44 bf 95 cb e8 91 41 9c 70 3e
       -0.0006266750761810552 6.18784707716272e-08
0007f0 eb 38 c8 2c e0 f2 48 bf 71 04 73 12 8d e7 0f bf
       -0.000761374912657845 -6.0852997472612346e-05

fc_1.bias f8 [128]
000000 6d 5a 99 c6 d9 fd 64 bf 07 17 f0 44 67 aa 71 bf
       -0.002562451690020942 -0.004312899966867573
000010 45 d9 3a 92 00 49 bf 3f 5c 78 39 5b 48 9b 95 3f
       0.12220767564835906 0.021100168769742175
000020 45 95 c8 67 4c 76 d6 be 37 24 11 b4 ef 1a af bf
       -5.355382765280974e-06 -0.060752382975416123
000030 df 82 2b 4b 39 f0 ae 3f ef 6a 5e 3c 3d 5e b4 3f
       0.060426512170811846 0.07956297611091732
000040 0e ce 57 c9 83 96 9f bf e1 f8 69 2b b0 17 a1 3f
       -0.03084760586166451 0.03338385133700839
000050 1a 72 6f fd e5 be 74 3f 8e 0a a5 52 00 89 80 bf
       0.005064867399565043 -0.008073809167972425
000060 7c fd ce 8e 1a 1e 69 3f 13 d2 ee 99 6a e4 a8 3f
       0.0030661123950889695 0.04861767891944537
000070 7a de 2d c8 ea d2 f3 be ef ef 43 d0 7d 7c b4 3f
       -1.8905539501427937e-05 0.08002458891490936
000080 12 98 b7 72 28 fe a0 3f 2c f8 c5 73 3d 3a a8 3f
       0.03318907165866859 0.04731933630226623
000090 2b 87 b8 e8 a7 e5 a1 bf ee 11 29 d5 f2 ce b3 bf
       -0.03495526042776328 -0.07737653450119072
0000a0 a9 36 14 e7 59 32 b1 3f a8 40 5a f0 b4 c3 94 bf
       0.06717454806877278 -0.020277812166171444
0000b0 93 64 9d 86 c4 8e a4 3f 18 d2 55 17 33 39 b1 3f
       0.0401517309498526 0.0672790462466043
0000c0 18 de 69 63 00 fd 1d bc 37 62 ce fa 9a 6a 47 bf
       -4.064170763100762e-19 -0.0007146126496194231
0000d0 a1 65 54 33 f0 55 8e bf e2 18 bd 2a d3 c3 a6 3f
       -0.014812351767022504 0.04446277519905252
0000e0 17 2c 87 21 57 95 ad bf 08 88 39 51 36 65 a7 bf
       -0.05778000149037881 -0.04569406262886849
0000f0 fd 13 a2 4f ed bf 94 bf c2 73 78 47 44 f8 74 be
       -0.020263393388194818 -7.811856216799836e-08
000100 aa 10 de 83 ed 9f 9b bf e6 f8 38 d9 24 c3 44 be
       -0.026977263616132653 -9.668190504367954e-09
000110 22 f7 76 19 c1 fc 89 bf cb 9e 03 88 88 ef bf bf
       -0.012689121808644514 -0.12474873848588712
000120 37 e8 2f be 56 91 bc 3f 7e 2d 1e 55 4a c2 ac 3f
       0.11159269469490672 0.056169817819944776
000130 34 7d 45 78 31 b3 72 3f 64 f1 64 f3 c4 f3 7a bf
       0.004565423242041167 -0.006580132807638559
000140 27 e9 dc 56 f4 e7 ac bf 4c b4 40 b4 fb 1a ab 3f
       -0.056457172015557604 0.05294024062491384
000150 36 43 76 85 64 63 85 3f 32 65 f3 8c 19 af 83 3f
       0.010443482706962475 0.009611320127464216
000160 5d 22 18 da ec eb 23 bf 54 39 a3 ca f5 ab 63 bf
       -0.00015198961504860306 -0.0024013329139968374
000170 42 5b 73 a0 bd 78 bc bf 64 c8 e0 54 b6 50 a7 bf
       -0.11121735732318164 -0.045537660466280966
000180 1e 92 95 da 21 90 90 3f 68 27 48 d2 50 c1 a2 3f
       0.016174820867847932 0.03663113181035166
000190 0e f8 68 ba 99 94 9d 3f c5 8b dd 34 d6 08 a9 bc
       0.028887178423467268 -1.7371186802813962e-16
0001a0 6d 99 f7 4a d9 b2 69 bf 26 ca d8 26 63 62 b0 3f
       -0.0031370395661155987 0.06400127123269125
0001b0 f1 8b 7b f7 8e aa 87 bc 75 eb b7 71 e6 c9 d8 b9
       -4.105438905353736e-17 -4.888703666682366e-30
0001c0 27 90 57 ef fe fd 80 bf eb fd 76 b3 84 91 a6 3f
       -0.008296958617343432 0.04407896700604027
0001d0 49 89 a9 8b e1 cb 80 3f de db 50 ca 25 13 a2 bf
       0.008201372217801721 -0.035302334734687454
0001e0 06 d4 30 4d 17 01 62 be 97 dc a8 46 2e a5 a0 3f
       -3.353555091298146e-08 0.03251022923034801
0001f0 b2 6f b4 ab fe 3b ba 3f db 6c d5 a1 a3 9c 8a bf
       0.10247794811260638 -0.01299407804133639
000200 c7 0b bc 91 4a bb a0 3f 4e 13 4e 94 b5 00 c0 3f
       0.03267891911493553 0.12502164594129755
000210 58 60 9e 67 2f f2 92 3f ae 7a 8c 60 22 83 a0 3f
       0.018501988124257046 0.03225047520230838
000220 33 ef 76 f2 f6 45 b8 3f d7 3f 39 31 d5 f3 b7 3f
       0.09481757564111319 0.0935643429922942
000230 36 d1 5b 7a 36 53 68 bb d7 f0 18 0e 80 3b 9b 3f
       -1.6096967819254968e-22 0.026594162807882817
000240 69 33 89 cb b0 67 97 3f 98 88 f4 6c 1d 08 70 bf
       0.022856485770080513 -0.003913989013456874
000250 59 dd ab 32 b6 99 af 3f 65 64 15 1c 62 12 b0 3f
       0.06171960228487689 0.06278050599702707
000260 4a 22 ed 65 18 ca ba 3f dc ba 92 57 e2 85 9e 3f
       0.10464622963366668 0.029807602496186955
000270 98 ea e9 26 9a 41 ba 3f 53 40 be 17 bb e8 78 bf
       0.10256350946466808 -0.006081324416200645
000280 17 c0 b5 9d 07 f7 9c 3f bb 39 36 b7 ce cc 76 3f
       0.02828609371266574 0.005566413386431208
000290 bb a1 63 c2 f1 da ca bd c9 c5 76 10 b3 62 b2 3f
       -4.884941782559049e-11 0.07181853439285314
0002a0 44 17 1f f9 1e 7b a0 3f 2b f3 a7 38 da e7 b7 3f
       0.03218933859856901 0.0933815372772641
0002b0 9c 48 2d fe 73 5d a5 3f 9c 81 90 f4 12 f1 b6 3f
       0.04172861554856519 0.08961599798977321
0002c0 ce ca 2f c7 03 82 b5 bf 50 7c 08 78 dd cf b1 3f
       -0.08401511776882417 0.0695780199098277
0002d0 f5 ff 06 97 ea 62 70 be be fe c7 35 b5 cf a5 bf
       -6.104406736259074e-08 -0.042600310149280216
0002e0 69 35 43 26 84 14 8e 3f 30 02 37 0a 46 f1 a2 be
       0.014687569062881338 -5.645297459986358e-07
0002f0 70 57 c9 0c e9 78 9a bf a2 92 98 9a e6 5f 80 bf
       -0.025851861386704866 -0.007995416252989888
000300 3c 92 ab 4b 05 ac b3 3f 27 04 66 71 94 b4 75 bf
       0.07684357736031527 -0.005299167495082669
000310 5c b3 fd 84 4d 97 9c 3f 7f 75 81 92 0c 8e de bb
       0.027920924417617385 -2.5880989498571562e-20
000320 e3 94 8b c1 6f 50 aa bf de 30 e6 db 9b f4 c1 3f
       -0.051394932151916504 0.14027736890091708
000330 59 8d 20 e4 09 e5 b4 be ab 1e 67 ab 82 5c c1 3f
       -1.245420108827335e-06 0.13563569421079555
000340 5b 9d a3 6d a0 00 c2 bf 7b 11 a8 0b a3 a2 b0 bf
       -0.1406441245410218 -0.06498164209921768
000350 fc 3b 9d be ac 0a a7 bf e6 ec ee ec 0b 4f 91 bf
       -0.04500331713517622 -0.016903101288090826
000360 e5 d1 c6 be 27 10 96 bf c8 17 06 cd 24 17 89 bf
       -0.021546002406198545 -0.012251174456434102
000370 52 4c 7d 29 0a 8f bd bf 7a d8 96 6f f2 ca b9 3f
       -0.11546386254239963 0.10075297569605537
000380 a6 7a 79 4c 09 1a aa 3f ad f0 f0 7e 8a 75 63 be
       0.050979891381520745 -3.624548116545028e-08
000390 e0 cf 1a 92 cf 5b 54 3f a3 7b ca 10 b3 23 7a bf
       0.001242592530997115 -0.0063817019223781106
0003a0 e2 3f e4 cf 9d ad 8e 3f 14 dc 9c 06 50 79 ad bf
       0.014979584605072153 -0.05756616669389572
0003b0 06 c5 d2 b4 9c ed bb 3f 3e e1 5b 3d c8 c3 aa 3f
       0.10909442343360717 0.05227494954118804
0003c0 18 07 14 ac 5b 79 a8 bf 75 3e 77 66 c8 a4 b0 3f
       -0.04780088878216143 0.06501438619238249
0003d0 67 a8 0b 13 8a e9 74 bf f1 6e 84 8d 20 5b b9 3f
       -0.005105532982932904 0.09904674010288851
0003e0 d9 1a 1a c7 f6 eb ac 3f f0 2c 81 4c c1 e9 94 3f
       0.05648776226467129 0.020422954840154384
0003f0 ff 85 dd db a2 31 9d 3f 79 d8 db e5 0e 8b a1 bf
       0.028509659451975363 -0.03426405483144008
