model.pt (torch, 614133 bytes, 16 tensors)

conv1.weight f8 [32, 1, 3, 3]
0	0xbfd5bb3970fa6829	-0.33955226929686205
1	0xbfd5a48660402ae4	-0.33816680335500693
2	0x3fd95fd3059ab346	0.39647365138334967
3	0x3fb0a1d454926bde	0.0649693209146984
4	0x3fa6c0878938b03d	0.04443763303820034
5	0xbfb76c35b6b7af3f	-0.09149490080716037
6	0xbfcfc378a5f1e6b0	-0.24815281012324908
7	0x3fc9768ad982146f	0.19893012638582117
8	0xbfcac12471c6729a	-0.2090192370932485
9	0xbfca03aae382e2b2	-0.20323692425679024
10	0xbfc932a9f5fbd916	-0.1968586398213083
11	0xbfc7181506276950	-0.18042242813573717
12	0xbf7fa5d746f3e7cc	-0.007726517607119687
13	0x3f72cf8b61b72b4b	0.004592461070795316
14	0xbfc1940b00d09207	-0.13733041324407244
15	0xbfb46298c4ac64d8	-0.07962946702572837
16	0x3f87b7ae811eb9ee	0.011580813708715856
17	0xbfca2f9c412788f3	-0.20457795316094227
18	0xbfd014e5044d9d4a	-0.25127530498726414
19	0xbfc8d3cd983b845c	-0.19396371777750943
20	0xbf60674f43071608	-0.002002386863952269
21	0xbf620babe39faf2c	-0.002202831002241631
22	0xbfc182ef66483d68	-0.1368083238053075
23	0xbf95e7a1ce924caa	-0.02139141867935438
24	0x3f43e5da308578b0	0.000607234514102625
25	0x3fbf165c2adb217e	0.1214349369648797
26	0x3fc2af17d0e678b2	0.14596841526230758
27	0x3fb897cacab12553	0.09606616447958531
28	0x3fb19fa817de58b8	0.06884241659858759
29	0x3fd0adcfc0aab9eb	0.2606086141121568
30	0x3fa6de8bb0b3a559	0.04466663867953952
31	0x3fb9e4bcd58332fd	0.10114650929171982
32	0xbfb10729146b9225	-0.0665155100683213
33	0x3f1eefadc80a8f08	0.00011801241090353073
34	0x3f77047f2d35f202	0.005619522842036153
35	0xbfc938f450397d5b	-0.19705060879912648
36	0xbfd38d6c8308102a	-0.3055068282703838
37	0x3fae9e9abf897174	0.059803806191413594
38	0xbfbd1befbc044489	-0.11370752659083129
39	0xbfc037608e2366f2	-0.12668997707697077
40	0xbfc54e34efa4e201	-0.16644918156977442
41	0xbfa3e0d604de9965	-0.03882473763887865
42	0xbfd027693e4d6ac7	-0.25240546306819706
43	0xbfa049b1383f9da6	-0.03181222736003102
44	0xbfcc2885a9895ddd	-0.2199866369071363
45	0x3fd2c130df0bf3cd	0.2930414369764634
46	0xbfd47998e5d33c44	-0.319921707571613
47	0x3fbdd1643a4b5ebb	0.11647631095126602
48	0xbfa1283f3311f658	-0.03351018427291014
49	0x3fb40378f38f1c6d	0.07817798563256569
50	0xbfbbe51fdf63e0de	-0.10896491245137294
51	0xbfbb82551230afc7	-0.10745746320816273
52	0x3fd4707b0742f4c4	0.31936526974807244
53	0xbfa95bfb07d5fd51	-0.04952988119748148
54	0xbfb85fee541733d0	-0.09521379044527056
55	0xbfb38d8d9a653e08	-0.0763786794607243
56	0x3fbf69384c9f9aaa	0.12269927855195797
57	0xbf9114def0aceb49	-0.0166811785122534
58	0x3f76d431fa63becc	0.005573458887951421
59	0x3f907f9f3d2525fb	0.016111839396478072
60	0xbfd0a4d1e6ce2add	-0.26005981006225715
61	0xbfc1068b06e3d9a1	-0.13301217876842222
62	0xbfd255f3a855ed54	-0.28649608077076505
63	0x3fd0056f96142a7b	0.2503317800152797
64	0x3fc869a589565276	0.19072407918851625
65	0x3fc7b88a2d1a8ea4	0.18531920626002318
66	0x3fb1ac7afcc77904	0.06903809234015418
67	0xbfa3f4cd6b902078	-0.03897706926369521
68	0xbfbf3609979e8ebc	-0.12191829635281243
69	0x3fadfc29a5ecc63f	0.05856447363329353
70	0x3fc5f4765dae261d	0.17152289938194168
71	0x3fc2617ed1627881	0.14360032295093464
72	0xbf785a0efd64cfff	-0.00594526152990582
73	0xbfae2ad550b20a8c	-0.05892054185917059
74	0x3fd61341d2bd8478	0.34492536144359276
75	0x3fa3e089dff16e53	0.03882246836357397
76	0x3fd372de505811a8	0.30388601156325956
77	0x3fa033fe15d916c7	0.03164667145442262
78	0xbfd7e15a96e8d8c3	-0.3731295083738468
79	0xbfc9553eb18a8394	-0.19791396779058046
80	0xbfa6431b29a975de	-0.04348072894638809
81	0x3fcc931dd9a69236	0.22323964240526245
82	0x3f904cc9fc0b6c24	0.015917926796515172
83	0xbfc8cac1fab456b7	-0.19368767491748937
84	0xbfae42298d6be3ee	-0.059098528397903624
85	0xbfcd79ba3766b8a1	-0.23027732567920103
86	0xbfcab44ac4e64535	-0.20862707723839838
87	0xbfd43f03f1fd8c4a	-0.31634615547063005
88	0xbfc0cb0e99dbfbec	-0.13119680893575436
89	0xbfdc56a69a11c1ef	-0.44278874440990895
90	0xbfb2f2329fdc93e4	-0.07400814440605036
91	0xbfc704a1235bf837	-0.17982877947355444
92	0x3fba4d0b050b43a3	0.10273808358330298
93	0xbfd34df91476a031	-0.30163409231545574
94	0x3fb305ff892fe22f	0.07431027507107822
95	0x3fcf7a6789afc687	0.24592298720340386
96	0xbfcc8ef7fcafe2de	-0.22311305845484858
97	0xbfaee9a45b5b7b6e	-0.06037629714204838
98	0xbf8a92b7c720805b	-0.012975154651997103
99	0x3fbcf95099285772	0.11317924250792347
100	0x3fd5961f510e297c	0.3372877399021019
101	0xbfceb8a0660e7839	-0.24000935538509952
102	0x3fd03d363c78e6d5	0.25373607545371374
103	0xbfc79001f354dd89	-0.18408226376935158
104	0xbfc1e02684cce8b1	-0.13965302929302006
105	0x3fbcf060e7c68a81	0.11304288538534914
106	0xbfb25653322d4e89	-0.07162971472762981
107	0xbfa2a02fc5f0a611	-0.03637837687740498
108	0x3fcbf4e14d31f5ee	0.21841064709944596
109	0x3fc54952eaa49094	0.16630016762895095
110	0x3fc4cf7f1412c20c	0.1625822875989943
111	0x3fbbe17b22f6c107	0.10890931705103322
112	0xbf6f3e6d23b939f6	-0.0038139468795528276
113	0x3fc2344c191aac15	0.14222098565855448
114	0x3fcf43d5713acbd4	0.24425762203972445
115	0xbfc18a7659916ee7	-0.13703803418581303
116	0x3fc846978b80c0c1	0.18965429603259135
117	0xbfd6ce73c98e6a67	-0.35635084803803924
118	0xbf6990c4cc0c3579	-0.0031207889263728497
119	0xbfa86226a38db596	-0.04762383219245263
120	0xbfbc928e452db0e9	-0.11161126316955329
121	0x3fbbc7bc706d434a	0.10851648087306134
122	0xbfa7d65c3d5ee446	-0.046557314387833545
123	0xbfb17d771f79bc82	-0.0683206989140093
124	0x3fba686abde73ba8	0.10315577637014306
125	0x3fcb86c805587daf	0.2150506998159307
126	0xbfc446fccef941d5	-0.1584163675893381
127	0xbf9a051b91e345f9	-0.025410109309467164
128	0x3fd3fbf66ebec3de	0.3122535783286916
129	0x3fb816dcfcf0f28e	0.09409886527368824
130	0xbfcaf9d17078452a	-0.21074884406747546
131	0xbfc2309cf2530301	-0.14210855324019891
132	0x3f8045798d300c74	0.007945012685018883
133	0xbfbdbd159c58420b	-0.11616644923220336
134	0x3fcbcddce4fa04b2	0.2172199361848804
135	0xbfcc0d37ccf25bdd	-0.21915338046230107
136	0xbfc6af14b30477a0	-0.1772180437191624
137	0xbfdaf7cba175d8f4	-0.42137423293696874
138	0xbfc9f76d4df1a256	-0.20286337190488507
139	0xbfb37c2532162755	-0.07611305687728749
140	0x3fcd2c2e4a70da98	0.2279107917290346
141	0xbfb5eac8153c8dd1	-0.08561373251409711
142	0xbfbfaacd9351b385	-0.12369999739321542
143	0xbfc7cff798d644b8	-0.18603415453666172
144	0xbf992d83b421cc77	-0.024587686414133416
145	0xbfb136a3492adab7	-0.06723995720208618
146	0x3fcfe030d0b46a59	0.24902925673161994
147	0xbf9e3ae23d697653	-0.029521498678482704
148	0xbfce6eb08fa4f0d9	-0.2377529813183006
149	0x3fcdbe7762b93525	0.23237507172090335
150	0x3fbd6988bd510283	0.1148915731619216
151	0x3fd2418a2bc9716d	0.28525022769988234
152	0xbfd3baa5445e5dcf	-0.30826694180128994
153	0xbf3ec34c382418dd	-0.0004694043237950649
154	0xbfd52b01e06fd1d6	-0.3307499591603834
155	0x3f9bfd3aa33b85a9	0.027333179676934858
156	0x3fc87c98386e0d1f	0.19130232577672587
157	0xbf9f1e766c3b7e58	-0.030389643054944265
158	0xbf8d63d65b5c7caf	-0.01435058084785931
159	0xbfca139d39632766	-0.20372357656588774
160	0x3fbd722cefd560b8	0.11502343039808494
161	0x3fc7cb3a1209b96a	0.18588949089776047
162	0x3fce15eebe799d96	0.2350443296484001
163	0x3fd7042adaddb1fd	0.3596293580401662
164	0x3fd1072bb1178495	0.2660626630223047
165	0x3fb98d40747f04ab	0.0998115810789552
166	0xbfaa0af4afddcae7	-0.05086483618551601
167	0x3fd39c42e94600a0	0.306412437254048
168	0xbf97886be08db637	-0.022981343823110314
169	0x3fc2452364e82b3b	0.14273493220420072
170	0x3fb8101832a51a10	0.09399558292816601
171	0x3fb25fa135dd05e4	0.07177169384978971
172	0x3fd2303f323ea0bb	0.28419475466445093
173	0xbfcb41b11fd765eb	-0.2129422574496823
174	0xbfd5062df70164a6	-0.3285021698153038
175	0x3fc9410ac765b599	0.19729742752262494
176	0xbfbd95f9a52f5b82	-0.11556968958698913
177	0xbfd6590a1406ac74	-0.3491845317427711
178	0x3fb28203ec20554c	0.0722963763694981
179	0xbfbecdc93d426587	-0.12032754655446896
180	0x3fae96d612fa62f0	0.059744539086016846
181	0x3fb83cb0bd6d264c	0.0946760618654931
182	0x3fbf4a52094724bb	0.12222779013167699
183	0xbfa4dfad9e952442	-0.04076902924368443
184	0x3fc99a74e98838d6	0.20002614405570424
185	0x3fcb87819483d9ee	0.21507282020293367
186	0x3fd2e9a854f26193	0.2955113248404128
187	0x3fc9ff6b799f2dee	0.20310729445041836
188	0x3fd5214b0c6b03bc	0.3301570531148703
189	0x3fd6b44cd110f749	0.3547546426451516
190	0xbf65bc4f16a7a98a	-0.0026532692620452923
191	0xbfda3717a37b1a65	-0.4096125694744955
192	0xbfc276f5e5e4407f	-0.1442553875463126
193	0xbfd99b9e0fee4562	-0.4001231341909116
194	0x3fc45eef5a30d70a	0.15914718536230793
195	0xbfd247be53cc2426	-0.28562887366621437
196	0xbfcea679f78d8119	-0.2394554575685184
197	0x3fcc777f231cda8e	0.22239674772727763
198	0x3fcf2bcb88bd86e6	0.2435240190198364
199	0x3f9f313863ea19f8	0.030461197946829416
200	0x3fb42301d66716e0	0.07865916714134924
201	0x3fce45cbc92e2c63	0.23650500605831146
202	0xbf85d88909890ff4	-0.010666914561745934
203	0x3faf56b39ceb0493	0.061208355813058855
204	0x3fcee9bbecc15c6a	0.2415079980880564
205	0xbfc9878f6be116ba	-0.1994494702104726
206	0xbfc68dec034fec68	-0.17620611345032278
207	0x3fd04dcb47978609	0.25474817267794997
208	0x3f3395e0ed074596	0.0002988504538992907
209	0xbfc0a166ee3f58c5	-0.12992560036827264
210	0xbfb6a2c3164bf413	-0.08842105192520959
211	0xbf57653eca377e5a	-0.001427947347899214
212	0xbfd820089aca1472	-0.37695517650747157
213	0x3fc8b21d5e124a9d	0.19293562978107995
214	0xbfbda3c41de50e58	-0.11578012208797739
215	0xbfca1f61fcb640a2	-0.20408272590112114
216	0x3fd2bc30c9f6a1a1	0.29273624155987404
217	0x3fa8094215c516d2	0.04694563403840636
218	0xbfbb687e2a3298be	-0.10706318407264612
219	0x3fd5d57e47efc1c4	0.3411555960183501
220	0x3fd082057e44f8a7	0.25793588000295603
221	0xbfc621cbc84a7773	-0.17290637283161522
222	0x3fc5899ec4d4062f	0.16826233492615603
223	0x3fb2030e1f85e636	0.07035911817174498
224	0x3fd4e7556b7eeb74	0.32661948678622044
225	0xbfcd3ba9dfed93d7	-0.2283832877539271
226	0x3fcc1124e5c6556c	0.21927319735975048
227	0xbfae32d296d20147	-0.0589814957720614
228	0x3faf99895f1ae016	0.061718266353125426
229	0xbfc489f0fda727a8	-0.16045963654897588
230	0xbfa44e0e73d2a447	-0.0396580234895017
231	0xbfa158bcb01920a5	-0.0338801350558822
232	0x3fb1040d6d85186c	0.0664680855162218
233	0xbfd6d335ad714e42	-0.3566412156844515
234	0xbfae0c7e9387eece	-0.05868907500186325
235	0xbfac77c23bacc3f2	-0.055601186546830564
236	0x3fcacdf89671fe0a	0.20941073747597755
237	0x3fd45a11390539bb	0.3179972702827418
238	0x3fc83e8e087b28a3	0.18940902151218095
239	0xbfd38f26e4ccd66c	-0.30561230033649767
240	0xbfc741a82f13f780	-0.18169119166116943
241	0x3fbb54250f6a3d50	0.10675269724219061
242	0x3fd2122668630aa5	0.2823577899363648
243	0x3fa9e88dc3217b43	0.05060236937492004
244	0xbfade2391c1ae1fb	-0.05836657016829246
245	0xbfd3438b83959383	-0.3009976181986575
246	0x3fcbdce514276b51	0.217678675499736
247	0xbfc090a32d848917	-0.1294139835600354
248	0x3f53c194343e1eb8	0.0012058207803153208
249	0x3fcfbddd030710a5	0.24798166892845078
250	0x3fc1181b1d495b52	0.1335481541634303
251	0x3fc0dad08910a509	0.1316776913893494
252	0x3fb448e67f0f8396	0.07923737146439999
253	0xbfb70348b9a4e0ef	-0.08989386112523666
254	0x3fc2810aaf03d9de	0.1445630411687508
255	0xbfbc4a3d231e908c	-0.1105077944508272

conv1.bias f8 [32]
0	0xbfe0dd9d5fc89cdb	-0.5270525809072767
1	0xbfad876448afe9cf	-0.057673581955856805
2	0x3fa8c5817d1e1784	0.048381849787843684
3	0xbfc5fd7f6cb366ed	-0.1717986374631474
4	0x3f655e8a878a9ad4	0.002608557286595351
5	0xbfd7571f5efc8cfe	-0.36469253803279844
6	0xbfcb5c635695f465	-0.21375695922680218
7	0x3f728aa452db8a4a	0.004526750459009474
8	0xbfdd17acae343796	-0.4545699788294483
9	0xbfc7aca76490faac	-0.18495647821869932
10	0xbfd9fa76b9bfe2a5	-0.40591209544758505
11	0xbfe17326e7f8b093	-0.5453066378299972
12	0xbfbf93545ace0a37	-0.12334181992449876
13	0xbfca61d06ed0e506	-0.20611005221307027
14	0xbfd657fed5be248a	-0.3491208159762854
15	0xbfd086ed942429e6	-0.25823535410805076
16	0xbfdc8b2bf9a6e7b3	-0.4459943712241696
17	0xbfd5103e6947624c	-0.329116442500468
18	0xbfd4a3c4c4a9d53f	-0.32249564366732736
19	0xbfd846cf5aeb9d94	-0.3793218982595701
20	0x3fbd93a5e91044e7	0.11553418102291212
21	0xbfdb67046d21cb81	-0.4281626764051723
22	0x3f91f8e985a80c1b	0.017551087172261597
23	0xbfd80848aca0c2e1	-0.37550560816002415
24	0xbfd5ec7883f87b7b	-0.34255803001172297
25	0xbfd94857a05f4914	-0.39504042302464026
26	0xbfdc3cfcda1fb5a8	-0.4412223940006137
27	0xbfc77924779f8031	-0.1833844741913722
28	0xbfc1d88ede5191b1	-0.13942132811929533
29	0xbfdacffae7c7eaac	-0.4189440978513328
30	0xbfd105c180ecd0e1	-0.2659763106378375
31	0xbfd3600508d3ed8f	-0.30273557531446554

conv2.weight f8 [32, 32, 3, 3]
0	0x3fc2f6ad90c10c97	0.14815301483222207
1	0xbfbc82b4e28cc6e1	-0.11136942416194585
2	0xbfd9f7968bdf86a7	-0.4057365766476359
3	0x3f910d6dd50d8309	0.01665279019232727
4	0xbfbc1d32ad507249	-0.10982052546791822
5	0xbfd2582b37ae279e	-0.2866313976052143
6	0x3f881579287c13f1	0.011759707019800532
7	0xbfbbcc6016ebcd1b	-0.10858727035138253
8	0xbfd3e0c7207ed900	-0.3105943505610327
9	0x3fd07ed114891a99	0.2577402782957648
10	0x3fc2dd5db61420e0	0.1473805560165209
11	0x3fd70f78690271a4	0.3603192353710034
12	0x3fa88d6535a54e4b	0.04795376090865185
13	0x3fb158fba557e62a	0.06776402270033857
14	0x3fa1169a7015f9b4	0.033375574285844506
15	0x3fb0046a5b0d5b0d	0.06256737444833167
16	0x3fa25881ce1fe0ae	0.03583150521439059
17	0xbfabe7a237170643	-0.05450159952625857
18	0x3fd1382cb339afb1	0.26905362608408284
19	0x3fd0efee8394bd28	0.2646442685099424
20	0x3fa8c9644b756316	0.04841149731755061
21	0x3fc87ef0dee4c887	0.1913739288662024
22	0x3fb4b80a32075a46	0.08093322488216712
23	0x3fc6aa1511c1ad46	0.1770654999448686
24	0x3fb9f78d5bfa219d	0.1014335965684325
25	0x3fa04b4db5c26d54	0.031824520528256045
26	0x3f9d47c2e42d6e9a	0.02859406011280772
27	0xbfa29e350a89f90f	-0.03636327508592007
28	0x3f973720a172d1e9	0.022671232084308022
29	0xbfc7c2a55f579e87	-0.18562762408622666
30	0x3fb60f2fbddfc699	0.08616922746275647
31	0x3fa58f369a3be0ed	0.04210825569856689
32	0xbfc0fa82ac9a77d3	-0.1326449721136088
33	0xbf30bd8c069ba524	-0.000255438505162591
34	0xbfb8d26791398928	-0.09696051879430867
35	0xbf80130f032417d6	-0.007848851474147194
36	0x3fd5b1506df15a5e	0.33894739853477585
37	0x3fbb12fa6df2ab3c	0.10575833496356507
38	0x3fbc4f6dd9972253	0.11058699190392333
39	0x3fbccea4351156f4	0.11252809806441261
40	0x3fc681f860861627	0.17584137642931916
41	0xbfad0451d58252fe	-0.05667358142196653
42	0x3fc00b25311ea031	0.12534012697619937
43	0x3fbefcabcee7bb75	0.12104295541187844
44	0x3fb5a2b1995926b9	0.08451375955442132
45	0xbfc69ff3f2673860	-0.17675637565702385
46	0xbf953eb7eb2c5dad	-0.02074706433185518
47	0xbfb45af3dd3a4370	-0.07951282645286795
48	0xbfd22db9570c61df	-0.28404077053849436
49	0xbf9f33d72951d2f9	-0.0304711932153223
50	0xbf2fb28a1d6077dc	-0.000241832122527207
51	0x3fb089ba3488c2d6	0.06460155279706767
52	0x3fa311ff3be8a06b	0.037246681273530445
53	0xbfd502cc6d466f7e	-0.32829580947304027
54	0x3fca76b16b33ac95	0.20674722418275296
55	0xbfb1a790a1e2776f	-0.0689630885339889
56	0x3faf6025a687bf9e	0.06128041894760304
57	0x3fa2836a85598aaf	0.036158875253723514
58	0xbfad5b63085d8f4b	-0.05733785130612875
59	0x3fa71bf8c59d05b5	0.04513528263351977
60	0x3fcd9449702e7d96	0.23108785607926724
61	0xbfb3126fbfe5721a	-0.07450006899802766
62	0xbfc497170d7c0aa3	-0.16086090238976167
63	0xbfde0ff16572dfad	-0.4697230807028017
64	0xbfc2456ea50e4af6	-0.14274390277258647
65	0xbfbf1336ac1d9a0f	-0.12138692571679875
66	0xbf8a7d8fda5ca4b6	-0.012934802867294298
67	0xbf984279b07c838f	-0.02369108333289521
68	0xbf9a75b96604c3c6	-0.025839707233163776
69	0xbfd3f249e6493965	-0.31166312683935465
70	0x3fa1a18e87a4e1d5	0.03443570524035847
71	0x3fb1e7168ca519a9	0.06993237432207046
72	0x3fb2c38441c05afd	0.07329584698923593
73	0xbfd0b80bf18d2105	-0.26123331631653485
74	0xbfc1b51beec60611	-0.13833951147903226
75	0xbfc952d78a9bc74f	-0.1978406359481206
76	0xbfb69f57f1d1e096	-0.08836888936810036
77	0x3f8804cb2977ef2c	0.011727893069284422
78	0x3fa788e127777e0b	0.045966182773323615
79	0xbfbcab3989d40e21	-0.11198768248510095
80	0xbf9bdae466284255	-0.027202194914993722
81	0xbfb2a2bb54e0a1bc	-0.07279558965877347
82	0x3fb6a903beb696f5	0.08851645856938346
83	0x3fc43726bf1d1e13	0.1579330857441482
84	0xbfa838045f324cbe	-0.04730237638536881
85	0xbfb566f77f73ad55	-0.08360239850633396
86	0xbfb01b667f73cfb5	-0.06291809665327615
87	0x3fc97dc25f7a656b	0.19915036832825747
88	0xbfc842a377764484	-0.18953364689926755
89	0xbfa8bf448faba8eb	-0.04833425763884399
90	0x3fb0034c78e09123	0.06255033446411011
91	0x3f6ba174ce5ab8c8	0.003372886788233751
92	0xbfb12c16ff25649a	-0.0670790074267579
93	0xbfa99b5ad1519c67	-0.050013387729273266
94	0xbf857f44acdd22ad	-0.010496651196846807
95	0x3fb094658501bd0c	0.06476435181842904
96	0x3fd0b4ee791b2d5b	0.26104318453572767
97	0x3fab23971fb098db	0.05300590764845633
98	0xbfc873657987b2be	-0.191021618214469
99	0xbfde99de65977236	-0.4781414024453484
100	0x3f740c43d4eabb9b	0.004894509284595917
101	0x3f91b2176b67e427	0.017280927591830555
102	0xbfc0ffe786697cae	-0.13280958235825352
103	0x3fc2202299615b44	0.14160568703911214
104	0xbfb1664e8f75c630	-0.0679673290485645
105	0x3f88a7ebde661f3f	0.01203903458078026
106	0xbfd970c2e90de9b2	-0.3975074077531203
107	0x3fbffe5657bde8a4	0.12497462885031269
108	0xbfd336500305ed0a	-0.30018997473935427
109	0xbfc5378eafbeea24	-0.16575797635398815
110	0xbfd2a9558434c77e	-0.29158533011206333
111	0xbfc2eb80a6e15856	-0.14781196735811147
112	0xbfbbdccc262900c1	-0.1088378518261406
113	0xbfb6a5bf195e9a32	-0.088466590589271
114	0xbfbc10df54988860	-0.10963245215728668
115	0xbfc9c381e3de305d	-0.20127891184199856
116	0xbfb7c6c7e91420d4	-0.0928769058265318
117	0x3fd4531c2ad2d0c3	0.3175726335714552
118	0x3fc2b2759aab4031	0.14607114841646898
119	0xbfb1710a69bfaff4	-0.06813111383206644
120	0x3fb912ea837b7c7a	0.09794488630312684
121	0x3fc54eef563e2e15	0.16647140227392812
122	0xbfc15e9f74402474	-0.13570016075417224
123	0x3fabb51026b914c8	0.05411577675526186
124	0x3fa3e380f78c9c17	0.03884509107438577
125	0x3f8483f696c66386	0.01001732490185404
126	0xbfc4c215a1328faf	-0.16217298861476823
127	0xbfb199f50fbafcdc	-0.06875545152705648
128	0xbfc374cd742d6e24	-0.15200203106620436
129	0xbfbf45be06115116	-0.12215793274055317
130	0xbfc7032df52d3ebf	-0.17978453132172054
131	0xbf963e03ee97b024	-0.021720944821865498
132	0x3fc6267f94a64e49	0.17304987676890196
133	0xbf8abe71191beeb1	-0.013058551386613134
134	0x3fb40419a720dfe0	0.07818756418498607
135	0x3fb90eaee5fd843d	0.09788029780385528
136	0x3f902f90aa60b810	0.015806446455989998
137	0x3fc14e81bbe206d6	0.13520833658190295
138	0x3fb684ec4bceac9e	0.08796574450268443
139	0xbfb11aaf34b940ae	-0.06681342160414047
140	0x3fa7a599d22a6ded	0.04618530931949381
141	0x3fa4a285e6408a9b	0.04030245242781413
142	0xbfb984ec1bb58b24	-0.09968448330395724
143	0x3fc2224b236af19d	0.141671554845641
144	0x3fbd3c6a84d4832c	0.11420312636302005
145	0xbfd4dec0c1389161	-0.3260957610057372
146	0xbfcf86488a94a26a	-0.24628550306921976
147	0xbfc0bd773d12abbb	-0.1307820366103821
148	0x3fba90e99b750058	0.10377368970239453
149	0xbfdccda3aa30b003	-0.4500512277616055
150	0xbf9aba50e8fa2345	-0.026101364345353834
151	0xbfab88767f31ae2a	-0.05377550413762962
152	0xbfc58d2ba5193541	-0.16837068139504122
153	0xbfbed5600736db56	-0.1204433457959174
154	0xbfb071b5ce41d8fd	-0.06423507962776749
155	0x3fba53cdc4436272	0.1028412441404585
156	0x3fc7c2b4f1ad8b83	0.18562948036841584
157	0xbfc668b1fbc3f368	-0.17507004540666604
158	0xbfb1fcd2c3fa0a2b	-0.07026402744853814
159	0x3f471e720378360e	0.0007055336672593963
160	0xbf9ebccb41289953	-0.030017066814388937
161	0xbfd567ecb78a5d47	-0.33446805881381575
162	0xbfd5fedb21148043	-0.3436801741645505
163	0x3fc822c1d57781ff	0.18856070445237091
164	0xbfd3e7662d605c84	-0.3109984820488949
165	0xbfaa000ab5de6053	-0.050781569195522146
166	0x3fb556d0e1a02452	0.08335595615803129
167	0xbfd060323ffaf23a	-0.2558713555152142
168	0xbf9ee91ec4236e49	-0.03018615791448401
169	0x3fb7af7bc062eb4a	0.09252141425069485
170	0xbfac90d25ca8aac1	-0.0557924020871119
171	0x3fab586c1dd4ff40	0.05340898384247206
172	0x3fb7e12933d2f892	0.0932794333957381
173	0xbfaee28c1ec2f2fd	-0.06032216907030905
174	0xbfc8e2e4c70f4873	-0.19442424506866338
175	0xbf4a22d510ec5690	-0.000797609363732037
176	0xbf883853add6b77b	-0.011826184981000179
177	0x3f8a1c6c072f9d47	0.012749523133563158
178	0xbfc44dc928f12eb8	-0.1586238336479846
179	0xbfbac7ab35dda8df	-0.10460920395931649
180	0xbfc8e1be054f1d5d	-0.1943891073153549
181	0xbf919cb919dc8c90	-0.017199413493596938
182	0xbfd273f20511a715	-0.28832674498572547
183	0x3f956b8ad1199eec	0.02091805363889325
184	0xbf9a70d4585eed08	-0.025821035283780908
185	0xbf44c34618fba738	-0.0006336300156963631
186	0xbfb3586be9561d73	-0.07556795546235211
187	0x3fba98e805726f45	0.10389566548331881
188	0x3fb72cbcaca185dc	0.09052638258574269
189	0xbfb0e0ae7df0c060	-0.06592836928098356
190	0xbfc2c4bc9e53a3cb	-0.14662893038555888
191	0x3fb232b923eaa096	0.07108647467487325
192	0xbfa85b7f4e0cdd17	-0.04757306888353179
193	0x3f9803d899f80991	0.023452171704784034
194	0xbfd1134edeff9e8a	-0.26680347230146906
195	0x3fa09eefaf2060e8	0.032462587478393534
196	0xbfc0489afbe39e47	-0.12721574115060916
197	0x3fbb7793cac46b53	0.10729335499165175
198	0xbfb0cbd4dd75a118	-0.06561022192693533
199	0xbfb489361d9c7209	-0.08021867964675534
200	0xbfa513853b3a09fd	-0.04116455409986839
201	0xbfca858ec3aede10	-0.20720085673177424
202	0x3fcd5035d6b54013	0.22901032432355403
203	0xbfc85c5f7e6d3e13	-0.19031900094204043
204	0x3f94a6f332b02ce7	0.02016811367870455
205	0xbfbbf484d704b5f5	-0.10919981240723316
206	0x3fc2a00b67d15457	0.1455091721460657
207	0xbfae1687c4d1065d	-0.05876564290566642
208	0xbfb7a9d60064e94f	-0.09243524083732278
209	0x3fc3b0519dac9dc1	0.1538183231252628
210	0xbfbbc7f8fe9a45ac	-0.108520090254635
211	0x3f93b32f5030bb62	0.019238223332816225
212	0xbfaf240917de793c	-0.06082180420274816
213	0x3fb28deb89bd8fb9	0.072478028419538
214	0xbfc1e03c2e7bc7b2	-0.13965561170294688
215	0x3fc14ba51998560c	0.13512099981078085
216	0xbfe26f51f6415fa8	-0.5760888871836771
217	0xbfcb528de3eef481	-0.21345685605584566
218	0xbfa26ecda8664bc6	-0.036001612478819875
219	0xbfad3582518e71b5	-0.057048866706483826
220	0xbfc1d430f0d21d1c	-0.139288060749302
221	0x3fbfdb59dbd5cf61	0.1244407808024426
222	0xbfb651220498d288	-0.08717548954229859
223	0xbfb605fe867f78ff	-0.08602896484032739
224	0xbf90fd56e63b59a0	-0.016591413309322456
225	0x3fc0724fece082ad	0.12848853174457045
226	0xbfc397008718619a	-0.15304571720549803
227	0x3fbd4d391366e2e4	0.11445957873992146
228	0xbf8d6048d27be527	-0.01434380428644262
229	0xbf90a290f8528988	-0.016245141178509864
230	0xbfc4cdba3b0773cf	-0.1625283039310532
231	0xbfbe8dfbef4c52a2	-0.11935400573959012
232	0xbfd151820d78a4f1	-0.2705998546176281
233	0xbfc2c2d37dbf1d3f	-0.1465706218716409
234	0xbfdaae13c7809ec2	-0.41687483294161265
235	0xbfc3c6dd7700f395	-0.15450638113716467
236	0xbfdcab591e89470b	-0.44795825941137996
237	0xbfd0eda7892c9056	-0.2645052756872749
238	0xbfc57d11362eeae0	-0.16787924905459928
239	0xbfc2dba83c5a8d57	-0.1473284048744101
240	0xbfc2661c7b62bff9	-0.14374118828482077
241	0xbf8e89512cd7fe06	-0.014910349064847683
242	0xbfc2e940d3beb799	-0.1477433236991004
243	0xbfa60ccc508607bd	-0.04306639178231773
244	0x3fb7c729d8b1057b	0.09288274326629235
245	0x3fd44dafbc9625ba	0.31724160591746975
246	0x3fc173d1e9d61fc0	0.13634704511446039
247	0xbfbc4dfbc2a907da	-0.11056493284652849
248	0x3fd3bb3f2560cdf9	0.30830362940034167
249	0xbfb2d7e50ec48e5c	-0.0736067925504868
250	0xbfabdfdeed5ae6f0	-0.05444237372780758
251	0x3fa29556d5ec9b92	0.036295617688941864
252	0xbfc029e3be566610	-0.1262783698446559
253	0xbfd1d7faf0b11e7f	-0.2788073874002989
254	0xbfc97702eebe3b04	-0.1989444413888678
255	0xbfb77c1532c90dfb	-0.09173710336568057

conv2.bias f8 [32]
0	0x3fc8098375468e27	0.18779032923076608
1	0xbfbb0c99689ade8b	-0.10566099933464039
2	0xbfccd964c4a443cb	-0.22538432695048835
3	0xbf9f57e27024ff3a	-0.030608690352209346
4	0xbfc6bd26b3bf1464	-0.17764743591957022
5	0x3f9250d75af580f1	0.017886509825417233
6	0x3f7b92502ee225aa	0.006731332030662266
7	0xbf6291e69eb505af	-0.0022668365760700397
8	0xbfca19cad43a6530	-0.20391211855602753
9	0xbf9ea91d04c62c1a	-0.029941991249455048
10	0x3f97c04c551c2a1e	0.02319449681730578
11	0xbf8db83395cee876	-0.014511492738041403
12	0x3fa7d4e266c43681	0.046546053929074745
13	0x3fbb76b52a43365b	0.10728008539009563
14	0x3fae693c269f020b	0.0593966290612152
15	0xbfb927d594ee0b2d	-0.09826407323820936
16	0xbfacb084c18d3644	-0.05603422987642806
17	0xbf741ed3e422b2dd	-0.004912212085554227
18	0xbfb3b521c19a0e16	-0.07698260285001654
19	0xbfc520a4338c78ff	-0.16505863682773023
20	0xbf658bef258c55a3	-0.002630202372879879
21	0xbfa2e61ab6664e49	-0.036911806836681445
22	0x3f703c466dfc4bc5	0.003963732829805393
23	0xbf14652ba4e441c8	-7.780150301451357e-05
24	0xbfbdb8c18d6af671	-0.11610040381034438
25	0xbf74606fe64ca09a	-0.004974782092894392
26	0x3fa650c04aaa3b6d	0.043584832300544864
27	0xbf9a0a3075444a66	-0.02542949405421737
28	0xbfb0825d25db889f	-0.06448919462448764
29	0xbf83fdce156216c0	-0.009761438396036382
30	0xbfad186e8aae131d	-0.05682702486868705
31	0x3fc51e56b384866c	0.16498836293708352

fc_1.weight f8 [64, 800]
0	0xbfc6a88eb5491f6b	-0.17701896526181868
1	0xbfb88a65ed3e1e42	-0.09586178819710603
2	0x3fa2832269f59d5a	0.03615672629785634
3	0xbfd208ff75ecab32	-0.28179918781340796
4	0x3f91e3000432f65d	0.017467499023715017
5	0xbfbf5b359a6fc7b6	-0.12248549480844315
6	0xbfc9763e87ab45ee	-0.19892102837052
7	0xbfd7ab446d8a20ed	-0.3698283261987985
8	0x3fc59886b5676b30	0.16871723039261033
9	0xbfc465076e3db10a	-0.15933316119060975
10	0x3fca8cc98621e537	0.20742148446496753
11	0x3fba2784c0112b27	0.10216550530564615
12	0xbfbe8ffaa733ec25	-0.11938444692707202
13	0x3fc1e94f664ff179	0.13993256087986675
14	0xbfcd9e2252409416	-0.23138836876128782
15	0xbfb78019703c5940	-0.09179839124803824
16	0x3fbbf4661a62e2fc	0.10919798034855072
17	0xbfcc7598fcbc0750	-0.2223387941413031
18	0x3fb348f481aef339	0.0753319565400944
19	0x3fb6a16ac4c535e6	0.08840052894557679
20	0x3fb3dac18b6ff7a6	0.07755670217735985
21	0x3fc39f756b4a603b	0.15330379236979916
22	0xbfc94e00070808dd	-0.1976928743679939
23	0xbfabb918536891c8	-0.05414653795404295
24	0xbf9be09c80b07ff0	-0.027224011759358235
25	0x3fd5103ed75a396f	0.3291165450144921
26	0xbfb7ceceabcad5ed	-0.09299937910221674
27	0x3fd2a29cfb0bbfde	0.29117512241555044
28	0xbfb778131dc7132a	-0.09167594410889693
29	0xbfb46a1e9b821e90	-0.07974425598706092
30	0x3fb474b5efe174d1	0.0799058638235295
31	0xbfd813b4a52a3fb3	-0.3762027371349134
32	0x3f93cd68d5795c51	0.019338262586043268
33	0xbfc78ac81f41d8f5	-0.18392278219443595
34	0xbfd0f5cfc9f621ac	-0.2650031540183828
35	0xbfe24952797b1d50	-0.5714504597353116
36	0xbfd642c9f4d2706c	-0.3478264704551808
37	0xbfd7852ffd78f337	-0.3675041175190929
38	0xbfcb8b15d68c3424	-0.21518204666100005
39	0xbfdc214af9b87ae2	-0.43953203570155897
40	0x3fe097a84f4363d1	0.518512873469371
41	0xbfc5ef595b1d0c51	-0.17136685322666037
42	0x3fb743dd872bd09c	0.09087929296566916
43	0xbfb5320ec16e20fe	-0.08279506895462771
44	0xbfc0b7ce53320e5c	-0.1306093126514608
45	0xbfd45e9d6b0952ca	-0.31827483608985274
46	0xbfb308271831d643	-0.07434315052690814
47	0xbfa8ca8f4607ca2d	-0.048420407580028836
48	0x3fa180ed608a51b0	0.03418676188917702
49	0x3fc20c576014e09e	0.1410016268871503
50	0xbfd4180761e4a63a	-0.31396660385016484
51	0xbfca633e648a441f	-0.20615367802796045
52	0x3fb4cf22ff80bfec	0.08128565538277116
53	0x3f9b4c5694f9b0db	0.02665839466355711
54	0xbfc8fe722068f8b5	-0.19526506979486205
55	0x3fb5267208e34e6c	0.08261788098325845
56	0x3fc336f835e9c3d2	0.15011503822782274
57	0x3fc7ac311ded35e8	0.18494237862834884
58	0xbf9d050214d3ed7a	-0.028339417000990498
59	0x3fc0d09d00823a9c	0.13136637234534454
60	0x3fc1313227ea81d7	0.13431384037995883
61	0x3fc19c18ef4218c4	0.13757621462372616
62	0xbfa57fbfdbd97046	-0.04199027594287989
63	0xbfe07d3743c0b1e5	-0.5152851413054661
64	0xbfcbea78137839b7	-0.21809292746224937
65	0xbfc75bedd1b6d9ed	-0.1824929498668121
66	0xbfce35914ce92be8	-0.2360097528020042
67	0x3fb9f21045f8855d	0.1013498469187843
68	0xbfc2b4584b76d203	-0.14612868962071
69	0x3fa6bc56252428db	0.04440564349541073
70	0xbfc21641ebd4ed17	-0.1413042451402837
71	0x3fbe7f67d5dceceb	0.119131555283207
72	0xbfc461bf729abd9e	-0.15923302741928763
73	0x3faac6d2b3a70442	0.052298149519181894
74	0x3fbb270a29662266	0.10606444845883231
75	0xbfb263b5fc73422f	-0.07183396733604107
76	0xbfd024d2cc8a57b5	-0.252247524019704
77	0x3fa593af493ecaac	0.04214236992938444
78	0xbfc5b6544298e634	-0.1696267438108393
79	0xbfbad310dd60272e	-0.10478310970952684
80	0x3fd4d4c612bfebb0	0.3254866774656717
81	0x3fcd788102b4aa3c	0.2302399886333023
82	0x3f782c5fb50af7b9	0.005901693207020325
83	0xbfcd5fd01fb343e6	-0.22948648021568302
84	0x3f94bd7a99a987ad	0.02025405466918755
85	0xbf988d9f64bb30b1	-0.023977747462411162
86	0xbfc29baf9e714868	-0.14537616001559006
87	0x3f9a55f15240d71c	0.025718470235197008
88	0xbfb46f70396b9206	-0.07982541467533374
89	0xbfc4815d9594a3c6	-0.16019792369595914
90	0x3fc1ba157f40095a	0.13849133218179582
91	0x3fc3cc93be9e19d5	0.15468069846629243
92	0xbfc1cad012c8a57b	-0.13900185506035342
93	0xbf952dc80e818dfe	-0.020682454953556466
94	0xbfc59a568a798f7e	-0.1687725235125263
95	0x3fc19cb2d72c060b	0.13759456163829528
96	0x3f9a57c2bc935683	0.025725405463922
97	0x3fd29d293cea322f	0.29084235142434783
98	0x3fa9aa03eac6aeec	0.05012523880881567
99	0xbfcad4e0af1916bc	-0.20962151097972093
100	0x3fccfe29a8211a60	0.2265064307159319
101	0x3fc1cee5ef518439	0.13912653146238244
102	0x3fa1710bdc014cb0	0.03406560001953929
103	0xbfabae57d267f6eb	-0.054064506944980405
104	0xbfae5d8bc71ac857	-0.05930744939304649
105	0x3fb1c335407fe936	0.06938488793085615
106	0xbfd59d485897bb43	-0.3377247681773278
107	0xbfcd0d4b5e46a35e	-0.22696821311299237
108	0x3fc5f170712ca153	0.17143064046946196
109	0x3fa200707968f41d	0.03515960199408872
110	0xbfcaa4ebfeca1db3	-0.2081580156411583
111	0x3fc47f93ff4cf45a	0.16014337507104665
112	0x3f8016f5961a7af3	0.007856291430753148
113	0xbf929cc0e2742e2b	-0.018176091977734437
114	0xbfc9ab03904ed0d8	-0.20053143068583412
115	0x3fdb00c3323551c0	0.42192153838302815
116	0x3fbd58da4e07eaee	0.11463703541805234
117	0xbf604a4e91f1ef54	-0.001988557297918728
118	0x3fc882569de7c198	0.1914776106855356
119	0xbf8de63151c43ee6	-0.014599213893716944
120	0xbfb53b32bfed7728	-0.08293454347355278
121	0x3fb049b9f5afedc0	0.06362497566435987
122	0xbfc556f401cd5495	-0.1667160996245555
123	0xbfdfb60e610224b7	-0.49548682664369487
124	0x3fc71c8070a29ac9	0.18055730342640278
125	0xbfc6ae87e2a1faed	-0.17720125738193052
126	0x3fd188de50ca10fa	0.2739787854154795
127	0x3fb5644e9fca8b8e	0.08356181527282855
128	0x3fc7cfc0a4f3c1a3	0.18602760366731017
129	0xbfa78fc307870e0f	-0.04601869074715747
130	0xbfc16016aab3f08c	-0.13574488959409725
131	0x3fc25f6fc321a92e	0.1435374930181949
132	0x3fa6df0c5d9d9e69	0.04467047350663906
133	0x3fbaefef574184c9	0.10522361641189372
134	0xbfcaa09375d0da99	-0.2080253911278376
135	0x3fb9f00a9485b641	0.1013189900019933
136	0x3faba463329df33e	0.05398855202563489
137	0xbfa9215c5286e48e	-0.04908264644058945
138	0xbfb9ad6a9636153e	-0.10030237357394342
139	0xbfa84747ee634739	-0.047418830728601376
140	0xbfc9067ad13ddab7	-0.19551024643779666
141	0xbfb37e61aefa2597	-0.07614717981245743
142	0xbfbed07c0184ca62	-0.1203687194545551
143	0xbfc76de0284ca2c2	-0.18304063766233553
144	0xbfdd2ee3387ec891	-0.4559867908202558
145	0x3fbb8f1072b2656a	0.10765173721519763
146	0xbfd7b66111532eaa	-0.370506541174772
147	0xbfccf059ff2aeb6d	-0.22608494719846864
148	0x3f648357b8d0a32c	0.0025040353125586248
149	0x3fbad2bc52deee7c	0.10477807067121064
150	0xbfb5c488460d5a65	-0.08503009519822909
151	0x3fc3955ced9e8f96	0.15299569704540933
152	0xbfc055ccf3351f27	-0.12761842608801396
153	0x3fc3e14d2a7be5b6	0.15531315397656237
154	0xbfb2356d68a0dcd5	-0.07112773708728366
155	0xbfccfb120f40e7a3	-0.22641206497956742
156	0xbfcea6c98ad380b7	-0.2394649436819287
157	0xbfc4177cdad4fef4	-0.15696678815037723
158	0x3fa1f2d51fc48349	0.035055790069469746
159	0xbfc187bfa1c11ee7	-0.13695521734393099
160	0xbfc5ea11a9634d8a	-0.17120571871656082
161	0xbfd3c6ba7e5dc89a	-0.30900442448104004
162	0xbfc61f4f5c4102d0	-0.17283050541484224
163	0xbfa83b554fb0ebfc	-0.047327676752011855
164	0x3fb113aeb0c56520	0.06670657935810143
165	0xbfde2180f50072db	-0.470794905910038
166	0xbfe03855dd5f6676	-0.5068768809971533
167	0xbfb66392aa312f0a	-0.08745686202126648
168	0xbfbc8d5b460e9aef	-0.11153192959191548
169	0x3fd225bcae914033	0.28355328605266833
170	0x3fd26837bf98a449	0.28761094770976975
171	0x3fbde83d65c483db	0.11682494864045571
172	0x3fc82632fffb3c90	0.18866574763385247
173	0xbfe747bfeed48d6d	-0.7275085129407849
174	0x3f9afa3e1da01332	0.026345224912819272
175	0x3fc6726fb0194f02	0.17536731813981282
176	0x3fd7bf0000e5e466	0.3710327156800929
177	0x3fca2ff2f6e13253	0.20458828978225316
178	0x3fcbabf5e24ccc16	0.21618531751445919
179	0xbfa91f5d1190a691	-0.04906740989129078
180	0xbfaea91d5fd01971	-0.05988399309721871
181	0x3fbef54b6bae34b1	0.1209303987399888
182	0x3fc6e8cd2e723240	0.17897953765749897
183	0x3fcd65165aef5ec7	0.22964744033992288
184	0xbfbd94e808c25761	-0.11555338109823544
185	0x3fb80ca3122e23dd	0.09394282525876414
186	0xbfc9d973b25acb14	-0.20194860657428448
187	0x3fcb44c66bb833e1	0.21303634891265147
188	0x3f986d27d806bd9d	0.023853895721627095
189	0xbfcccdf0a26a44d5	-0.2250347893755477
190	0x3fa9f2b51a97d5b2	0.05067983579275949
191	0xbfc85c2d751f059d	-0.19031303614432896
192	0xbfe41f0b66eecfce	-0.6287896166236295
193	0xbfcffd96b88f907e	-0.24992641460187665
194	0xbfb307420c2cf1e0	-0.07432949826483748
195	0xbfc7302ca2f346fe	-0.18115766483838763
196	0xbfac7b6d970e95a3	-0.055629181565829876
197	0xbfb1540de4895933	-0.0676888163519365
198	0x3fc32a2b7003f2d4	0.14972441644194723
199	0x3fca6f37a85183b4	0.2065190860621705
200	0x3fce5709ca204e83	0.2370311963028265
201	0xbfa03a5f9efdf0db	-0.031695354612539105
202	0x3fc3807070cf1975	0.15235715397120556
203	0xbfcf87a819513c8b	-0.24632741199682004
204	0x3fcdc5313e3596ed	0.23258033311429163
205	0x3fb5ce5143db66be	0.08517940432229928
206	0x3fd1bb097cd6cc85	0.27704083625139503
207	0xbf81434088fcca07	-0.008429054432416384
208	0xbfb1b6c72a704900	-0.06919522081469509
209	0x3fc79215655cfe61	0.18414561700227508
210	0xbfd1ab2189d6fc5b	-0.2760700079051667
211	0xbfdbec491e428301	-0.43629672961291993
212	0xbfc391ffd0bb0d99	-0.15289304439475584
213	0x3fc50c0502ca6625	0.16442930828343197
214	0x3f64b74760f07ecc	0.0025288004030839858
215	0x3fd257c2c6b22148	0.28660649684799866
216	0xbfd055447900a044	-0.25520431343693795
217	0xbf6300474639f7e7	-0.0023194686962701885
218	0x3fa7d4d569700d71	0.04654566680985795
219	0xbfa4cd0bddaf7d91	-0.040626879512042476
220	0xbfd4dd4d6b4a5e83	-0.32600722768390983
221	0xbfc644dfc67d09c3	-0.17397687141244775
222	0xbfa0259448d69fbe	-0.03153670682087249
223	0x3fb1288897c4200f	0.0670247431299915
224	0xbfc8df0b84fd512b	-0.19430679315213104
225	0xbfd05cfd7752a498	-0.25567566540355235
226	0xbfd4e923002e1c54	-0.32672953622426815
227	0x3fc66c9292e0fffa	0.1751883713895948
228	0x3fd00447c7935948	0.2502612542133602
229	0xbfc0bfdd6647d1cc	-0.13085525030295597
230	0xbfb791288f4cc9d8	-0.09205869196447425
231	0xbfc27ee2cf9c4a25	-0.14449725281936412
232	0xbfd3023aebed98ac	-0.2970111183152635
233	0xbfd4500bb2598cd8	-0.31738560120557
234	0x3fae299afb1e3a84	0.0589111739674211
235	0xbfb335b27556133d	-0.07503810276655272
236	0x3fb9c9d76dd2de1d	0.10073610717051236
237	0xbfa260399561ab23	-0.035890387997673544
238	0x3fc27f570bb748c0	0.14451110908573206
239	0xbf5fa993368d113f	-0.001932519686492176
240	0xbf8ee2c39ba69ff7	-0.0150809556842688
241	0xbfc1226e50180d97	-0.13386324797475588
242	0xbfc08f4db77add8c	-0.12937327822667688
243	0x3fc788887f30d57b	0.18385416231619076
244	0xbfbee0f45bfa56fa	-0.12062003369859645
245	0xbfc2ce6254498fa1	-0.14692334285348088
246	0xbfcf3b7e9a607f62	-0.24400312936722474
247	0xbfcdde7b0aa47dc6	-0.23335207004218556
248	0x3fc045c68720eae6	0.12712937925410656
249	0xbfd4ca3129e8489a	-0.32484082310214435
250	0xbf57779f13c3b556	-0.00143232855685523
251	0x3fcce8ad4d554205	0.2258507373430946
252	0xbfb126d63e8a41cc	-0.06699885393960087
253	0xbfc8afb416974744	-0.19286204436371623
254	0xbfd85d81c6fd87c7	-0.380707210852162
255	0x3fcecf797b8a3eb5	0.24070662052371508

fc_1.bias f8 [64]
0	0xbfc948c540de82a9	-0.19753328006210794
1	0xbfb8489085c484c1	-0.09485724702655586
2	0xbfbf722e2ffe773c	-0.12283600494126018
3	0xbfb5ffef124954ab	-0.08593649097868432
4	0xbfb32dd43c9a1de4	-0.07491804580251188
5	0x3f8de868a30e1f1a	0.014603440738724372
6	0xbfa257f49b206f27	-0.03582729715000559
7	0x3fb296262656054c	0.07260359226167629
8	0xbfbfd11920af597c	-0.12428433464024197
9	0xbfb50e42a4919a78	-0.08224884527008125
10	0xbfc06bb3d3e8b172	-0.12828681800000258
11	0x3fb9497d4382fa8d	0.098777607900937
12	0xbfbf9de2a765897b	-0.12350288950759662
13	0x3f9386d3b3d2628e	0.01906901154561296
14	0x3fac4c3918e0fa3d	0.05526903561302674
15	0xbfc198310379c471	-0.13745701474866537
16	0xbfc0bbf081aa6e30	-0.13073545771918438
17	0xbfb50e0eedc1a12b	-0.08224576286886946
18	0xbfc578e0c3046515	-0.1677514030678046
19	0xbfc215b2d076b0da	-0.14128718546761015
20	0xbfb5c1883d0c5878	-0.08498431673464946
21	0x3fab77dcc93c8668	0.053648852887147325
22	0x3f7ec28a7059374a	0.007509747292329847
23	0xbfa428aa8ea5a82a	-0.03937275878236364
24	0xbfa7b70ded0e66f9	-0.04631846922639044
25	0xbf9d15d41dfa33de	-0.028403581933662873
26	0xbfc0a0c76f0237f9	-0.12990658684105919
27	0xbfb8b29176d82b38	-0.09647473479723778
28	0xbfb065b87e926ecf	-0.06405213441979217
29	0xbfb80a2ce37f7057	-0.09390526346345617
30	0xbfb0173a854f95ae	-0.06285444025669193
31	0x3fa64a58dc616366	0.04353597345534048
32	0x3fb719d78d5e79b6	0.09023806764023487
33	0x3f878e40f546ee9a	0.011501796231520079
34	0xbf9489f6eacb4d03	-0.02005754287786222
35	0xbfbc38b2999a37e2	-0.11024013757761922
36	0xbfa77a79af66dc1b	-0.045856287633277946
37	0xbfb9749758761431	-0.09943529042909983
38	0xbfaab4351dde250b	-0.052156124015775594
39	0xbf9fb04f00469b06	-0.03094600142653816
40	0xbfb4c6cffe375a28	-0.0811586375851695
41	0xbfc5274119c87234	-0.16526044615683733
42	0xbfadc49698215dab	-0.05814047438678512
43	0xbfb09110b9236678	-0.06471352119424434
44	0x3fb53fbaadd49b55	0.0830036806479318
45	0xbfb39799e45d19d5	-0.07653199982914967
46	0xbfaf76c0f7a6cebb	-0.061452894431025716
47	0xbfae27feb31cc1ad	-0.058898887028024795
48	0xbfb5cde8ac6d1d22	-0.08517317018150952
49	0xbfbdf44ac920ce0f	-0.11700885210375865
50	0x3f89042ac019fa2f	0.012214979159805043
51	0x3f8047637aab7264	0.007948662930567348
52	0x3fa9dea19b3a18cc	0.0505266668306362
53	0xbfb8404f362f15bb	-0.09473128388261547
54	0xbfb4abb433f472a3	-0.08074499386243388
55	0xbfac891f2057845f	-0.055733654687863725
56	0xbfc2f846f2105863	-0.14820181674503194
57	0xbfb2cedcd120e3a4	-0.07346897226024268
58	0xbf9668ceb4307951	-0.021884183643231584
59	0xbfc08fee1db5e3a9	-0.12939239931782012
60	0xbfb14fbe2a1e032d	-0.06762302902462798
61	0xbfbd10f524de7a04	-0.11354000234721445
62	0xbfa8a25c5dc2e500	-0.04811371464297487
63	0x3fa3603e16ad1aee	0.037843647258844246

fc_2.weight f8 [64, 64]
0	0xbfaddab2eff69885	-0.058309165756598204
1	0xbfa732fde194e4cc	-0.04531091097528303
2	0x3fc3a33f87304216	0.15341943837167155
3	0xbfcc9c1a266ec16f	-0.2235138595256205
4	0xbfa2c61fcab83cbc	-0.036667817588857926
5	0x3fc3c8135c20920d	0.1545433235015853
6	0xbfd8150ccb051a61	-0.3762847883812466
7	0x3f9ad3c7a561a510	0.026198501080590353
8	0xbfc900fd34b63d4b	-0.19534268449613487
9	0xbfc809212eabc67d	-0.18777861384255692
10	0xbf9f02d33237493f	-0.030284213962496805
11	0xbfadfae29cad3efc	-0.0585547271972455
12	0xbf90e5cde9054deb	-0.01650163397546393
13	0xbf90a6532bb62213	-0.01625947908681453
14	0xbf91159804ed973d	-0.01668393640593212
15	0x3fa4614d685de3c2	0.039804858198244655
16	0xbfd0c3a916a8efb7	-0.2619421693123018
17	0x3fd1da24b1785e4a	0.27893941241334075
18	0xbfd105ae6648729a	-0.26597175587247934
19	0xbf7d3cb41bac23f8	-0.007137969538924864
20	0xbfd5f23eb2f0b3c8	-0.34291045641549234
21	0x3fd1bd1b90e20a01	0.27716721676566186
22	0x3fc2314577b3daa1	0.14212864250994975
23	0x3fb79a22c4997a14	0.09219567584793992
24	0xbfb13e1bff70e7f2	-0.06735396372178551
25	0xbfaae682134361bb	-0.05253988728663069
26	0xbfd54ed0310365ee	-0.3329353788991217
27	0x3fc30c1a4cb21c9a	0.1488068460932695
28	0xbfd71cb12fb692ce	-0.36112622889986035
29	0xbfc12fb5f6c19ecd	-0.13426851795815367
30	0x3fa243bfeb904d26	0.03567313910039109
31	0xbfa53ce115d2a124	-0.04148009673491718
32	0x3fc2275d8fb16f62	0.14182633892311985
33	0x3fb6b7ac1be0bc71	0.08874011688816254
34	0x3fa5e15fe636726c	0.04273509679044171
35	0xbf975d4488a3dffe	-0.022816725578167045
36	0x3f7fbe62a935b674	0.007749925035893324
37	0x3fd226dc9ba4d15e	0.2836219329795052
38	0xbfab97744ab5a539	-0.0538898793409523
39	0xbfb617c06cfe84b0	-0.08629992161742694
40	0xbfb48876ff84e50d	-0.08020728815326468
41	0xbfd51481c7c8aafe	-0.32937664518492216
42	0xbfb9ed0858d9ba50	-0.10127308053208961
43	0x3f60174684ea73ca	0.0019642236068890583
44	0xbf9ace23e705c185	-0.026176987624638954
45	0xbfdf414f105ce51b	-0.48836113546311005
46	0x3fc72fd25f287466	0.1811469044340896
47	0xbf67c22879a64fa0	-0.0029001989871150907
48	0x3fd2e85d93fb27d9	0.29543246699597386
49	0x3fddb1576cadc09d	0.4639490662875774
50	0x3fc46027cf6bc39f	0.1591844332502008
51	0x3fc6c2bd8770cfd4	0.1778180037814524
52	0xbfc49e060e8257da	-0.16107249935583817
53	0xbfa63a51561d18cb	-0.043413678895875295
54	0xbfe166ac61793482	-0.5437833694246736
55	0x3fb8028e9736f429	0.09378901664509044
56	0x3fb0db6058c3505a	0.06584741751731951
57	0xbfb6f718b4acc4c8	-0.08970789347656016
58	0xbfcce96ba992cd0d	-0.22587343006089391
59	0xbfd3b6f8da1a0724	-0.3080427293681274
60	0xbfd89c4f8941003b	-0.38454044727041364
61	0x3fd385339d1a0c6a	0.30500498144119226
62	0xbfd74c5bf3262f6e	-0.3640355944160011
63	0xbfaedef64e160940	-0.06029481604766085
64	0x3fbbe6bccc3c465f	0.10898952470986377
65	0x3faff8d26358dfaa	0.06244523489698335
66	0xbfb06154fc787337	-0.06398516811209452
67	0xbfb7b9ddd4514359	-0.09267984803706265
68	0xbf6628b75a0af342	-0.0027049618805378437
69	0xbfc3caae6c737e15	-0.1546228436991305
70	0xbfb48e1cc5f4824c	-0.08029346306694513
71	0x3fc0d3c0c6a61408	0.1314621896709982
72	0x3fc85b79169b63ac	0.19029153446061053
73	0x3fd8b2e8c6aa19c5	0.38591975594354394
74	0xbf8561ff080ec429	-0.0104408191999444
75	0x3f8b0d2e49750c69	0.013208734146820516
76	0xbf68a1752fc31ec7	-0.0030066765594688213
77	0xbf5e5fa35b3157e6	-0.0018538565898515934
78	0xbf95291095467c53	-0.020664462195437782
79	0x3fc5ffbfea697dc6	0.171867360552808
80	0xbfca053d7b04bb9c	-0.20328491694223494
81	0x3fc1a83faaa0d6ac	0.13794704276522418
82	0xbfdc546de20bc9f4	-0.4426531512719116
83	0x3f5ac17bde079123	0.0016330442086821071
84	0x3fc93b94b23707a6	0.19713076307203642
85	0x3faaadc9b7458fe8	0.05210714685634327
86	0x3fc2b1746e5aa6a0	0.14604049099334748
87	0xbfd3d30546aab7bb	-0.3097546758752931
88	0x3fba59fb1e1f788a	0.10293550000594301
89	0xbfba669b0c55212d	-0.10312813807570782
90	0xbfaa3cd71f68c1ab	-0.05124542482770108
91	0xbfc23b1ea1c3c9fc	-0.1424291887156669
92	0x3faf497023556e52	0.06110716277427443
93	0x3fc41d8950965f0d	0.15715137896472023
94	0xbfc7e3969fab0bc0	-0.18663294597908298
95	0xbfd18acee2a706cb	-0.2740971768763358
96	0xbfcbb7521f8b276b	-0.21653200664723768
97	0xbfa6d2e4394eec8a	-0.04457772445263071
98	0xbfce2914caaf99f6	-0.23562869927191316
99	0x3fb3ffca62c72c7e	0.07812180434773272
100	0x3fc54b6c7601e2b6	0.16636424791410825
101	0x3fd44fe68317e645	0.3173767357071465
102	0x3fbe38bf005aa73c	0.11805337675710076
103	0x3fb942eb0aa77227	0.09867733965024482
104	0x3fac69f00aa364b3	0.05549574022161021
105	0x3fbb1e7e1250309c	0.10593402812100056
106	0xbfad7660e1b2bc95	-0.05754378085236415
107	0xbfa058098eebcdf3	-0.031921671577858655
108	0xbfd3471b9a9c3b67	-0.3012150773874311
109	0xbfc90195771e5216	-0.1953608352311142
110	0xbfdad0992ff61176	-0.41898183520995447
111	0x3f89e9dbf56ecdd3	0.012653082301631457
112	0x3fc422ff57f2bd92	0.15731803697915986
113	0xbfcbedb9aeb83d53	-0.21819230109438567
114	0xbfac213cd42b217f	-0.054941082858536376
115	0xbf94930c355b68c4	-0.020092192417771285
116	0x3fb229a3a31a724d	0.07094786388410874
117	0xbfcec5623696b479	-0.24039867082084124
118	0xbf78f5a2817fcd4e	-0.0060936305890096475
119	0xbfccef5f0fcbbabd	-0.22605503340988334
120	0x3fc2bc43c04cbf90	0.1463703812564714
121	0xbfa7926eaca55b7d	-0.04603906495565633
122	0x3fb18b1e13f8f1b9	0.06852901446922645
123	0x3fc934d488a31cc5	0.19692475005851953
124	0xbfd31a1901941a5f	-0.29846787599709573
125	0x3fd5a5a60fa2fc96	0.3382353928281615
126	0x3fb8345db7ab7a46	0.0945490430271799
127	0xbfc84bba8b202aba	-0.18981105607266163
128	0x3fced156fc2665d6	0.24076354324351595
129	0xbfc0eec83dfa4cf2	-0.13228705431229276
130	0xbfa4d7e30773ce5d	-0.04070958581897053
131	0x3fd097454d0c3844	0.2592328312320016
132	0xbfa202300e400877	-0.03517294095947048
133	0xbfa2a3ef7d3d03a7	-0.036406978643305714
134	0xbfb3a4b233848e38	-0.07673181302794141
135	0xbfd32dcaf7d9fb98	-0.2996699734139212
136	0xbfac2ac63c5bb29d	-0.05501384245676386
137	0x3fb4375c7342ba71	0.07896974386196988
138	0xbfb784728b873cdb	-0.09186473757221185
139	0xbfcc16f12f239645	-0.2194501381083446
140	0x3f9cf2915a06fa78	0.028269072646930543
141	0xbfc5a1c006d66e1b	-0.16899872144573255
142	0x3fc58948bf92d973	0.16825208048039605
143	0xbfc17f9e17bd7202	-0.1367070785444327
144	0x3f9994260c0f45ab	0.02497920464140228
145	0xbfc17be9a8faedc0	-0.13659401656137327
146	0x3fc2aa1353fe880a	0.14581529237062824
147	0xbfc92913dba8b2f6	-0.1965660879663102
148	0xbfbcf6b26b23c883	-0.11313929668156857
149	0x3fd265871dc1e972	0.28744676500323074
150	0xbfae36d722290920	-0.05901214878078265
151	0xbfb1f08b8ee40713	-0.0700766776899651
152	0xbfc776038b06a408	-0.18328899658561704
153	0xbfc10d3150fafe90	-0.1332151074802721
154	0xbfb0372c68610139	-0.06334188030541989
155	0xbfd3dca8ca01bfba	-0.3103429768298117
156	0xbfc6575f3a5c8a04	-0.17454138135606467
157	0x3fa68f6d5eb3230a	0.04406301289561128
158	0xbfa3a210eceae69a	-0.038345841332057165
159	0x3fd2df0e09a184ae	0.2948641866733607
160	0xbfafbc1595b49cab	-0.061981844448660915
161	0xbfc03c9cfc2aacde	-0.12684976876094017
162	0xbfc7fe368817bf2e	-0.18744546551851599
163	0x3fa3ddd6e96243e2	0.03880187605785303
164	0x3fb0b03dbc79453d	0.06518922664078715
165	0xbfc370f0bfe94099	-0.1518841683450816
166	0x3fb93b5c934b3b52	0.0985620364765343
167	0x3fc4a72b85b4a308	0.1613516238078534
168	0xbfb7132a2b675bc9	-0.09013618049298978
169	0x3f95358fe1024d35	0.02071213541837587
170	0xbfd22e5f668fae55	-0.28408036247012564
171	0x3fc41067f1964a12	0.15675067230456868
172	0x3fb214367a630b62	0.07062092292748681
173	0x3fc87722db3f21fe	0.1911357470073795
174	0x3fb75788711cd442	0.09117939721620963
175	0x3fcf1be47bdaa40e	0.24303871200143629
176	0x3fb5b45e36ba36ff	0.08478344761007504
177	0x3fbfe3c6ae0bb3e2	0.12456933736002854
178	0x3f8806cb3733e32b	0.011731708166267637
179	0x3fce84ac2af61fa3	0.238423844315773
180	0x3fba848416d724ea	0.10358453328730702
181	0x3fc9b4ef5266a59a	0.20083419345364178
182	0xbfc050095d106ae5	-0.12744252246996904
183	0x3fbb33f953ce9645	0.10626180931156977
184	0x3fc18759f6ba716a	0.13694309756545958
185	0xbfb9973134a04337	-0.09996326002898291
186	0xbfc5dba5387b6309	-0.17076554544362235
187	0xbfc496b9c65f6823	-0.1608497828117957
188	0xbfc75752bda8124c	-0.1823523927743217
189	0x3fb092a58c046bdf	0.06473765056982426
190	0xbfb43cbcf959f817	-0.07905179107362446
191	0xbfb3f2decdc9c76a	-0.07792465709806398
192	0x3fb60b06bb7ab33a	0.08610574795848161
193	0xbfb9632c879e4e94	-0.09916952429767384
194	0x3fa0555d76dd0431	0.03190128398865289
195	0xbfdc23eacc56c011	-0.4396922107216606
196	0x3fbdd56b98da9b1f	0.11653778535638225
197	0xbfc4c2ad7956afb2	-0.16219108986603953
198	0x3fd09372942a9179	0.258999485677371
199	0x3fc3a860995ed090	0.15357596863544076
200	0x3fcaedbd0c57f358	0.21038020231926668
201	0x3fd30b2dcf8a118d	0.297557308840873
202	0xbfc4073594e1e402	-0.15647001046798442
203	0xbfb4979182e551ef	-0.08043775029847898
204	0xbfa3209dae9dabee	-0.03735821491758161
205	0x3fd52e2a6738c47b	0.3309427269005664
206	0x3fb943688302286e	0.09868481825302108
207	0x3fbf97e430150fa0	0.12341142820247208
208	0xbfaea7804435ca90	-0.05987168152468769
209	0x3fd6ead956f465de	0.3580840443770209
210	0xbfc23af146e92800	-0.1424237819904306
211	0xbfc4640d8b70ba06	-0.15930337246523169
212	0xbf95199b9d0cad6a	-0.02060549875311094
213	0x3fc12a0713bc8aaa	0.1340950819367966
214	0xbfc05a955132f82c	-0.12776438202667018
215	0xbfb16c40a2f900f1	-0.06805805186104742
216	0xbfd5613c03d85a41	-0.3340597188520498
217	0xbfb2db856599d93a	-0.07366212587826207
218	0xbfabbd339890da23	-0.05417786824584805
219	0x3fc68273b623474f	0.17585607903907394
220	0xbfb0d2cd94f949fb	-0.06571659934096623
221	0xbfb07a834d475113	-0.0643693984669123
222	0x3fb2f17c7fc55e81	0.0739972888890126
223	0xbf8726abe96786b0	-0.011304228840291003
224	0x3fbc31dc86419f83	0.11013582494490319
225	0x3fafb7c2000b6a16	0.06194883585495263
226	0xbfe07f7ea224eb8f	-0.5155633131865772
227	0x3f919b1eabb662a5	0.01719329760598733
228	0x3fbb7e904b83409d	0.10739995807239429
229	0xbfd757f65f3db079	-0.3647437982642781
230	0x3f9e56093e3a9905	0.029625076697493053
231	0xbfa3055dc54d41d1	-0.037150316557589165
232	0xbfafb165bb514815	-0.06190030967322017
233	0xbfd3fa35072b7b8b	-0.31214643192463915
234	0x3fd8a7919f222fe1	0.38522758999238077
235	0x3faf4281b3418099	0.06105428040678013
236	0xbfa0e1af1f9ee72c	-0.0329718328570848
237	0xbfca30a15c5ca146	-0.20460907945494905
238	0x3fbeb6d46a141d15	0.11997726049240882
239	0xbfbd9c1f7b080b1e	-0.11566349748322266
240	0xbfb97bb77e3ba291	-0.09954401809558024
241	0x3fd1a04694eb8d6b	0.27540745299321284
242	0xbfc3346264fba77f	-0.15003614359676118
243	0x3fb8ac2dfbf5b090	0.09637725259170993
244	0x3f9d2440a788a47f	0.0284586050276272
245	0xbfc9ef953d72decd	-0.20262399197030448
246	0x3fa107b864797d7f	0.033262026085817624
247	0x3fc1e806ceb5f934	0.13989338963797027
248	0x3fca5e579086c4c5	0.206004090852309
249	0xbf4cdcfcbd2f4154	-0.000880835921970339
250	0x3fc303a6e9d8ecb0	0.14854895037010385
251	0xbf81e136d62bce80	-0.008730343256935003
252	0x3faa3bc43fd3192c	0.05123723296269342
253	0x3fc446c430ad9c4c	0.15840961815703947
254	0xbfc4c36eb8230be6	-0.16221412650165162
255	0xbfd2d3bd6978a6d7	-0.2941735773079989
