model.pt (torch, 64647 bytes, 9 tensors)

weight f4 [64, 1, 3, 3]
0	0x3d0f1c35	0.03493901
1	0xbe09b43c	-0.1344766
2	0x3c6edf31	0.01457958
3	0x3df49f2f	0.11944424
4	0x3ca3d924	0.020001002
5	0xbe5f1a82	-0.21787456
6	0xbde39a35	-0.11113397
7	0xbe1ffc6e	-0.15623638
8	0xbc2c70a8	-0.010524906
9	0xbe9df225	-0.30848804
10	0xbea54be2	-0.32284456
11	0x3e22696f	0.15860532
12	0x3d81cd53	0.063379906
13	0xbe1f8867	-0.15579377
14	0xbe1ffbfc	-0.15623468
15	0xbe854e1c	-0.26036155
16	0xbea73a1f	-0.3266153
17	0x3e811d6d	0.25217763
18	0x3c4b46ca	0.012407014
19	0x3ea69c3c	0.32541072
20	0x3e963d1d	0.293435
21	0xbe538349	-0.2065555
22	0xbd8eb520	-0.069681406
23	0xbe5d905d	-0.21637101
24	0x3e1fff04	0.15624624
25	0xbe4ebfc9	-0.20190348
26	0x3d94b93a	0.07261892
27	0x3dad2796	0.08454816
28	0x3c91a9ff	0.017781256
29	0x3e6d1e27	0.23156033
30	0xbe215a6a	-0.15757146
31	0xbe18161d	-0.14852186
32	0xbdd8514a	-0.1056238
33	0x3cedadb6	0.029013496
34	0x3e84cfcd	0.2593979
35	0x3e90b8c4	0.28265965
36	0x3e7a6355	0.24451955
37	0x3e019e62	0.12658074
38	0xbe8066d5	-0.25078455
39	0xbcf8c136	-0.030365568
40	0xbea808a3	-0.3281909
41	0x3e7052a3	0.23469023
42	0xbda7264c	-0.081616014
43	0x3de4b17f	0.11166667
44	0xbe1670ef	-0.14691518
45	0x3d9ea769	0.07746775
46	0x3c4d388f	0.012525692
47	0x3e188096	0.14892802
48	0x3e86fda5	0.2636539
49	0xbe960785	-0.29302612
50	0x3e817328	0.2528317
51	0xbe70ce31	-0.23516156
52	0xbe4c65a3	-0.19960646
53	0xbe481f2e	-0.19543144
54	0xbc097611	-0.008389966
55	0x3e9f6027	0.31128046
56	0x3e0190cf	0.12652896
57	0xbda0b1d3	-0.07846417
58	0x3e93d3df	0.28872582
59	0x3d34db4b	0.044154447
60	0x3e6bfd77	0.23045908
61	0xbbad31da	-0.005285484
62	0xbd8c7918	-0.06859034
63	0x3dce3815	0.100692905
64	0x3d016403	0.03158952
65	0xbe0b6f93	-0.13616781
66	0x3ea54211	0.32276967
67	0xbd967112	-0.07345785
68	0xbcd178aa	-0.025570232
69	0x3cdc1f7f	0.026870487
70	0x3e0b7a1b	0.13620798
71	0x3e5e9fc9	0.2174064
72	0x3d3c8746	0.046027444
73	0x3e928fd9	0.28625372
74	0xbe259756	-0.16171011
75	0x3df764f2	0.12079801
76	0x3dabe397	0.08393019
77	0x3e571e5e	0.21007678
78	0x3d69a163	0.057038676
79	0x3e08e613	0.13369016
80	0xbcb312d7	-0.02185957
81	0x3e85a3a5	0.26101413
82	0xbe39683b	-0.18106167
83	0x3e2e8f95	0.1704696
84	0xbe0be8e9	-0.13663067
85	0xbe9ca638	-0.30595565
86	0x3dd9a9b3	0.10628071
87	0x3ea79ebb	0.3273829
88	0xbe823595	-0.25431505
89	0x3cebcd3e	0.02878439
90	0xbe0ec591	-0.13942553
91	0xbe0ef921	-0.13962223
92	0x3e840526	0.25785178
93	0x3d75e2b3	0.06003065
94	0xbea248b7	-0.31696102
95	0xbe8d5d66	-0.2761032
96	0x3e8d70b4	0.27625048
97	0x3e883e0f	0.26609847
98	0x3e5809e2	0.2109752
99	0xbe953b49	-0.29146793
100	0x3e45f815	0.19332917
101	0x3e4d89fa	0.20072165
102	0x3e663f27	0.22485028
103	0xbdd9f2cb	-0.10642012
104	0xbdeef7dd	-0.1166837
105	0xbdb9ca77	-0.0907182
106	0xbe9bd02c	-0.3043226
107	0x3de8ec25	0.11373166
108	0x3db15bcf	0.08660089
109	0x3de13867	0.10997086
110	0xbdc47a65	-0.095936574
111	0xbea53eb1	-0.32274392
112	0x3d3e4e90	0.04646164
113	0x3d386029	0.04501358
114	0xbd0e54c8	-0.034748822
115	0x3ea08a5f	0.3135557
116	0xbd0fd0e5	-0.035111327
117	0xbe884de6	-0.26621932
118	0xbe839c94	-0.25705397
119	0x3e4eed56	0.20207724
120	0xbdba6604	-0.09101489
121	0xbb380ec1	-0.0028084966
122	0xbdd5f673	-0.10447397
123	0xbe54d8f5	-0.20785888
124	0x3c3ff08e	0.011715068
125	0xbd8538d4	-0.0650498
126	0xbe316ff8	-0.17327869
127	0x3ea3f11b	0.32019886
128	0x3e722eee	0.23650715
129	0xbe718b9a	-0.2358841
130	0x3de21360	0.11038852
131	0x3df52c15	0.119712986
132	0x3e4811fe	0.19538113
133	0xbcf44871	-0.029819699
134	0xbe65656b	-0.22401969
135	0x3cdf6927	0.02727182
136	0xbe21d339	-0.15803231
137	0xbe32b2cb	-0.17451017
138	0xbea2e409	-0.31814602
139	0xbe93d228	-0.28871274
140	0x3e8c10bb	0.27356514
141	0x3e43cc63	0.19120936
142	0x3cf69a06	0.030102741
143	0x3e528020	0.20556688
144	0x3ea862bf	0.32887837
145	0x3e739a38	0.23789299
146	0x3dfe6d6e	0.12423216
147	0xbcac4366	-0.021028232
148	0x3d9845eb	0.07435211
149	0x3e842cc7	0.25815412
150	0x3e73639a	0.23768464
151	0x3c35feb3	0.011108088
152	0xbe699898	-0.22812116
153	0x3d77d30d	0.060504008
154	0x3e920ff3	0.28527793
155	0xbe6441c3	-0.22290711
156	0x3ea0f065	0.31433406
157	0xbe702a97	-0.23453747
158	0xbe5a662f	-0.21328042
159	0x3e94d2f9	0.2906721
160	0xbd36e3ec	-0.044650957
161	0xbda2cbb6	-0.07949011
162	0xbcbea2d5	-0.023271004
163	0x3cc475ff	0.023982046
164	0xbd56d3bc	-0.05244802
165	0xbe6cfdee	-0.23143741
166	0x3ea245a5	0.3169376
167	0xbd5786e3	-0.052618872
168	0xbe93c125	-0.28858295
169	0xbe9566a9	-0.29179886
170	0xbe7c03eb	-0.2461087
171	0xbd49f302	-0.049304016
172	0x3e00169b	0.12508623
173	0x3e1f69d5	0.15567715
174	0xbc0adeea	-0.008475998
175	0xbe111aad	-0.14170332
176	0x3e88bea4	0.26707947
177	0x3ccbff48	0.024902001
178	0xbe1b605f	-0.15173481
179	0x3db39ba0	0.087699175
180	0x3d61534b	0.055011075
181	0xbea44738	-0.32085586
182	0x3ea59d5f	0.32346627
183	0x3e20c556	0.15700278
184	0xbe76842d	-0.24073859
185	0xbda5fc9e	-0.081048235
186	0x3e635699	0.22201003
187	0xbe982680	-0.29716873
188	0x3e468759	0.19387569
189	0xbe162e0e	-0.14666006
190	0xbe54fad7	-0.20798813
191	0xbe0137d6	-0.12618956
192	0x3d3e6607	0.04648402
193	0x3e9426c0	0.28935814
194	0xbdbf7a35	-0.09349481
195	0xbdd001ec	-0.101566166
196	0xbdcc08f5	-0.09962646
197	0xbe6da2f7	-0.23206697
198	0xbe94fe94	-0.29100478
199	0x3dba5ae0	0.09099364
200	0xbe38a973	-0.1803339
201	0x3e8a7093	0.27039012
202	0xbe4274e7	-0.18989907
203	0x3ddc9545	0.107706584
204	0xbd8d5d9c	-0.0690262
205	0x3de27e8c	0.11059293
206	0xbd8964d6	-0.06708686
207	0x3d58a9d2	0.05289633
208	0x3e5c7166	0.21527633
209	0x3c846d77	0.016165478
210	0x3e5dda7f	0.21665381
211	0xbe30a829	-0.17251648
212	0xbbdbf0e6	-0.006712067
213	0xbe5a4be6	-0.21318015
214	0xbe56e87c	-0.20987123
215	0x3deb9dcb	0.11504706
216	0xbe61f43c	-0.22065824
217	0x3e976635	0.29570165
218	0x3e5c2a45	0.215005
219	0xbce2f43a	-0.027704347
220	0x3de37428	0.111061394
221	0xbe42ae99	-0.19011916
222	0xbe92f4ae	-0.287023
223	0xbe0bc5f1	-0.13649727
224	0xbe7da3f8	-0.2476958
225	0x3e51844f	0.20460628
226	0x3db5a2ac	0.08868918
227	0xbea9079b	-0.33013615
228	0xbe04d2ce	-0.1297104
229	0x3e7bf161	0.24603797
230	0x3e0f1f33	0.13976745
231	0x3d4827d4	0.048866108
232	0xbe8c053f	-0.27347752
233	0xbe23cf8c	-0.15997142
234	0x3cec71ec	0.028862916
235	0x3d6a8985	0.057260055
236	0x3e0b3c0c	0.13597125
237	0x3e99e3bb	0.30056557
238	0x3db627ea	0.08894332
239	0x3e8dd0e2	0.27698427
240	0xbe9a6461	-0.30154708
241	0xbd47cdc6	-0.048780225
242	0xbe5b10dc	-0.2139315
243	0xbe040e7e	-0.12896153
244	0xbe2e2f08	-0.17010128
245	0x3cda6598	0.026659772
246	0xbd0ba6a6	-0.034094475
247	0xbe827d93	-0.2548643
248	0x3cc5c3a8	0.024141148
249	0x3e15ab3c	0.14616102
250	0x3d6ab664	0.057302848
251	0xbe93fd66	-0.28904265
252	0x3d5c3e1d	0.053770173
253	0x3e584dd7	0.21123444
254	0x3e3909d7	0.1807016
255	0x3ea83c77	0.3285863

bias f4 [64]
0	0x3e7a1b91	0.24424578
1	0xbd65ca30	-0.056101024
2	0xbe575c94	-0.2103141
3	0xbcdf5202	-0.027260784
4	0x3d90e5a4	0.070750505
5	0x3dda2d5f	0.10653185
6	0xbcaa4ec4	-0.020789512
7	0xbe0c2bd6	-0.13688597
8	0x3dc116b4	0.094281584
9	0x3e6d5a91	0.2317908
10	0x3c8ec821	0.017429413
11	0xbd165417	-0.036701288
12	0xbc8a19fc	-0.016858093
13	0xbe65880f	-0.22415183
14	0x3ea4a8fe	0.3216018
15	0xbabf1d66	-0.0014580905
16	0x3e2b747b	0.16743653
17	0x3d0f9f29	0.035063896
18	0x3ea12ccf	0.314795
19	0xbe009048	-0.12555039
20	0x3d2e9530	0.042622745
21	0xbd574b72	-0.052562185
22	0x3df3867e	0.11890887
23	0xbd92886f	-0.07154929
24	0x3db8627d	0.0900316
25	0xbe143423	-0.14473014
26	0x3e8929a2	0.26789576
27	0xbe998953	-0.29987583
28	0xbe46c116	-0.19409594
29	0xbdac48c1	-0.08412314
30	0x3ddf116c	0.10891995
31	0x3d7d0044	0.06176783
32	0x3e9fb047	0.31189176
33	0x3dffd16e	0.124911174
34	0xbccce094	-0.025009431
35	0xbe214ec1	-0.15752698
36	0xbdab2afa	-0.083578065
37	0xbde673e7	-0.11252575
38	0x3ea02679	0.31279352
39	0xbcf86b74	-0.030324675
40	0xbd765562	-0.06014002
41	0xbe1aa567	-0.15102158
42	0xbd0619f9	-0.032739613
43	0x3d8ad7fc	0.06779477
44	0xbe14b9e0	-0.1452403
45	0x3e18e62f	0.14931558
46	0xbe17526b	-0.14777534
47	0xbd58d75b	-0.052939754
48	0xbe3f0a63	-0.18656306
49	0xbe95fc05	-0.29293838
50	0xbdf7eebb	-0.12106081
51	0x3d0ea043	0.034820806
52	0xbdddbf3d	-0.108274914
53	0xbb1684f0	-0.002296742
54	0x3e48b709	0.19601072
55	0x3ca16d8c	0.019705556
56	0x3ea31a5b	0.31856045
57	0xbcdde6ff	-0.027087687
58	0x3d28fd16	0.041256987
59	0xbdb96f65	-0.0905445
60	0x3e050f8d	0.12994213
61	0x3dbe7bcc	0.09300956
62	0xbe100d0c	-0.14067477
63	0x3e6a41b4	0.22876626

weight f4 [32, 64, 1, 1]
0	0xbdd8e935	-0.10591356
1	0x3df5324a	0.119724825
2	0x3d43d328	0.047808796
3	0x3d39ce78	0.04536292
4	0xbcf75dce	-0.030196097
5	0xbde66079	-0.112488694
6	0x3d540f8b	0.051772635
7	0x3d9b2368	0.075751126
8	0xbde42f3a	-0.1114182
9	0x3e03dbab	0.12876765
10	0x3d197913	0.03746898
11	0xbd080494	-0.03320749
12	0x3c2553fb	0.010090823
13	0x3dccc39e	0.099982485
14	0x3d9f95e4	0.07792261
15	0xbd827385	-0.0636969
16	0x3d80617c	0.06268594
17	0xbdcf7dbe	-0.10131405
18	0xbc8d502a	-0.01725014
19	0xbde121b5	-0.10992757
20	0x3d70f276	0.05882498
21	0xbcc901c3	-0.024536973
22	0xbd588369	-0.052859697
23	0xbdefa148	-0.11700684
24	0x3da51e77	0.08062451
25	0xbdae224c	-0.08502635
26	0x3ba821ea	0.005130996
27	0xbdde4f4d	-0.10854969
28	0x3cd057f5	0.025432566
29	0x3dc11e1e	0.094295725
30	0x3d7d0ee0	0.061781764
31	0xbd60f38b	-0.05491976
32	0xbdc4028b	-0.095707975
33	0x3d99e5ee	0.07514559
34	0xbcfdca1c	-0.030980162
35	0xbd92229c	-0.071355075
36	0xbc1fa4c4	-0.009743873
37	0x3c8ec772	0.017429087
38	0xbd2b9924	-0.041894093
39	0x3db20d7d	0.08693979
40	0xbd6d0150	-0.05786258
41	0xbcaf86bc	-0.021426551
42	0xbd99390e	-0.074815854
43	0xbd55b826	-0.05217757
44	0xbb404c30	-0.0029342286
45	0x3ce718a0	0.028209984
46	0xbdf8e75e	-0.12153505
47	0x3d8fe6f1	0.070264705
48	0xbd13d4f2	-0.036091752
49	0xbddc28d5	-0.107499756
50	0x3dc08a5d	0.09401391
51	0xbd15bc76	-0.036556683
52	0x3d1f1552	0.038838692
53	0xbd591e65	-0.053007502
54	0x3c8af1c8	0.016960993
55	0x3b8ac411	0.0042347987
56	0xbdc2d64a	-0.09513529
57	0xb9bb234c	-0.00035693718
58	0x3db8a377	0.090155534
59	0x3d9a8701	0.07545281
60	0x3df46c65	0.11934737
61	0x3d44dd94	0.048062876
62	0xbc5697ef	-0.013097747
63	0x3b510cf8	0.00318986
64	0x3ddaf386	0.1069098
65	0x3defcc73	0.117089175
66	0x3cfb3709	0.030665891
67	0xbda3177b	-0.07963463
68	0x3cac6a12	0.021046672
69	0x3d367913	0.04454906
70	0x3c97634c	0.018479966
71	0xbd920613	-0.07130065
72	0x3ddf3e4f	0.10900556
73	0xbc0b6848	-0.008508749
74	0x3d5e1796	0.054221712
75	0x3b956201	0.004558802
76	0xbd7dfbda	-0.062007762
77	0x3da417f5	0.08012382
78	0xbd6c6136	-0.057709895
79	0xbc434cf5	-0.011920203
80	0xbc9d474a	-0.019199032
81	0xbd3abd2d	-0.04559057
82	0xbd204bfb	-0.03913496
83	0xbc3295d9	-0.010899984
84	0xbcef717c	-0.029228918
85	0xbd934788	-0.07191378
86	0x3ba7eec6	0.0051248996
87	0x3d943c78	0.07238096
88	0xbdf067b2	-0.11738528
89	0x3dd059de	0.10173391
90	0x3d0cec22	0.03440488
91	0xbda26e59	-0.079312034
92	0xbddd0f5f	-0.107939474
93	0x3dbf2961	0.09334064
94	0xbd9b3f5c	-0.07580444
95	0xbd7e5a89	-0.06209806
96	0x3cd6a610	0.026202232
97	0x3dfdabd0	0.12386286
98	0xbbea3734	-0.007147694
99	0x3de98880	0.114029884
100	0x3d5ff911	0.054680888
101	0xbdec50db	-0.115388595
102	0xbd23cedd	-0.039992202
103	0x3bde2d25	0.006780284
104	0x3c2267bf	0.00991243
105	0xbc3f3341	-0.011669935
106	0x3de927da	0.11384554
107	0x3d684543	0.056706678
108	0xbc4de361	-0.012566418
109	0xbcb6d5dd	-0.022318775
110	0x3c7b35b3	0.015332627
111	0x3d00efef	0.03147882
112	0x3c59b2ad	0.0132872285
113	0x3dd45f5d	0.103697516
114	0x3d14c623	0.03632177
115	0x3c5da4c8	0.013528056
116	0xbd21ca92	-0.039499827
117	0xbc26d587	-0.010182745
118	0x3c8b6922	0.017017905
119	0x3c0858c0	0.008321941
120	0xbcb74d5f	-0.02237576
121	0x3db348ad	0.08754096
122	0x3dc7ddde	0.09759115
123	0x3de50d53	0.11184182
124	0xbd02deb9	-0.031950686
125	0x3b964156	0.0045854254
126	0xbd365e3c	-0.044523463
127	0xbb4fe986	-0.0031724884
128	0x3d8c793c	0.06859061
129	0xbdc3b1b4	-0.095553786
130	0x3de7a4f4	0.11310759
131	0x3daf3d7b	0.08556648
132	0x3d188460	0.037235618
133	0xbda1d796	-0.07902448
134	0x3dcf3a21	0.10118509
135	0xbd1f590b	-0.038903277
136	0x3d3d44e8	0.046208292
137	0xbd22b86a	-0.039726652
138	0xbb9ebdf8	-0.0048444234
139	0xbdd7c297	-0.10535162
140	0xbcd13b45	-0.025540957
141	0x3db59a1c	0.08867285
142	0x3d105152	0.035233803
143	0x3defc25d	0.11706994
144	0xbcbfd815	-0.023418466
145	0xbc88a442	-0.016679887
146	0xbd926555	-0.07148234
147	0xbdfcfc8b	-0.12352856
148	0xbd03736b	-0.032092493
149	0x3de50c5d	0.11183999
150	0xbd854b41	-0.06508494
151	0x3cf94d23	0.03043229
152	0x3dd107ee	0.102065906
153	0xbd9d8784	-0.07691863
154	0xbcd0cf31	-0.025489422
155	0xbd5819a1	-0.052758817
156	0x3c688134	0.014190961
157	0x3daa1c37	0.08306163
158	0xbd13611a	-0.035981275
159	0x3d269d3a	0.040677287
160	0x3daac869	0.083390065
161	0xbdb26d88	-0.08712298
162	0xbd818a4a	-0.06325205
163	0x3d718905	0.058968563
164	0x3c0d10e6	0.008609986
165	0xbc98b33e	-0.018640157
166	0x3dc24c58	0.09487218
167	0x3d57c229	0.0526754
168	0xbda94198	-0.08264464
169	0x3d6dcdb9	0.05805752
170	0xbd861ea7	-0.06548815
171	0xbd6949df	-0.056955215
172	0xbcddf0b7	-0.02709232
173	0x3b92b22b	0.0044768057
174	0xbd9375fa	-0.072002366
175	0xbdc83fce	-0.09777795
176	0x3c860961	0.016361894
177	0x3dca339c	0.09873125
178	0x3cafca36	0.021458726
179	0x3dbe50cd	0.09292755
180	0x3da3e381	0.08002377
181	0x3d2afb03	0.04174329
182	0x3d575d44	0.05257918
183	0xbda3ad90	-0.07992089
184	0xbdb31801	-0.08744813
185	0x3da61457	0.08109348
186	0x3dd08487	0.101815276
187	0xbd86eae9	-0.06587774
188	0xbb5924f8	-0.0033133607
189	0xbd22cc0f	-0.039745387
190	0xbd334b2f	-0.043772873
191	0x3d8c5740	0.06852579
192	0xbe02d30c	-0.1277582
193	0x3d57a859	0.052650783
194	0x3d223213	0.039598536
195	0xbd71e23c	-0.059053645
196	0x3de3ec71	0.11129082
197	0x3cbbd55e	0.02292889
198	0xbd3b2f81	-0.0456996
199	0x3d0c670e	0.034277968
200	0x3dda2ba3	0.10652854
201	0xbdd34057	-0.10315006
202	0xbcc9cff8	-0.0246353
203	0x3d35f61c	0.04442416
204	0xbd04dae1	-0.0324353
205	0x3dbe75f4	0.092998415
206	0x3d9ecefb	0.07754322
207	0xbc11f718	-0.008909009
208	0xbd9038cb	-0.070420824
209	0x3c024bc2	0.007952632
210	0xbd85d8f0	-0.06535518
211	0xbde23c8c	-0.11046705
212	0xbc3354a0	-0.010945469
213	0xbda29e2f	-0.079403274
214	0x3d7ed4dc	0.062214717
215	0x3dbd33ea	0.092384174
216	0x3a332668	0.0006834031
217	0xbdcbac74	-0.09945002
218	0x3dcb210a	0.09918411
219	0x3d664af1	0.056223813
220	0x3cc7a469	0.024370389
221	0xbdb33897	-0.08751028
222	0x3bdd92a7	0.006761867
223	0x3c7ded19	0.015498423
224	0xbbc74f4e	-0.006082452
225	0xbd2b15d9	-0.041768882
226	0x3d912a6f	0.07088172
227	0xbdf5a9e1	-0.119952925
228	0x3e01b3a0	0.12666178
229	0x3d7e071a	0.06201849
230	0x3c67481d	0.014116314
231	0x3d5a6949	0.053323064
232	0xbc195630	-0.009358928
233	0xbcd249dd	-0.025669986
234	0x3db758b2	0.08952464
235	0x3c53b561	0.012921662
236	0xbd72d4ff	-0.05928516
237	0x3da61ab1	0.0811056
238	0xbe08a8cc	-0.13345641
239	0xb9d7124a	-0.00041021622
240	0xbd7e54ee	-0.062092714
241	0x3d9e0b52	0.07717003
242	0x3ba0410b	0.004890566
243	0xbdb3f76f	-0.087874286
244	0xbc7acfc1	-0.015308321
245	0xbdd1a6ff	-0.1023693
246	0xbd2c7dbc	-0.042112097
247	0xbd3d239f	-0.04617655
248	0x3d976186	0.07391648
249	0xbd7f8725	-0.062384743
250	0xbd227400	-0.039661407
251	0x3db5a3a4	0.088691026
252	0xbb269ef2	-0.0025424329
253	0x3d83a60c	0.06428155
254	0x3d06cf8b	0.032912772
255	0xbbfd8455	-0.0077367225

bias f4 [32]
0	0xbccb9c39	-0.024854766
1	0xbd8b1200	-0.067905426
2	0xbd794b0f	-0.060862597
3	0x3db44dd9	0.08803911
4	0x3bcd0b7e	0.0062574735
5	0x3b1102ec	0.0022126986
6	0xbc944d75	-0.01810334
7	0xbddc6f36	-0.10763399
8	0x3c7d890a	0.015474567
9	0x3cfebf5c	0.031097107
10	0x3cc556e3	0.024089282
11	0xbd671724	-0.056418553
12	0x3b1dfe93	0.0024108037
13	0x3db6a607	0.08918386
14	0xbbd142ae	-0.0063861227
15	0x3d802466	0.062569425
16	0x3cbd6d50	0.023123413
17	0xbc3a9cc2	-0.011389913
18	0xbdf61171	-0.120150454
19	0xbd828757	-0.0637347
20	0xbd867ea3	-0.06567123
21	0xbd9a9577	-0.075480394
22	0x3d10b211	0.035326067
23	0x3d996f4f	0.074919336
24	0x3d652cbd	0.05595087
25	0x3d53dd1f	0.05172455
26	0x3d0416e2	0.032248385
27	0x3d046506	0.032322906
28	0xbd6de93a	-0.05808375
29	0x3c49d1b9	0.012318068
30	0xbd70c980	-0.058785915
31	0x3da14f83	0.07876494

weight f4 [16, 32, 1, 1]
0	0xbd144f1c	-0.036208257
1	0x3c81b63c	0.015833966
2	0x3dd7b90c	0.10533342
3	0xbe0bcf68	-0.13653338
4	0xbe2fd069	-0.17169346
5	0xbd45c6dd	-0.048285354
6	0xbd951707	-0.07279783
7	0x3d734cea	0.059399523
8	0x3da80270	0.0820359
9	0x3e18ea37	0.14933096
10	0x3de15d4a	0.110041216
11	0xbe2d2833	-0.16909866
12	0xbb5eb213	-0.0033980652
13	0x3dd0f870	0.10203636
14	0x3e2d087b	0.16897766
15	0x3da1c97b	0.078997575
16	0x3e3dec30	0.1854713
17	0xbdb03915	-0.086046375
18	0x3db9eae5	0.09078006
19	0x3dd57e78	0.104245126
20	0xbd8b5b07	-0.068044715
21	0xbc659673	-0.014012921
22	0x3d142186	0.036164783
23	0xbdb4f1b6	-0.08835165
24	0x3d506968	0.050881773
25	0xbdb5fa62	-0.08885647
26	0xba931353	-0.0011220969
27	0x3caa8a4a	0.020817894
28	0x3d5555e2	0.052083857
29	0xbd9fb888	-0.077988684
30	0x3d55ada7	0.05216756
31	0x3db2185d	0.08696053
32	0xbe0f3474	-0.13984853
33	0x3e081674	0.13289815
34	0x3e0b494f	0.13602184
35	0x3cf45f39	0.029830562
36	0x3dac28d7	0.08406227
37	0xbe1c874b	-0.15285985
38	0x3cadd55e	0.021219905
39	0x3e08c1ee	0.13355228
40	0xbcbcd514	-0.023050822
41	0x3e0549a4	0.13016373
42	0xbe0ad93e	-0.13559434
43	0x3dc5bb2e	0.09654842
44	0xbde9b5a3	-0.114115976
45	0xbe2d8886	-0.16946611
46	0x3cd62a2a	0.026143152
47	0xbd7e1033	-0.062027168
48	0x3e14ed14	0.14543563
49	0xbe0d3b9a	-0.13792267
50	0x3da143f1	0.07874287
51	0xbe0e42eb	-0.13892715
52	0xbd9b1555	-0.07572428
53	0xbe28de94	-0.16491157
54	0xbe30fea0	-0.17284632
55	0xbd0139ca	-0.031549253
56	0xbdd89a8f	-0.10576355
57	0x3cc068ed	0.023487533
58	0xbe19ff7e	-0.15038869
59	0xbd64e948	-0.055886537
60	0xbe05ed91	-0.13078906
61	0xbc653f18	-0.0139920935
62	0x3df10b30	0.11769712
63	0x3e2a0174	0.16602117
64	0x3e2eaac0	0.17057323
65	0x3e019bc6	0.12657079
66	0xbde9ebf8	-0.114219606
67	0x3e2e4e84	0.17022139
68	0x3be1ed27	0.006894726
69	0x3cc4fc47	0.024046076
70	0x3d9b1660	0.07572627
71	0xbe2ce3e5	-0.1688381
72	0xbc9f402e	-0.019439783
73	0xbddff380	-0.10935116
74	0x3e0c8ca8	0.13725531
75	0x3c03f48e	0.008053912
76	0xbe054542	-0.13014701
77	0xbd555cef	-0.05209058
78	0xbdaf1b2b	-0.08550104
79	0xbe0efb5d	-0.13963075
80	0xbd87ad6c	-0.066248745
81	0x3d824b59	0.06362028
82	0x3d678719	0.056525324
83	0xbe085380	-0.13313103
84	0xbde12055	-0.10992495
85	0x3d4455b9	0.047933314
86	0xbe158579	-0.14601697
87	0xbe126bad	-0.14298888
88	0x3d81fe2c	0.063473076
89	0xbd86087a	-0.065445855
90	0x3dba775e	0.09104799
91	0x3d9db211	0.07699979
92	0x3cc92fb8	0.024558887
93	0xbcb07c81	-0.021543743
94	0xbd3490d5	-0.044083435
95	0x3cf247bc	0.029575221
96	0xbb9de2cd	-0.0048182965
97	0x3da40d82	0.08010389
98	0x3e18eb1a	0.14933434
99	0x3dbb2e23	0.09139659
100	0x3b4495c0	0.0029996485
101	0x3ba439ca	0.005011772
102	0xbe243f01	-0.16039659
103	0xbdb00432	-0.0859455
104	0x3d27fc90	0.041012347
105	0xbcb39811	-0.021923097
106	0x3d82c339	0.06384892
107	0xbcc2ad31	-0.023764225
108	0xbd983611	-0.07432187
109	0x3e22cd4a	0.15898624
110	0x3e2d5afe	0.16929242
111	0x3da6ca58	0.08144063
112	0xbe2173f1	-0.15766884
113	0xbe31d986	-0.17368135
114	0x3dac5abd	0.084157445
115	0x3c1222de	0.008919446
116	0xbd89862a	-0.06715043
117	0x3e30d6a4	0.17269379
118	0xbd362ba7	-0.044475224
119	0xbd5c3d97	-0.053769674
120	0xbe138f0e	-0.1441004
121	0xbe074256	-0.13208899
122	0x3e18d765	0.14925916
123	0xbd9e103a	-0.07717939
124	0x3dfb23f0	0.12262714
125	0xbdd437f8	-0.10362238
126	0xbd899fa2	-0.06719901
127	0x3da36a78	0.07979292
128	0xbd0282fb	-0.031863194
129	0x3e20b173	0.15692692
130	0x3e2529b5	0.16129191
131	0xbd4baeff	-0.049727436
132	0x3cd089b2	0.025456283
133	0xbddfe47c	-0.10932252
134	0x3e0d67d3	0.13809137
135	0x3c3cbab7	0.011519126
136	0xbde8052e	-0.11329113
137	0x3d99586f	0.074875705
138	0xbd9d930b	-0.07694062
139	0xbe1c4ca2	-0.15263608
140	0xbd96cb81	-0.07363034
141	0x3e105ba0	0.14097452
142	0xbe0c270b	-0.13686769
143	0x3e245eda	0.16051808
144	0x3d323bba	0.04351399
145	0x3be325fe	0.0069320193
146	0xbe260728	-0.16213667
147	0xbdeef848	-0.1166845
148	0xbe04c87d	-0.12967105
149	0xbe104e82	-0.14092448
150	0x3ca1c44e	0.019746926
151	0xbda67966	-0.08128624
152	0x3de5b665	0.112164296
153	0x3c01c1da	0.007919753
154	0xbc9af5dc	-0.018916063
155	0xbe27c26c	-0.1638276
156	0xbde70c05	-0.112815894
157	0x3c3e6126	0.011619842
158	0xbd8799c6	-0.06621127
159	0x3d2ce6e5	0.042212386
160	0xbb9ae4fb	-0.0047270036
161	0x3dfd3255	0.12363116
162	0xbc817afb	-0.015805712
163	0xbd88fdf3	-0.06689062
164	0xbd9967c7	-0.07490497
165	0xbe243070	-0.16034102
166	0x3d184033	0.0371706
167	0x3ca1c2ad	0.019746149
168	0xbdea3b37	-0.114370756
169	0xbd95d2af	-0.07315575
170	0xbe290fed	-0.16509981
171	0xbdd847f2	-0.105605975
172	0x3dadc459	0.08484716
173	0x3c28913d	0.010288534
174	0xbd8a62a1	-0.06757093
175	0x3e2a74a6	0.1664606
176	0x3de1063e	0.10987519
177	0xbcdf4f79	-0.027259575
178	0x3e20d4ed	0.15706225
179	0xba6eea00	-0.0009113848
180	0x3de40930	0.11134565
181	0x3dc9c9c6	0.09852938
182	0x3e2cd747	0.16878997
183	0x3d7a5bde	0.061122768
184	0xbdc9aa33	-0.09846916
185	0x3dbef482	0.0932398
186	0xbddec6ad	-0.10877738
187	0xbe2c48df	-0.16824673
188	0xbdc6d991	-0.09709466
189	0xbdf1af42	-0.11801006
190	0xbdc1da76	-0.09465496
191	0xbdf3b192	-0.11899103
192	0x3e2921e8	0.1651684
193	0x3d92623c	0.07147643
194	0x3de8c55c	0.11365768
195	0xbd3c907c	-0.04603623
196	0x3dadc5ed	0.08485017
197	0x3e1e6faa	0.15472284
198	0x3d8d4578	0.06898016
199	0xbbe12d42	-0.00687185
200	0xbd8a2ee1	-0.06747223
201	0xbc6bebd5	-0.014399488
202	0xbdad4fa0	-0.08462453
203	0xbe1a9e2c	-0.150994
204	0xbe21c758	-0.157987
205	0x3d90b075	0.070649065
206	0xbe34b783	-0.17648129
207	0x3e136647	0.14394484
208	0x3d7a3bf6	0.06109234
209	0x3df5aeb3	0.11996212
210	0x3c180e43	0.009280744
211	0xbddf16bd	-0.10893009
212	0xbd9198bb	-0.07109209
213	0xbd9952b1	-0.07486475
214	0xbdf2cd51	-0.11855567
215	0xbe104a81	-0.14090921
216	0x3dcaffb4	0.09912053
217	0x3cf0b54e	0.029383328
218	0xbe2e6cf9	-0.17033757
219	0xbe08f074	-0.13372976
220	0x3d5ecf61	0.05439699
221	0x3db64e10	0.08901608
222	0x3e20b6a4	0.15694672
223	0x3cb5f4b7	0.022211416
224	0xbda87b67	-0.08226662
225	0x3e13b0a1	0.14422847
226	0x3e33434d	0.17506142
227	0x3cf2c480	0.029634714
228	0xbe28d2e1	-0.16486694
229	0x3e0a2ae9	0.13492931
230	0x3e1ba2b1	0.1519878
231	0x3dbbc4e2	0.09168412
232	0x3bc50160	0.006012127
233	0xbe09f21c	-0.13471264
234	0xbd6a69f2	-0.057229944
235	0x3caca6d0	0.021075636
236	0xbdd122cf	-0.10211717
237	0x3dc72cb2	0.09725322
238	0xbdd2856d	-0.10279355
239	0xbba25fc0	-0.004955262
240	0x3dcd52de	0.10025571
241	0xbe34aff1	-0.17645241
242	0xbca33228	-0.019921377
243	0x3db03c36	0.08605234
244	0xbd9fa33a	-0.07794805
245	0x3e019487	0.12654315
246	0xbe1eea1e	-0.15518996
247	0xbe2778e8	-0.16354716
248	0xbe149f8f	-0.14513992
249	0x3d85518a	0.06509693
250	0x3da1bdda	0.078975394
251	0xbe27bcf8	-0.1638068
252	0x3d60834c	0.054812714
253	0x3e0729dd	0.13199563
254	0xbdb42bb1	-0.08797396
255	0x3bb81c00	0.0056185722

bias f4 [16]
0	0xbde87621	-0.11350656
1	0x3dc6c5ac	0.09705672
2	0x3b13519c	0.0022479063
3	0xbd99358c	-0.074809164
4	0x3c12ab6b	0.008952002
5	0x3e199918	0.14999807
6	0x3d77d0fc	0.060502037
7	0xbe1dfa15	-0.1542743
8	0x3d02368c	0.0317903
9	0xbd9a9563	-0.075480245
10	0xbd790a77	-0.060800996
11	0x3bc003b8	0.0058598183
12	0xbc8e7777	-0.01739095
13	0xbdbfb802	-0.093612686
14	0xbe308333	-0.17237549
15	0x3d747514	0.059681967

weight f4 [81, 144]
0	0x3d781cce	0.060574345
1	0x3d215aa0	0.039393067
2	0x3d226a52	0.039652176
3	0x3d0c8580	0.034307003
4	0xbd14a823	-0.03629316
5	0xbcd5b80c	-0.026088737
6	0x3d808d03	0.06276896
7	0xbd9937f6	-0.07481377
8	0x3bbf46f6	0.0058373166
9	0x3cb405be	0.021975394
10	0x3cc76ad0	0.024342924
11	0x3da1d189	0.07901294
12	0xbd23f5d6	-0.04002937
13	0xbd35a35d	-0.04434525
14	0xbd9ed10e	-0.07754718
15	0x3c37a383	0.011208418
16	0xbdad50c5	-0.08462671
17	0xbd28d75f	-0.04122102
18	0xbd8581d5	-0.06518904
19	0x3d8cc3c3	0.06873276
20	0xbd99b10c	-0.07504472
21	0xbcbde74f	-0.023181586
22	0xbd905ba6	-0.070487306
23	0x3d81794d	0.063219644
24	0x3d2843da	0.041080333
25	0x3d6e2fa5	0.058150906
26	0xbd70603f	-0.058685537
27	0x3d76e7cd	0.060279656
28	0x3c35c5bc	0.011094507
29	0x3c99840f	0.018739728
30	0xbdcbcf98	-0.09951705
31	0xbdb7c8ee	-0.08973871
32	0xbdc9456f	-0.098276965
33	0xbcacf590	-0.021113187
34	0x3d1f51b1	0.038896266
35	0xbd094e03	-0.033521663
36	0x3d3ea9b2	0.046548553
37	0xbce4c394	-0.02792529
38	0xbc29d18f	-0.010364904
39	0x3caec1fd	0.021332735
40	0xbca7dc52	-0.0204908
41	0xbd688130	-0.056763828
42	0xbd33d0d0	-0.04390031
43	0xbce8d10d	-0.028419996
44	0xbb6e3141	-0.0036345276
45	0xbbdcebe3	-0.006741987
46	0xbd2ed6e0	-0.04268539
47	0xbc6b2423	-0.014351877
48	0x3d8faac9	0.070149966
49	0xba3f0361	-0.0007286575
50	0x3d68673b	0.056739073
51	0x3b5e3733	0.0033907413
52	0xbd22915d	-0.03968941
53	0xbd8ea2c1	-0.069646366
54	0xbd6dee25	-0.05808844
55	0xbd94349e	-0.072365984
56	0xbc969977	-0.018383725
57	0xbdb6c705	-0.08924679
58	0x3d601b96	0.054713808
59	0xbd8646c7	-0.065564685
60	0x3d1740a5	0.036926884
61	0x3b84f68d	0.0040577115
62	0xbd4438ea	-0.04790584
63	0x3d89c18f	0.067263715
64	0x3c9a6344	0.018846162
65	0xbd5c9913	-0.05385692
66	0xbce652b6	-0.028115612
67	0x3d800203	0.06250384
68	0x3be451c0	0.006967753
69	0x3cc4b0dc	0.024010114
70	0xbcb0a5cc	-0.021563433
71	0xbd4f1be0	-0.050563693
72	0xbdb34386	-0.087531134
73	0x3bb4d92c	0.005519053
74	0x3d759ef9	0.05996606
75	0x3c177a76	0.009245506
76	0xbd177e65	-0.036985774
77	0xbc831c99	-0.016004847
78	0xbd50c2f6	-0.05096718
79	0x3cf7f3a9	0.030267553
80	0x3d7aa264	0.061190024
81	0xbca0ee2c	-0.01964482
82	0xbd1205f6	-0.035650216
83	0xbba5bdb0	-0.005058013
84	0x3d9b993b	0.07597586
85	0xbc28dcd8	-0.0103065595
86	0x3d8f57e7	0.06999188
87	0x3c9ae710	0.018909007
88	0xbd718160	-0.058961272
89	0xbda403c3	-0.0800853
90	0x3d6188cd	0.055062104
91	0xbd9bf3ee	-0.07614885
92	0x3c5f5275	0.013630499
93	0x3d3347bc	0.043769583
94	0xbd9191ca	-0.07107885
95	0x3d36266e	0.044470243
96	0x3d8ddf76	0.069273874
97	0x3d1b638f	0.037936743
98	0x3d8ee951	0.06978095
99	0xbd928a86	-0.071553275
100	0xbcb1a3b4	-0.021684505
101	0xbd04f556	-0.032460533
102	0xbd7d26eb	-0.061804693
103	0x3ce7bdc6	0.028288733
104	0xbd4f5290	-0.050615847
105	0x3d8734dc	0.06601879
106	0xbdd0bcef	-0.10192286
107	0x3cf2f6f3	0.02965877
108	0x3cb900e6	0.022583436
109	0x3d1c99c7	0.03823259
110	0x3d68e282	0.05685664
111	0x3d62a52d	0.055333305
112	0xbd9f6754	-0.0778338
113	0xbdaa1f0e	-0.083067045
114	0x3d552dc0	0.052045584
115	0x3ce3d8b3	0.027813291
116	0xbd1b95ad	-0.03798454
117	0xbd5f6a2b	-0.05454461
118	0x3c935497	0.017984672
119	0x3d3c3f12	0.045958586
120	0xbd5eb820	-0.054374814
121	0xbc34a8c8	-0.011026569
122	0xbaaabf40	-0.0013026968
123	0x3d698d5a	0.05701957
124	0x3d59d712	0.053183623
125	0x3bd2b530	0.0064302906
126	0xbc95e040	-0.018295407
127	0xb74ce000	-1.2211502e-05
128	0xbb499260	-0.0030757412
129	0xbd9ca8ac	-0.07649359
130	0xbd88fbec	-0.06688675
131	0xbd826def	-0.063686244
132	0xbc1997c8	-0.009374566
133	0xbcee6350	-0.02910009
134	0xbd88fc53	-0.06688752
135	0xbd61de8c	-0.055143878
136	0x3ba443a1	0.005012945
137	0xbd78de6d	-0.060758997
138	0xbd0ecebf	-0.034865137
139	0xbc8cd330	-0.017190546
140	0xbd2c60a3	-0.042084347
141	0x3daadaba	0.083425
142	0x3d12d175	0.035844285
143	0xbcec341e	-0.028833445
144	0xbda3347b	-0.07968994
145	0xbd4a477b	-0.049384575
146	0xbda42b58	-0.0801608
147	0x3d4a4960	0.049386382
148	0x3cb8bd7e	0.022551294
149	0xbd1b03db	-0.037845474
150	0x3c7a32fb	0.015270944
151	0xbd8d8bac	-0.06911406
152	0x3d4eb9e5	0.05047025
153	0x3a785ee6	0.000947459
154	0xbd202b35	-0.039103705
155	0x3d304f5c	0.043044433
156	0xbcbbd235	-0.022927383
157	0xbda45f00	-0.08025932
158	0xbd104296	-0.03521975
159	0xbd81c8bd	-0.06337116
160	0x3cd53dbd	0.026030416
161	0xbcb9ce6c	-0.022681437
162	0xbd791fc4	-0.06082131
163	0xbd99950a	-0.0749913
164	0xbd51d6f4	-0.051230386
165	0x3d570831	0.052498046
166	0xbd82242f	-0.06354558
167	0x3cad1a4e	0.021130707
168	0x3da4cc6d	0.080468036
169	0x3d23cf8b	0.03999285
170	0x3c4cb44f	0.012494161
171	0xbcf8772a	-0.03033026
172	0xbd9f133a	-0.07767339
173	0x3d488336	0.048953258
174	0x3cd4f1bd	0.025994176
175	0x3b08dc79	0.0020883365
176	0xbdc4ef59	-0.096159644
177	0xbda7c6e9	-0.08192236
178	0x3c4536a1	0.01203695
179	0xbcfd538d	-0.03092363
180	0x3d245713	0.040122103
181	0x3d4e16de	0.050314777
182	0xbd605062	-0.05476416
183	0xbbeb5c76	-0.007182653
184	0xbd917f16	-0.07104318
185	0xbd411c6f	-0.047146257
186	0x3d0d09cf	0.034433182
187	0x3c937679	0.018000828
188	0x3d02983d	0.031883467
189	0xbd5ffc84	-0.054684177
190	0xbd39d49d	-0.04536878
191	0xbd174fe9	-0.036941443
192	0xbd87cabe	-0.06630467
193	0xbc6141f2	-0.013748633
194	0x3d8f0728	0.06983787
195	0xbd9803a5	-0.0742257
196	0xbda0addf	-0.07845663
197	0x3cc1aa16	0.023640674
198	0x3d532c93	0.05155618
199	0x3c6398f8	0.013891451
200	0xbc70502c	-0.014667552
201	0x3c4ad134	0.0123789795
202	0x3d9f36d9	0.07774133
203	0xbcffd30d	-0.031228567
204	0x3cd63fa5	0.026153395
205	0xbd16f0f5	-0.03685089
206	0xbcf3273f	-0.0296818
207	0xbd796e23	-0.06089605
208	0xbd210bc0	-0.039317846
209	0xbd5f8a23	-0.054575097
210	0x3b967740	0.0045918524
211	0x3c295318	0.0103347525
212	0x3d589e1e	0.052885167
213	0x3c091f78	0.008369319
214	0x3d898391	0.067145474
215	0x3d494f0a	0.049147643
216	0xbbd74e8d	-0.0065706433
217	0xbda66c21	-0.08126093
218	0x3d066000	0.032806396
219	0xbdc3b334	-0.09555665
220	0x3d5bef96	0.053695284
221	0xbd4f6827	-0.050636437
222	0xbc93caf5	-0.018041113
223	0x3d934af6	0.07192032
224	0x3d79c81b	0.06098185
225	0x3d994d21	0.07485414
226	0xbd373fae	-0.044738464
227	0x3ce7a34c	0.028276108
228	0xbd0ef103	-0.034897815
229	0xbce83b2c	-0.028348528
230	0x3d34c43e	0.044132464
231	0xbd47c003	-0.0487671
232	0x3da6e5f9	0.081493326
233	0x3bdda440	0.006763965
234	0xbd108fe4	-0.035293475
235	0x3d0104f2	0.031498857
236	0xbc0584e1	-0.008149357
237	0xbd14f231	-0.036363784
238	0x3d9db289	0.077000685
239	0x3d485add	0.04891478
240	0xbd6a7b3e	-0.05724644
241	0x3d2c9755	0.04213651
242	0x3d3c108c	0.045914218
243	0xbd82de26	-0.06390028
244	0x3d93dc56	0.0721976
245	0xbdb40517	-0.08790033
246	0xba043242	-0.00050428894
247	0xbd7f1b72	-0.062282033
248	0xbdb05552	-0.086100236
249	0x3d86e41c	0.06586477
250	0x3d2ec718	0.04267034
251	0xbc384c7b	-0.011248703
252	0xbdaf95cb	-0.085734926
253	0xbd5ba061	-0.053619746
254	0x3d315920	0.043297887
255	0xbc83eed3	-0.016105091

bias f4 [81]
0	0xbd0b019e	-0.03393709
1	0xba4f1124	-0.00078989775
2	0x3afaaba7	0.0019124643
3	0x3d9442a4	0.07239273
4	0x3c600ac3	0.013674441
5	0xbd82e788	-0.06391817
6	0x3d9fd2b5	0.07803861
7	0x3b867a3c	0.004103927
8	0x3d6f2b13	0.05839069
9	0xbd7eb459	-0.06218371
10	0x3d0db0b7	0.034592357
11	0x3d3af38d	0.045642424
12	0x3cd4f54e	0.025995877
13	0x3cf2f7c7	0.029659165
14	0xbc0b6ce2	-0.008509846
15	0x3d300151	0.042970005
16	0x3da5b62f	0.080913894
17	0xbd2365c3	-0.03989197
18	0xbd045d67	-0.032315638
19	0x3d87adf7	0.06624978
20	0xbc0fc075	-0.008773913
21	0xbd6486dc	-0.055792674
22	0x3d3c6c69	0.046001825
23	0x3d7b3d50	0.06133777
24	0x3d5837b3	0.052787494
25	0xbda38217	-0.07983797
26	0xba886196	-0.001040506
27	0xbd4fba54	-0.050714806
28	0xbd7150f6	-0.0589151
29	0xbc57a397	-0.013161561
30	0xbd25c378	-0.040469617
31	0xbcad647a	-0.021166075
32	0x3ad74810	0.0016424675
33	0xbd3171d7	-0.043321457
34	0x3cf8a1f8	0.03035067
35	0x3c8ba90b	0.01704838
36	0xbd6981a4	-0.0570084
37	0x3b274085	0.0025520634
38	0x3d65d6fa	0.05611322
39	0x3c73d29f	0.014881759
40	0x3d4011cd	0.046891976
41	0xbdbac7b5	-0.09120122
42	0xbbeda0c2	-0.00725183
43	0xbd4ab4a6	-0.049488686
44	0xbd97dff5	-0.07415763
45	0xbbd53a4b	-0.006507193
46	0xbd14adfb	-0.036298733
47	0xbc49b451	-0.012311057
48	0xbd5b2a71	-0.053507272
49	0xbc19614b	-0.009361575
50	0xbd869e56	-0.06573169
51	0xbd7765c1	-0.060399774
52	0xbcd30142	-0.025757436
53	0xbcd40d0c	-0.025885127
54	0xbd962835	-0.07331888
55	0x3d976a03	0.07393267
56	0x3da59a89	0.08086116
57	0x3ce142e7	0.027497722
58	0x3bddb2ce	0.0067657
59	0xbd581214	-0.052751616
60	0x3c4f7496	0.012662074
61	0xbcc46794	-0.023975171
62	0xbd751425	-0.059833664
63	0xbd4ba11a	-0.049714185
64	0x3d4c529e	0.049883477
65	0x3d43c7bf	0.047797915
66	0x3d95a430	0.07306707
67	0x3c18989d	0.00931373
68	0x3c4eab21	0.0126140425
69	0x3c221a9a	0.009894038
70	0xbccddb8f	-0.025129108
71	0x3c61162c	0.013738196
72	0xbd312b17	-0.043253984
73	0xbc870fbc	-0.016486995
74	0xbda77e7b	-0.08178421
75	0xbd94b5d6	-0.07261245
76	0xbd16210a	-0.036652602
77	0x3d87ec09	0.06636817
78	0xbcedc258	-0.029023334
79	0x3d104449	0.03522137
80	0x3cfe520c	0.031044982

weight f4 [1, 144]
0	0x3d1039ae	0.035211258
1	0x3c7dd038	0.015491538
2	0x3d82662b	0.06367143
3	0xbd23b1b8	-0.039964408
4	0xbbd63703	-0.0065373196
5	0xbd75b708	-0.059989005
6	0xbc9369a0	-0.017994702
7	0xbd604bc0	-0.05475974
8	0xbd9222d1	-0.07135547
9	0xbd90809d	-0.07055781
10	0x3c7731b6	0.015087536
11	0x3c10662b	0.008813421
12	0x3d68943e	0.056782
13	0xbcb8bd54	-0.022551216
14	0xbd59208c	-0.053009555
15	0x3d3877e3	0.045036208
16	0xbd4ee07d	-0.050507057
17	0x3d079813	0.033104014
18	0x3d83afca	0.064300135
19	0xbd9baf38	-0.0760178
20	0xbcd68cf8	-0.026190266
21	0xbd85c8b6	-0.06532423
22	0x3c8a5acc	0.016888998
23	0xbcf4d3d3	-0.029886162
24	0x3d874ad7	0.066060714
25	0x3d2e3805	0.042533893
26	0xbda01eba	-0.078183606
27	0xbd8e813a	-0.06958242
28	0xbcce5beb	-0.025190314
29	0xbc986a03	-0.018605238
30	0x3da69559	0.081339546
31	0x3d91b804	0.07115176
32	0x3d37c2b2	0.04486341
33	0x3d00e05b	0.031463962
34	0xbd0a14fb	-0.033711415
35	0x3d6275b8	0.055288047
36	0x3ca28f49	0.019843714
37	0x3cd8e486	0.026476156
38	0xbd0f9f74	-0.035064176
39	0xbd88582d	-0.06657443
40	0xbdab39cb	-0.083606325
41	0x3d16567f	0.036703583
42	0xb836f00e	-4.361575e-05
43	0xbcb56a73	-0.022145486
44	0x3da05ab0	0.07829797
45	0xbc759551	-0.014989213
46	0xbcd56e1e	-0.026053485
47	0x3d9e89a7	0.07741099
48	0xbd757915	-0.059929926
49	0xbd1ef047	-0.038803365
50	0x3a142a1d	0.00056520273
51	0x3afb5d90	0.0019177664
52	0x3d0c9a74	0.034326985
53	0xbd0f4123	-0.03497423
54	0x3d92f823	0.071762346
55	0xbd4c6d10	-0.049908698
56	0xbaf9f11f	-0.0019069052
57	0x3cc198ce	0.023632433
58	0x3d55087f	0.052010056
59	0xbce4f65f	-0.02794951
60	0x3d89a1cb	0.06720313
61	0x3d981964	0.07426718
62	0xbd1941bc	-0.037416205
63	0xbcaf4d76	-0.021399241
64	0x3d683c22	0.056697972
65	0xbc90a854	-0.01765839
66	0xbb1f1460	-0.002427362
67	0x3caef490	0.02135685
68	0x3d14dc66	0.036343
69	0xbce4f450	-0.027948529
70	0xbccebbb0	-0.02523598
71	0xbd83cd22	-0.0643561
72	0xbcff20c4	-0.031143554
73	0xbd3bd3a7	-0.045856144
74	0xbd8ebc89	-0.06969554
75	0xbc8e480f	-0.017368345
76	0x3d60b7cf	0.054862794
77	0xbcce7fa9	-0.025207357
78	0xbda84042	-0.08215381
79	0x3b8ad39e	0.0042366525
80	0x3d99bd14	0.07506767
81	0x3cad3f04	0.021148212
82	0x3d2623ae	0.04056137
83	0xbd60520e	-0.054765753
84	0xbd2261cb	-0.039644044
85	0x3d113412	0.03545005
86	0x3d254a26	0.040353917
87	0x3cb07830	0.021541685
88	0x3c577688	0.013150819
89	0x3da169b7	0.07881492
90	0xbda2ba63	-0.07945707
91	0x3c4420c5	0.0119707035
92	0x3d29f303	0.04149152
93	0x3c37a68c	0.011209141
94	0x3ccb7ef8	0.024840817
95	0x3c346c13	0.011012095
96	0xbd9ff040	-0.07809496
97	0xbd75ee97	-0.06004199
98	0xbc03d495	-0.008046289
99	0xbd0a7d24	-0.03381075
100	0x3ca2047e	0.019777533
101	0x3d4d73c1	0.05015922
102	0xbc335623	-0.01094583
103	0xbd936d9e	-0.07198642
104	0xbda2d7c4	-0.0795131
105	0xbd2781aa	-0.04089514
106	0xbd1ee4fe	-0.038792603
107	0xbd96cf25	-0.073637284
108	0x3cf51b3f	0.029920219
109	0xbc30b948	-0.010786362
110	0xbd14931d	-0.03627311
111	0x3d6c22fe	0.05765056
112	0xbd5ebd80	-0.05437994
113	0x3daf08af	0.08546578
114	0xbd37a569	-0.04483548
115	0x3cb63d9f	0.02224618
116	0xbd0e673a	-0.034766413
117	0x3d5d20d2	0.053986378
118	0x3d516371	0.051120225
119	0xbd8375bf	-0.06418943
120	0xbd698c03	-0.05701829
121	0xbcff0190	-0.031128675
122	0x3d5e584a	0.054283418
123	0x3bd56510	0.0065122917
124	0x3d8853e9	0.066566296
125	0x3da17c85	0.07885078
126	0xbd4265cb	-0.04746036
127	0xbbd23d40	-0.006415993
128	0xbc4c5af8	-0.0124728605
129	0x3c67c4c0	0.01414603
130	0xbd8766bf	-0.06611394
131	0xbd12cad6	-0.03583797
132	0xbca732e4	-0.020410009
133	0xbca03684	-0.019557245
134	0x3d93f19d	0.072238185
135	0x3a3c473f	0.00071822474
136	0xbd29472c	-0.04132764
137	0x3cedb3eb	0.029016456
138	0x3d9c2eb2	0.07626094
139	0x3d232f46	0.039840005
140	0x3d7cdaab	0.061731976
141	0xbbf9dc00	-0.007625103
142	0xbcd63fc0	-0.026153445
143	0xbd5be379	-0.05368373
