regression_model.pt (torch, 760117 bytes, 16 tensors)

conv1.weight f8 [16, 2, 3, 3]
0.09147226950169805 0.05696541397042328 0.1238721911798505 0.047386702403617954 -0.04777136582033138 -0.1130203907491637 0.232858004766602 -0.24295711051820057
-0.17123136770464242 -0.09470818425132223 0.013298968441631672 -0.1492437025191395 -0.18305254743561103 0.0142854365943258 -0.13173995056141988 -0.07969692983497705
-0.25878126250700423 -0.25080285595935486 -0.4486094418076682 0.04148957555261925 0.09653136730392615 0.053093860938325445 -0.39648265216987755 0.1208640211395185
0.10738156423728343 0.114347076646723 -0.4521519153222864 -0.14226463512680065 0.0801601394087187 0.11626091812408053 0.031389883603894594 -0.19918113228028508
0.0639304961338568 0.13437987969946041 -0.0009529441268956092 -0.10913871673426417 -0.11339879862241817 0.08866950104475496 0.05579055317207326 -0.10249161178523715
0.26818889516166344 -0.11249367865750244 0.08464586616535565 0.07569754704040571 -0.09815754295154568 -0.4535049451152717 -0.4022563230835021 -0.9563861961001402
-0.1127537427541138 -0.8710912562980523 -0.024283243953338664 -1.0527253397548761 -0.5886509404645682 -0.44172467515285574 0.027079864827413473 -0.0009299993835116257
0.03933635068155805 -0.379415796639618 -0.08951040966182205 0.08413444904890884 -0.2739483297043281 -0.14377994368360988 0.1663653117004673 -0.8224552557962761
-0.1705788741504406 -0.49335831084026904 -0.19965047668741512 -0.8853619783205887 -0.4839193185271839 -0.29913141940396215 -0.40842164258646924 -0.5435436080999019
-0.013009995902943702 -0.10132595336526934 -0.0378958296162117 0.29154359198567875 0.2824346405724843 0.2608623390981305 -0.01956626857599764 -0.039386072429901546
-0.03469610855230946 -0.20907743243667057 -0.15280607545786234 -0.16876378432240327 -1.0365348512015229 -1.047210617765563 -1.030922104793726 -0.09274203788531302
-0.10584970669519055 -0.3166439354230238 -0.009381732450502486 0.005097609583027929 -0.009696149449494549 -0.2251767470726044 -0.26831001851981034 -0.3043236858328082
-0.2443448214653194 -0.22811764202843426 -0.3167752600815074 0.1617028031307106 0.042252453326201214 0.17910015715663533 0.0660376394795671 0.06043283932518308
0.08072064634093702 -0.0031469845799552464 0.01659083687134781 0.025282654675353882 -0.0450198696169815 -0.12175870221457463 0.3326423314984727 0.07605338077249635
-0.1552084086472722 -0.3450588802993484 -0.150346502923071 0.08311758408490684 -0.2759246317620912 0.029476742862409627 0.04895565265876641 0.38603594438704303
0.09128502844656776 -0.0014559172298294896 -0.19920483180467083 -0.002286563330171198 0.28377174686288015 -0.15126642461983505 -0.011849097953256494 -0.2794964204202606
0.014889441115788427 0.03800108722184364 -0.3006177331329138 0.011625639384765261 0.002137345907732565 0.3042646893753855 -0.048300210088929596 -0.06729776478645397
0.5417890479727638 -0.10825654195355709 0.14141885744785046 -0.6970781870617645 0.01554416264286537 0.12220656877274548 0.0768278895278169 0.16678018655730928
-0.023553781574486666 0.09393491460713647 0.20605313865275637 0.005012861544553867 0.031695502932037614 -0.17311909766837105 -0.061241676716889924 -0.007082372198800259
0.2359896409415856 -0.0654917315345106 0.0025528523608793793 -0.3768869043348899 0.01659487339063413 -0.057849724711852554 -0.21410205820949868 -0.04762668475973019
-0.06698741458668153 0.07612616692030129 -0.24332677224337665 -0.06467544633216005 0.36945139105959857 -0.11535490073679895 0.319930824476234 -0.11610587447808692
0.3014440486545292 -0.03065138952766849 -0.17036729660099925 -0.20733014428089008 -0.019671175897551307 0.09246325801450583 -0.12540739751292543 0.07478568401632582
-3.6817009343340226e-05 0.02602065909926137 -0.07567240773671437 -0.026153103237854674 0.1831355578790716 -0.19124307612572417 0.1431151363667953 0.19680564404354217
0.44230653860607627 0.11967727034291774 0.10643575286028321 0.08212245682117993 0.10551081313551497 -0.12505326319452273 -0.30488239927482885 -0.22259457364648597
-0.04035300086828429 0.32679721522005356 -0.14720582624626752 0.17798105260764172 -0.17166636679567118 0.007766394335501568 0.1613742917219201 0.1957096277182582
0.12626778937753938 0.1437720891292999 0.1982469135676657 0.1616899324118574 0.2473003911461204 0.14221994569596716 0.09951846914667077 0.35977470854935767
0.2131283688654167 0.3762737687415987 0.1630141436234124 -0.08636806104871361 0.20972585245649467 0.1920794030406696 0.21435560238746942 0.06030025595885244
-0.08596219814806925 0.271374881615418 -0.12974011596296714 -0.10269837646308795 -0.12545225432226265 -0.10900271616231161 0.058878951669461645 0.0008758378131491379
0.061064451856699356 0.44030949122980007 -0.13591930853328824 -0.10856725768592951 0.09770560243720568 0.30951903154143934 -0.034284384747456126 -0.13977256325035178
0.05630306451749323 -0.21896211317749834 0.06899863431257393 0.13671514070678178 -0.43435014290029156 0.015225481348018495 -0.3680828861600213 0.06194350111510357
-0.3593871116311064 0.03314497711337088 0.05243539967804517 -0.08362982401633136 0.03773168428090049 -0.479392675346883 -0.23391114458466836 -0.4666120962600962
-0.49882633495727635 -0.5207800234989949 -0.2267168861183199 -0.13374480396773436 -0.0043095300409392015 0.21002780672161778 0.01295362688375733 -0.2871463457511482
00000000: 4f2d 0006 ba6a b73f 8b1b 031c 922a ad3f
00000010: 5956 0082 16b6 bf3f 4d7a 2de2 1143 a83f
00000020: 0264 c40b 7d75 a8bf 187e 0c82 e7ee bcbf
00000030: 90cc 8a85 4ace cd3f 64cf 00f6 3719 cfbf
00000040: 009f 2bd2 e8ea c5bf 71e1 05aa cb3e b8bf
00000050: 3100 3854 7d3c 8b3f 6e11 baea 6a1a c3bf
00000060: 6fbc 5710 446e c7bf 438b dad7 ae41 8d3f
00000070: 5175 9ecd dadc c0bf f39a 3b9b 0467 b4bf
00000080: 4b40 d248 df8f d0bf 5baf 056c 270d d0bf
00000090: 7368 4f60 04b6 dcbf 0331 3f24 1f3e a53f
000000a0: 65c8 9b99 47b6 b83f ed6b b258 1e2f ab3f
000000b0: da0f 20c6 f85f d9bf 34aa 0eca f1f0 be3f
000000c0: 2aab 97b2 5b7d bb3f f443 979a d945 bd3f
000000d0: c482 4896 0ef0 dcbf 189d 9f41 ba35 c2bf
000000e0: 0908 34f9 5f85 b43f 0d57 2589 46c3 bd3f
000000f0: de08 02b7 5512 a03f abe1 8f70 c47e c9bf
00000100: 07aa 1cbe bf5d b03f 3059 4622 5c33 c13f
00000110: bf3f 12ee df39 4fbf e4df 19d3 83f0 bbbf
00000120: 862d 7d23 b407 bdbf e4cd 235f 0bb3 b63f
00000130: df7f 9952 9490 ac3f 395f bbe8 e33c babf
00000140: 72a9 77c1 012a d13f 8538 d7be 62cc bcbf
00000150: c9fa ebfa 59ab b53f fc0b ed18 ea60 b33f
00000160: 8925 d54c da20 b9bf 1b0a f69a 3906 ddbf
00000170: b82e 104e 91be d9bf fb11 5339 b79a eebf
00000180: 7b69 a1e5 6ddd bcbf cb36 34c5 fadf ebbf
00000190: b744 7bea b4dd 98bf d3ae 9e86 f6d7 f0bf
000001a0: 43c2 417f 3ad6 e2bf 0a89 6792 3745 dcbf
000001b0: ae5f 41f7 d2ba 9b3f fd6d ff77 6679 4ebf
000001c0: 804b 71e7 e423 a43f dec9 8931 5948 d8bf
000001d0: a42a 267a 27ea b6bf 7dcd 21d3 d589 b53f
000001e0: 37ee 3793 5e88 d1bf c38d f895 6167 c2bf
000001f0: 089f 7862 754b c53f ae2f 42af 8d51 eabf
00000200: 98ac ee4e 87d5 c5bf 5433 91bc 2e93 dfbf
00000210: c56a 0096 258e c9bf 0148 c0a4 e254 ecbf
00000220: e784 bebb 88f8 debf eef2 e21b f824 d3bf
00000230: 93cc 7887 9423 dabf 3aa5 9790 b564 e1bf
00000240: 78d6 6417 fca4 8abf 349a f067 7ff0 b9bf
00000250: 5a7c b609 1567 a3bf 7bf5 3b74 a6a8 d23f
00000260: a10b 21be 6813 d23f 62cf cbf3 f7b1 d03f
00000270: 81fd 8d0e 2e09 94bf 7f35 024a 692a a4bf
00000280: 65af 0f37 b0c3 a1bf cdd5 529f 0cc3 cabf
00000290: 465e 5c44 268f c3bf 51fb 343b 0d9a c5bf
000002a0: 3f32 7191 a595 f0bf 983b b5eb 5fc1 f0bf
000002b0: 2800 4d2d a87e f0bf 428b ae33 f1bd b7bf
000002c0: 870a 8c64 f718 bbbf 8697 c7ec e443 d4bf
000002d0: 5816 70d0 ba36 83bf da6c 2627 3be1 743f
000002e0: 25fc 4226 93db 83bf 4d8d 3f76 97d2 ccbf
000002f0: d3d4 aec8 fd2b d1bf ac34 830d 0a7a d3bf
00000300: 17fc 91ec b046 cfbf a68d 137a f532 cdbf
00000310: 93d8 8ebd 0b46 d4bf 4718 8f6d adb2 c43f
00000320: 2271 6c12 1da2 a53f 611d d902 c1ec c63f
00000330: d9a9 debd d7e7 b03f 721d 0399 0df1 ae3f
00000340: 5974 25b8 1baa b43f 4af6 427b b4c7 69bf
00000350: ac53 1a37 30fd 903f 2b63 f23b b2e3 993f
00000360: 46a9 5927 d80c a7bf 18d7 030c 942b bfbf
00000370: bb45 c30f 034a d53f 1009 2bff 3b78 b33f
00000380: 7624 9a7f dedd c3bf 0820 85d7 7115 d6bf
00000390: feaf 8fe0 8d3e c3bf 2501 5ea9 3147 b53f
000003a0: bd0e 65c9 bfa8 d1bf fbba 58ba 262f 9e3f
000003b0: 7b5a 3f1e b710 a93f c242 0e1b d0b4 d83f
000003c0: 3bdd caa3 745e b73f 7fb9 d138 8fda 57bf
000003d0: ef32 e73e 8b7f c9bf 186c 2557 45bb 62bf
000003e0: d782 13f9 5029 d23f 23ce 5cbd b25c c3bf
000003f0: 3a19 9201 5744 88bf 2576 43f4 44e3 d1bf
00000400: da29 2ff5 5a7e 8e3f 1718 a9e5 e074 a33f
00000410: 47d3 1929 523d d3bf 4c0a 9fe7 2ecf 873f
00000420: 7834 c4d8 5682 613f e778 8c9a 1279 d33f
00000430: 809a 711d ceba a8bf 560a da22 6d3a b1bf
00000440: c6f7 4bfc 5556 e13f a3c1 4463 b3b6 bbbf
00000450: a55a e35b 031a c23f 8fed 05ea 764e e6bf
00000460: 6ff9 8e31 9ed5 8f3f b73d 3c00 ee48 bf3f
00000470: 1d53 f118 feaa b33f bf34 719b 0d59 c53f
00000480: 0dfa 3c86 7b1e 98bf 33b1 305a 1e0c b83f
00000490: 1639 e001 f35f ca3f afb0 4ac6 5d88 743f
000004a0: a2f7 0b99 643a a03f 433b 663f c428 c6bf
000004b0: 3b70 4dad 115b afbf 0218 8dcf 6702 7dbf
000004c0: 70fa 0497 e834 ce3f e860 19ed 10c4 b0bf
000004d0: 8708 d92c b8e9 643f 982d 1a40 ea1e d8bf
000004e0: 1be4 f919 3ffe 903f 1ea5 70a7 7a9e adbf
000004f0: 140f 023d b267 cbbf 9f7d eb5a 8662 a8bf
00000500: 3eb5 e452 1626 b1bf 51e3 4a25 017d b33f
00000510: c565 83e8 5425 cfbf 08d0 d9ee 918e b0bf
00000520: fe02 8472 17a5 d73f 850e 1916 e687 bdbf
00000530: 3ce5 0623 bf79 d43f ddc1 c155 1db9 bdbf
00000540: dde1 a2fa db4a d33f efa6 64ee 1363 9fbf
00000550: d8c7 9a77 98ce c5bf 3ea8 944e cb89 cabf
00000560: e389 9d44 ae24 94bf 6800 410d acab b73f
00000570: 554b 7f7f 590d c0bf ca21 0f93 2725 b33f
00000580: 14c8 fbce 7e4d 03bf 0e22 68df 28a5 9a3f
00000590: f152 7054 445f b3bf 1bca 610c e1c7 9abf
000005a0: 56a4 e967 fc70 c73f 36f1 c532 a77a c8bf
000005b0: 0805 21c7 9851 c23f d8e8 6a66 ed30 c93f
000005c0: 0caf 8715 c04e dc3f a787 326a 2ba3 be3f
000005d0: 5bf9 a89d 5f3f bb3f 796b 5032 fa05 b53f
000005e0: 7499 cab3 c102 bb3f e9da d6cd be01 c0bf
000005f0: d8ba 8077 3183 d3bf 8513 0a9f fa7d ccbf
00000600: ceaa 0c06 26a9 a4bf f4d0 f2dd 3eea d43f
00000610: 8312 c1f8 a3d7 c2bf fff4 2048 15c8 c63f
00000620: 3df3 9adb 29f9 c5bf 3171 dc9a a7cf 7f3f
00000630: 092f aeac e9a7 c43f f1f7 4759 030d c93f
00000640: 7516 f5fc 8a29 c03f 06a8 71b2 1f67 c23f
00000650: 112d 27a5 2760 c93f 8d93 e675 41b2 c43f
00000660: 2e5b 210a 8aa7 cf3f 8f31 cd5f 4334 c23f
00000670: 4b3b 55da 0a7a b93f 606f c97f 8c06 d73f
00000680: a23a 1057 ca47 cb3f 109f c592 de14 d83f
00000690: c5f1 d2bf a5dd c43f 2e87 9f9d 371c b6bf
000006a0: 2893 b6f6 4bd8 ca3f 97be 25d1 0e96 c83f
000006b0: ccf9 fb1e 0170 cb3f 2c41 91d6 acdf ae3f
000006c0: 97fc bc5d 9e01 b6bf 349f 5fc0 345e d13f
000006d0: fe24 85f9 529b c0bf dde1 42d8 704a babf
000006e0: 1605 c3c8 d10e c0bf e8a0 171d 9ae7 bbbf
000006f0: 1dab afc7 6125 ae3f 953b cd61 0fb3 4c3f
00000700: da6a 58ff d643 af3f 31d3 3cdc 072e dc3f
00000710: e3cf 85cc cd65 c1bf cc6e 2d55 10cb bbbf
00000720: 1591 1aff 3b03 b93f dc71 7de9 28cf d33f
00000730: c4f2 810e b98d a1bf bbe8 043e 11e4 c1bf
00000740: f0cf 8859 c1d3 ac3f 2f88 9455 f306 ccbf
00000750: d156 d7fd e4a9 b13f bb11 1ab9 e17f c13f
00000760: 6b42 b18a 64cc dbbf 4410 a583 892e 8f3f
00000770: c392 9185 ab8e d7bf 8b6c fafe 0eb7 af3f
00000780: e7ce c3cc 3200 d7bf 970a 75e1 60f8 a03f
00000790: 682f 8a0d d0d8 aa3f 21d1 1e9f c368 b5bf
000007a0: 95d8 043c 9151 a33f bea2 a39d 5eae debf
000007b0: 359e 14e6 ccf0 cdbf 3dba 56fb f8dc ddbf
000007c0: 509a c14a c5ec dfbf 4fd3 2ade 3aaa e0bf
000007d0: 4521 aa15 0f05 cdbf a492 86bb 8c1e c1bf
000007e0: bf33 64a9 dea6 71bf c35a 8ff0 30e2 ca3f
000007f0: fa80 a45e 6e87 8a3f 9bb1 0a11 9b60 d2bf

conv1.bias f8 [16]
0.20316042083484362 -0.6361647974689864 0.2968985426132993 -0.07542525464917302 0.3413952367417399 0.2333081674651188 -0.05050944500285524 -0.31644408798378
0.22742225829750545 -0.41468799574800247 -0.006667144968212232 0.2247749643330056 0.11549622942779607 -0.47896992136603456 -0.007751925142039556 -0.3701898053931162
00000000: 57e3 a921 2901 ca3f 44dd ff46 765b e4bf
00000010: 8844 b0be 6200 d33f 46bb 02ca 114f b3bf
00000020: 8838 3468 6bd9 d53f 1281 93c2 0add cd3f
00000030: ad4d dabc 5fdc a9bf d0c8 39b4 9e40 d4bf
00000040: 9297 e22c 2c1c cd3f 6703 f284 3f8a dabf
00000050: afe1 8919 024f 7bbf a489 6210 6dc5 cc3f
00000060: 7b25 3430 2991 bd3f 543a 0275 71a7 debf
00000070: 5325 758f 7bc0 7fbf 6a77 de94 30b1 d7bf

conv2.weight f8 [16, 16, 3, 3]
-0.11364815241754529 0.02003056825638543 0.12520856331096974 -0.059751879410107706 -0.05678529800176223 0.18167202720114553 0.0759099464449697 0.052976642212347685
0.012323571684857872 0.10922133474344066 0.1450757557127788 0.1519176347518574 -0.006147597300933531 -0.062225819498453384 -0.08784990428466191 0.25479461683601295
0.09041989463284086 0.16756891705200352 0.07102083734207276 0.008723693859902773 0.06273741148910439 -0.01182984890432336 0.05683359400174311 -0.11852097302562525
0.12592831967204862 -0.09914897191211801 0.2989795791693564 0.0018258108830096406 -0.10153310785336579 0.11775783014546243 0.27354179993816646 -0.01850398850986501
0.045898965501442644 0.14970340712619523 -0.225854893701745 0.02462322987588925 0.03194546862246217 -0.05082098389684068 0.055029647547347266 0.08095168635507025
0.004885949228665785 0.1156535526195496 0.10637438451568135 0.009682859989695574 0.13670008142612075 -0.01972744744881792 -0.0093206386705827 0.13631985910368688
0.20058570634848336 -0.012894599547680251 0.11149230321029953 0.1589210500023516 -0.0969915690810236 -0.014485021156709337 -0.07427702129801 -0.039963864583874985
-0.10054332461351914 0.001773734696489725 0.12757624453860528 -0.005676166200508679 0.03631456998908766 0.12151479250890337 0.17881621176749862 -0.17301239507952068
-0.05801868793300732 -0.08724577575296459 0.12676307390672403 0.04556009385567893 0.06548909434777211 -0.219347408306844 -0.18238936305568 -0.24119657755305143
-0.015898938563718403 -0.0671368880494209 -0.04105842491555348 -0.005747589168700431 -0.06759826220021373 -0.06383753159829308 -0.15921869796145965 -0.0861237798039824
-0.015917220136931337 0.007559042962346614 -0.03223490358821995 -0.11148244727152029 0.12120476238331633 0.053675737918232255 -0.00543163807338545 -0.17910691880482352
0.30981873895015793 -0.09397573905960996 -0.08473966494916417 -0.09889117664180087 -0.11680639785652386 0.08026580884039751 -0.09791824117151311 0.14334713536431837
-0.09443080163012638 0.021642246801653168 -0.3022287462183342 0.00803161841401028 -0.09608281275832514 -0.16557073230965322 0.07682015915401104 -0.018059547114824687
0.07652867121811646 -0.058860801246355246 -0.14164682621840022 -0.32046825951312347 0.022936679803705756 0.028536715450439863 -0.1705513477713553 0.06295633508147228
-0.1076323051877619 0.06715292904659895 -0.08421650929269446 0.07843481647891314 0.033305747683275065 -0.08717326100186025 0.10584497023149285 0.11899262567999885
-0.013044070301822492 -0.07375546395145323 0.1100341433507128 0.2540395499492378 -0.05807474101375361 0.2456984527567384 0.10632892732173592 0.005451942869570033
0.06757898052515449 -0.017769054446964222 -0.008093261561216161 0.1397299268678922 0.001447379234761086 0.11611030954329478 -0.1773330926020051 -0.11709529029864066
-0.15019286157624573 -0.166448412486504 -0.05050066914653494 -0.08866478997013223 0.07984081808069297 -0.11221785706528255 0.03363707600506433 0.05851135536410355
0.33647415858830976 -0.0770727417657826 0.03086670044545419 -0.032136542258433314 -0.035511817318309435 -0.03554082770780101 -0.037714388540293575 -0.02136411680131703
0.025547609347627412 0.737047888626535 -0.011492400244110275 0.021533402716852078 -0.04361210940053505 -0.029819508530214554 0.06914124615401013 0.01812139868406342
0.023131906585508035 -0.023151962244550257 0.30016446430213567 0.08424796049190343 0.050013993620722924 0.0010991106493730479 -0.025835976041928936 -0.04027148739994931
0.006117330176853011 0.023980364773242037 -0.020718405904539057 0.5229464226860219 0.00014119982747791253 0.061873786801498847 0.05538036738291344 0.038301811466486146
0.04408836310713784 0.023053093195672426 -0.0326573064227682 0.0342238322678628 0.5334651187843505 0.008214092225043398 -0.013415735014591243 0.44733043544803197
0.03311115070733411 -0.009755436508923762 0.0019787622011746297 -0.023682470187683897 -0.0005309259194213864 0.3493256587207107 0.008707103738170827 0.01198628293843549
0.06680533839377385 -0.05368945041287379 -0.013300080763662837 -0.0021434896516843837 0.0071117127877079285 0.011752753555764786 -0.018205011927476523 -0.008936225426044246
-0.04443926637586386 -0.08903214494223984 0.016146571780103893 -1.919630662843162e-05 -0.02515593920293761 -0.03623971712151155 -0.01066815435416239 -0.3874063239271389
-0.1353165532866897 -0.011887322318319037 0.083196397677285 0.024390296864231175 0.012926407244787145 -0.013093255431728052 0.025375036187733083 0.042033834881348646
-0.31887865531600035 -0.027556907582447502 -0.002221943731008639 -0.04542297720182937 0.0012256510039449523 -0.013758735992993423 -0.0440133874744957 0.010551822460891959
-0.03911668703400752 -0.38280646344776453 0.046174660763460725 -0.021400196315285464 0.01323284195121541 0.08288887525593301 0.04544013094371404 -0.03491284634756458
0.007762057513310051 -0.03547989928595936 -0.4285438745999639 -0.1154535176814834 0.005932025842781026 0.03812722711669725 0.01969071286977418 0.02134839273292439
-0.012620413723492605 0.017483012682547067 0.0010371524318951739 -0.7240041249617759 -0.11279459131955771 0.010017641047863573 -0.039106962638014504 0.06970282985678379
-0.035164468368116826 0.025998345811388494 -0.003269383781871391 0.026604850675354234 -0.4136607107720768 -0.06117000098958145 -0.02375925340344454 0.14249066226536897
00000000: a559 e299 0b18 bdbf 2d6d 53ae e482 943f
00000010: f4c4 4c8e d506 c03f fcc3 e15f cc97 aebf
00000020: 5e53 9f6b f612 adbf 0da6 b66b 0741 c73f
00000030: fe18 6c91 d56e b33f a402 8223 c11f ab3f
00000040: c1db d9ca 193d 893f b9a0 bfec edf5 bb3f
00000050: 9e4b 1da5 d791 c23f 81f2 787c 0972 c33f
00000060: 1e2c b415 392e 79bf 4de1 6c07 10dc afbf
00000070: 92fe dbd1 547d b6bf 517b a014 8e4e d03f
00000080: da16 5b1a c225 b73f 4541 48f5 e572 c53f
00000090: 38ff b7ed 6b2e b23f 35f8 a05e badd 813f
000000a0: 80d6 941a 8f0f b03f fa17 4971 3f3a 88bf
000000b0: 0a6f 1af7 4a19 ad3f 2800 09f7 6357 bebf
000000c0: f7da 504f 6b1e c03f e768 cbb7 d361 b9bf
000000d0: 1512 ad3e 7b22 d33f db4c ff81 01ea 5d3f
000000e0: a902 b1e1 12fe b9bf 6c9b 528d 6025 be3f
000000f0: 95b2 3477 b581 d13f 0052 fba5 b5f2 92bf
00000100: 8b73 7fb7 1180 a73f d477 da32 7b29 c33f
00000110: 2e97 0b2b d0e8 ccbf 39c4 27fc d436 993f
00000120: 104d fa0d 285b a03f b52f 933f 3505 aabf
00000130: 5c72 0d91 d82c ac3f ba79 73ed 3fb9 b43f
00000140: 6442 5a02 4a03 743f 5acc 2aa2 789b bd3f
00000150: c681 a006 5a3b bb3f d660 e677 9bd4 833f
00000160: 0ff9 8a65 637f c13f db42 8196 6e33 94bf
00000170: a4d5 24f2 b216 83bf 16a5 52dc ed72 c13f
00000180: ebe8 67dc caac c93f 4684 d1da 7b68 8abf
00000190: 7540 0b74 c28a bc3f 75fa 3364 8657 c43f
000001a0: 1ad3 3081 70d4 b8bf f610 33a1 52aa 8dbf
000001b0: 44ba 51a1 d103 b3bf 0bac d1c6 2476 a4bf
000001c0: 3ad2 0b13 35bd b9bf fb54 d820 950f 5d3f
000001d0: 7018 051b 6b54 c03f e45f 2a43 e43f 77bf
000001e0: df5f f1c4 d297 a23f c653 ceeb 971b bf3f
000001f0: 349c c41a 73e3 c63f 73a7 5529 4525 c6bf
00000200: 1b4c 751e a0b4 adbf d3b8 9239 bd55 b6bf
00000210: 2889 62bc c539 c03f 0fc5 3912 a753 a73f
00000220: 1ce5 77ae e4c3 b03f d5f3 916c 9313 ccbf
00000230: 7430 bbde 8858 c7bf 8bad 3f8a 87df cebf
00000240: 276b b0b4 cf47 90bf ab08 8712 e22f b1bf
00000250: 45a3 7920 9c05 a5bf f6a5 2ab8 c88a 77bf
00000260: fa95 6aa5 1e4e b1bf 50d7 780e a857 b0bf
00000270: 6afd 533e 4761 c4bf 9d7f aa41 350c b6bf
00000280: 88b4 b98f 9a4c 90bf c855 ff24 3bf6 7e3f
00000290: e7f8 66e1 1781 a0bf 1cf6 1b19 1d8a bcbf
000002a0: 8f48 8e7a 4607 bf3f 661b e5e5 627b ab3f
000002b0: 1dee 383e 7c3f 76bf 8784 60bb f9ec c6bf
000002c0: 21a6 def9 11d4 d33f 66e2 e045 cb0e b8bf
000002d0: c772 a1a9 7fb1 b5bf 451c 8aa1 ee50 b9bf
000002e0: ace0 c12a 06e7 bdbf dbdc f4cf 4c8c b43f
000002f0: 0d74 837b 2b11 b9bf 62b9 2eed 3259 c23f
00000300: 6688 bcf4 9d2c b8bf 6176 e698 6229 963f
00000310: 18ce 3a3d b757 d3bf 5b83 6093 e172 803f
00000320: e433 811a e298 b8bf f3ec 38f8 6b31 c5bf
00000330: 2570 3d67 7caa b33f 1879 f4b0 337e 92bf
00000340: c890 160c 6297 b33f ca28 bdc0 0023 aebf
00000350: 4559 18b3 7b21 c2bf 39f4 804d 8d82 d4bf
00000360: 68ff 8a86 b67c 973f b62c 618e ba38 9d3f
00000370: 9dbc 7b66 a0d4 c5bf aa3d 4008 e81d b03f
00000380: 8047 c66e ca8d bbbf c6f3 1532 ef30 b13f
00000390: eb05 3291 368f b5bf a70a a5db 4d14 b43f
000003a0: ab11 2372 730d a13f 8db2 16a1 fc50 b6bf
000003b0: 8721 97ed a718 bb3f 7cc1 c2fb 4c76 be3f
000003c0: 2a0d d37a d9b6 8abf eda2 9259 a3e1 b2bf
000003d0: de7a 2297 322b bc3f cf0a bb19 2f42 d03f
000003e0: 5a67 c1f2 f8bb adbf 944d a201 0c73 cf3f
000003f0: a732 7761 5f38 bb3f d500 31c5 c654 763f
00000400: bca7 4027 db4c b13f 8816 ec0e 0d32 92bf
00000410: 8884 c92d 3393 80bf d0c4 1595 abe2 c13f
00000420: 48f7 9a9e bfb6 573f f585 37be 67b9 bd3f
00000430: ffb0 9ccc d9b2 c6bf 6229 59fa f4f9 bdbf
00000440: 4604 480a 8539 c3bf 30e2 0c7c 2e4e c5bf
00000450: ef2a d244 39db a9bf 2d7a 3a55 bcb2 b6bf
00000460: c7de 8aa6 7270 b43f 2162 1f3a 4fba bcbf
00000470: 19e8 bffa e038 a13f ed87 774b 33f5 ad3f
00000480: 847f c5e8 ca88 d53f 100e 4c09 0abb b3bf
00000490: 0e6c cb33 859b 9f3f 0f53 036c 3374 a0bf
000004a0: 70e0 01dc 9a2e a2bf 7405 5b49 6832 a2bf
000004b0: 8807 bde2 4c4f a3bf c8d9 e09b 79e0 95bf
000004c0: 7461 8e0a 2729 9a3f 0494 2774 e595 e73f
000004d0: d1a3 9bd9 5389 87bf 760c c331 da0c 963f
000004e0: 5f74 2b8f 5354 a6bf 6625 ae57 0189 9ebf
000004f0: bc41 099f 3db3 b13f 0ec5 d27a 6a8e 923f
00000500: c793 1df9 e3af 973f 15db b6e2 25b5 97bf
00000510: 8b56 6603 e535 d33f c942 113b 4691 b53f
00000520: c4ff e225 6f9b a93f 9cad cc12 0102 523f
00000530: 0e2c a400 bf74 9abf 6b28 b0e2 769e a4bf
00000540: 8351 c650 7c0e 793f 5af5 c909 4f8e 983f
00000550: 3218 24af 3437 95bf 9ce4 df22 fabb e03f
00000560: c4c9 4d48 e181 223f f78f 95c5 ebad af3f
00000570: 440a 80c5 d05a ac3f 4092 4087 4b9c a33f
00000580: 23d1 5bfb bf92 a63f ea61 63e5 3a9b 973f
00000590: df5a 1f5e 75b8 a0bf 2824 ab40 c985 a13f
000005a0: 8d89 d770 2512 e13f 2b7a c8cb 8cd2 803f
000005b0: 38a3 1d79 b579 8bbf 9a4d b0d5 0fa1 dc3f
000005c0: c783 d7da f1f3 a03f cbbc 1c86 a8fa 83bf
000005d0: c571 19de c335 603f 8544 c7ab 3740 98bf
000005e0: f31b f2ba ba65 41bf a7fb f601 5a5b d63f
000005f0: 32f7 62ae 07d5 813f b4fb c4a9 438c 883f
00000600: fd76 9997 271a b13f 24b7 5303 2f7d abbf
00000610: ba0e 509f 123d 8bbf 9c6c 813e 398f 61bf
00000620: 6bcf 77dd 2b21 7d3f c897 47e1 d311 883f
00000630: ad3e 68ab 55a4 92bf cfe7 a2df 274d 82bf
00000640: d631 7c57 bec0 a6bf b5d4 d186 cfca b6bf
00000650: b7c6 f316 ba88 903f c6b1 9225 f820 f4be
00000660: 2b06 b580 7ac2 99bf 73d4 b41f 038e a2bf
00000670: 567c 7a70 2fd9 85bf 12f6 e1e4 43cb d8bf
00000680: 9da4 7c85 0d52 c1bf 4ce7 c064 6158 88bf
00000690: 4540 2bef 5b4c b53f d385 7c1d c5f9 983f
000006a0: 5517 f802 2979 8a3f 9702 05ff a2d0 8abf
000006b0: e498 3eda e9fb 993f 571e 4874 7585 a53f
000006c0: 2061 fe04 8268 d4bf 71cc 61c3 e037 9cbf
000006d0: 6f41 10f5 c033 62bf 293b 2333 ae41 a7bf
000006e0: 0cb3 9bbe c014 543f 1b5f fe48 8a2d 8cbf
000006f0: 8309 9437 ec88 a6bf 54d4 0fa3 319c 853f
00000700: 93ee 1337 1a07 a4bf 0728 4dae e67f d8bf
00000710: 1913 c483 34a4 a73f c561 35dd eee9 95bf
00000720: 3211 4ffb d119 8b3f 372c 6d90 3438 b53f
00000730: 238e a8c8 ed43 a73f e7ce 8bba 18e0 a1bf
00000740: 819b b572 1bcb 7f3f aa77 32de 6b2a a2bf
00000750: c8b5 9349 436d dbbf da6e a69a 5c8e bdbf
00000760: c87c e60f 2e4c 783f 8054 1b73 6985 a33f
00000770: 9b0f 3e5f cd29 943f 52b7 7062 5adc 953f
00000780: 6597 a241 bbd8 89bf 2810 d41e 11e7 913f
00000790: 0946 a9f1 21fe 503f 5828 dcb2 0a2b e7bf
000007a0: 7818 e238 1be0 bcbf e318 7805 2184 843f
000007b0: 41ff 26eb d305 a4bf 096d ac6e 0bd8 b13f
000007c0: 919c 3ec3 1301 a2bf a140 0a74 4f9f 9a3f
000007d0: 478e 7a0d 65c8 6abf 412f 434e 4d3e 9b3f
000007e0: eefe 19c6 6a79 dabf 7c3a 7ea3 ac51 afbf
000007f0: 8174 6181 5854 98bf 5723 354f 223d c23f

conv2.bias f8 [16]
-0.20862452732669323 -0.06585729814437652 -0.06375609676531244 -0.18221018635932254 0.0645829890115153 -0.06983145016095561 -0.044981484478526575 -0.028427307154949927
-0.10172545591539515 0.15441434924098663 0.34119619280219027 -0.036991386134028865 0.029532564827896565 0.4191595899600841 -0.09822747528098448 -0.054758261071030566
00000000: 4c7c 0161 35b4 cabf 1ca7 bb1d 06dc b0bf
00000010: a612 87ce 5152 b0bf 4da7 b4d3 a952 c7bf
00000020: d2b0 aec1 8288 b03f 516e ac52 79e0 b1bf
00000030: 0188 8529 d007 a7bf c8e8 2c4a 0c1c 9dbf
00000040: b7ca 53f2 ad0a babf e8f6 0272 d9c3 c33f
00000050: 40ba 668e 28d6 d53f 51d5 5bf3 88f0 a2bf
00000060: 7f48 69e0 c83d 9e3f b3bb abbe 82d3 da3f
00000070: a585 e691 6f25 b9bf b3c8 f858 4609 acbf

fc_1.weight f8 [128, 400]
-0.1211279755054725 -0.02844978273032542 -0.10791846719820458 0.009404038015416482 0.05670682919340704 0.09121293061991728 -0.06319055432474277 -0.0802213640046113
-0.035630502509699846 0.11098573911483088 0.018899379549857938 0.1389010388901549 0.046254172756171344 -0.07549093434721604 -0.07469473399924395 -0.0769673929476919
-0.06557677264900803 -0.13005146523403988 0.1133915826938648 -0.057727602993581865 0.06691843021949091 -0.2165641391144807 -0.022565770364807995 0.29888698080789433
0.08147781761923358 0.002344051051573834 -0.12965926140850845 0.008648207104314234 0.024284091701484524 -0.21387918571569822 -0.04755861789581797 -0.038056684759159534
0.13979053407056988 -0.27528813823693976 -0.012318620056431355 -0.09359755994986192 -0.02985897117048264 0.02692933041760816 0.042993000313556164 0.04412235330916507
0.09401665938707474 -0.04477519643962903 0.08294898773134925 0.035724947019432345 0.032492033328728236 0.18676267546822095 0.06168843412762389 -0.08797744975480402
-0.16415528073106664 -0.01791431273806058 0.1893722047752148 0.17673671015753978 -0.2160553774341271 -0.2512688116210119 -0.1978865900964983 0.1221857756865072
0.051013950704588855 0.11019543682584958 -0.00320053705920241 -0.015512187842698272 0.12293726235979362 0.045080127988046365 -0.15809638983954483 -0.25487500419802966
-0.02994562408736889 0.011662272463242859 0.1231186798457166 -0.11515394438243967 0.03263565302311663 -0.14713134981395254 0.1401264217475624 0.07297554756498795
-0.05683344915031833 -0.04356015859748939 0.047013049179430264 0.06873763455886546 0.025490405393088222 -0.02686037471135424 -0.16148488289810384 0.1084310673126084
0.12613119576094686 0.12441648689061005 -0.08546039831679161 0.06725018121211851 -0.08013544387201907 0.026117187644458254 0.23424878624063467 0.033515734893914725
0.04686461201028518 0.08366104593335635 -0.04353187257849463 -0.09267740741900206 -0.14591981454505853 0.04722579536209636 0.0842726843710386 -0.004479190561226125
0.24791288197964473 -0.03210993451530006 0.03657689252731419 -0.059854931221130225 -0.23697030187849671 -0.11068839037621052 0.03198801961528837 0.12030747409879883
-0.182752755187786 -0.0377284591618102 -0.09757127012509768 -0.09352084427452213 0.020387980581130317 -0.034322832495526354 0.10339572159986034 0.14972563300738054
0.01918769286258247 0.12138781148600042 -0.028186568633331757 0.08764391542285223 0.1551739301438515 -0.25941948256543224 -0.05731801839586631 -0.1316648511698865
-0.016038080758732615 -0.08760621144088038 -0.0018530830745900778 0.024188562924340927 0.15675393496323012 0.1212321009323824 -0.06600557486824131 0.012693238717064346
-0.03927383355458284 0.08353549290956759 0.18132289817863276 -0.0713534615408286 0.025380672728753665 -0.08462278610053088 -0.2502188015191296 -0.09704242000304775
-0.0799979074966677 0.0370766109907586 2.60733784344778e-05 -0.01718659805690605 0.08098088262489052 -0.10880094005872454 -0.1310175499081334 -0.10935266460437487
-0.014795626035486316 -0.023538528884330126 -0.14589537857908197 0.14708701304343103 -0.050560780519402625 0.20716998178825452 0.3003597774165534 -0.30326984918308114
0.04580564108591206 0.21399030010423814 -0.09180101212600075 0.12564228771537264 -0.016691580882060984 0.21147646101000986 0.17700340486406352 -0.12299003533385339
-0.2156661108955122 -0.09499404530879932 0.08539317145809155 -0.05471187813389724 -0.08504159596000539 -0.1449969850458295 0.05633550438613461 0.011245164007165208
0.17966225480088058 -0.06677802168124751 0.114214336067747 0.10616255710751271 -0.02954399279118155 0.18266125575803022 -0.06644845873926096 0.020669899090268
0.16102088478023135 -0.13058093164033566 0.04407380284199075 -0.21233773397384686 0.2387250667270498 0.04718687932670187 0.022804614386904315 -0.1881757219757379
-0.05047649692252213 0.005601906197752671 -0.07859876864391688 0.1646766420192606 0.10934318443475 -0.14995156475724097 -0.056847289388643814 0.11735708062523578
-0.0048912780959309244 0.06900994326433131 0.008238175339159102 0.13377602584173198 0.09002197036688514 -0.03413494518926851 -0.006236575274639107 0.017333357260196726
-0.07309518228954198 -0.08341354771504855 -0.30987569964303335 0.11865540784473065 0.003088092194212855 0.07274722209754507 0.10735438459702078 -0.30775039616098565
0.16360897762753976 -0.13174180510192213 0.022193057923947126 -0.29626575076561334 0.029038182453769084 0.0925116115249287 -0.09078523474735127 0.0037842291663964032
-0.05164155875276735 -0.2897808130668347 -0.08321182002489459 -0.0007763872031050228 0.1261612858748148 -0.04089000961320912 -0.0712215770673729 -0.016096845712170356
0.046109376487484116 0.07976631112022044 0.04784722279417244 -0.1124817378794609 -0.03395629412165461 0.002075436088977896 0.16141579000182363 -0.05937732221579257
0.16901220362435374 0.009808874185903602 0.010725638434317699 0.29352472555454323 -0.0029328244672102506 -0.10269269254602251 0.17656581057980172 0.04435866277339168
0.023091575701114378 0.24570941335961408 0.08142820090999632 -0.24217445907892748 -0.03294435218633773 -0.21116442828692206 0.0961568531593574 -0.15645960392924418
0.022878850225868014 -0.051556634130082823 0.081691838773605 0.01118900571930945 0.005756182289346974 -0.11176431122212689 -0.00011829598862004846 -0.003439836244050229
00000000: c83b 6d35 3e02 bfbf 49c6 9e99 f021 9dbf
00000010: 5430 406f 8ba0 bbbf d3fb cf9d 6c42 833f
00000020: caea b071 ad08 ad3f e61f fc09 bb59 b73f
00000030: 6aaa 3d94 412d b0bf 061f d726 6389 b4bf
00000040: 78d5 0946 293e a2bf f711 d2b7 8f69 bc3f
00000050: 7248 53e4 5b5a 933f 23f2 b45d 82c7 c13f
00000060: fa23 957e a0ae a73f 4c70 2ab6 5f53 b3bf
00000070: d6cd b5af 311f b3bf 7d97 9193 22b4 b3bf
00000080: 859b e7ad a3c9 b0bf 0811 fdc2 86a5 c0bf
00000090: 05d4 4f13 3b07 bd3f e728 deed 788e adbf
000000a0: ddd8 4af5 9021 b13f dcd5 7dab 5fb8 cbbf
000000b0: 5e51 e736 7b1b 97bf 1649 f1db f620 d33f
000000c0: d928 06f2 badb b43f adca 69d3 d433 633f
000000d0: 63c0 afb7 ac98 c0bf 3bde 74b5 26b6 813f
000000e0: 2a0b afce eddd 983f 1dd6 f8a5 6460 cbbf
000000f0: b4d0 0269 9a59 a8bf 6a9a de70 2a7c a3bf
00000100: e9cd 0ffe a7e4 c13f 9e14 ad23 529e d1bf
00000110: 7c9b 3132 813a 89bf 9d55 f87a 02f6 b7bf
00000120: 007f ada2 5993 9ebf 4587 c9c5 5c93 9b3f
00000130: e576 9bb4 2d03 a63f 2689 f880 3497 a63f
00000140: 8abe 58cd 7911 b83f 42a7 c248 c6ec a6bf
00000150: 05de 8a15 253c b53f 4718 334e 8a4a a23f
00000160: 470b 0eb9 cba2 a03f a6ee 9fdf d6e7 c73f
00000170: 8b3b 3d5e a095 af3f 5f7c 7bad b085 b6bf
00000180: 1752 1a4d 0a03 c5bf 0a74 5c2d 2158 92bf
00000190: 95f6 2331 593d c83f bc8b 10fb 4e9f c63f
000001a0: 752d 1ade b3a7 cbbf a2b0 1ac8 c914 d0bf
000001b0: 7f05 6408 5954 c9bf 0d25 9c26 9147 bf3f
000001c0: 67f9 d423 801e aa3f 93e0 55a5 c435 bc3f
000001d0: e012 f73f 0338 6abf 8a56 ca9b dac4 8fbf
000001e0: b78a 4b01 d178 bf3f 7cf9 d016 be14 a73f
000001f0: 56fe fca3 803c c4bf 304c e63f df4f d0bf
00000200: df48 74d0 10aa 9ebf de04 9db6 63e2 873f
00000210: cbcb 76af b484 bf3f 62c3 2099 ba7a bdbf
00000220: 9bf5 d5cc 9eb5 a03f d668 d537 33d5 c2bf
00000230: 580b 5b9f a9ef c13f 5a06 3386 86ae b23f
00000240: 35c8 d61a 4619 adbf 9e69 2b61 844d a6bf
00000250: 1efa 6b29 1812 a83f 3d4a 6f24 ca98 b13f
00000260: c0b2 1926 281a 9a3f b637 c63b 4981 9bbf
00000270: 6541 6c61 89ab c4bf 0660 fa6f 23c2 bb3f
00000280: db39 6628 1125 c03f 1a44 4746 c2d9 bf3f
00000290: 4eae df8f bbe0 b5bf 74c4 f4d0 4e37 b13f
000002a0: a646 aea6 c183 b4bf e18e 2fcb 76be 9a3f
000002b0: 0aff 033e ddfb cd3f 56a2 8a72 f928 a13f
000002c0: e709 d96f a3fe a73f 9aa0 3b70 cf6a b53f
000002d0: 0bd6 1d42 cf49 a6bf 9553 f1e1 b4b9 b7bf
000002e0: cc9a a71f 80ad c2bf 8f30 37bd fa2d a83f
000002f0: 8eda 5107 e592 b53f 6b7b 918f c558 72bf
00000300: 0e0a 2efc 9bbb cf3f 8c65 3d9d b670 a0bf
00000310: dc63 63da 34ba a23f 18bb 3238 4ea5 aebf
00000320: 7e7f 58f8 0a55 cebf db73 b608 1356 bcbf
00000330: 9a12 39d4 bb60 a03f 40fd b77a 78cc be3f
00000340: 2489 6439 7164 c7bf edf6 7404 2551 a3bf
00000350: ff6a 3746 6efa b8bf 0144 a767 fbf0 b7bf
00000360: da4b 4f37 96e0 943f 0e14 2626 c392 a1bf
00000370: 2956 d15a 2478 ba3f 55de 91a4 352a c33f
00000380: 7c6a 5245 f0a5 933f 7823 7788 4513 bf3f
00000390: 74d1 dd99 f0dc 9cbf 093e 6fe6 d46f b63f
000003a0: c86e 9445 bddc c33f de14 642c 549a d0bf
000003b0: d8aa f68c c958 adbf e557 e7d2 64da c0bf
000003c0: 88bf 6561 496c 90bf 9ca6 1055 5c6d b6bf
000003d0: cac9 efcc 645c 5ebf 6604 cafa e2c4 983f
000003e0: 71db 1750 8310 c43f 3cde ba24 1109 bf3f
000003f0: afab 69c9 bde5 b0bf df63 5ca9 e9fe 893f
00000400: c534 692d b31b a4bf b511 1a02 9562 b53f
00000410: a7b9 d8b6 9635 c73f 6b35 c66f 3844 b2bf
00000420: e12a 481d 64fd 993f c155 ccc2 d6a9 b5bf
00000430: 519d 57b8 9503 d0bf 90df 3ca4 c5d7 b8bf
00000440: c155 722c be7a b4bf a9bb 4d9f b4fb a23f
00000450: ddcd 39ec 0457 fb3e 25ec 5512 5d99 91bf
00000460: 6da1 79c2 29bb b43f f886 53df 60da bbbf
00000470: 885b 07de 2ec5 c0bf 98cc 3446 89fe bbbf
00000480: b1f0 914f 2b4d 8ebf b43f 04ef 7b1a 98bf
00000490: b83d d123 b3ac c2bf da0b 584b bfd3 c23f
000004a0: e306 9545 1ae3 a9bf fc29 3fc4 8b84 ca3f
000004b0: 8c6d 4237 1839 d33f fbaa 06f1 c568 d3bf
000004c0: 8863 df44 d673 a73f 5cf1 4dbe 0864 cb3f
000004d0: b624 d268 4580 b7bf 07b7 5de6 0b15 c03f
000004e0: 9628 0708 9917 91bf 3db6 f421 a911 cb3f
000004f0: 8cfd 952d 0ca8 c63f 2427 7e63 467c bfbf
00000500: 066c 9376 f29a cbbf 4a81 ea9d 8751 b8bf
00000510: 60d7 b6ae 53dc b53f f35d 93fe 3103 acbf
00000520: 89a7 7239 49c5 b5bf 192d 65de 428f c2bf
00000530: 995c e2d9 01d8 ac3f ac02 315d b407 873f
00000540: e702 593a 2cff c63f d368 364b 5d18 b1bf
00000550: 2034 2596 263d bd3f d424 d626 782d bb3f
00000560: 7656 53cb c740 9ebf 5e0f ddab 7161 c73f
00000570: 779c 2725 c402 b1bf 2ed3 6a72 7d2a 953f
00000580: 6c52 0d15 559c c43f 9f2f 703f e0b6 c0bf
00000590: c826 a26b d790 a63f 02ed 8f03 e22d cbbf
000005a0: 12ff 2901 8b8e ce3f e357 04ef e028 a83f
000005b0: 8865 f5c3 175a 973f dabb e45d 2416 c8bf
000005c0: d56c ff2e 0ed8 a9bf 673b a23e 06f2 763f
000005d0: bedc d484 0c1f b4bf 35a4 f1cb 1f14 c53f
000005e0: 3810 3039 eafd bb3f 6ae5 4ee5 9c31 c3bf
000005f0: e1b8 9481 161b adbf d24a 3d17 1d0b be3f
00000600: fb97 5277 e008 74bf 594b 6bb9 a2aa b13f
00000610: df80 482d 2ddf 803f d052 fda3 921f c13f
00000620: 5cb2 a50a ae0b b73f bf31 7ab2 227a a1bf
00000630: bb74 7fed 858b 79bf 6aed 3fea d5bf 913f
00000640: fcc1 6da9 5db6 b2bf 7cbe 7a1b 975a b5bf
00000650: 43af f2e2 00d5 d3bf f3c8 2f68 3360 be3f
00000660: 81cd 65df 324c 693f 6ba7 c8db 8f9f b23f
00000670: 3b29 edb2 937b bb3f 26eb b5b7 2eb2 d3bf
00000680: ff02 1f94 23f1 c43f a8e1 365c eadc c0bf
00000690: 0725 ede7 c6b9 963f 02a5 9d9f 04f6 d2bf
000006a0: bb99 e56f 2fbc 9d3f 90f4 ff49 d7ae b73f
000006b0: 2316 337e b33d b7bf cfe6 5390 1a00 6f3f
000006c0: 544a ea2b c370 aabf 9057 c8d2 c48b d2bf
000006d0: 81c6 a5ad 5e4d b5bf 0538 bcd2 ce70 49bf
000006e0: f443 6d92 0d26 c03f 1331 0b0c 89ef a4bf
000006f0: fa1e 46c8 933b b2bf b230 9c07 b17b 90bf
00000700: ecfa 1af0 a59b a73f fd7a 95a1 906b b43f
00000710: 83f6 3562 6e7f a83f 5feb 9669 9acb bcbf
00000720: d5e1 7d29 b862 a1bf 4430 1144 8100 613f
00000730: b9d3 8ec9 45a9 c43f a9ee 1452 b466 aebf
00000740: cf82 981f 31a2 c53f c557 b6ce ac16 843f
00000750: eed3 6ed2 52f7 853f b0be 34ee 1bc9 d23f
00000760: 518e 7d25 9406 68bf 3efa 057c 114a babf
00000770: e517 045f b599 c63f 88e0 cfbb 2db6 a63f
00000780: 142e cc69 51a5 973f 2975 59f3 6773 cf3f
00000790: d56b e183 7ad8 b43f 6ad2 d59a 92ff cebf
000007a0: 20da 7406 15de a0bf 3012 c99c 6f07 cbbf
000007b0: 1810 9b4b bc9d b83f 3cb7 0249 de06 c4bf
000007c0: 25f3 f5a5 8d6d 973f c009 f692 a165 aabf
000007d0: 22fb e19f c1e9 b43f 3210 1ded 42ea 863f
000007e0: aec3 eb6a cb93 773f ad1a 8ffd 959c bcbf
000007f0: 2e2b 079c b502 1fbf 4750 7f05 dc2d 6cbf

fc_1.bias f8 [128]
0.026627595117370825 -0.010374593462357279 0.050306809465506454 0.017141680935270187 -0.00586123297030167 -2.7967797972212757e-05 0.10398779345052546 0.04956269690728349
-0.13117206059630251 0.11726538330278431 0.06384926394691261 -0.0914487259242523 -0.016767591680143298 0.13442072369203156 0.009849916897300404 0.03160122048725263
-0.008484586550105215 0.007826650002240011 0.09468437683026187 -0.10098553407466639 0.04297927161456716 -0.0658562884885477 0.032438474846451036 0.04024739423945953
-0.034231880614913515 -1.061131996655802e-19 -0.02050142878911182 0.00898309391140517 -0.05284693815963943 -0.04534850226905513 -0.05568981222269198 -0.12813021688595722
0.005747510891976476 -0.0012611381162609965 -0.06304941888743225 -0.00413819090151346 -0.013830830700609519 -0.00632805255057648 0.004967199912472509 -0.11498641760880039
-0.10849359860959938 0.08810027006762007 0.032051009607377584 -0.010599693162029935 -2.7704368567718446e-21 -0.09792445064913989 -0.0010880634621324077 -0.10789229556760979
0.07295885257773271 0.046186707197796315 0.15485718219712222 0.08281158912471981 0.04563935446678095 -0.09594029762879287 0.034425131443553574 -0.026625666433084
-0.03754006391254871 -0.04998870616276266 -0.11834821228617781 -0.0015370850312638924 -0.12986527168889106 -0.0016101195050317544 -0.030330497428041853 -0.11684289693005888
0.052992639421969495 0.0557663918325387 -0.0650280290547124 -0.07055874470821144 -0.011032850550530698 0.0644265620550641 0.04710248926891464 -0.06481157595769324
0.04768224920065655 0.08300947516133132 0.08419612947259365 -0.005030200945307429 -0.01880660331497637 -0.0013254367180231081 0.010201751603932219 0.05249487524559861
0.015861437371757683 0.007359523316584199 -0.13127600317596852 -0.0029745793274762286 -0.002594854666827581 -0.0754980638670716 -0.0639155477583681 -0.03476894468329641
-0.06119117394599531 0.10602088204301095 -0.03826045735405453 -0.05816746620852636 -0.16124267834813008 -0.0017751582904607403 -0.07828907175937296 -0.05333091289759146
-0.0330442701648291 -0.12445900751391271 -0.09580973091899038 0.016819758528088622 -0.07656118092443939 -0.07822682232998288 -0.02925497721140956 0.07374986489033024
-0.17612837343107093 -0.05308823472158982 -0.02918669368752389 -0.012031310587577223 0.075404694668217 0.014914119019404372 0.005829471741421401 0.045344260275482405
-0.028253277136078253 0.007212550918443966 -0.10627544068498605 0.04732636028687835 -0.1587471934868356 0.030483752835412953 -0.09486998372635393 0.11300507168850868
-0.04715166361532356 0.08241293893481769 -2.1638762382612683e-10 0.05021933096553591 -0.03313870053657795 0.08153877414485511 -4.2892601195842567e-11 -0.002473273158044427
00000000: ec0a cda8 4344 9b3f 507c 0a5d 463f 85bf
00000010: ad45 d76a d0c1 a93f b0d2 0fbc 968d 913f
00000020: 4436 bfbe f201 78bf db07 2e71 8c53 fdbe
00000030: 299f 0dac f19e ba3f d8fd a224 4860 a93f
00000040: 817c 34ff 3eca c0bf 5d05 3daa 1a05 be3f
00000050: c191 86e4 6c58 b03f 1404 1b07 2f69 b7bf
00000060: 7f78 9807 862b 91bf 0eba 14c2 b234 c13f
00000070: 3aac 8977 312c 843f 7b4b 0301 092e a03f
00000080: 49b3 05ee 5d60 81bf b4f7 5f2e 6b07 803f
00000090: f098 ed3d 3c3d b83f e143 381e 30da b9bf
000000a0: 801e fb0b 6101 a63f 3554 4b2d f5db b0bf
000000b0: 03fc 3199 c69b a03f ecf0 0374 4e9b a43f
000000c0: 7a79 714f d786 a1bf f035 40ca af51 ffbb
000000d0: b099 ae98 53fe 94bf 3ff3 8774 ba65 823f
000000e0: f9c3 2dfe c00e abbf d91a 563c eb37 a7bf
000000f0: 1006 6f04 6083 acbf 0ec9 9329 9266 c0bf
00000100: 20f5 07b5 b38a 773f 03df c3bd 98a9 54bf
00000110: 6340 27b8 0124 b0bf ffbb 6229 35f3 70bf
00000120: b9f8 48ac 5653 8cbf 2795 08ac 71eb 79bf
00000130: f405 d492 7c58 743f db2e 1df7 bf6f bdbf
00000140: 3f84 da89 3cc6 bbbf dd8d b542 bd8d b63f
00000150: 3c8b 226c fd68 a03f ce13 d4bb 4ab5 85bf
00000160: 1a33 0c5b 812a aabb 6f4e 04a9 9311 b9bf
00000170: dadb 173f abd3 51bf 2e08 f458 d49e bbbf
00000180: 8069 c66d 6ead b23f 3653 d9b9 c8a5 a73f
00000190: 652e 8b32 5cd2 c33f ec3c 05eb 2333 b53f
000001a0: 15d5 b09d 0a5e a73f e125 af18 8b8f b8bf
000001b0: 07cf 6bbb 2ba0 a13f 0ed8 413a c243 9bbf
000001c0: 5f9a 9685 7338 a3bf e4de 46a4 1e98 a9bf
000001d0: ac27 4f85 114c bebf 5553 307c 002f 59bf
000001e0: d01c 65db 6c9f c0bf e80b 79a7 5461 5abf
000001f0: c572 193a f50e 9fbf e7a1 1585 6ae9 bdbf
00000200: 1cfe 7dea d921 ab3f 4cfa 459a 698d ac3f
00000210: 0903 1d4a ada5 b0bf f0f4 f74c 2310 b2bf
00000220: 3696 5e22 6498 86bf cd2c 0559 427e b03f
00000230: 58bb f045 d11d a83f 9ef8 23cf 7d97 b0bf
00000240: ff44 d5c9 ce69 a83f 8377 13e5 1b40 b53f
00000250: add9 88a6 e08d b53f 41a5 d648 8c9a 74bf
00000260: 1426 bfc8 0942 93bf 2c40 d6d6 48b7 55bf
00000270: c0a5 01ec a7e4 843f 525f c6b8 9be0 aa3f
00000280: 17f4 1d0b fb3d 903f 1391 57ff 0425 7e3f
00000290: dff7 31ee a6cd c0bf d9ab c91d 255e 68bf
000002a0: 931a d2fd cd41 65bf 996b 3853 d753 b3bf
000002b0: 7bff 53f3 c45c b0bf e391 a930 3ccd a1bf
000002c0: 76c5 cd15 7354 afbf b75b 113d 2f24 bb3f
000002d0: 189f 21ea df96 a3bf a715 1d4a 20c8 adbf
000002e0: dbc1 1c9f 99a3 c4bf 8c4a 60b3 8d15 5dbf
000002f0: 6138 d7aa c00a b4bf 299f 857d 304e abbf
00000300: cb33 5bb7 2deb a0bf f101 f7a6 8bdc bfbf
00000310: 0985 ef8c fc86 b8bf 6912 38e3 3239 913f
00000320: e6ae 3678 8399 b3bf 8ec8 934b ac06 b4bf
00000330: 1d11 7949 04f5 9dbf bbd3 c969 45e1 b23f
00000340: 355e e4e1 5f8b c6bf abfa dc8f 612e abbf
00000350: 5a13 77db 1de3 9dbf be67 032c dfa3 88bf
00000360: 829a 90d9 b84d b33f 61f6 7e2b 4b8b 8e3f
00000370: 42c0 b7e7 a4e0 773f ab96 e3e5 5c37 a73f
00000380: 5895 3755 6dee 9cbf f916 0c65 e88a 7d3f
00000390: 2729 1c06 de34 bbbf 667a 5723 293b a83f
000003a0: 87ca 2dfa d351 c4bf 0525 f305 2237 9f3f
000003b0: c90b 7a35 6649 b8bf fe2c 2f7f e6ed bc3f
000003c0: c50f 5c4a 4324 a8bf 8606 7ead 0319 b53f
000003d0: ce09 ae71 76bd edbd e479 3f20 59b6 a93f
000003e0: 5db5 1246 8ef7 a0bf 88de 4ea0 b9df b43f
000003f0: b32b 75d2 9894 c7bd aaf4 7d6a d442 64bf
