regression_model.pt (torch, 760117 bytes, 16 tensors)

conv1.weight f8 [16, 2, 3, 3]
000000 00 37 c8 61 19 2b c0 bf 19 e5 8d ce a0 7f a3 bf
       -0.12631528162494732 -0.03808310052313341
000010 9c 2d 41 be 5f 33 d7 3f ae c1 ad ac 8f b4 b2 bf
       0.3625106199221706 -0.07306764570035426
000020 f2 e9 96 78 31 cb da 3f 6d 97 73 95 12 7b c6 bf
       0.4186519315368563 -0.17563087747037845
000030 b1 bb e6 22 32 2e d0 3f ad 6d 70 87 b5 5d b2 bf
       0.252819570620825 -0.07174238735790679
000040 d8 86 9f 41 53 8e a5 bf c7 25 b9 cc be c9 c6 bf
       -0.04210148025573596 -0.17803177829982372
000050 71 a5 1f 51 e9 48 b3 bf 69 c6 c5 b5 e2 b6 bf 3f
       -0.0753312895827969 0.12388436258131609
000060 62 c1 86 0a 7d c1 c2 bf 5d 24 5d f0 6c 84 c8 3f
       -0.14652979864105037 0.19154130684390483
000070 e0 e6 6e b0 90 bf b1 bf 85 20 79 ea d7 f3 63 3f
       -0.06932930285884309 0.002435609541667163
000080 75 ca 1e 49 ec 26 b9 bf 13 7c 97 f8 df b9 cf bf
       -0.09825016770518309 -0.24785995138424308
000090 49 c7 73 22 0d 54 bc 3f 7d da bb e1 f1 a0 da 3f
       0.11065752116317386 0.4160732941085497
0000a0 ca e7 18 49 51 79 c3 3f d9 cb 98 e3 82 da 88 3f
       0.1521398169441553 0.012135527201371165
0000b0 82 b7 b5 fc 5a 4b d5 bf 3a f1 7e 00 d4 f4 a2 3f
       -0.3327243297452399 0.03702414041569786
0000c0 0c 75 b4 92 91 93 99 bf d9 d3 3d d0 21 33 d2 bf
       -0.024976992205769696 -0.2843708547218831
0000d0 81 6d 4b 66 ce d6 92 3f ae 47 d2 94 04 59 ba 3f
       0.01839754580838138 0.10292080529532541
0000e0 9e ad e7 49 b8 24 d7 3f ee d7 f5 b5 23 2e bb 3f
       0.361616203472943 0.10617278282538198
0000f0 4c d3 f9 72 1a 9f aa bf 76 83 56 3e 17 41 bd bf
       -0.05199511197580495 -0.11427445671007583
000100 fe 7b 3d 4b bc d5 b7 bf 36 09 7d 76 89 b2 bc bf
       -0.09310509526174823 -0.11209925787719474
000110 19 92 2a 03 26 56 c2 bf 03 15 06 0d cd 40 ac bf
       -0.14325404314617243 -0.05518189224225447
000120 92 13 04 e1 55 0a bc 3f c1 2c 64 e0 2d a4 bd bf
       0.10953270667603324 -0.11578642586043754
000130 62 b5 2a 01 ef 52 87 bf bc 2c d0 bc 8b 2b bc bf
       -0.011388652060612518 -0.11003945693680611
000140 71 9b c3 c1 fa e1 c5 3f db 48 6d 75 2a ef c3 bf
       0.17095884762894856 -0.15573626264319426
000150 d3 ef e1 7d 8b b8 96 bf f4 f7 2b bd 13 41 bb bf
       -0.022188357885610643 -0.10646174782229406
000160 47 3d b5 82 5b 19 b9 3f 28 12 29 c9 60 06 f1 bf
       0.09804317418205698 -1.0640571458653856
000170 59 e6 eb 9f c9 20 d4 bf 16 be 9c a5 cb fd e6 bf
       -0.31450119607288723 -0.7184808954825168
000180 25 b5 2b bb dd 2b d3 bf a5 f6 97 77 49 cd ef bf
       -0.2995523765410602 -0.9938094459355012
000190 7b 91 2c f0 7f 6a d6 bf 81 c6 ec 49 24 34 e5 bf
       -0.3502502294016023 -0.662614960083559
0001a0 7d 67 fe 07 79 b4 d1 bf ac a0 19 8c 8f f0 f0 bf
       -0.2766401842178466 -1.058730647340819
0001b0 fb 3e ce 3e 32 40 a1 bf 46 a9 8f 5f 45 5d a0 bf
       -0.03369290367765917 -0.031961601176436136
0001c0 a8 09 4f a3 b6 0a a5 bf e3 13 91 07 45 e3 96 bf
       -0.04109736197962671 -0.022351339899859723
0001d0 ea f8 31 c8 ae 18 87 bf fa eb 5a a2 d2 14 a1 bf
       -0.011277547344658651 -0.03336199027895499
0001e0 c0 c3 82 f7 2d bd d5 3f 65 17 94 99 82 20 d7 3f
       0.3396716038797045 0.36135926244639044
0001f0 41 4e 92 94 b1 28 d5 3f 0c a1 9f 8c b5 88 aa bf
       0.330608744706499 -0.051824258247338134
000200 24 c2 2c 75 e1 da 9d bf 05 9e 7c 94 5d c6 ab bf
       -0.029155276085648066 -0.05424778401930656
000210 2e 52 18 66 3a 1f 7e bf 95 6c 8f f4 53 f0 91 3f
       -0.0073540002063237474 0.017518340875409228
000220 7c 12 38 7a 4d 86 8b bf f2 b2 84 8b b4 6f ce 3f
       -0.013439755718544825 0.23778397381229116
000230 ce 20 b1 cd ef a7 c7 3f ac 90 e8 d3 10 3f be 3f
       0.18481252234983575 0.11814980672403647
000240 54 68 3a b2 c0 61 c6 3f fe e2 fc d6 63 d1 af 3f
       0.17485817625567057 0.062144393914826054
000250 01 98 30 a8 b3 87 dc bf 27 ac 23 1b 50 2c b3 3f
       -0.4457825796583848 0.07489491140920333
000260 4e ce 0c a4 73 cd d1 bf 0b 27 a8 c2 d9 01 b1 3f
       -0.27816477795133643 0.06643448831905745
000270 ed 15 67 84 ad 27 df bf 8c 21 d8 49 4c d0 93 3f
       -0.4867967408175378 0.01934928131780249
000280 61 4a a4 53 94 d5 ce 3f 13 c8 01 f2 3d 56 b4 3f
       0.24089292606420812 0.07944094808934236
000290 e4 b5 9d 54 79 bc b0 3f d2 90 db ce a0 0a c5 bf
       0.06537588420697876 -0.164386845593191
0002a0 fa 27 cb f3 0a 32 b2 3f ff 73 e9 ad 3d b1 d0 bf
       0.07107609226218861 -0.26081792815767807
0002b0 1b 3f 93 f5 25 c6 8e 3f f0 64 05 50 36 c3 da bf
       0.015026375347957413 -0.41816480459745176
0002c0 95 48 0b 01 22 53 bc 3f da c2 6d cd 93 9a c2 3f
       0.11064350629320281 0.1453423264570322
0002d0 88 c3 e4 50 7b ad c6 bf 74 22 6a 95 15 74 b7 3f
       -0.17716924142726165 0.09161505601708503
0002e0 38 24 56 c3 51 3e ca 3f c4 19 14 4d 49 51 b5 3f
       0.20502683675684508 0.0832715809993721
0002f0 9b 0e 26 0c 5b 6a ab bf 2e fc 5d 8c 4c f4 a8 3f
       -0.053545804245939986 0.048738853583010985
000300 d6 ec fa bf 43 ee be 3f 16 80 7b 92 dc 3e b4 bf
       0.12082313000694297 -0.07908419204932246
000310 69 59 f7 0d d0 bb cd bf 0f 1f 5a 53 d1 88 e2 bf
       -0.23229408914512398 -0.5792013767213308
000320 31 96 a5 36 9c ba 91 bf 53 0a 52 fa 77 b7 c2 bf
       -0.017313423953416233 -0.14622401926688386
000330 ed 91 81 b8 6c b3 b1 bf 2c 82 a9 52 52 95 de bf
       -0.06914405350250492 -0.4778638655898557
000340 24 5a 3f 4b c6 80 ba bf ae 7c 3e 0e 15 0b 9e bf
       -0.10352744423958221 -0.029339150423422104
000350 44 5e b0 2c 75 88 b7 bf 72 0d b2 85 a7 c6 a9 3f
       -0.09192592946089301 0.05034373766923296
000360 74 17 32 cf a0 f1 b1 bf 5a 72 c3 38 c3 b6 83 3f
       -0.07009320314872786 0.009625935716422496
000370 73 c3 87 d9 4e c9 a4 bf e5 1c 2e 55 de a0 da 3f
       -0.04059835820579041 0.41606863325473703
000380 10 f4 6a 99 0c 52 c5 3f e5 db 76 96 23 df d3 3f
       0.1665664433584486 0.31049432462481114
000390 c4 74 4a e2 4d e0 c1 bf b9 90 e9 d2 df 11 a0 bf
       -0.13965772199018123 -0.0313863701783545
0003a0 e2 2d 9b 25 b8 44 ac bf bf 4e c1 c5 ee 68 b3 3f
       -0.05521178683337859 0.07581989601140558
0003b0 fe 20 0f d1 91 62 9c 3f 32 37 fb a4 86 cf 79 bf
       0.027719763169245397 -0.006301427798190139
0003c0 eb da ad 91 2d ae d0 3f 91 6d bc 83 b9 b6 c4 3f
       0.26063098169781423 0.16182631428169406
0003d0 1a 5e 59 e0 78 03 cb 3f 68 3e 25 3d 8e 3b 67 3f
       0.21104346231980814 0.0028360155203371214
0003e0 7f 69 34 f3 0a a4 92 3f 84 46 9f df bc 64 af bf
       0.01820389851955317 -0.061315443322780744
0003f0 56 de 27 e2 67 6b b6 bf 0b 1e 8b c6 7f 0e bb 3f
       -0.08757638236408502 0.10568998906375542
000400 14 05 6d 07 d2 a7 b3 3f ee 0c af c8 35 42 be bf
       0.0767794864778078 -0.11819778584963433
000410 8d 84 fd 90 c2 57 7b 3f 1d 0a c2 a7 3f 8d a0 3f
       0.006675491356731855 0.03232764170481437
000420 a9 7a 54 5f 50 40 c5 bf e1 04 c3 42 43 33 c8 3f
       -0.16602520613465302 0.18906441459515747
000430 22 97 7a 82 bc 4f c9 3f c4 24 5f 94 94 be 86 bf
       0.19774586077726847 -0.011105690744346204
000440 6b b0 bf 85 c0 56 c2 3f ea 77 7e 34 9b 40 c1 3f
       0.14327246218397546 0.13478412688431202
000450 58 9d 66 bc 7c 7b c1 bf ac 4f b9 1d f7 01 a4 3f
       -0.13658103179225622 0.03907749402847513
000460 5e b1 43 da be d2 83 3f d6 c9 f2 59 31 70 a3 bf
       0.009679308925534865 -0.03796533797266803
000470 2b ab 18 50 0d 93 c6 3f 08 a0 55 54 bf a8 c9 3f
       0.1763626710029141 0.20046226137060352
000480 b3 93 39 9c ab 1a 84 3f 76 f2 c4 41 6c 15 92 bf
       0.009816494660478492 -0.01765984679626561
000490 37 0a 93 6f fd ed cc bf ad d9 c0 87 0f 1d 4b 3f
       -0.22601287792174826 0.0008274389106251355
0004a0 6b 81 55 2e db e1 a0 3f 84 80 51 aa a3 cc cf bf
       0.03297314587212238 -0.24843259636236692
0004b0 cf ac 7e 58 c8 51 87 bf 9c 17 39 85 cf eb a4 bf
       -0.011386456680915561 -0.040861592304778344
0004c0 39 91 2a b5 28 61 ce bf 1c cf b5 3e 19 e0 ba 3f
       -0.23734005781182946 0.10498197346697363
0004d0 ec 37 17 ff fb e1 ab 3f ed 26 2c 6b 06 86 e5 3f
       0.054458498848916154 0.6726104825222287
0004e0 e8 65 b6 d0 cb 5d b9 3f 34 74 fb 7f 87 6e c6 3f
       0.09908746572036586 0.17524808644421486
0004f0 d1 71 c6 97 69 ee e5 3f 5b 23 c5 d8 1c c9 c5 3f
       0.6853530849799033 0.1701999720046626
000500 92 88 98 f8 28 80 ba 3f cc 96 12 84 b6 ef e7 3f
       0.10351806706651903 0.7480118350547058
000510 a9 99 68 79 dc ea d9 3f 67 c7 12 38 19 76 99 bf
       0.4049597917204673 -0.02486457257027244
000520 05 d3 74 68 dd d5 c8 bf 48 58 f6 fc ee 61 b2 bf
       -0.19402663803489176 -0.07180684734189058
000530 10 51 97 d5 e0 64 dc 3f d7 66 a4 b3 d9 a9 b8 bf
       0.4436571203089139 -0.09634171138568647
000540 a9 4a d2 26 7c f2 c3 bf 0f cf ed 63 e7 47 b2 bf
       -0.15583755393580148 -0.0714096659629002
000550 c8 88 4a 10 83 f2 d9 3f 56 2e f5 fe 83 6e 9f bf
       0.4054267558186777 -0.03069502109182872
000560 54 a9 c5 98 a3 a9 9d bf c4 30 a6 fe 3b 45 c1 bf
       -0.02896743411967269 -0.1349253648189742
000570 8b ac da 64 6a 17 a9 bf c4 7a 3a 62 8f f8 b3 3f
       -0.04900677186136545 0.0780114760222928
000580 52 88 ac db 0f 70 71 3f d6 63 1a c5 bb 54 cb bf
       0.004257261224468749 -0.2135233604829227
000590 b0 7a 19 29 81 17 b1 bf b6 3a 61 0a 1a 8a 96 bf
       -0.06676490071684316 -0.02201119125703129
0005a0 cc 02 e2 c9 34 7f 9f 3f 75 01 8a bb 61 4c c2 3f
       0.030758690664245233 0.14295598656827804
0005b0 81 e5 6d d3 54 43 d7 bf 95 21 ae 4c e8 17 d8 bf
       -0.3634845795382589 -0.3764591931181028
0005c0 0d da b2 b0 be 4f a3 bf 92 0b 5b 3a 26 61 d2 3f
       -0.03771778017965142 0.2871795244101857
0005d0 26 4a 5f 7a 8e ea d9 3f bc 18 3c 83 2c 98 a4 3f
       0.4049411959687482 0.040223494548670996
0005e0 e0 da 6b d2 cf 46 97 bf 54 d9 8d 06 0a 7e b6 bf
       -0.02273106309709305 -0.08786070499431747
0005f0 00 55 48 d4 59 f4 b7 3f 29 4a d7 1a dc c5 d7 bf
       0.09357224877051706 -0.3714514028662586
000600 08 2b ca e6 46 25 d4 bf 67 31 cd a8 a0 ef b1 bf
       -0.3147752050214625 -0.07006267663127162
000610 8f 65 2a cc a4 e0 ce 3f 7a 76 b4 7d 27 6b d3 3f
       0.2412305828955081 0.3034151771151766
000620 b2 9a 9d 5b a9 02 77 bf e1 1a e4 60 77 ea be bf
       -0.005617772630876304 -0.12076517215255535
000630 bf 77 c5 74 8f 14 d6 bf f8 02 a0 3c de 52 ab 3f
       -0.3450049057336137 0.05336660852481673
000640 eb 98 21 ee 05 19 be bf 38 9a c8 34 55 75 d3 3f
       -0.11756932319403617 0.30403642801903485
000650 fb 1f 19 fe 64 1d c2 bf 6e 19 4f 36 1c a2 d6 bf
       -0.14152204901824902 -0.3536444216118956
000660 3a 34 9b 26 79 e9 c1 bf 25 12 36 00 82 46 97 3f
       -0.139937538004604 0.022729903471843244
000670 34 5f d6 d0 93 0a d4 3f 0d da 34 29 b9 60 d3 bf
       0.31314559358860383 -0.30277852081363293
000680 ac 63 f5 fe 17 43 8c 3f 62 91 69 20 6e 6d 7b bf
       0.013799846142022641 -0.00669615762908324
000690 76 ed e3 48 32 67 d2 3f 4f 17 c7 9d ac 70 b5 bf
       0.28754860990712616 -0.08375052310938468
0006a0 78 6d 35 e7 52 c1 d4 bf b9 bd 03 3f 46 8b b2 bf
       -0.3242995508096196 -0.07243765867655484
0006b0 c9 80 35 50 69 3e a2 3f 8b 72 67 1b 27 03 d1 3f
       0.03563241104234433 0.26581742931538405
0006c0 1b 78 93 ed f7 38 bc 3f 7c 26 4f 32 3e 0b b5 3f
       0.11024426984974449 0.08220280388118256
0006d0 fe 94 4d b5 80 fd c7 bf 2d a5 c0 d5 9a 45 a3 3f
       -0.18742379048050134 0.03764041766437241
0006e0 ff 64 d9 c3 7c 9b bb 3f 5f 34 39 85 fe 05 c4 bf
       0.10784129888033432 -0.15643292908717663
0006f0 2c 21 01 d2 32 49 bf 3f 45 f2 48 8f ec f2 b2 3f
       0.12221067072926378 0.07401922701041837
000700 ac ea 4e 74 7e e1 c8 bf 76 b5 37 ad ae 83 d2 3f
       -0.19438152960886634 0.28928725162298663
000710 e1 87 c6 9d dc 17 b8 3f b6 3e a8 f9 3a 49 98 3f
       0.09411410190526183 0.02371685169970191
000720 0f 65 90 4b 43 db d0 3f 1c 5e 1e 6a cf da d1 3f
       0.263382743638048 0.27898011553904367
000730 d6 23 f4 00 99 72 d0 3f 07 c7 b7 c0 17 9e d2 3f
       0.2569944867432786 0.29089921779733213
000740 ac b9 b0 04 92 7b d5 3f 71 a1 10 31 86 03 e0 3f
       0.33566713769951195 0.5004301985073153
000750 1d 89 b2 78 5c 64 cd bf 41 4e f9 56 8f 83 c5 bf
       -0.2296252812712475 -0.16807739016313586
000760 2b 7e 7f 5c 94 96 c4 bf dd 28 ec 5d 43 89 c7 bf
       -0.16084532276635008 -0.18387643896159647
000770 be 23 60 a0 ac 29 d4 bf 9f 72 d7 8b d5 10 c5 bf
       -0.3150435987632213 -0.1645762379474904
000780 c5 b8 0a 7b 9d 19 c8 bf df 4c f4 8d f3 82 c4 bf
       -0.18828171260742557 -0.16024631911623197
000790 87 98 13 af 06 1a d5 bf 5e 61 aa c1 64 bc 94 bf
       -0.3297135076267143 -0.020249914474875445
0007a0 73 b7 6f cf 4a 47 be bf a7 03 16 d1 d8 0b b9 bf
       -0.11827533306469977 -0.09783701996458537
0007b0 b2 82 2a 10 5f cb b4 bf 8d 74 3d 87 f6 e1 a7 bf
       -0.08122820038489456 -0.046645835884853694
0007c0 c9 d0 25 e2 14 ea cd bf 64 af be a6 33 fd ae bf
       -0.23370610277527806 -0.060525526146505
0007d0 f1 91 57 98 46 b0 b2 bf fb 3a c9 39 f0 f8 c6 bf
       -0.07300225467003664 -0.17947199651322152
0007e0 ee 9b e8 1b e8 73 cd 3f bf bc 1a 17 14 7c cf bf
       0.23009969103551903 -0.24597407463213547
0007f0 80 b5 1b de d9 89 cf 3f 38 54 53 a6 6a 85 9d 3f
       0.24639438004616565 0.0288292564408332

conv1.bias f8 [16]
000000 37 91 ef 67 ba 1b de bf 77 69 a9 aa ec ab de bf
       -0.47044239187222864 -0.4792434374445728
000010 74 d0 48 81 10 90 d1 3f 1d 42 8f d3 73 19 d6 3f
       0.2744179976027745 0.3453034940730804
000020 a7 53 d3 5b e8 c2 de bf 5f d1 e6 89 18 67 9a bf
       -0.48064621894200815 -0.025783904473159477
000030 ab 63 da d8 5b b7 d6 bf 73 c5 05 60 f5 c4 c4 3f
       -0.3549413316446201 0.16226069630242143
000040 9a c5 20 6e 67 a1 d2 bf 34 0d 41 76 47 b5 e3 bf
       -0.2911013198346041 -0.6158788022661725
000050 20 88 e3 37 94 9c cf bf 2f 18 22 6a 4c 82 c9 bf
       -0.24696591118760214 -0.1992888944843698
000060 12 59 e7 b6 5d d3 d6 3f d2 4d b9 31 6e ce e1 3f
       0.3566507612389539 0.5564490290802786
000070 2d 82 11 f0 3a 6d d0 3f ca 4a d4 0e 4b c5 c5 bf
       0.25666688388995135 -0.1700834104927565

conv2.weight f8 [16, 16, 3, 3]
000000 74 9d ac 90 eb 3a c1 3f 3e 86 f4 3f 2e 59 a5 3f
       0.13461060108350476 0.041696019465473175
000010 24 36 5e 1e 8e 43 9f 3f 96 26 b8 62 90 28 c2 bf
       0.03053113994933744 -0.1418629152324697
000020 42 5f 73 87 72 f6 96 bf 1a 29 18 73 fd 7d b1 3f
       -0.02242449714398665 0.06832870540543859
000030 57 5e ad 10 c1 68 ec 3f d6 e9 d2 16 9c d6 a3 bf
       0.8877873731352776 -0.03874671724902938
000040 f9 7c 59 43 0f 0a 8a 3f 1b 18 5f 05 67 2b 80 3f
       0.012714499705167347 0.007895283557342528
000050 39 db cf 54 aa c4 61 bf 4f 5b f5 ba 1f f8 91 3f
       -0.002168972662271254 0.017548080240284588
000060 69 e3 80 5b 43 a5 9a 3f 92 3f 9b 6f 13 27 b8 bf
       0.026021053752831067 -0.0943462512470872
000070 c6 ca d7 9a 0f fb 9f 3f c3 89 3d ed f2 90 af 3f
       0.031231159044135003 0.0616527475929334
000080 e4 df 1b 46 6a 40 c3 bf c9 c8 ff be ae fe bf 3f
       -0.15040329383168605 0.1249798981005227
000090 52 6d 2f ff 91 48 a5 bf 5c 29 bd f6 e4 a3 84 3f
       -0.0415692924504706 0.010078228740572008
0000a0 70 ea 26 db fd 86 90 bf 46 00 69 bb 76 eb af 3f
       -0.016139952183701956 0.06234332120629964
0000b0 d7 13 73 e6 90 15 95 bf 5c 0e bc cf b3 fe 94 bf
       -0.020590080323717643 -0.020502862505067262
0000c0 38 8d a4 52 01 9a e5 bf 06 fa 24 56 96 a6 c0 bf
       -0.6750494588963312 -0.13008383947631347
0000d0 35 53 05 62 b5 13 8b 3f 88 a9 7a 3d 90 ad d8 bf
       0.013221184781892251 -0.3855934715635603
0000e0 ee c6 c3 73 3b 2b bc bf 3f ef af b4 35 09 be 3f
       -0.11003467155731148 0.117328030217263
0000f0 55 92 e3 f3 bf c8 d2 bf a6 9f a4 5c f3 cd c0 3f
       -0.2935027963378947 0.1312851145132729
000100 89 5d c5 8c a4 89 74 3f be 90 e9 3c 18 7c b7 bf
       0.0050140788774436585 -0.09173728453748972
000110 bf cb f4 e6 df 13 c3 3f 52 a8 72 e1 b2 1a a4 bf
       0.14904402520332202 -0.039266195316785116
000120 35 4f ab 7c f7 b2 bd 3f 2a 44 4f 27 bd 76 8c 3f
       0.11601206582718933 0.013898351442465613
000130 f0 6b 1f 6a 20 dc 9c bf c5 62 9f 70 c6 5e b5 3f
       -0.02818346641275221 0.08347740411353317
000140 f5 d8 91 1b 75 aa a4 3f 89 9c 98 38 a0 24 b1 3f
       0.04036298715156931 0.06696511632672943
000150 fa 10 1c 7c 1f df b7 bf 56 10 42 3a 4f 1f af 3f
       -0.09324833660145151 0.06078574739606839
000160 a8 89 b6 d3 dc d2 ba 3f 10 50 c5 23 ad a8 88 bf
       0.10478000801825849 -0.012040474561821696
000170 be d8 85 3a bb 9a b6 bf 29 35 8f c2 27 14 b2 bf
       -0.08829851321010815 -0.07062004566178771
000180 87 9f df 75 09 f1 b4 bf d9 f1 86 2f 18 1f 8d bf
       -0.08180293205043486 -0.014219464254772983
000190 46 2f 7a 67 6c b6 aa bf 0c ae a2 32 e2 c7 b6 3f
       -0.05217303050184667 0.0889874814626454
0001a0 a6 21 b4 18 79 2e a2 3f bd 11 55 d9 a2 95 a8 3f
       0.03551081110532843 0.04801663306219293
0001b0 2e a3 2e e3 b2 5b a0 3f f6 32 33 38 2c 3d b6 bf
       0.03194960616321506 -0.08687092182226394
0001c0 13 76 25 4b bf dc b6 3f c3 bf 38 9d 38 5a ca bf
       0.08930583557727116 -0.2058783309635129
0001d0 e9 c4 2e 90 84 72 af 3f e4 c3 38 ff 06 8b 61 bf
       0.06142057666819218 -0.0021414887103436853
0001e0 e1 34 87 a3 99 35 e9 3f 68 1a f5 d3 13 a6 d0 3f
       0.7877929872426216 0.26013656329124624
0001f0 7b 81 2d cb 34 3c 93 3f 7f 25 00 3f 64 45 b0 3f
       0.018784356022821563 0.0635588315782538
000200 d9 8c bd 4b 3a 66 c3 3f 38 c6 b2 1a 5b 9b a9 3f
       0.15155724237693027 0.05001339627177653
000210 19 0d 67 d3 9a 51 c0 3f de 5d d1 5b 05 7b ae bf
       0.12749038050069642 -0.05953232522795891
000220 d5 68 9f 28 d4 66 b9 3f 0f cd e2 56 db 8d b4 3f
       0.09922529212727522 0.08028956290472798
000230 ee c5 d4 e3 8e 58 cf 3f 45 e6 df 71 0c ed ac 3f
       0.24489008068626056 0.05649603738852397
000240 07 19 b4 bf 50 15 a1 3f 75 54 22 54 df f2 b1 bf
       0.033365748788172715 -0.07011218837790685
000250 b3 61 a0 67 ec 80 a3 3f 10 aa 27 c2 73 6f bb 3f
       0.03809298291179477 0.10716937532530602
000260 48 70 f0 55 2e 4a 93 3f b4 f9 a5 37 75 0a b1 bf
       0.018837665553391753 -0.06656582459070287
000270 92 ab a6 36 3e 26 de bf ed 04 75 72 5c f5 90 3f
       -0.47108416878716597 0.016560978399188398
000280 e9 ec 32 94 a4 75 ac 3f 47 9a 7a 50 12 fb 90 3f
       0.05558504399365367 0.01658276191906285
000290 6e 15 0d 8c fe bb 77 3f 92 29 bb 7c 5c 46 ad 3f
       0.005794519733915633 0.05717743895145867
0002a0 8f 17 7f bb 9c 69 99 bf 7f 23 1a 89 65 4f a9 3f
       -0.024816941207766837 0.04943387316331548
0002b0 52 29 87 a5 2c 36 8a 3f ce 6a 4d 2b a7 6d e6 3f
       0.012798641969216238 0.7008853765249456
0002c0 90 f9 1f 99 86 b6 c5 3f 95 a6 1b 8b e4 59 9b 3f
       0.16963274456788868 0.026710101118544733
0002d0 b0 5a 0b ee e9 8c b4 3f 47 f6 90 e3 e6 94 b4 bf
       0.08027517377500248 -0.08039706283394664
0002e0 30 79 7a 19 1f d2 9d bf 7a 20 85 13 de fe 84 bf
       -0.029121862344817007 -0.010251746149734443
0002f0 8f 8e a7 7c fc e4 ae bf ae aa 18 66 db ef a1 bf
       -0.06034077665006265 -0.035033088887151606
000300 96 6a 8e 48 6f 9f c1 bf e2 8d b7 3c 01 d1 c2 3f
       -0.13767806093968166 0.147003321310975
000310 a8 6e 53 eb 44 b2 b4 3f 4e f0 6d fa 5e 0a a9 3f
       0.08084517236005218 0.04890724951744173
000320 4f 5b a4 a8 c7 98 aa 3f a6 8d 85 a9 b8 27 6e bf
       0.05194686826341998 -0.0036810499843100307
000330 ac 79 79 e6 5b 40 98 bf 86 41 a0 39 de e6 95 bf
       -0.02368301004605093 -0.02138850428315344
000340 8b 3e fd d5 71 bf a4 bf 21 52 b5 ae 5d 7b cd bf
       -0.04052310692952429 -0.23032732992818786
000350 bc d8 22 cb 08 bd c4 3f 9e e7 70 7b 3a 25 a7 bf
       0.16201887053256836 -0.04520590550278246
000360 ea 33 20 da 6e eb ac bf 84 1d ff dc a4 29 73 bf
       -0.05648371136349069 -0.00467838668550458
000370 2e 68 ca cf eb a3 a2 bf 79 4f c3 21 ce c6 b7 bf
       -0.0364068690443705 -0.09287727665224378
000380 c3 66 33 6e 7a 96 a6 bf a4 31 54 be 07 55 a8 3f
       -0.044116807892078856 0.04752372930861107
000390 70 fa f9 82 39 9f dc 3f 7e fc 3a c7 8f c4 a5 bf
       0.44721830168410914 -0.04251527125369935
0003a0 b0 b5 70 91 f9 6d ab 3f d8 21 60 83 16 ba 95 3f
       0.053573416713656896 0.021217681664014026
0003b0 56 e3 75 6c 83 5f a2 bf f5 26 56 2c 92 37 af 3f
       -0.035884959211165565 0.06097084799973899
0003c0 d4 08 a8 81 99 5d ba 3f 85 e4 fc cd 2c c4 ac 3f
       0.10299071708144264 0.0561841966104533
0003d0 c2 f5 95 7e 4c 15 a3 bf 23 5a 2e 96 c9 e7 e6 bf
       -0.037271871998182174 -0.7157943661903271
0003e0 20 39 a4 6e a7 66 ca 3f ba 95 1a ee b0 04 c2 3f
       0.20625775244156674 0.1407681620232049
0003f0 db 34 a4 1d be af 9a 3f 2a b3 e1 a5 b1 18 a9 3f
       0.0260610299674696 0.04901652479097714
000400 89 c7 46 d8 28 96 ac 3f b7 e3 24 f6 aa 91 a3 3f
       0.05583312645047928 0.038220732256781735
000410 07 54 ed f9 31 71 96 bf 76 2c 07 a0 32 70 8c bf
       -0.021916180495583883 -0.013885875233333272
000420 2d 8f a4 d9 bd 5f c9 3f 90 7f 93 f6 6d 4a 82 bf
       0.19823430182543103 -0.008931025588424096
000430 51 06 cb fc 4a f5 8d bf 2a e1 1c b9 65 3c be 3f
       -0.014628015365249743 0.11810909051280719
000440 60 e8 6a be 9e b0 96 bf 27 85 5d 4a 35 d4 a3 bf
       -0.0221581271859822 -0.03872839482097339
000450 c1 d7 83 4d dc 51 bb bf cd 54 4c c8 4f 77 ad 3f
       -0.10671784298378297 0.05755090065046318
000460 59 8e 54 f6 c7 1c 91 3f 00 dc cc 30 88 6f d0 bf
       0.01671135369282548 -0.25680737271926546
000470 c5 ca aa ae f6 cf be bf 8b bb a4 62 32 3e 92 bf
       -0.12036077274641872 -0.017815387030335066
000480 14 06 7f 2d 59 02 a9 3f d1 ed 60 52 3e 33 5c 3f
       0.0488460414922082 0.0017212017642255115
000490 27 fb 92 20 1b 22 a2 bf e5 3e 35 a4 19 e5 a1 bf
       -0.035416457868896516 -0.034951020522042055
0004a0 ee 6c 9e df af d3 5c bf a9 dd 6e d8 b4 75 a2 bf
       -0.0017594544901616232 -0.036054278774311506
0004b0 e2 20 ed e8 5e e3 92 bf be fd 35 6c 30 7d 81 3f
       -0.018445475546543195 0.00853956060632199
0004c0 b1 04 25 09 a3 2f e2 3f a6 29 45 ef 89 76 94 3f
       0.5683150461774372 0.01998343966378404
0004d0 86 77 26 29 f1 e5 8e bf a3 08 08 4a 35 fd 97 bf
       -0.015087017124468149 -0.023426849978939967
0004e0 94 8f 46 db 1f 90 82 3f 4b 7c f1 36 6b 21 9b bf
       0.009063958052884215 -0.026494670132134506
0004f0 4a 92 74 bb ca 0c a7 3f 3b 24 c5 0b ff 24 a0 3f
       0.04501946962617305 0.03153225916555199
000500 0d bb 51 66 c8 0b d3 3f de 43 2e ac 66 ad e0 3f
       0.29759416572680736 0.5211671221642253
000510 31 68 0e 3a 42 14 8c 3f 6c 3d d9 40 1b a7 a1 3f
       0.0137105154006357 0.0344780460987931
000520 0e ef f5 33 9e ae a5 3f d0 84 18 64 e9 39 a1 3f
       0.042347854464393916 0.033644956082079625
000530 35 e6 b6 62 3e 15 b1 3f 30 ba f5 6d 46 65 99 bf
       0.06673040304203755 -0.024800396405618652
000540 e3 6e 13 91 0c 1c 9c bf 55 9e 2b a7 de 7e 77 3f
       -0.027450748781901246 0.005736226785962713
000550 17 1a cc c9 97 df e8 bf 13 7b 47 40 cc 59 9b bf
       -0.7772940579751005 -0.02670973913506731
000560 eb dc fa b5 01 cd a0 bf 6b f7 bf b7 ea f9 d5 bf
       -0.032814076866481155 -0.3433787149841609
000570 0c 1a e1 34 15 75 9d bf 6c fa d2 2b 01 8b 97 bf
       -0.028766948082443775 -0.02299119787198338
000580 55 04 71 f8 5d e8 d9 bf db dc c9 1d 68 9e 56 3f
       -0.4048075605570081 0.001380540538915834
000590 b9 1f d2 84 c0 6e 95 bf fe ec ec 79 46 41 d9 bf
       -0.020930297953355857 -0.3946090880087495
0005a0 bb d4 08 da 10 60 a8 bf dc 19 7b 3d ec a1 a2 3f
       -0.047607924094714225 0.03639162302492924
0005b0 62 20 25 11 59 b9 71 3f ad 73 e2 35 78 66 8d 3f
       0.004327152173864675 0.014355601448466116
0005c0 c9 2c 7a c3 a6 89 aa 3f f8 c2 fe ae 3b 3d ab 3f
       0.051831446992844095 0.05320154677554528
0005d0 b0 27 fb 3e 14 1f 83 bf ed f0 8d 22 d0 e8 a3 bf
       -0.009336622402219635 -0.03888559743697493
0005e0 47 d7 69 d5 9a 9d df bf 50 7d 6f 2e a9 7f ae 3f
       -0.4939944347491871 0.05956772510375663
0005f0 3d 0d 3f e1 11 fc 9c 3f 62 88 3e fe 2b 01 9c bf
       0.0283053201417378 -0.027348220246161133
000600 35 13 e8 94 04 aa a9 3f fe 12 22 d8 83 0d 93 bf
       0.050125258614605185 -0.01860624319717185
000610 7b 88 aa ed b4 3f a1 3f 5b 1a 17 ed ad 57 6b bf
       0.033689168941479296 -0.0033377072329330688
000620 e6 a0 35 d4 0d fb b1 3f da 61 6c e0 5d 05 d5 bf
       0.07023703032394088 -0.3284525577196554
000630 4b 81 1a d8 33 ff 93 3f a1 c1 b6 e6 17 3a b1 3f
       0.01952820784083657 0.06729268438971882
000640 fd 66 90 0c 08 67 87 3f 1d 33 fc d8 d1 fb af bf
       0.011426985629487069 -0.06246810697311942
000650 bb b5 f6 c5 e9 38 b7 bf af ed e0 b6 9b 0c 76 3f
       -0.0907121761617508 0.00538311792302741
000660 70 c5 68 58 6b 88 ac 3f 6e 1c 7a 80 e6 c6 a2 3f
       0.05572829679693825 0.03667373960802754
000670 b9 39 31 69 64 6d db 3f 39 bb 4f 46 61 da 71 bf
       0.42855177185711174 -0.004358654002301781
000680 b1 d6 4c 09 7d 75 43 3f 3f 5f 7a 7a 63 45 c6 3f
       0.0005938396958302309 0.17399257164356105
000690 b2 68 60 de 20 6f a2 3f 1d d4 30 dc 8a d7 b0 bf
       0.036004092355328324 -0.06578891635656743
0006a0 04 8c 61 6f 44 c2 c8 3f d3 5a a2 3d 71 7e a6 bf
       0.1934285682537792 -0.04393342854853235
0006b0 4c e0 69 da d7 70 c0 3f 8e 33 25 1d 58 c3 d6 3f
       0.12844370045400166 0.35567286344740345
0006c0 27 77 ce 78 bb 94 af bf 1e 0f 09 a1 30 d9 90 bf
       -0.06168161248863973 -0.016453513935871127
0006d0 61 61 f1 d2 1e 72 a8 bf 62 98 3c 16 b6 af b2 3f
       -0.047745669603218806 0.07299364130867184
0006e0 a6 8a fb e3 80 b7 b6 3f 36 ec ff 87 e7 ae b3 3f
       0.08873754087430061 0.07688757963471535
0006f0 04 f7 7f 19 2d 9e da bf 25 aa 58 df ba 8e e0 bf
       -0.41590430727215755 -0.5174230921014141
000700 d2 51 5f c0 29 cd e6 bf 9e bb 76 29 35 38 4b 3f
       -0.7125443227073964 0.0008306750850602845
000710 4a cc ed c7 3a 33 a7 bf a3 ff 20 7f ac 38 9a bf
       -0.04531272593057929 -0.025606818446476286
000720 ac eb c9 e0 d8 84 7a bf f7 c2 d4 93 39 3b a4 bf
       -0.006474349193576961 -0.03951435021952492
000730 c5 b8 bc 7b 3d 7f b1 3f 4c 48 c2 b4 fc 7b a4 3f
       0.0683477809040794 0.04000844675569279
000740 1f e8 4b e1 35 62 95 bf a0 2b 18 78 a3 7d e4 3f
       -0.02088245570755742 0.6403367372125679
000750 14 44 df ff 33 e5 a0 3f 17 94 4f 8e cd fb 96 3f
       0.03299868105353468 0.022444927035298514
000760 54 ba ac 02 09 4d a0 bf e5 80 87 d8 8b 23 57 3f
       -0.03183773191118591 0.001412283485585469
000770 03 5b c6 ce 46 82 a0 3f f5 26 8c 3a 36 3d b6 3f
       0.03224393152338758 0.08687151841527536
000780 45 49 53 a0 c2 34 a4 bf 15 60 fc fe 1b db 91 bf
       -0.03946502883049389 -0.017437398374653485
000790 cf ea 72 d6 3d f0 c2 3f 22 3c 41 79 09 bb 8e bf
       0.1479565903772113 -0.015005182278541144
0007a0 dc 74 cc cc 62 c2 35 bf 84 ca 5f 3f a7 74 92 bf
       -0.00033202087506529836 -0.01802312206559488
0007b0 84 8c cd 74 91 dd 95 bf 1b 08 e3 b2 6a 40 8f bf
       -0.021353028062901305 -0.015259584030335607
0007c0 4d 13 90 e0 e4 5d b0 3f 73 1c c6 32 f2 4e 93 3f
       0.06393270952692127 0.018855842923155963
0007d0 29 50 c0 7e 88 33 97 3f 06 4f cd bd 0c 97 c9 3f
       0.022657520996361456 0.19992217319178723
0007e0 8e 2a 88 e4 16 fb 9d 3f b7 a4 5c 3a 7f 1e b6 3f
       0.029278142641525444 0.0864028470501975
0007f0 73 84 bc c8 e4 b0 a1 3f fb b2 92 91 cd cd 9f 3f
       0.03455271673579654 0.03105851365096422

conv2.bias f8 [16]
000000 bf 5f a4 4f 8f f3 a8 3f cf 73 d2 84 3c 02 d0 3f
       0.04873321387475426 0.25013649912744723
000010 db ba df 91 a9 fb b3 bf 79 19 ef 12 52 54 d1 3f
       -0.07805881320357903 0.2707715210821316
000020 64 82 19 32 2b 2e c0 3f b5 e4 09 ab 18 4f c3 bf
       0.12640895792266627 -0.15085132934090031
000030 ae ce 83 69 e9 9b c3 bf 17 3e fe c3 a3 61 b6 3f
       -0.15319554950803166 0.08742736372936864
000040 06 a3 f1 8e 3b 24 d3 bf 05 05 90 fc 0c 1d c1 bf
       -0.2990864654480422 -0.13369905788571415
000050 da f9 0e ff bb c6 bb bf 95 2c 0c 40 c9 a4 bf bf
       -0.1085011956883827 -0.12360818685208337
000060 5b 30 9b d2 fd 84 9b bf 87 c6 28 9e 3d 3f c4 3f
       -0.026874509791739203 0.1581799528371912
000070 a0 5f cb d0 f9 02 c0 bf 4a c1 f8 93 5a 6d c2 3f
       -0.1250908154968302 0.14396221375637658

fc_1.weight f8 [128, 400]
000000 3a dc 7d d9 22 e3 c2 3f 03 42 3a 02 8d db ad bf
       0.14755664462765755 -0.058315664789123665
000010 63 55 74 d4 47 87 b6 bf 45 c7 2f 0d 69 dc c9 bf
       -0.08800171791911775 -0.20203889030340796
000020 60 1a ce d8 1a 54 ba 3f d3 5a 54 da e4 60 c2 bf
       0.1028458384808828 -0.14358196888561867
000030 67 fc 38 f7 e9 13 c1 bf e4 69 30 27 76 f7 c7 3f
       -0.13342022487083513 0.1872394267418961
000040 57 03 06 a0 37 c5 be bf a1 86 f8 97 32 b8 b3 3f
       -0.12019679695914696 0.07702938280319895
000050 0c fd af a2 f5 54 b0 3f 31 89 b4 0f 1b bc d1 3f
       0.06379637929784482 0.27710606130326015
000060 86 f5 df 09 b5 43 bb bf d0 4a 1a d2 98 a8 d7 bf
       -0.10650187960705723 -0.3696653415474147
000070 10 01 75 4e 09 0f 8e 3f 9d c3 2b 9f b2 35 bd bf
       0.014677117068118167 -0.11410061250695809
000080 3f 5e a5 b2 35 cd c4 bf 9f 53 9a c5 d5 bb bf 3f
       -0.16251250479648324 0.12395988535202072
000090 03 e6 3b 50 49 e9 bf bf 8a 30 5c b5 5c 42 be 3f
       -0.12465341767155995 0.1182001059316368
0000a0 89 99 d9 8f 4d e6 ab 3f 44 0c a4 5a 1f 63 ad bf
       0.05449144726735528 -0.05739686948256709
0000b0 56 69 4a 96 1f 25 b1 3f 3a 45 93 04 e5 74 ae 3f
       0.06697270793157392 0.0594855850300839
0000c0 b3 0d e0 13 9d 38 b6 3f 76 66 5a e7 ba 80 bd bf
       0.08680135474428745 -0.11524551533002544
0000d0 77 c1 b4 c3 c1 a6 b2 3f 48 ee 09 1e 61 81 9a 3f
       0.07285700824718853 0.025884168108389255
0000e0 66 db a9 fb 59 b6 ae 3f fa b1 a9 5f 63 bf bb bf
       0.059984981508867816 -0.10838910184401832
0000f0 cf 52 2a af 01 65 67 bf 86 78 a7 ae 01 99 b2 bf
       -0.0028557808776191527 -0.07264719499605307
000100 91 e8 96 22 5b 28 c1 bf a5 ae bc 3b 42 8d bc 3f
       -0.13404406727733378 0.11153043707298112
000110 23 13 a2 d6 8f 5f b1 bf 28 47 5a 99 03 71 93 bf
       -0.06786440839830425 -0.018985801920798157
000120 5d 4f 8a 8e f0 99 c8 bf 1c 30 eb d9 d1 91 cb 3f
       -0.19219786605810443 0.2153875650459448
000130 a2 5a 1f 7c 2e ac ba 3f d7 99 bc 85 cb 3d 94 bf
       0.10418978243192581 -0.019766979253427266
000140 59 6d 1d 71 77 48 94 bf a2 f1 50 8b ab f2 b3 bf
       -0.019807688025463708 -0.07792160178445909
000150 6f ba 1a 7e e3 7a a4 3f 04 a1 3a ab f7 98 b4 3f
       0.04000006594047966 0.08045909815212232
000160 9a 57 87 b8 2f f0 c2 bf 0f 09 2c 57 19 21 a7 bf
       -0.14795490751447177 -0.045174400225748916
000170 ee dc 57 16 1d 30 ad bf 92 e7 41 83 ee 4c bf 3f
       -0.05700770280594179 0.12226763443496072
000180 70 dd e7 bb 33 61 aa bf e5 30 16 2a ef 21 be bf
       -0.051522843063078194 -0.11770529534823344
000190 b8 3a 4d 9c d2 95 b7 bf 36 60 7a d5 13 81 ba 3f
       -0.09212986293753544 0.1035320659815405
0001a0 8c a3 09 94 9c 77 b5 3f 53 a6 d2 40 91 3f 98 3f
       0.08385637869072421 0.02367999036929398
0001b0 54 91 6c 32 9e c3 c8 bf 17 f1 d5 48 ba 0f c8 bf
       -0.19346978628267186 -0.18797997051650192
0001c0 86 6a 1a 84 55 0d b8 bf 3a df 00 cc cb a9 c3 bf
       -0.09395346141028868 -0.15361926518539254
0001d0 f1 80 48 12 cd d8 a0 bf 72 13 60 aa c5 1c d6 bf
       -0.032904060823286126 -0.345506111509443
0001e0 5b 78 e4 ed ff b1 c8 3f 26 18 4f 37 ab 7d b0 3f
       0.1929321204742703 0.06441755390469037
0001f0 b8 f1 e7 37 06 38 87 3f 99 e5 d4 46 23 ce b6 bf
       0.01133732660400076 -0.08908291320121577
000200 04 5f 27 a1 f2 f1 78 bf 27 bf bd 00 dc 3f b9 bf
       -0.006090114375602477 -0.0986306669053617
000210 e7 f9 7b ae 7b d2 96 3f 64 99 a1 8a 6e 5a b6 bf
       0.022287304424930012 -0.08731737980415272
000220 94 06 e3 02 81 09 b2 bf 30 ce 2c 76 08 02 d3 3f
       -0.07045751877287848 0.2969990877201978
000230 31 4b 69 12 ba 60 a5 3f fa 63 c3 26 6a a6 9a bf
       0.04175359225032194 -0.026025446525498076
000240 c0 cb 81 a5 67 7e c1 bf 86 a1 72 2b cf d5 bb 3f
       -0.1366700704707835 0.10873122034775493
000250 90 8d 3b d7 7d af bf bf 5c 7d 02 c2 36 77 c5 bf
       -0.12377153877928593 -0.1677006194413292
000260 fa 97 e2 6c e4 55 d0 3f af 28 98 46 b3 67 b7 bf
       0.25524244912446614 -0.09142609094138508
000270 2e 7b fb f6 3e d6 b8 3f 67 67 f8 3a d8 63 b1 3f
       0.0970191338524102 0.06792975845055836
000280 47 90 df 69 5b ed be 3f c4 10 e7 2c d6 a6 bd 3f
       0.12080928168103454 0.1158269748330581
000290 68 e3 22 ea 91 58 b3 bf 44 30 b5 71 11 73 90 3f
       -0.07557022062509378 0.016063950123950357
0002a0 01 93 76 08 79 da b7 3f 4e f9 7b 1c 9f 42 90 bf
       0.09317738014813061 -0.015879140962163966
0002b0 b1 16 dd fd ef 64 c9 bf 45 66 1d 7e fb 1d bf bf
       -0.19839286704716622 -0.1215512450120509
0002c0 51 21 ef 3b 70 7f 78 3f b5 94 44 ec 27 64 ab 3f
       0.005980909742852995 0.05349850424890105
0002d0 bc 46 17 5d d4 41 bf bf da f1 5d 05 46 97 ca bf
       -0.12209822914817442 -0.20774150144633446
0002e0 b6 2f e3 30 12 82 96 bf ff 02 7a 23 7e bd d1 bf
       -0.021980556711056663 -0.2771907183123829
0002f0 41 4f 4d 7b 54 9c ad bf 03 48 ba 6e 38 66 bc 3f
       -0.05783332829619648 0.11093476012527508
000300 94 c0 4e 46 14 1b bb bf ce 66 2a 10 9f f6 a0 bf
       -0.10588194576735283 -0.0331315715058743
000310 db a6 1e 8e c4 45 a8 bf e4 c3 45 d1 89 17 a3 bf
       -0.04740728602275875 -0.037288958354913665
000320 b9 96 31 e7 0a db b0 3f b0 1c 57 6c 2b 30 b0 bf
       0.06584232468011465 -0.06323501009966281
000330 75 9f 3c a6 2f 56 a1 bf 2b 7f 93 33 91 9e b5 bf
       -0.03386067299135124 -0.08445079335387777
000340 ac 0f e5 4b da f6 b5 bf ef 70 21 08 67 f2 b9 bf
       -0.08579792359256427 -0.10135501812459656
000350 37 54 07 39 62 be d0 3f 50 bf 43 89 2a 7c aa bf
       0.2616200978203013 -0.051728562599122285
000360 ec f5 18 dc 0a cd cb bf 7e 1b 2f ff ca 47 b4 bf
       -0.21719489809940684 -0.07922047357634018
000370 8e 50 70 9e 48 26 b0 bf d7 9c b3 db 89 3f 7a 3f
       -0.06308416240819012 0.0064082512937837155
000380 8c 05 98 77 8a fc 9e 3f a2 3e 88 c6 68 3c a4 bf
       0.030260242032459625 -0.03952338622559394
000390 0a 8b 79 81 2a 7c a4 bf 14 9d 85 40 1b 15 c0 3f
       -0.04000981169226321 0.12564411783680696
0003a0 e5 fb 27 bf 47 84 b0 3f 71 26 3e 4b f2 03 a8 bf
       0.0645184365930472 -0.04690510910502333
0003b0 c2 1c 30 5e 5d 4d b6 bf da bd cd 79 df ba bf 3f
       -0.08711799191961503 0.1239452049610387
0003c0 c8 3d e4 19 4b 36 b9 3f 64 4b 1e a3 27 f7 97 bf
       0.09848470098608353 -0.023403758364632835
0003d0 76 71 c3 0e 30 35 b2 3f ad 4c 33 6a d8 39 c3 bf
       0.07112408028064529 -0.1502028006130777
0003e0 5f c5 b7 c6 28 b9 c2 bf 75 ba 44 45 85 9c c4 bf
       -0.14627561285991939 -0.16102662927865521
0003f0 90 d7 fe fd 55 d8 cb 3f 15 92 68 ed 1e 97 c3 3f
       0.21753954794047248 0.1530493411274995
000400 b3 77 f9 3a 51 48 b3 bf a3 f4 d8 46 e7 be cc 3f
       -0.07532222451979358 0.2245759101805663
000410 bd 72 dc f0 de 79 c2 3f f7 5f ce 94 23 92 ad 3f
       0.14434420357510716 0.05775557700616212
000420 00 20 02 a8 f0 7f 5c 3f 74 42 b9 f8 fb 34 b8 3f
       0.0017394876631744438 0.09455847570758086
000430 6f bb 23 51 2b a6 b4 3f 63 d9 71 b2 3d 12 90 bf
       0.08066054087588069 -0.01569458390846402
000440 20 7b 39 d0 d0 89 c5 3f 5f 14 a3 77 7d 1e c7 bf
       0.16826830069745657 -0.18061798421527706
000450 4a 48 56 11 87 d9 b2 bf c9 02 06 9d f3 4c b7 3f
       -0.07363170789020149 0.09101793845730834
000460 92 e4 e0 39 19 9d c2 bf df 31 86 3c 9e 06 ab bf
       -0.14541926694963486 -0.0527848671800688
000470 9e d6 03 9a b0 07 a1 3f 0c 05 fe dd dd 4f b6 3f
       0.033261793900164024 0.0871561686490347
000480 9a b4 3b 21 65 28 bb bf bf 52 36 20 84 08 b1 bf
       -0.10608512936933537 -0.06653619562559764
000490 23 b1 74 fc 1a a9 cb bf 18 01 01 5e 5b 0a ca bf
       -0.21609818770355912 -0.2034410676005869
0004a0 4c 15 cd 95 e4 7f cb bf 48 3e c7 81 42 c6 bd bf
       -0.21484048189646854 -0.11630645435729392
0004b0 8b 07 66 94 1b 54 c5 bf 11 84 ec a8 f5 d0 c3 bf
       -0.1666292643167789 -0.1548144411872561
0004c0 ce 4e 05 80 9c 53 d3 3f 9e 21 f0 26 f1 75 b9 3f
       0.30197823049568917 0.09945590210566599
0004d0 e9 da fa 32 ad f3 b2 3f 27 c6 e2 c1 0e 94 a6 bf
       0.07403070921541723 -0.04409834019442043
0004e0 66 d8 5c 74 93 bb b7 3f 11 b8 da cd ff c8 c9 3f
       0.09270593253026646 0.2014465098522469
0004f0 08 6d a5 17 13 00 87 3f c3 0d 2b 38 65 16 97 bf
       0.01123061099922619 -0.02254636912654263
000500 6a 30 3d 41 13 39 ca 3f 9d 8f 77 d4 fe be 86 bf
       0.2048667973089125 -0.011106482371310561
000510 33 ac 30 66 42 ef c3 3f 66 a7 a3 b9 18 f1 91 3f
       0.1557391165709717 0.017521272974512135
000520 15 77 cb cf 93 fd c1 3f c9 98 aa b7 71 00 b1 3f
       0.14055106779317642 0.06641302808802431
000530 97 4e b6 ec 91 10 dc bf 44 66 fe 9b 74 4b c5 3f
       -0.4385113536493263 0.16636521927721237
000540 4d 79 78 ad b6 b7 90 3f bb ea db cd 4b 41 b7 bf
       0.01632581170826457 -0.09084008956771587
000550 bd dc e3 4e c3 2d c5 3f a0 3f ca 5d b8 ce c4 bf
       0.16545907356314685 -0.162558599277415
000560 e9 7c d7 0d b3 08 c7 3f c7 7f 0d 1b 9d 83 b3 bf
       0.1799529855333966 -0.076227015595122
000570 3c 5c 28 9c 4c f6 d6 bf 62 85 52 c0 1a 78 d1 3f
       -0.35878291368266324 0.2729555967472007
000580 f0 7c 5e 6f 57 97 ba bf dc ce e4 60 bb 1a c2 bf
       -0.10387178868267077 -0.14144079428807899
000590 88 87 6d 22 28 81 b6 bf 01 f1 37 ef 60 b2 60 3f
       -0.08790827599071183 0.002038182568638303
0005a0 05 06 35 61 23 44 a4 3f 9a 66 25 b2 4a ec c0 bf
       0.03958235322580709 -0.13221105288066753
0005b0 c4 58 c4 91 fb 96 a0 3f f7 5a e6 6e 86 de b2 3f
       0.03240190653211664 0.07370796401515266
0005c0 16 82 47 98 5c 2c bc 3f d6 3c 2d 61 f6 87 b3 bf
       0.11005190580136345 -0.07629337189176807
0005d0 bf 55 21 7e 88 1c b7 bf f6 d6 df 81 40 24 ad 3f
       -0.09027913169241851 0.056917205671124835
0005e0 2d f0 d6 dc 34 67 d1 bf 1c cf 0e 3f 4c 8d c7 3f
       -0.27192422453277026 0.1839995677852294
0005f0 e9 f7 0c 25 f1 1e bb bf 2e ae 9d 99 0e 67 cb 3f
       -0.10594088701779437 0.21408255100992463
000600 de 19 e5 cd 50 f9 aa bf 38 02 db 57 63 9d bc 3f
       -0.05268337739339633 0.11177655119809848
000610 64 9c 96 f9 d1 dd b3 3f b4 35 3b 1d 8e 8a 73 3f
       0.07760345786538064 0.004770808347257672
000620 c0 00 af 9e 07 b7 ca bf 11 fd c2 17 c7 18 c5 bf
       -0.20871062515471372 -0.1648186555885123
000630 50 b4 f0 b6 57 0c 94 bf e7 38 9c 06 56 9c a6 3f
       -0.019578333416735483 0.04416149931613394
000640 d1 69 57 dd 93 97 97 bf 84 42 9f cd bd 5a c7 3f
       -0.023039160141573426 0.18245670833723093
000650 67 0e 98 d3 c0 23 ad bf d1 a0 63 73 46 95 b7 3f
       -0.056913400487272274 0.09212150876158211
000660 bb ea 4b 23 8f a5 93 bf d9 53 bb 6c a3 a7 b0 3f
       -0.019186245469408485 0.0650579586466188
000670 73 67 d4 c0 cb 9c ca 3f 61 bb 6a a2 4e 3a c5 3f
       0.20791003146660678 0.1658418934871078
000680 c3 f5 38 46 e0 ad a1 3f 07 a5 a6 b9 4b 5b b0 bf
       0.034529694149096034 -0.06389306337827715
000690 a2 9e 49 fa 39 64 c1 bf 10 ed 4c f4 fa d2 73 3f
       -0.1358711692912396 0.004839878359059982
0006a0 60 f7 d4 49 0b 68 b6 bf 7b df c3 f0 54 e0 b4 3f
       -0.08752508690392125 0.08154803159766104
0006b0 92 cb c9 f8 4f 5b 59 bf c9 40 7a 1d fe 33 b8 3f
       -0.0015476494765180632 0.09454334468523763
0006c0 ae df be b1 cb 2e b8 bf a0 7d 88 5c 66 80 bc bf
       -0.094464045424387 -0.1113342262183239
0006d0 5a 5d 2f ff 58 48 c8 3f a8 d9 72 7b 8d 55 bf bf
       0.18970787487226454 -0.12239918006785067
0006e0 06 37 89 a7 f6 9a ab bf 00 5c 48 d8 cc c6 c0 bf
       -0.053916652632876746 -0.13106689987827735
0006f0 01 96 46 43 cc e5 b8 3f 69 1c 36 d7 fc 38 c7 bf
       0.09725643770669735 -0.18142662533157086
000700 ef a8 78 5e 79 06 a9 bf 6e 6a 52 e1 9d 32 ce 3f
       -0.04887751844610643 0.23591969968841248
000710 df a7 94 b1 5b ac d8 bf 60 58 c8 e0 c4 b1 ad 3f
       -0.3855199083506004 0.05799689525535778
000720 4c d9 08 cc 38 0b a4 3f 3d 9a cc a0 8b 69 b6 3f
       0.03914811602264709 0.08754799533617415
000730 61 6c 35 3e bb 1f ce bf b9 94 7d ec 16 a9 d2 3f
       -0.23534336602719733 0.29157040686397867
000740 9c 07 56 a5 21 9e b1 bf 4b c0 f3 d5 56 9d b8 3f
       -0.06881914412045237 0.09615080569688066
000750 6e 6f 17 04 bc 85 c0 3f c0 2e 4d c4 6a 86 a8 bf
       0.1290812511423342 -0.047900520765862264
000760 9e 8d a1 b3 a1 ba a8 3f 39 ed 22 65 63 b3 c0 bf
       0.04829888646852541 -0.13047449529936175
000770 7b 2d db 97 c2 78 d0 3f 0b b5 4e 9b 9a 18 c1 bf
       0.25737061338141815 -0.13356335242625791
000780 f5 b3 20 14 4e 55 a1 bf a6 82 5c aa 06 52 b2 bf
       -0.03385395045948051 -0.07156411799634074
000790 fe 44 ff 25 fb df b6 3f 92 a5 1b ce e0 2e ce 3f
       0.0893551795736762 0.23580560745112372
0007a0 20 7e 6b 36 22 6a a3 bf 5e 77 5d c7 cd c8 9e bf
       -0.03791911043458307 -0.03006288079574603
0007b0 5d cf a7 d7 c2 38 b1 3f 00 ae 76 ba 7e f4 87 3f
       0.06727235569979713 0.011696806016366246
0007c0 c0 a0 b1 6d b7 22 8b 3f 2e 24 ad 60 e4 10 a4 bf
       0.01324981025227634 -0.03919137649661085
0007d0 75 e3 4a ba f6 08 88 bf e5 25 c5 fd 1b 27 b3 3f
       -0.011735847053715645 0.07481551118430436
0007e0 c0 9d 43 61 ff be 9b 3f fd a9 7f 01 82 c0 bb 3f
       0.027095785438090436 0.10840618645276119
0007f0 cc 43 60 6d 53 a0 b3 bf 4b 92 b9 53 df 5d d0 bf
       -0.07666512890160887 -0.25572951484926837

fc_1.bias f8 [128]
000000 16 51 50 49 85 49 5a bf f0 3f 46 2a cf cf c6 bf
       -0.0016044427513906604 -0.17821683468036964
000010 04 3c d8 f5 89 8e 84 bf 4e 58 15 27 7d 71 c6 bf
       -0.010037496390422625 -0.17533840568893527
000020 f6 f6 1a 1a 8f bc c1 3f 06 08 34 43 fd bd cb 3f
       0.13856686377214772 0.21673551350983206
000030 9c a8 2d be 1f 4a 71 bf 8a 67 98 8f ca 21 98 bf
       -0.004221080775872601 -0.023566403402675053
000040 97 80 c7 aa cf 70 d9 bf 08 a5 a2 00 64 66 7d bf
       -0.39751044919649686 -0.007177725443548562
000050 2f f7 08 4a 1b 9b c4 3f 2d 46 86 97 da 2f 9a 3f
       0.1609834777354364 0.025573173044511833
000060 64 b0 63 1a 90 2f d9 3f 21 bc ba 10 5d a5 d4 bf
       0.39352800919619413 -0.32259298928960517
000070 1c 92 2c c5 b3 b6 87 bf 42 ef b0 50 88 43 b4 3f
       -0.01157894559362043 0.07915546388624953
000080 d2 ae b3 d0 02 22 d0 bf 73 cd b7 80 f1 74 aa 3f
       -0.2520758665184363 0.051673457110065345
000090 c4 27 ef 14 61 a7 c9 bf 93 f8 54 9b 36 db 19 bc
       -0.2004205085962082 -3.504182347816569e-19
0000a0 bc 32 67 95 29 2c 92 bf 63 94 26 36 f9 e2 3c bd
       -0.017746591323702474 -1.0262587283488465e-13
0000b0 a9 0f 58 2b 5d ec c1 be ce 74 ba 02 e3 fd 80 3f
       -2.1366234601600024e-06 0.008296750565302349
0000c0 bc 33 c1 9a e0 1f ba 3f c6 06 39 86 97 26 ce bf
       0.10204890993300259 -0.2355527310738152
0000d0 fd 86 62 31 a4 81 d0 3f 37 1a c0 99 0f 3c d1 bf
       0.25791268179646903 -0.2692908288449049
0000e0 80 0b b8 9b 44 a8 db bf 33 88 aa bb 6b 7b c3 bf
       -0.4321452637379295 -0.1522040048922136
0000f0 62 79 64 31 22 d9 a2 bf 5d b7 ea 7c 4d 43 d4 bf
       -0.036812847642283555 -0.31660783003723286
000100 b1 b4 35 93 2d 9d c5 bf 6e db b8 7a c6 eb a8 bf
       -0.16885919273355435 -0.048673822861409075
000110 ca 65 92 56 c0 cc c6 bf d4 48 5c 2c 51 dc 70 3f
       -0.17812351443426017 0.004116360743653586
000120 ea d1 e8 9b d7 00 b9 bf 8a 51 24 f9 99 b9 d7 bf
       -0.09766910129912501 -0.3707032139802996
000130 af 81 a2 9e b0 d9 d6 3f 18 d9 1f a7 ce 45 b1 bf
       0.35703673831633415 -0.06747142391381933
000140 c8 1c 46 09 e7 2a 73 bd f6 df 1f 9a db 35 d5 3f
       -1.0895512237447953e-12 0.33141222048970975
000150 49 d3 0f 58 a6 66 c2 bf 43 60 91 f6 86 8a d8 3f
       -0.14375762271779483 0.38345502928632785
000160 04 6e ca 1f 1d 33 87 bf 4a f3 2e 51 8e 51 b7 3f
       -0.01132796052234309 0.09108819467560383
000170 1d e8 5b 58 a3 89 b4 bf 55 74 f6 1e f9 3e ba 3f
       -0.08022519023134618 0.10252339368749237
000180 8d 33 3b dc 34 3d a3 3f cc bf b6 43 c0 92 b1 3f
       0.03757634342546288 0.06864549306078443
000190 f8 50 b9 7b 05 85 d2 bf a3 05 7c 1f 15 a3 d6 3f
       -0.2893689831009989 0.3537037665811004
0001a0 a9 f0 d5 56 70 de be bf ba 1b 44 ee 79 ad ce 3f
       -0.12058164711010257 0.2396690762909353
0001b0 64 bf 7a 99 8c ce be 3f 5a ba e6 ac bb 8a d2 bf
       0.12033919093187034 -0.28971759686365817
0001c0 61 0e 2a 45 71 5c d5 bf 64 f4 2d 71 68 6d c9 bf
       -0.33376724008869557 -0.19865136648505477
0001d0 4b 9f 33 d9 2f 71 9a 3f ba 58 41 7f 23 1c c9 bf
       0.025822398788391692 -0.19617122377048252
0001e0 15 7b 02 68 b8 62 b2 bf 0e 72 ff b1 70 2d 97 bf
       -0.07181885279940688 -0.022634278167844406
0001f0 fe 6e 71 b5 bd c2 d0 bf ee bf a6 46 e2 30 92 bf
       -0.2618860504060051 -0.01776460224363057
000200 f7 98 e8 05 1d 17 d3 bf 1a 08 45 4c 4a 3e cb bf
       -0.29828572823534166 -0.21283844684700243
000210 69 80 36 7f 21 6c b7 3f 42 3c 01 cc 50 a0 c6 bf
       0.09149369579108825 -0.17676744424031382
000220 d0 e1 d1 0e 22 4d ce 3f 13 4a 99 14 0c 41 c7 bf
       0.23672891353250103 -0.18167258268165706
000230 b0 88 d4 98 d5 29 7b bf 31 11 94 7a 13 36 c6 bf
       -0.006631693232778499 -0.1735252712752611
000240 ec 2a 7b c4 af 23 b7 bf 35 aa 06 dc 63 fe d0 3f
       -0.09038828417684969 0.26552673804204413
000250 b9 9e 62 38 95 6e c1 3f 73 45 aa 24 4e 1a b8 bf
       0.1361872220343139 -0.09415138621468148
000260 ac b5 2d 09 dc b2 c2 bf fe 01 29 8e 33 6c d0 bf
       -0.14608335922404814 -0.2566040886195252
000270 47 d4 bb 30 93 2b a1 be 92 75 c5 d3 27 7e 7a bf
       -5.117122738584141e-07 -0.0064679675818672
000280 f2 19 c0 f3 77 6a b3 3f 60 6c 83 9f d0 86 bf bf
       0.07584333134591484 -0.12315086264008945
000290 b0 ac c6 88 55 e6 19 bf 1c 4a 83 86 25 65 c9 bf
       -9.879967746566592e-05 -0.19839924877176507
0002a0 2d ea e6 ef 25 fc da bf 98 ce 10 3b 54 c7 c9 bf
       -0.42163990428858505 -0.20139553913178498
0002b0 5c 1e 37 9b 2d 7a b2 bf 33 c2 f5 3f c7 41 da bf
       -0.07217679061351973 -0.41026479002087796
0002c0 4b 65 66 a5 a1 9a cc 3f 62 f4 fb e8 88 6f d3 3f
       0.22346897674723673 0.3036825442539507
0002d0 04 5d ab 54 03 ce a7 3f 99 28 ba ae 7a d3 c5 bf
       0.04649362953721872 -0.17051633388138468
0002e0 0d 08 95 0c 13 9b c3 3f a1 ac 6f d5 05 d0 d5 bf
       0.15316999544489854 -0.34082170337087275
0002f0 9a 2d c2 6e f0 4b a9 bf 55 ac 21 2a 9c e3 c2 bf
       -0.04940749504120419 -0.14757110650257013
000300 f7 7e d5 3d a0 31 bf bf df f7 9a cd 38 7b c5 bf
       -0.12185098180406927 -0.16782293357203934
000310 92 b0 a3 f9 7a 09 6a bf 24 9a da fb f7 1a d3 be
       -0.003178348718497822 -4.55506954969443e-06
000320 e9 44 43 6b 61 c2 b1 bf 03 4d 89 e6 0f 1f 92 3f
       -0.06937226170272805 0.017696617551632886
000330 d4 5b 2b 11 9a 86 a6 bf 7c 7d bc 0b 59 47 72 bf
       -0.04399568042361293 -0.0044625738480869
000340 b2 23 2a cc 37 6f cb 3f 55 a2 1f 4f 16 f6 73 bf
       0.2143316027543541 -0.004873358864621998
000350 b4 2a 64 2d 49 1d d1 3f be 59 07 37 12 c1 cd bf
       0.267412466361445 -0.2324545639700783
000360 43 f5 de d6 62 87 d0 3f ed 96 e4 a4 6f 17 d1 3f
       0.2582633112286496 0.26705542662453646
000370 d7 19 6c f3 7c 15 43 b9 b9 68 63 36 9a 15 b7 3f
       -7.350865472020328e-33 0.09017337634887469
000380 d0 35 01 f5 10 a9 c8 bf d8 a9 e2 1f cc 30 b7 bf
       -0.19265949214097455 -0.09058833864643334
000390 ba bf 25 8d 86 4f ad 3f f8 0e 2f 4a c6 24 c7 bf
       0.057247357110895306 -0.18080977079636518
0003a0 24 bb bf 8a bf c0 c9 bf ca 79 a3 98 4c 92 d0 3f
       -0.20119470858431854 0.25892939478026433
0003b0 a7 13 5a b3 91 8f d3 bf 50 30 dd 95 01 42 cf bf
       -0.30563776507215795 -0.2442018491514113
0003c0 72 13 16 4c e9 92 aa 3f 4f b5 f8 c3 6b f0 8c bf
       0.051902094400282275 -0.014130441587520663
0003d0 ca 49 4e f1 ed 2b b1 bf 35 ff 90 a8 86 a5 b5 3f
       -0.06707656041388713 0.08455697646513445
0003e0 35 db 51 2d 79 11 7b bf b4 21 92 d3 3f a3 c7 bf
       -0.006608460757994196 -0.18466947393996025
0003f0 1a f7 48 1f e7 2a c2 bf 5a 65 e9 59 87 a0 ac bf
       -0.14193429019535914 -0.05591223690562215
