regression_model.pt (torch, 759093 bytes, 16 tensors)

conv1.weight f8 [16, 2, 3, 3]
-0.09130035821288504 -0.07624017137272388 0.020133087085311467 0.17102173829770384 0.11130046001453939 -0.20028265818927588 0.04460454932423766 0.169158512440823
0.26309633281150946 0.05207297995305258 -0.14444284820896977 -0.16242487729088625 -0.24853213681833372 0.01640901416433229 0.1864423855804319 0.2719766092087541
0.2601812815664545 0.3364357973833114 0.27764141177160306 -0.1410792794475106 -0.35459080441334095 -0.3038691138332016 -0.003157008732997122 0.14626281005309566
0.134043870991108 -0.0065660577414646 0.016765744244373985 0.18943959874004707 -0.015014552265251174 0.003209030068330849 -0.006440935870946378 -0.1309270830321415
0.09262320901603656 -0.010986975144930028 -0.04171225420944495 0.05827366378559009 -0.0646558238623094 -0.011699431516163416 0.19107395027536467 0.17774874491591325
-0.004414170955095984 0.0380159463153384 -0.1444618430921925 0.03408554711401543 0.0553700367051505 -0.2487338486309022 -0.2688440885543326 -0.08312727238752683
0.027300547691401444 -0.3713897687407004 -0.9329576896678171 -0.5862717118963264 0.03847358358020306 -0.20276503187286798 -0.1675109633392674 0.40574625972198625
-0.19121766972800758 0.03778139146687631 -0.11531947168466442 0.04413052045257527 0.15872348216770504 -0.3183975614778131 0.08119453888381713 0.0006432097861290375
0.18583698039715854 -0.029360109493490428 0.12190675786577854 0.010781294177897653 -0.01779820825875675 0.13772089854355063 -0.044227060685034014 0.11606648427620911
0.03855086044696042 0.10962077481949783 0.05224635603290352 -0.07363598312728746 -0.24354462033507437 -0.010353965960956151 -0.14062502793511425 -0.14481470570688915
-0.11020283287533142 -0.7825174513190756 -0.7028249830040559 -0.7773165435206281 -0.44032977001834117 -0.5184025205124286 -0.556528908523363 -0.7352488034986203
-0.6222927526904104 -0.7663572953343954 -0.0905358699412811 0.059077341437024186 -0.21029102042697437 0.02054038390654181 0.18768401537468365 0.019186370508260376
-0.21839573810267346 0.0495649397466936 -0.10044808424638266 0.04178451568459702 -0.8570339802105994 -0.05474131295968466 -0.10714434748260508 -0.9170207101976654
-0.11986455701985524 -0.040169248139045266 -0.904296777635397 -0.08254296695234037 0.21889805138834642 0.11834514311003916 0.2393669846434074 0.13613229938111926
0.299498607247741 0.09298483301237419 0.12902577461820242 0.11687879186293754 0.2081518615060292 0.24933298109013122 0.14352156385360837 0.2782034455904014
0.2173307434487601 0.08958944939155483 0.07188425985037707 0.12531018010851777 0.0369014307946359 0.07405682809894278 -0.03245819617754091 -0.03102784114476803
0.031679183987033434 -0.002317060686536534 0.03565759937997483 -0.024113044895039768 0.26223214168017644 -0.2646239010494896 -0.27900293186641867 0.15052586929705764
0.015735415837347007 0.0610253708507236 -0.04175798811916356 0.16378096343044468 -0.05563227822461454 0.30592585775327874 -0.0849324544062905 0.15197821991750404
-0.25336387075740224 0.0037781682986893377 0.04957043079650828 -0.18454931157469284 0.07085273493856965 -0.08986027881082179 0.34406118848366307 0.10876402378060285
0.08282183046401008 -0.38239797909229367 -0.29514296675041296 -0.96117717802482 -0.14862067548435687 -1.1247674473876585 -0.1007332767659773 -0.855192946067875
-0.8531911030589734 -0.800252166713629 -0.421542793857596 0.03917231704415966 0.08505129673851515 -0.3314716938919609 0.026940418207254326 -0.026149537441368442
0.48407727685182417 0.0021477397575182986 0.012794897848144055 -0.34317141587339944 -0.008263480510677764 0.036536831124619806 -0.07673093359132854 0.11883232878723946
0.012731709725598814 0.02984364068359612 0.04076964385426703 -0.13215406185703293 -0.22253285039748755 -0.253031645739762 -0.015671827825808338 -0.22880515518227101
-0.21725437472383882 0.004929369399322291 -0.0003936121977653215 0.012931968547705813 0.07165138680598551 0.19928814298424163 0.1457567807915055 0.2352581637107762
0.139240077466237 0.28921994825543285 0.167447159258438 0.1654693877493969 0.31498149420482335 0.15339956014799933 0.11295100172907793 0.11992883802786157
0.06323327250847166 -0.17372626295442034 0.05850158240511622 -0.10630847523816149 -0.06525793425679415 -0.05495880993811864 -0.001976281348823465 0.23306941756579816
0.3734013868247121 0.6110942912620322 0.23658188525033277 0.4179443399705384 0.39280000278445015 0.014388204876530666 0.22803060028871783 0.10855782170018448
0.023691696929351427 0.07434048418031484 -0.0954907658557906 -0.08410791045933506 -0.01218041302257256 0.23777100398912743 -0.18949422312598097 0.21662613595212127
-0.3234504906975735 0.14491042816119246 0.04164781797527285 0.04765438954264022 -0.09695111545406772 0.029276233365319662 0.016598944118859652 -0.058945733620917165
0.10547867901722464 -0.21255684003797623 -0.1269140827356535 0.2894824209594492 -0.07070959368418162 -0.19723570436726223 -0.1807505569728476 -0.05478143262062779
-0.17520721404296077 0.2816294333752754 0.0072495879032025414 0.018799387273780575 0.05902866441372844 -0.034062000935278315 -0.0012501732178715156 0.16390299786912887
0.023185964694276917 0.2020456610886385 0.05913947947375197 0.06331104062999188 0.24697780444159173 -0.07597115236279305 -0.07005270384153953 -0.0015516183251546676
00000000: 5e2e a3d4 755f b7bf e0f1 afd2 7984 b3bf
00000010: 9e4e 659a c49d 943f 0c65 7252 0ae4 c53f
00000020: c6cd cadb 2f7e bc3f 5a7f 70b5 dca2 c9bf
00000030: 346a 3351 68d6 a63f effc 6273 fca6 c53f
00000040: a8de 4700 92d6 d03f dda7 ce43 4fa9 aa3f
00000050: 4b6c 996e 1a7d c2bf afb5 02a0 56ca c4bf
00000060: 07e3 d1ab e6cf cfbf 0619 c84c 86cd 903f
00000070: 9cfd 5316 58dd c73f 5007 7594 1068 d13f
00000080: 9afe d663 cfa6 d03f a4c2 bd02 2a88 d53f
00000090: 68c1 e47b e0c4 d13f 1766 afc5 e20e c2bf
000000a0: 7bba 1aa1 9db1 d6bf 0666 8b70 9772 d3bf
000000b0: 7b76 5d28 badc 69bf 1a49 e660 bdb8 c23f
000000c0: 276a 117d 5928 c13f 2239 36b4 02e5 7abf
000000d0: ee07 e40c 0a2b 913f 62f3 9388 8e3f c83f
000000e0: 03f4 8b17 f3bf 8ebf 0f67 40e6 d249 6a3f
000000f0: 5ed7 bd8e cf61 7abf 1451 e4f9 37c2 c0bf
00000100: 1d0f 9395 27b6 b73f e37d 6fd7 5680 86bf
00000110: f610 58ff 4e5b a5bf 23bb 5ab0 0bd6 ad3f
00000120: d10b fcb8 488d b0bf 1920 f31d dff5 87bf
00000130: a86d c677 1c75 c83f 82d1 288b 78c0 c63f
00000140: f1e7 41fe 9714 72bf da3e 4d7c d376 a33f
00000150: aae8 ccc5 b97d c2bf ecee 3d2c a973 a13f
00000160: cf64 a721 7659 ac3f 8493 a3c0 82d6 cfbf
00000170: 1415 04d6 bd34 d1bf 7963 4f34 d447 b5bf
00000180: 8065 fdbd acf4 9b3f 24dc b397 d9c4 d7bf
00000190: 8899 b515 cada edbf dd44 a5e4 bcc2 e2bf
000001a0: 444a 793e cfb2 a33f 784b 555e 34f4 c9bf
000001b0: ecbd a1ce ff70 c5bf 77bc fe28 bff7 d93f
000001c0: 6c16 f312 d279 c8bf 60c6 7e21 1558 a33f
000001d0: 1246 7aaf 9385 bdbf 81d3 328c 4698 a63f
000001e0: 803e 8212 0d51 c43f 4718 6b2a a060 d4bf
000001f0: e1aa 1e51 2ac9 b43f 515e 797f a213 453f
00000200: 6bba 9894 81c9 c73f 1d7a 5398 9310 9ebf
00000210: 98e5 3102 4835 bf3f c993 38cf 8014 863f
00000220: d953 9889 b139 92bf 4432 9ca1 d6a0 c13f
00000230: 7019 7be6 eda4 a6bf aec5 207a 88b6 bd3f
00000240: de67 b439 f0bc a33f 38da cf6a 1b10 bc3f
00000250: 5234 fecc 08c0 aa3f 7f2b 57cb ced9 b2bf
00000260: 4f5a ba59 782c cfbf 7658 7dc9 7534 85bf
00000270: d17d fd3b 0000 c2bf 90d7 7ecc 4989 c2bf
00000280: 3a48 20bb 4036 bcbf d6de be09 620a e9bf
00000290: bb0d 9ad1 8a7d e6bf 8df2 a1f1 c6df e8bf
000002a0: 46c6 6bea 5c2e dcbf a779 f8e1 c096 e0bf
000002b0: 8d5d acb6 15cf e1bf fb63 ae7f 2887 e7bf
000002c0: e9fa aa7d d2e9 e3bf 4964 10bc ff85 e8bf
000002d0: 1441 83d8 5b2d b7bf b633 d0a2 623f ae3f
000002e0: 592b b0ef d0ea cabf 28e7 80d4 8908 953f
000002f0: be13 02a2 0706 c83f 6d9a 7287 97a5 933f
00000300: 454e 5e3c 64f4 cbbf 4c03 7b66 9360 a93f
00000310: 92b8 c834 f7b6 b9bf f967 b0b0 c764 a53f
00000320: 6916 9286 d26c ebbf f1cb cda9 0d07 acbf
00000330: b398 63dc cf6d bbbf a3b7 01d1 3b58 edbf
00000340: da8c 5990 71af bebf a8cc 1f4e 1091 a4bf
00000350: 944f bacb ffef ecbf 743a 932f 8921 b5bf
00000360: 657f eff1 d904 cc3f 864d 4c07 de4b be3f
00000370: 868d 64cd 93a3 ce3f 4cb6 e27e c86c c13f
00000380: f4e6 d434 fc2a d33f 43ea cfa0 dacd b73f
00000390: 70c2 29a5 ea83 c03f f4b5 a5bc c4eb bd3f
000003a0: a28c e25e b8a4 ca3f 8f53 cca3 24ea cf3f
000003b0: acd1 8223 ea5e c23f 9f7f 1cd3 15ce d13f
000003c0: a78e c369 7ed1 cb3f 6410 348b 55ef b63f
000003d0: a18f 27c1 0167 b23f 9302 b6fa 290a c03f
000003e0: 0c8c e08c bee4 a23f f9fe ba66 63f5 b23f
000003f0: 76ae 2356 5c9e a0bf 10d6 ed2b c3c5 9fbf
00000400: a565 6006 4138 a03f 8581 e37b 3afb 62bf
00000410: a2b8 617e b641 a23f 49b9 ec0c 17b1 98bf
00000420: 477d 1e52 69c8 d03f 01d7 2f16 99ef d0bf
00000430: 3cae f61c 2fdb d1bf 469a ea82 6e44 c33f
00000440: f236 a4e1 f11c 903f 246d 0fa8 b73e af3f
00000450: d31a a392 4d61 a5bf 9c10 d24c c6f6 c43f
00000460: 3a44 277f d57b acbf e644 830c 4a94 d33f
00000470: 7945 0b22 22be b5bf 34ff 1fb6 0574 c33f
00000480: 5d06 b918 1d37 d0bf a550 03a9 64f3 6e3f
00000490: b540 3da6 4b61 a93f 2237 dbd4 4f9f c7bf
000004a0: 2db0 64a3 6723 b23f 1eb1 b34e 1501 b7bf
000004b0: ec0d 1738 1905 d63f 6c7a 1e85 f5d7 bb3f
000004c0: 23df 3cbd cf33 b53f 5281 905f 3579 d8bf
000004d0: 9a98 7553 9fe3 d2bf c8e6 28a4 f6c1 eebf
000004e0: a87c 5b96 0006 c3bf 932a a226 0cff f1bf
000004f0: 872b 54f1 a7c9 b9bf 8d34 e498 bd5d ebbf
00000500: ee0b 9c6d 574d ebbf 57d2 926e aa9b e9bf
00000510: ede6 5ea0 8efa dabf 8cf6 39d9 640e a43f
00000520: a56c f9f9 ebc5 b53f 5934 340d d536 d5bf
00000530: fa18 90dc 4496 9b3f 70fe 76c0 f1c6 9abf
00000540: 3f2e 3442 1ffb de3f 6b80 9a00 2398 613f
00000550: 90ec 811e 3634 8a3f fd49 063e 85f6 d5bf
00000560: de1f 5b94 71ec 80bf 1037 8f9d f4b4 a23f
00000570: 18c6 5d72 a3a4 b3bf 3e45 d9a5 cb6b be3f
00000580: 121e 2627 1513 8a3f 9d21 ebd2 548f 9e3f
00000590: 1b1b 0c3e c2df a43f 78d1 da9e 6cea c0bf
000005a0: 5a16 5fd9 f47b ccbf 9e8a d3a4 ab31 d0bf
000005b0: 40eb eb8f 460c 90bf e2ff 54c1 7c49 cdbf
000005c0: 5508 2dc9 fdce cbbf 6587 c285 d130 743f
000005d0: 2406 4784 b7cb 39bf 70e3 e16f 137c 8a3f
000005e0: fa74 0bcb be57 b23f a687 4c1c 4682 c93f
000005f0: 9aba 557f 28a8 c23f 379d a083 f01c ce3f
00000600: 8047 816d 9ed2 c13f c6e7 c662 9482 d23f
00000610: 2c5b 6994 e86e c53f 00b8 6fd4 192e c53f
00000620: 921d 1d24 a828 d43f 7e39 07c7 98a2 c33f
00000630: 7a11 7a5a 5bea bc3f 5f4c 2d05 a8b3 be3f
00000640: a064 7145 0e30 b03f 623a ec84 a93c c6bf
00000650: 3971 635e ebf3 ad3f db7e 6f40 0837 bbbf
00000660: a7fc 6f75 beb4 b0bf a162 9fa6 8f23 acbf
00000670: 3d39 59f8 8f30 60bf 9949 12fb 37d5 cd3f
00000680: 1f5d 2cee cee5 d73f 6bc4 779d 158e e33f
00000690: 41f4 fcb1 5048 ce3f 7331 ee9d 99bf da3f
000006a0: aefc 749f a223 d93f ee8c 242b 9077 8d3f
000006b0: e117 5d51 1b30 cd3f f962 ed05 72ca bb3f
000006c0: 7444 fedd a242 983f 03c1 525c fa07 b33f
000006d0: 5dad 6b34 1572 b8bf 47fb c194 1888 b5bf
000006e0: 4276 ab5c 0bf2 88bf 7802 09bf 476f ce3f
000006f0: acb2 8dc1 5841 c8bf 5ec5 afbc 67ba cb3f
00000700: 70f5 daaf 69b3 d4bf 6b9d e6c6 6c8c c23f
00000710: 229f 4ee0 dc52 a53f 5f66 31f9 2766 a83f
00000720: d599 2fce c9d1 b8bf 549c 6ac3 96fa 9d3f
00000730: 01f6 8d48 50ff 903f 62f8 479c 222e aebf
00000740: 11e4 cd94 a600 bb3f ff89 4002 1035 cbbf
00000750: 2b30 607d b83e c0bf 526a b246 e186 d23f
00000760: f812 6320 061a b2bf 7c32 ee01 053f c9bf
00000770: 3051 7791 d522 c7bf 2837 11db 4f0c acbf
00000780: a73c 2ba3 306d c6bf 3905 7c75 3706 d23f
00000790: 9f7c 426f beb1 7d3f f657 1a86 2540 933f
000007a0: aff6 5d4e 0139 ae3f 9d4f 1b18 9370 a1bf
000007b0: ed2a 7245 9b7b 54bf e039 c8ff c5fa c43f
000007c0: c03e 5ac0 0fbe 973f cf52 56d9 a1dc c93f
000007d0: 4f05 7ca4 8747 ae3f 5c46 fb00 2735 b03f
000007e0: fe0e 75fc f79c cf3f df6e d66e d872 b3bf
000007f0: d2eb fe57 f9ee b1bf 2d2f 987d f56b 59bf

conv1.bias f8 [16]
-0.038707711995316474 -0.28900889653965234 0.2857858944581157 -0.34696731117841567 0.2081944213955303 0.1956798301819701 0.3807562370261599 0.29177446486986425
0.18281432667215697 -0.3894705018242602 0.15882568147127823 -0.060421392346931516 -0.0764717113574974 0.04822709158071417 0.33907434286599053 -0.08658028643324525
00000000: f8e8 3e4a 7fd1 a3bf c203 b92b 1f7f d2bf
00000010: 07c4 96eb 504a d23f dfb5 9261 b634 d6bf
00000020: b23d 8d63 1da6 ca3f 9427 8f63 090c c93f
00000030: d89f 7168 4f5e d83f 4a22 1bce 6eac d23f
00000040: d209 26b9 7566 c73f c9e1 05af 15ed d8bf
00000050: 0e8f d761 6654 c43f eabb 3780 8def aebf
00000060: 977f 596b a693 b3bf 64a0 3daa 38b1 a83f
00000070: 6b6a 61df 64b3 d53f a287 b52a 202a b6bf

conv2.weight f8 [16, 16, 3, 3]
0.11599649357071341 0.16049851784199287 -0.09959939478409506 -0.1344311733869854 0.024572065781271118 0.11946990519123617 0.04654094550915738 0.09522858016280034
-0.02735360639578135 -0.09165776712429795 0.048368088387508834 -0.05984477262348731 -0.14686925803689746 -0.307910524440008 -0.0980699771394917 -0.15732849866853582
-0.022445239393457442 -0.12290252021603588 0.03755665103225542 -0.22547410402599394 -0.18226218830102558 -0.07721848790086401 0.010254152401334616 -0.14485530104938243
-0.1408832778329603 -0.2876444993316228 0.03512555499856866 -0.24571077832106886 -0.08137325536652627 -0.30389535023256453 0.06166859413484071 -0.006218962739735273
-0.01135635199116112 -0.2342391193825922 -0.022675488370899426 -0.04294434717019779 -0.1521322730474144 0.2565631831371762 -0.15348776657932717 -0.14980426727999568
-0.13010913562785578 0.0947303406269445 -0.006643944414332801 0.23649392353635268 0.0004086853230073687 -0.038764243280303326 0.05991521761588488 0.09912845666509532
0.05976778840203539 0.10488968691330529 0.031207251361844615 -0.03381716188873476 0.005070130561634497 0.07106819121585657 0.14238266491157334 0.020097198106230625
-0.010645672011441365 0.21382726015603684 0.03660798752684313 -0.1566071833918632 0.25792586664910094 0.1337094662671015 -0.04591310370689022 -0.17346683224589823
-0.033352496408126424 0.08113528705454416 -0.11380594175406213 0.0036723583552925026 0.09656341067405495 0.0742748989187387 0.08997792877507434 -0.05856701574125046
-0.05754725256727849 -0.009749388091871355 0.06125773968417097 -0.07505252739591653 0.06796370124205456 -0.09085009073811709 -0.13737548344608427 -0.06773662126890327
0.036530030309911955 0.25572165182714046 -0.014314176800799086 0.08646065443657895 0.03188268444233332 -0.05738961995631527 0.06200155963786002 0.01158418586159315
-0.22206464410228105 0.007212286796251061 -0.07837081694552982 0.12514522632204145 -0.1341778168388567 -0.16328669441078447 0.192441336270468 -0.19587080034175242
-0.22405306947060552 -0.18079013233538446 0.14068878226771783 -0.15969173065676284 0.10528589334179794 0.047629354686069894 -0.28117943120792865 -0.10405545572802324
0.022059693781488286 0.16395343361886633 0.07321000104683988 0.028368606243413877 0.042371878007722165 -0.026755351471277448 -0.2353294318032556 -0.11271135970397621
-0.0783862275790557 0.06522420013091947 -0.11449097666887725 0.00869741875948739 0.014619944601866722 0.01502259014492597 -0.008034120990643013 -0.1617428197687266
0.1736360636567083 0.27688975575611413 0.07981279484798529 0.13318558042414683 -0.020492725653584676 0.21797418056606377 -0.05131939918626978 -0.013947259262729389
-0.1464990995349491 0.10435538319616927 -0.04663728591534399 0.09541943471336285 0.02339390303106141 0.060852599764363025 -0.005594376845898189 0.09261121443047954
-0.21179492476334277 0.1388908348260667 0.11967825618275506 0.06568226277082294 -0.04672183286239627 -0.02885335083794803 -0.1356743759210571 0.18018234001684783
-0.08417065143225771 0.07818636833638863 -0.019436309656303524 0.15915839657069927 -0.07199816114106111 -0.09466041013566766 0.06310288834461535 -0.01836182323380674
0.09960117968890482 -0.1951973262935499 0.05244446088431364 -0.0701568486514526 -0.18805459123500978 -0.0986210596352758 -0.2171480706188072 0.07326402157956675
0.2548234340533243 -0.18221821753340886 0.2650821840653457 -0.07006227755724835 0.017779688954042496 -0.06109923467079878 -0.07918945849611173 0.08811631463747938
0.05544469247696249 0.02128108744428605 -0.11677477933632141 -0.029411823154352777 -0.13401418212815983 -0.1759476752456608 -0.12430139824179698 0.14450931210913595
0.06400695439277124 0.12259364360685136 0.2121392914317318 -0.10544286470757823 0.19977572667802446 0.04579902603859521 0.14888919938995296 0.04333015581673568
0.03466905875025576 -0.11260189971048033 0.19133400477588697 -0.03391657467615858 0.020236704580618492 0.2698957508125473 0.045233016839412755 0.15404758941022492
-0.027463305951882955 -0.026385937531873776 -0.09773496182432231 0.07146937077064065 -0.0041624512757511 -0.002519724857031665 -0.266978021265969 0.1501158027775559
-0.24900860615235582 0.08109292057896415 0.00673164285254985 0.07610909670112158 -0.12650831237538887 -0.0612562594041777 -0.05723701712609727 0.1338873890613674
0.07281840211517619 0.12448685204821669 -0.03151457339049165 0.007687918463746145 -0.04637755171958659 0.017565238243201307 0.10772238098886316 -0.028280077937186038
0.15128622158711041 0.16533442890271738 0.33333554017745604 -0.12471700333782434 -0.008789198050446204 -0.13760180671534736 -0.004122734400405361 -0.13886481952786264
0.0025056005595310528 -0.3077337439455382 -0.12689778817749228 -0.2817048548828639 0.006525064431729191 -0.0049758454009134695 -0.009495154619210982 0.03339151962755057
0.012736334849988106 -0.020014245290411656 0.2382812792257191 0.1073385012305472 0.16163804348847488 -0.07857058223874396 -0.06391020964553557 -0.084280951747898
0.05347441297795621 -0.1309152280133105 -0.015070317924067872 0.14489092777318896 0.05127288093277888 0.058863881005409166 -0.020233549658828818 -0.06044767605969976
-0.12947770424995156 0.04150478945985865 -0.19190071397428818 0.20260820735748164 -0.030964918938687688 -0.07436934066104126 0.07745239293782129 -0.12163250493066717
00000000: 513e 563a f2b1 bd3f e00a 9826 378b c43f
00000010: 9790 4c8f 587f b9bf f047 a16a 0a35 c1bf
00000020: fbef b36b 6b29 993f 7b0f a767 9495 be3f
00000030: f803 c6fd 36d4 a73f 1099 7175 e660 b83f
00000040: 0714 9773 9502 9cbf 7f26 3928 e276 b7bf
00000050: 00ba 96bb b3c3 a83f 3045 825a f9a3 aebf
00000060: 8533 07a2 9ccc c2bf 4819 2458 ceb4 d3bf
00000070: fe98 8830 1d1b b9bf 4c4c 411a 5723 c4bf
00000080: 214a 9584 e2fb 96bf a181 ec20 8a76 bfbf
00000090: a894 dc17 a03a a33f 567a 71df 55dc ccbf
000000a0: 3070 060d 5e54 c7bf c547 2e40 97c4 b3bf
000000b0: 6d09 b209 2100 853f fe64 5456 9e8a c2bf
000000c0: b144 6c97 7608 c2bf 353b 6079 c468 d2bf
000000d0: f605 f20b fafb a13f 02f4 9466 7373 cfbf
000000e0: 3f7b 91ae e0d4 b4bf f0f0 a97b 0573 d3bf
000000f0: 5fb6 ffa5 0693 af3f c6b6 5019 0e79 79bf
00000100: b530 3bc3 ff41 87bf db95 9826 8cfb cdbf
00000110: ab36 e543 3e38 97bf 7fc3 492d cdfc a5bf
00000120: 10d0 b300 1279 c3bf 1ca3 3bfc 876b d03f
00000130: 5cab e5b4 7ca5 c3bf d668 6246 c92c c3bf
00000140: 255b 3789 6aa7 c0bf b781 ee62 3f40 b83f
00000150: 7eb3 9d3f ae36 7bbf 444b a5d1 6e45 ce3f
00000160: 6c7c bf18 9ac8 3a3f 2a43 492a e8d8 a3bf
00000170: 2aca 6218 35ad ae3f fac2 7a87 7b60 b93f
00000180: a8fc 1431 e299 ae3f 9bf6 faee 0cda ba3f
00000190: 341b fd2f cbf4 9f3f 3318 b6a8 7b50 a1bf
000001a0: e2c0 2dcf 6ac4 743f add7 0e65 8631 b23f
000001b0: 1f01 a85c 9839 c23f d212 6e22 5c94 943f
000001c0: ed8d 10e9 65cd 85bf ed85 ae10 b15e cb3f
000001d0: 507c 663a 48be a23f 104d 7e45 b40b c4bf
000001e0: dd38 837e db81 d03f 5233 644c 641d c13f
000001f0: b705 c21d ec81 a7bf bdea b741 2934 c6bf
00000200: 3f2f a012 9413 a1bf 356a 733c 48c5 b43f
00000210: e996 ecdd 6222 bdbf 7c24 2061 7e15 6e3f
00000220: 21d5 d532 61b8 b83f 4e0a c505 ae03 b33f
00000230: 1d65 7325 cb08 b73f 314a 77f2 7efc adbf
00000240: e791 805f d576 adbf 18b5 15b8 7cf7 83bf
00000250: e70a 24a9 2c5d af3f 7ac9 a576 a436 b3bf
00000260: 4a55 26b2 1166 b13f 7e10 8f98 f341 b7bf
00000270: d728 5614 8595 c1bf 136b 17ed 2f57 b1bf
00000280: 0d84 016b 10b4 a23f b681 de58 be5d d03f
00000290: 1529 d449 c050 8dbf 2324 3213 4922 b63f
000002a0: ee1d fa5d ed52 a03f 7b3a af19 2c62 adbf
000002b0: ff25 e41d abbe af3f bd1e 691b 73b9 873f
000002c0: d632 0240 9d6c ccbf 6d55 b57e a18a 7d3f
000002d0: 17ea bd1f 1c10 b4bf 32df 263f c204 c03f
000002e0: eef5 951b bd2c c1bf c8e1 2e12 94e6 c4bf
000002f0: c010 d7ee eaa1 c83f 28c6 da5c 4b12 c9bf
00000300: d7ea f85e c5ad ccbf 61f5 e88c 2124 c7bf
00000310: 3780 600b 1702 c23f 5664 4e54 c770 c4bf
00000320: 3017 a22c 04f4 ba3f 329a 69f1 df62 a83f
00000330: ce23 5603 d8fe d1bf 0a7e 52db 60a3 babf
00000340: 79b2 67fd d096 963f 3edf ba15 6dfc c43f
00000350: 5b7e 3c00 e4bd b23f c4ba 31f0 a80c 9d3f
00000360: b564 a04c c4b1 a53f f19c 3f3e c165 9bbf
00000370: a4cc b05a 461f cebf 13f7 d0d3 a6da bcbf
00000380: e2aa e8ab 1e11 b4bf b955 787e 88b2 b03f
00000390: 7cdc 7ad8 474f bdbf 498c 0dc9 f3cf 813f
000003a0: 228c 79bf 0ff1 8d3f 2446 fdea 29c4 8e3f
000003b0: ad5e 4177 3174 80bf 137f a21c fdb3 c4bf
000003c0: fae6 67df b439 c63f dd79 64cf 8fb8 d13f
000003d0: 06a9 ac7f 9c6e b43f f738 1ca0 390c c13f
000003e0: 70c2 f389 0bfc 94bf 90aa 73f4 93e6 cb3f
000003f0: 4a90 4f4a 8946 aabf e3d1 3773 6190 8cbf
00000400: f0b1 b284 7bc0 c2bf 5435 fdcd 08b7 ba3f
00000410: 4fab 8fa3 d7e0 a7bf c527 7f77 686d b83f
00000420: 6cdd c641 92f4 973f e8a1 ba6b 1228 af3f
00000430: 379d 8319 21ea 76bf ccc4 3859 5eb5 b73f
00000440: 869e a899 181c cbbf 5963 a5c4 2cc7 c13f
00000450: e7e4 58f4 3ba3 be3f 9328 8782 8dd0 b03f
00000460: 4e6c 4e90 eceb a7bf 3c7f ea98 bb8b 9dbf
00000470: 2b3a be27 c75d c1bf df34 d804 3710 c73f
00000480: 7c3f 2f33 358c b5bf c36f ff96 0504 b43f
00000490: 88a4 50a9 1ce7 93bf 77d5 1366 4d5f c43f
000004a0: 3c16 79b3 786e b2bf 3336 c225 aa3b b8bf
000004b0: bb27 b9c9 8227 b03f bdf3 2219 71cd 92bf
000004c0: 5928 6881 767f b93f a445 59da 39fc c8bf
000004d0: 2f7e b518 00da aa3f a364 8c9a ccf5 b1bf
000004e0: 28c7 9b3f 2c12 c8bf 7993 d4d1 3a3f b9bf
000004f0: 5240 d90a 82cb cbbf 8d5d a850 6ec1 b23f
00000500: 36dc e0f2 064f d03f c14c 8532 ed52 c7bf
00000510: c106 d443 1bf7 d03f ffa9 caf6 99ef b1bf
00000520: 47d7 5cba d634 923f fc83 711d 6648 afbf
00000530: 82c2 6da6 c245 b4bf 58ad 9c71 ca8e b63f
00000540: 00c5 d929 3f63 ac3f 66d7 629a b5ca 953f
00000550: 1043 3fb2 f3e4 bdbf 8635 410a 221e 9ebf
00000560: b366 b870 6027 c1bf 3861 7e13 7485 c6bf
00000570: c8ab 4b68 37d2 bfbf fbf3 bcf8 477f c23f
00000580: 4e61 d57f c262 b03f f328 fd09 4c62 bf3f
00000590: e3ac 725b 6127 cb3f 6ffe 83b7 4dfe babf
000005a0: a8f1 4e42 4092 c93f a180 0c4e f872 a73f
000005b0: 9dc1 0d21 cd0e c33f 8bb1 53c4 5e2f a63f
000005c0: 36e9 0793 24c0 a13f 1357 b964 7ad3 bcbf
000005d0: aa04 90f6 a17d c83f ec89 0d66 835d a1bf
000005e0: 1008 6941 eeb8 943f b16e c4d3 f845 d13f
000005f0: d5a4 0c30 c828 a73f e1b3 45d7 d4b7 c33f
00000600: 800f 9d43 571f 9cbf fb43 184b ea04 9bbf
00000610: fa15 b690 2805 b9bf 5127 2012 d14b b23f
00000620: 80d4 9b81 a50c 71bf f747 63fb 3ea4 64bf
00000630: e9a3 85fb 2a16 d1bf fd6c c59f fe36 c33f
00000640: a267 ec95 83df cfbf 03e3 d271 81c2 b43f
00000650: c49e 669e a392 7b3f 4369 42c1 e27b b33f
00000660: 7d87 29a4 6c31 c0bf a4e9 a1fd fa5c afbf
00000670: 4cb7 5a99 2b4e adbf 77c5 aed2 3823 c13f
00000680: 67b4 a10f 3aa4 b23f ac3e 54ce 5ede bf3f
00000690: cb7d 1e9c ad22 a0bf e585 04e6 5d7d 7f3f
000006a0: c2ef ce67 ccbe a7bf d938 342f 9ffc 913f
000006b0: acf8 64a7 b193 bb3f e863 79e7 73f5 9cbf
000006c0: 86a9 06cf 585d c33f fe1e 85b6 ad29 c53f
000006d0: d806 ea96 5e55 d53f ea50 971a 74ed bfbf
000006e0: 8255 7a31 1200 82bf 4b41 db9d ef9c c1bf
000006f0: 1ca5 b716 00e3 70bf 4bf3 3789 52c6 c1bf
00000700: b686 b80e a086 643f 56ca 87df e8b1 d3bf
00000710: b31a 14cd 2f3e c0bf 362a b6cc 7307 d2bf
00000720: 10c8 6aa5 06ba 7a3f 191f 4554 8d61 74bf
00000730: e9d3 7a14 3272 83bf 6b34 8779 b118 a13f
00000740: 267c 36ed 8115 8a3f e9df e743 9d7e 94bf
00000750: 4d02 c33e 0080 ce3f fe08 6338 897a bb3f
00000760: 3c45 492f 8eb0 c43f 23a1 24a1 331d b4bf
00000770: 44de 4e64 6b5c b0bf 83d7 6ebb 6f93 b5bf
00000780: 7384 d38d ff60 ab3f 65ca 6e87 d4c1 c0bf
00000790: 7d59 fed4 2fdd 8ebf daef 2232 c98b c23f
000007a0: 5954 8e65 7040 aa3f bef0 aa17 6823 ae3f
000007b0: f942 4488 1ab8 94bf 895a 976f fff2 aebf
000007c0: 2948 a8b4 b992 c0bf ca04 b7a2 1d40 a53f
000007d0: 839f 4cdd 3390 c8bf 7433 40d4 10ef c93f
000007e0: dfe9 a888 44b5 9fbf 6ed9 f67d de09 b3bf
000007f0: d335 aa86 ebd3 b33f 4bca cece 4e23 bfbf

conv2.bias f8 [16]
0.0559704610562025 -0.29850929163148077 -0.05516855062010193 0.3620683432838479 -0.061820347717790554 -0.13628939970337156 0.006800364677363612 -0.2758337529745728
-0.022469055028543978 0.001788386455268625 0.32140866777522775 0.25500125625154096 0.09489784429805365 -0.2616722779063979 0.27272467086791674 -0.1911636156390714
00000000: 8e8e 8e07 29a8 ac3f 5eff 46b7 c61a d3bf
00000010: adb3 5c61 0d3f acbf b98b 54b3 202c d73f
00000020: 81bb 59a7 eaa6 afbf e63b 4259 ee71 c1bf
00000030: 3f0e 3efe b2da 7b3f ae28 0a9d 42a7 d1bf
00000040: 7517 14c2 2002 97bf e398 a155 094d 5d3f
00000050: cdb6 2fa9 f591 d43f a183 02ca f051 d03f
00000060: 1c96 b8a1 394b b83f ea2d f814 3dbf d0bf
00000070: 0c2a 8c2d 5274 d13f 356e ada2 0c78 c8bf

fc_1.weight f8 [128, 400]
0.00938543680555469 0.048567539894624936 -0.0778567008141988 -0.06269433252838255 0.15567539303442796 -0.017161131046622355 -0.18611609796436296 0.0361094797537484
0.09108294612330595 0.0206826275351563 0.06789262527918573 0.015326450751694818 0.10373456690245776 -0.03950801654302886 -0.13327481862035886 -0.03086041323289147
0.025951352710018014 -0.029245674623904594 -0.009061716790830093 0.0007265898222446924 0.002217955899621515 0.04476542517785842 0.016137637923490884 0.03595460382934939
-0.10963277295255072 -0.13152921023915107 0.10845677860285402 0.029760553080616658 -0.0702954883822707 0.087075209424682 0.08789320829623813 0.10851999243911942
0.002877269509266508 0.08257712682262583 0.04123811637085756 0.09278954638977588 0.09278928688367949 0.12737855952497826 0.005886516633117602 0.010790015485139508
0.15622633003426387 -0.08727532783591299 0.019330406808080274 -0.03179555320350311 -0.19607387163130174 0.07193320436594533 -0.05462992697304134 -0.023951099593165204
-0.035950547094460675 0.07070014209525506 -0.043703462890825495 -0.08834298517141136 0.1513254437477508 -0.03877548249823859 -0.017688934149648002 -0.03106862444953424
0.14206936563924347 -0.11171323388329045 -0.020025409154120526 -0.13233391810265055 0.005828282226596337 0.06166236543526301 -0.0202021190652575 -0.01649952248672382
-0.03147286891278144 -0.07543556151045358 0.071973933547928 0.004849654448117012 0.15686256191235923 0.02165750751054585 -0.12546904915962034 -0.011691395637027008
0.07785046659111347 0.06224167341068653 0.6268745783783586 0.07725642666049197 0.0419848122590147 0.04023845468125566 -0.015070521407667284 0.038804331289835375
0.08783571165586389 0.0217302579552167 0.013877751375212605 0.021228954061175895 0.03586679268541031 -0.027616362908971497 -0.04770156405672033 -0.1668381681775032
0.02049101580406044 -0.012414238622422654 0.08536180641736613 -0.05902155611211418 0.0070010714486610694 0.10139223053007886 -0.05223809568044404 0.023866391979936105
0.051236443385501956 -0.1432078545812386 0.062006330973033874 -0.1333066164502614 -0.07550434262893997 -0.06541284432822034 0.10399852853734584 0.06425286254313815
0.054137526704316694 0.021177221122421073 -0.03794696307778256 -0.09686092759537168 0.058868536517544534 0.03973248149313758 0.09700607072940605 0.18190405755570588
0.007339368143138239 0.08781355485836503 -0.0391845687000508 -0.15955018004372806 -0.05238697283408982 -0.0784146278883537 0.002545491871787056 0.06970416393539364
-0.01971061269800528 -0.020203006216053396 0.02236250980471419 0.14235130149052078 0.10912244862167512 -0.036219678564656084 0.05728868128927424 -0.07330748552241832
-0.10717797412444749 0.1423374811042422 0.039613300217885165 0.04661512775818234 -0.04058358324748815 -0.010011101856157069 -0.1607474405192983 -0.06920769944287822
-0.01740429788761585 0.03478348131271636 -0.018947715271993095 0.022835520007205998 0.20810771560787694 0.11293634930033881 0.04802263860548765 -0.16755787471718958
0.06342642557573899 0.14686387324261843 0.010336324002751586 -0.004098275563837287 -2.1400809649300117e-05 0.0186986169720768 0.015857328291342447 0.05898010408683298
0.14483881510645177 -0.053352037248367574 0.06579749934789023 -0.0794706495735709 0.01603350502252472 -0.07547463486743203 0.0696915906684125 0.09395015674073291
-0.022024492734280674 0.024183775884655954 0.043827364277893945 -0.011749964813245809 -0.07892800326585278 -0.038389776043002706 0.07952378149499603 0.11342683952217952
0.043998245625579205 0.011188686198817122 -0.04136928479499195 -0.017977827310983647 0.010461781894358266 -0.061413093497440195 -0.5508443436379644 -0.13214327346263383
-0.023444429958031424 0.02656060676522279 -0.16666291459810556 0.011675533869846958 0.029751545973909263 0.032258123186063144 0.0046464133410921765 0.1641069719482706
0.08356562145874884 0.1675333874331622 0.10028815678243896 -0.0023851708136187876 -0.0057652910971030605 0.05496386450126548 0.1330974167485167 0.006295248508891257
-0.05886967836709569 0.10986194536349829 0.006160955852000926 0.10724945359420433 -0.04775006016466416 0.16922067502608212 -0.06668996772066797 0.02813642870618934
0.028096029734393388 0.06969760449418812 -0.07186490534663142 0.05488588765334676 0.00976188657266791 0.1257240156667302 0.052989006725413734 -0.05136536998564513
-0.008668505039928507 -0.029547837692169246 0.0021045728335921336 0.09336260092597813 0.05209407043125175 0.017905763797156728 -0.010015202998795037 0.03596984293216837
-0.05565395290028462 0.23927089354340939 0.042367865881609866 -0.06562367276695993 0.05764214919286867 0.13637171224601857 0.20004524790165773 0.0692520145341839
0.0035621009027439216 -0.04820911280115704 -0.06642972057068917 0.03357593655848139 -0.08005248244568343 -0.12738591758879148 0.052485344528291566 0.021607449157020186
0.13120687525711217 -0.050616709404003785 -0.024930255123829567 0.03189329029288335 0.10916363659502881 0.1755070519801964 -0.013206144062980074 0.08456662112850521
-0.18120963469042575 -0.10914274517526089 -0.045937525021708885 0.0022534508581947086 -0.07770347195418928 -0.34385004955824267 -0.19072705840737333 -0.03819284508072835
-0.1797938059453266 0.04349011256522547 0.006691362913190562 0.11136880375766105 0.10869730376534543 -0.09555920080741816 0.02182012845866542 0.02922559750428525
00000000: b8b6 1b01 ac38 833f d23a fd36 d8dd a83f
00000010: 1f7d c5af 6aee b3bf 9a9c da5b bc0c b0bf
00000020: eaf9 efd8 2bed c33f 2c32 6e02 b092 91bf
00000030: 9e0e 02fd a6d2 c7bf 7860 3c15 f17c a23f
00000040: 7aab d242 3651 b73f 2b75 6fa3 d32d 953f
00000050: 19b4 363d 6961 b13f 8532 f065 7963 8f3f
00000060: 498f 4f3c 598e ba3f 85da f60d 653a a4bf
00000070: 3569 ad35 260f c1bf 6325 4e46 df99 9fbf
00000080: 5cb9 b4cc fd92 9a3f e08b 3c00 94f2 9dbf
00000090: b00b 190a f38e 82bf 2243 17c3 13cf 473f
000000a0: 4ce7 b001 642b 623f a0c8 426a 7eeb a63f
000000b0: 62de 768c 6286 903f f7e5 2c4f a468 a23f
000000c0: daa7 66b6 e410 bcbf 0312 39fc f2d5 c0bf
000000d0: 1cf7 20cd d2c3 bb3f 43bb c4e8 8c79 9e3f
000000e0: d67f a897 e2fe b1bf dc77 c598 8f4a b63f
000000f0: 7740 2c57 2b80 b63f b4f9 7c5a f7c7 bb3f
00000100: 45e2 354e 1292 673f 7ecf 194b c623 b53f
00000110: e8ac 5292 291d a53f 809e 2743 0ec1 b73f
00000120: 10a6 95e8 09c1 b73f 1589 afcd f04d c03f
00000130: a95a d3c6 751c 783f 165a 0e5d 1319 863f
00000140: d7b8 2271 39ff c33f 7a8c cd06 ad57 b6bf
00000150: 9b7f 3ca4 59cb 933f eca4 55ba 8147 a0bf
00000160: 68d6 20d9 f218 c9bf 528b 3fe8 366a b23f
00000170: 4cd3 762b 74f8 abbf 1dd3 d215 a386 98bf
00000180: 5289 1630 1c68 a2bf fd25 1f8e 6719 b23f
00000190: 4014 addf 4c60 a6bf d768 2458 a59d b6bf
000001a0: ec81 f9d3 a15e c33f 50e0 6e4a 61da a3bf
000001b0: ff01 b246 0c1d 92bf 1213 c517 74d0 9fbf
000001c0: dd8d 9737 542f c23f 3f23 0f0e 3d99 bcbf
000001d0: bbb5 9f75 8a81 94bf b682 335d 51f0 c0bf
000001e0: 59a5 e198 65df 773f 3b7d e0a5 3592 af3f
000001f0: 04dd c742 ddaf 94bf 219e eb35 40e5 90bf
00000200: 5f25 623d 361d a0bf 2e8e a4b5 be4f b3bf
00000210: 56b9 c03a e26c b23f 7267 0634 3bdd 733f
00000220: 93af b08a 1214 c43f 01f7 e1b9 622d 963f
00000230: 2580 66ab 5e0f c0bf f0b9 3e8f a8f1 87bf
00000240: 5eb7 fc17 02ee b33f 7f92 7eff 23de af3f
00000250: d985 9a46 5b0f e43f 7ba2 e9c1 13c7 b33f
00000260: db8e 2987 087f a53f 738e cb7d 229a a43f
00000270: bb04 a324 4bdd 8ebf fc7d aa4b 29de a33f
00000280: 2f9a fbb4 667c b63f ac54 01ed 7440 963f
00000290: f071 6342 f06b 8c3f 4924 affd 0abd 953f
000002a0: 9747 31db 215d a23f 1b2f 1dbe 7647 9cbf
000002b0: 71ee 2ee3 566c a8bf 9c01 06fe f35a c5bf
000002c0: 6306 f6ca 98fb 943f 8bb7 1ae7 a26c 89bf
000002d0: a8db e376 45da b53f 0868 85ca 1238 aebf
000002e0: 3618 8bce 27ad 7c3f 69f7 315a d7f4 b93f
000002f0: 030c 1ba1 f3be aabf 9cff 1b74 6e70 983f
00000300: 047e 68c1 a93b aa3f 9376 fa8d a254 c2bf
00000310: e027 5937 4bbf af3f d744 fff2 3010 c1bf
00000320: 451a 4caa 4054 b3bf 96c7 206b e5be b0bf
00000330: ea67 e6c6 a59f ba3f cb12 4c27 e072 b03f
00000340: 1edc 5cf5 e9b7 ab3f 8957 9040 7baf 953f
00000350: f09d cdca c86d a3bf c847 48b4 e0cb b8bf
00000360: 8064 364e 0424 ae3f f132 34d9 d057 a43f
00000370: d1d7 4bcd 63d5 b83f 1211 1bd5 a148 c73f
00000380: 438c 5ea2 e20f 7e3f 361e 43fa f27a b63f
00000390: cc2f 26f2 ff0f a4bf aaea adea 236c c4bf
000003a0: 6722 1e1e 77d2 aabf 1df9 4e26 fb12 b4bf
000003b0: a00d ee8a 48da 643f ac5e 7fd0 21d8 b13f
000003c0: 302f b0d3 042f 94bf 7953 eacb 18b0 94bf
000003d0: f926 12a1 32e6 963f f4ef 3844 9138 c23f
000003e0: c3eb 16e4 72ef bb3f 094c d0bd 628b a2bf
000003f0: 5205 2329 f154 ad3f 73eb de84 47c4 b2bf
00000400: 264e b705 0470 bbbf 013b 2b55 1d38 c23f
00000410: e74a d8c9 3148 a43f 42c5 7022 f0dd a73f
00000420: 64db 9a15 5fc7 a4bf 878e 8d58 b380 84bf
00000430: 8619 f943 5f93 c4bf 3a12 bd85 98b7 b1bf
00000440: f7d7 f2a8 6ed2 91bf c0b8 5bf5 23cf a13f
00000450: 9761 b5a5 0767 93bf 1cf0 78ce 3162 973f
00000460: 7e61 4a0c 46a3 ca3f 614b c686 65e9 bc3f
00000470: c66f 8e5c 6c96 a83f fa7d 0c54 8972 c5bf
00000480: 4acb 8cd7 b63c b03f 613d 4576 6fcc c23f
00000490: 61e2 6bec 352b 853f 374f 4478 5ac9 70bf
000004a0: d203 da70 bc70 f6be 2d83 80f1 ba25 933f
000004b0: 5e2b a749 e73c 903f c2d2 55e4 a332 ae3f
000004c0: c36b 090b 148a c23f a13c 504e f550 abbf
000004d0: ce96 dbdb 1ad8 b03f 930d e940 3058 b4bf
000004e0: 5415 d94e 166b 903f b2e3 6e40 4e52 b3bf
000004f0: fb1f bade 4ed7 b13f 47d0 a712 1e0d b83f
00000500: a9d6 04b0 968d 96bf 09d5 12ba a1c3 983f
00000510: 45a3 7c50 8a70 a63f 22fb d094 5d10 88bf
00000520: 7ef2 c328 a034 b4bf f9fe 3521 d3a7 a3bf
00000530: 4e77 c6a8 ab5b b43f cc84 3c96 8a09 bd3f
00000540: 4223 1624 f086 a63f 1a17 790a 18ea 863f
00000550: b6bd 81da 5a2e a5bf 454d 6a91 c768 92bf
00000560: a5d3 c098 fc6c 853f a342 3c78 8971 afbf
00000570: 9492 2351 84a0 e1bf 5a46 f41e 12ea c0bf
00000580: 01be c50f d101 98bf e897 ac25 b432 9b3f
00000590: e8d3 d3db 3555 c5bf 2f1d 13a1 57e9 873f
000005a0: 7c80 da73 3077 9e3f 319d 3a00 2384 a03f
000005b0: 07c0 7f15 1e08 733f df1d c80e 7501 c53f
000005c0: d338 3c7b 8e64 b53f 52bb 01ea bb71 c53f
000005d0: a083 8e11 7cac b93f 1cc9 79d4 108a 63bf
000005e0: c873 6c8b 589d 77bf b54a fd40 3924 ac3f
000005f0: 9bf8 0e0e 5609 c13f 563f 74e7 0bc9 793f
00000600: 231c a09e 2a24 aebf 0b42 6996 e91f bc3f
00000610: 72d5 57fe 3a3c 793f 3f73 b33f b374 bb3f
00000620: 891a 9425 b272 a8bf faa3 85e8 05a9 c53f
00000630: 6be1 54fe 9712 b1bf b62e 7ac4 cbcf 9c3f
00000640: 1c39 6da3 34c5 9c3f 1d7e e9c3 b3d7 b13f
00000650: 94a4 310a bd65 b2bf ec52 f7c8 001a ac3f
00000660: 206e 9d3c 0afe 833f 8421 ce7b b917 c03f
00000670: 40c9 dd05 6021 ab3f 6277 78d0 8f4c aabf
00000680: a5b0 360d cbc0 81bf 54b6 38d2 c941 9ebf
00000690: 3427 c1ef 9b3d 613f f785 a585 9ce6 b73f
000006a0: b8af a2f1 12ac aa3f cabc ac77 e355 923f
000006b0: 9ab2 bdca d982 84bf 1864 12a6 a36a a23f
000006c0: 1e1f 33c7 ac7e acbf 81aa 53bb 6da0 ce3f
000006d0: abc4 b9ac 3db1 a53f c2a3 6088 b6cc b0bf
000006e0: bc1d 4f93 4583 ad3f 2e1c 19d6 a074 c13f
000006f0: 429a ba2a 159b c93f 6d3f 9b01 80ba b13f
00000700: 441b 3c5c 442e 6d3f 2246 b365 ddae a8bf
00000710: 1f62 55c5 8901 b1bf 060a e77a dd30 a13f
00000720: f15c 11ca 517e b4bf 50e5 0187 2e4e c0bf
00000730: 405f 89ec 5bdf aa3f c3e3 ea5d 4320 963f
00000740: ccac 1e0b 63cb c03f 04ec 0aef 6eea a9bf
00000750: 8f4a c019 5187 99bf 101f 8a3d 5154 a03f
00000760: 408c 16e9 25f2 bb3f d674 3cdc 0377 c63f
00000770: 13a7 daa6 d20b 8bbf e084 1478 28a6 b53f
00000780: 0995 5b97 e031 c7bf 9f97 1f69 c7f0 bbbf
00000790: 5f3d 418f 1f85 a7bf d49e a637 d475 623f
000007a0: 8a32 d4ee 5fe4 b3bf 1129 65a3 a301 d6bf
000007b0: ab35 2987 be69 c8bf 6937 2039 038e a3bf
000007c0: 817e 47c2 7b03 c7bf 4b81 5506 5644 a63f
000007d0: c68d 0b0e 6768 7b3f 430d ef79 aa82 bc3f
000007e0: b5e5 d524 96d3 bb3f edbc 4c5a 9176 b8bf
000007f0: 7c79 7f08 0458 963f caa6 f2a5 50ed 9d3f

fc_1.bias f8 [128]
0.03553560749173154 0.01548151543041753 0.02932278718104986 -0.14990788605239888 0.04601119993592976 -0.004343025993868626 0.05380645100327655 0.03338165094617746
-0.0008998518792312613 -0.037709174025465975 -0.100985911766645 -0.0056242695567930425 -0.001044832102410547 -0.12026040706846006 -0.0651634034216063 0.006071331201267601
-0.0034018889271669674 0.012077987590911202 -0.028453826356063177 0.01952946555496641 0.021589554048692547 0.09398568251237488 0.04063380308757451 -0.042150436349863644
-0.04716341628511359 -0.08628259695301779 -0.041298966864836736 -3.0267489052259e-29 0.02544538008139528 0.002812794579450508 0.08173754121562993 0.06308446187992238
-0.05238855208483352 0.13542118768025405 0.022375273254841527 -0.1253618451654597 -0.10041317385450602 -9.873628827724874e-31 -8.75900514077372e-25 -0.0031073496030672534
-0.060205416320433684 -0.028694661849499137 -5.067041495061754e-19 0.03348368490374542 -0.044092778191839994 -0.0513323804619639 0.00637091572768185 -1.5102744388747628e-05
-0.002611391294286856 0.06441846226149901 -0.00736663961288375 -2.8412208895624813e-18 -0.04581806940003356 -0.004146493830503962 -0.04880152433870815 0.03704192556509658
-0.07124092262340678 0.044644312985958605 -0.0365373930616267 0.0980622541553059 -0.004556143471954853 0.14563560875593157 0.0729463286222031 0.08452532582451279
-0.03458737091924373 0.017654270513296856 -5.912397172529563e-06 -0.016840953099512765 -0.02194058893642691 -0.03311081049849648 0.03816389415532167 -0.022057436112498777
-0.00508209498096817 -0.08785004938424124 -0.002057578813943768 -0.08163639046271468 -0.06070256864996145 -0.032374510512471706 -0.001405053148142026 0.08255708088734953
0.02411314282277633 -0.03910967930030353 0.014252149518950255 0.06991347692773296 -0.004223407610018132 -0.008317604749661417 -0.017866903553949272 0.06134460668636046
0.03625966169011454 -0.0821502318779561 0.030970541899902174 -0.0008470647183627705 -0.006921874182090276 -0.003557903007393654 0.015040881346591508 -0.0334197381236058
0.06961702984099745 -0.06764390661421277 -0.028669015164510668 -0.0031387229468897234 -2.4696961047209277e-21 0.06266192441090027 -0.0003398153237326509 -0.006144150292721641
-0.035818352137386225 0.03812640593513468 -3.259862000058839e-07 0.08167000880221231 -0.0028110284030739797 0.06271961171319777 -0.0037866511870216614 0.08991693266861839
-0.004551855143840373 0.04057825518932953 0.04678883885649665 -0.03190608896042364 -0.009073504446837384 -0.014156028293498159 0.04331571668466383 0.054488021019505437
0.03613491484952306 -0.0037474041444279255 -0.0029701615417579343 -0.0014483948158694247 -1.1284519149265096e-15 -3.2374245339812e-12 -1.970909160072862e-10 0.02798690404088535
00000000: 4c7c 0a20 b931 a23f 7cb3 bad3 c5b4 8f3f
00000010: 2076 e1ef ca06 9e3f 53f7 007e 2e30 c3bf
00000020: 55f6 f2ad c78e a73f 1fdf bf29 fec9 71bf
00000030: a4ec bee6 848c ab3f 195d 3356 6617 a13f
00000040: 64d4 3e32 817c 4dbf 38a8 65ea 9d4e a3bf
00000050: c3fc 6474 36da b9bf 5f0c f75c 7909 77bf
00000060: 7c23 6bed 571e 51bf ced8 5cd3 62c9 bebf
00000070: b783 977e 8cae b0bf a2f7 3d8f 40de 783f
00000080: f151 fa35 47de 6bbf 95ba a20d 58bc 883f
00000090: bbd7 94f6 ff22 9dbf eabe 773f 88ff 933f
000000a0: bc24 4c72 921b 963f d4d1 ae18 720f b83f
000000b0: d618 bf2e f4cd a43f b703 45f3 bd94 a5bf
000000c0: a53e 06a5 cd25 a8bf 9a8d 20c4 9d16 b6bf
000000d0: 260c 1660 2325 a5bf 79a6 7b4e 2e2f 03ba
000000e0: 1bb2 228d 5a0e 9a3f 1ed6 5497 db0a 673f
000000f0: b867 6062 c0ec b43f 6bf7 a8a4 4d26 b03f
00000100: 023f c71b acd2 aabf 71d6 2242 7b55 c13f
00000110: 5574 792b 8be9 963f 5170 9360 db0b c0bf
00000120: 22ec ca81 adb4 b9bf e77b c262 ae06 b4b9
00000130: af20 facf 3ff1 f0ba 1567 849d 9574 69bf
00000140: d7d2 468c 3ed3 aebf ad7f da28 2262 9dbf
00000150: 6874 5f75 afb1 22bc 5fe9 3807 c624 a13f
00000160: 91c0 a520 5493 a6bf a5b3 9ede 3c48 aabf
00000170: d0ac 22ab 6318 7a3f 10df 2262 39ac efbe
00000180: afb9 9706 7c64 65bf b5f7 ab74 ba7d b03f
00000190: fe03 8043 7b2c 7ebf e896 74a5 a434 4abc
000001a0: 552b 474b 7775 a7bf b43f 52f6 e9fb 70bf
000001b0: c734 0f6e 83fc a8bf d312 c4c5 28f7 a23f
000001c0: 12ed cd58 d83c b2bf df43 7490 9edb a63f
000001d0: ebc2 8f78 07b5 a2bf 28af 919e 9b1a b93f
000001e0: 65ae 5373 76a9 72bf 06b1 5e08 30a4 c23f
000001f0: 7aae cb4f 9cac b23f 599b 19a6 73a3 b53f
00000200: e6d1 e795 6fb5 a1bf 6a17 f509 f613 923f
00000210: 3548 1c5c 63cc d8be 6cfa 2e3b c13e 91bf
00000220: 5d6b bfff 9777 96bf 7b5e 7870 e6f3 a0bf
00000230: 37fa 91ca 378a a33f 8179 f27a 3996 96bf
00000240: b895 d07b f6d0 74bf 48ab 0e41 577d b6bf
00000250: 29e5 df36 0edb 60bf a26a 335b 1fe6 b4bf
00000260: cb01 4536 6814 afbf b909 c04f 6493 a0bf
00000270: afa0 8154 3805 57bf 74e2 76fa 7522 b53f
00000280: c276 4f9f 1db1 983f 538c 1a13 2f06 a4bf
00000290: 7b1a a720 3b30 8d3f 9f4a f480 d9e5 b13f
000002a0: 60d7 0059 904c 71bf 1dfb 0b03 d208 81bf
000002b0: a2ad c799 b34b 92bf 53ff 016f 8f68 af3f
000002c0: 8302 3f5a a090 a23f af4e 462f cc07 b5bf
000002d0: 71dd 65e2 bdb6 9f3f 24ca a8a1 b1c1 4bbf
000002e0: 395f d373 1c5a 7cbf db1c e4a1 7625 6dbf
000002f0: ae9c e4eb c0cd 8e3f 5444 9054 641c a1bf
00000300: cd67 69f2 6bd2 b13f 5485 ae6e 1c51 b1bf
00000310: 5610 290a 695b 9dbf 911f 0f0d 61b6 69bf
00000320: 59fc b0d8 5b53 a7bb 0a9b 0ca4 9c0a b03f
00000330: 6b92 bdb3 2745 36bf 8269 1ac9 9b2a 79bf
00000340: baa9 0d76 c856 a2bf 1afa 35e5 4d85 a33f
00000350: 8bf6 3778 66e0 95be c899 de60 53e8 b43f
00000360: b607 e661 2707 67bf bb41 2079 640e b03f
00000370: 9ac9 4ee0 2e05 6fbf fc18 2bcd cb04 b73f
00000380: fbab a94f f7a4 72bf 2c0f ef4d acc6 a43f
00000390: 10b6 69e9 b4f4 a73f baae 41b1 fe55 a0bf
000003a0: b1cc df26 2195 82bf 419e 7ef4 d5fd 8cbf
000003b0: 407a 2045 7a2d a63f 0ee6 9a98 dae5 ab3f
000003c0: 157e 0b8b 4680 a23f 84c8 d847 e0b2 6ebf
000003d0: 6c26 f155 e154 68bf 992b 6a17 02bb 57bf
000003e0: 937c 09e0 1054 d4bc d9bd b02e 087a 8cbd
000003f0: 50dc da26 8516 ebbd 469e 4956 99a8 9c3f
