models/classification_model.pt (torch, 759093 bytes, 16 tensors)

conv1.weight f8 [16, 2, 3, 3]
0	0x3fde67ef81cc86d7	0.47509372401883126
1	0x3fd042d3ed29f49a	0.25407884750877374
2	0x3fb7af5ea1fe8936	0.09251967863977914
3	0xbfc44b3c8a140d2f	-0.15854603521447916
4	0xbfcc531cffb032fa	-0.22128641590861503
5	0x3fb9228031c05413	0.09818268980627946
6	0xbfb4f50da840fc6d	-0.08186421735534717
7	0x3fbf776e5a21f94e	0.12291612339501976
8	0xbfd196c38915bb8c	-0.2748268927306803
9	0x3fa7bd530bb1a190	0.04636630552051024
10	0xbfb52f448ef7b8de	-0.0827524994890356
11	0xbf95c39a8f7155d6	-0.0212539815950857
12	0xbfa7d28a29de60cf	-0.046528165446206075
13	0xbfde43cbb339dda5	-0.472887921357563
14	0x3f788fffafdda341	0.005996702935456012
15	0xbfe56092f12333af	-0.6680388173787061
16	0x3fc73d46e63e22f6	0.1815575241310154
17	0xbfde3c957f5c4eca	-0.4724477523570668
18	0x3fd5f7187413cb51	0.343206513745078
19	0x3f9fd0223ce0286e	0.031067404714157858
20	0xbfa59e6ec20f8efd	-0.04222437018304779
21	0x3fb0fcb21d21779d	0.06635583125304696
22	0xbfd53e6bc7ac616b	-0.33193487643577296
23	0xbfb14b3e8bf5764b	-0.0675543872543695
24	0x3fa388d957c1d341	0.03815344997648263
25	0xbf9132507c7e3f7f	-0.01679349670263219
26	0xbfd4a260a3950f1b	-0.3224107358439469
27	0x3fdb5406b7f695c9	0.4270035549655771
28	0xbfcafb4f46476d96	-0.21079436236946653
29	0x3f81b8e38e540d3b	0.008653428822532496
30	0x3fb1840886d23b27	0.06842091838391849
31	0xbfdb66dd943a2623	-0.4281534144907672
32	0xbf748fe3db59bdd1	-0.005020036760114492
33	0x3faab14d1bc46e0c	0.052133950843394755
34	0x3fa8574b36246ec5	0.04754099880139288
35	0xbfda37615759365a	-0.40963014154553934
36	0x3fc895a91fce6129	0.19206728032146117
37	0xbfd3f50cbbff1124	-0.31183164938944885
38	0xbfaf84c2e34cedf3	-0.06155976318992975
39	0x3f8934eac65f26dc	0.012307962588141867
40	0x3f992354a575bb0e	0.024548838232870067
41	0xbf88f074523f3335	-0.012177380332923352
42	0xbf7f9a6c98d5e214	-0.007715629775127759
43	0x3fbac5c9275be0c2	0.10458047114286997
44	0xbfbdb84cbd961666	-0.11609344128199836
45	0xbfe7e6d9d11a145f	-0.7469300350209201
46	0x3fde25c887ff9a1c	0.4710561111554925
47	0xbff58073dbeb48ab	-1.3438604918087929
48	0x3fba28f82b60887b	0.10218764361391834
49	0xbff3acd91d75643a	-1.2296992445683501
50	0xbfd83771168a6e93	-0.37838389588589755
51	0x3fed172577aaedf2	0.9090754830608019
52	0xbfdbba7e168525c1	-0.43325760077695114
53	0x3fe7824bfcbb4608	0.7346553741610373
54	0xbfbd8d60b4e1dc90	-0.1154385034186467
55	0xbfa182cdf5e6087b	-0.03420108439151278
56	0x3fc73f9e0529c6c8	0.18162894489392145
57	0xbfa29679de60974c	-0.03630429114882236
58	0x3fca67a0c9ef6f22	0.20628747806665
59	0xbfa3c246b49a7694	-0.0385915847266293
60	0x3fc25da2e14ff556	0.14348255158976525
61	0xbfb174ae35d673ef	-0.06818665327450878
62	0xbfc09fac4e5c4bfe	-0.12987283540914513
63	0xbfb7df20a0060126	-0.09324840456793435
64	0x3fd67416e8ac99df	0.35083554002849654
65	0xbff1590d78470650	-1.084241361459494
66	0xbfbfd39034c1ce16	-0.12432194984449327
67	0x3fd33baff7d9dc37	0.30051802829933955
68	0x3fc7ec82b7d6cb5c	0.18690523125186587
69	0xbf80d203e919b441	-0.008213072348747132
70	0xbfc8c24fcae78dcc	-0.19342992217489863
71	0x3fc6e40d0d9a41a5	0.1788345638674517
72	0xbfd162521c064bb5	-0.27162602173592215
73	0xbfd700292245ff9a	-0.35938480708136356
74	0xbfe0a919232b4b6d	-0.5206418692490452
75	0x3fb2f86e6664c14f	0.07410326003878719
76	0x3fc00d9eb7ebb1d2	0.1254156492281156
77	0xbfc096219f9dac84	-0.129581644952257
78	0x3fb5a0e006469188	0.08448600915159521
79	0x3f9d37f2b09ad314	0.028533737210369628
80	0xbfb98c60cfbe83fd	-0.09979825088386458
81	0xbfd375dae3e98584	-0.304068300791265
82	0xbfd751b404de51c8	-0.36436176753457206
83	0xbfda90d6f6b176dd	-0.4150903138268925
84	0xbfb55d0e54dad2c1	-0.08345117160463202
85	0x3fa2c71f83c414ae	0.03667543872328714
86	0xbfd367505f90fa45	-0.3031807835831482
87	0x3fd7145452d82fba	0.3606158074405773
88	0xbf8cfb6dd90f528c	-0.014151437937394172
89	0x3fa53493360c38e1	0.041416740749001375
90	0xbfca7b79abdb3db1	-0.2068931664602878
91	0xbfc3dc2c5854c30a	-0.15515665352861446
92	0xbfcdd3ef32d2f508	-0.23303022367137083
93	0xbf6c8637184a782c	-0.0034819675514219574
94	0x3fc978f4f7eded58	0.19900381189277527
95	0x3fae833ac6a9667f	0.05959495234556033
96	0x3fca83ee93294907	0.20715124307259478
97	0x3f9e6b7d18ca2311	0.029706911695515596
98	0x3fb63937a0d63a59	0.08681056667976729
99	0xbfbd9216823c8165	-0.11551037482832312
100	0xbfd362e6bde3df58	-0.30291145843465506
101	0xbfd78bcd2d8b6b15	-0.36790780494418246
102	0x3fa5bf929010c103	0.04247720726596251
103	0x3fcab308503640b9	0.2085886375102797
104	0x3f9b73a5b001801b	0.026808346622033335
105	0x3f7c78bf52552f15	0.00695109114651495
106	0x3fc7613eb80d365a	0.18265518175978707
107	0x3fc0dc914464a97b	0.13173118438255557
108	0x3fc07d4ebc4b6664	0.1288240832716837
109	0x3fbb22b8754c2a47	0.10599854339322078
110	0x3fbe8a72992aa493	0.11930004348200134
111	0x3fc58a3854a5ca65	0.16828064091858433
112	0x3fc226f1be162c6d	0.14181348592350976
113	0x3fc52cae6ba82f42	0.16542606598556558
114	0x3fcf02ccb68f52e8	0.24227293886237722
115	0x3f82b4d04372295d	0.00913393693760572
116	0x3fcba7fb99b4cdf7	0.21606392865361077
117	0x3fc0f827340d9cdf	0.13257303277644092
118	0xbfb009b8fb9d36db	-0.06264835493967828
119	0x3fc0afa3d1a57ab1	0.13036010491028585
120	0x3fc53385f8faccaa	0.16563486726008608
121	0xbfa9abd5b69eba78	-0.05013912061928222
122	0x3f7db1f3ee75291c	0.007249787194562065
123	0xbf7f61fc5c73758c	-0.0076618059021859135
124	0xbfbc2d7d4f742899	-0.11006911458767589
125	0x3fb4aa7030dfddf7	0.08072568124031664
126	0x3fdd111af50aab66	0.45416902475215293
127	0x3fa59129a37c614d	0.042123128134508116
128	0xbf9e61b4ece8e9a2	-0.029669596633746693
129	0x3fd42b8984d2db77	0.3151572987657611
130	0xbfbcf3fb9b4e5611	-0.11309788266802225
131	0x3fa45dce0ed04604	0.03977817469434444
132	0x3fdabb1df3543ad4	0.4176707149753558
133	0xbf98d143230fe101	-0.024235772147194194
134	0xbfb1faefd63a3d53	-0.07023524265445262
135	0x3fdae73fb666b5b2	0.42036431133859786
136	0xbfc1b801b0ee43fc	-0.13842793597407865
137	0x3fd46be0851f893a	0.3190842914610986
138	0x3fd6d848c2729577	0.3569509409811284
139	0xbfbc4adcf76148b8	-0.1105173210101239
140	0x3fa63d52788936c4	0.04343660088907833
141	0x3fd91b14584d22cc	0.39227779982733746
142	0xbfc3a12e92dbff1c	-0.15335638209216362
143	0xbfb9c5084e53b51f	-0.10066272651939244
144	0x3fb501bb0264a7b3	0.08205765541484204
145	0x3f9004554a52fbdd	0.015641529713999226
146	0x3fd32f467f0b1d50	0.2997604599626884
147	0x3fcd71aae2775586	0.23003135736386698
148	0x3fc03c7911c6d9bf	0.1268454872894846
149	0xbfbc03edef15cf21	-0.10943495833435836
150	0xbfc34d4a76fde949	-0.15079623041294557
151	0x3f8253b7bb954930	0.00894874135216081
152	0x3f948f79398d967e	0.020078558099518855
153	0x3fe430fc85a7dbbc	0.6309797869170022
154	0x3fd01ede0136a26c	0.25188398474214213
155	0xbfdf7a9bc3dc5f82	-0.4918584263518754
156	0xbfe7c56544cc4ab0	-0.7428461402617668
157	0x3fe5eba7910c2e55	0.6850164254150949
158	0x3fd3ba90e1cb56a9	0.3082620816252111
159	0x3fd665978dc1a037	0.34995068400758406
160	0xbfc7d0d1c39967e4	-0.1860601620745107
161	0x3f813451f7271c5b	0.008400574069027103
162	0x3f806b4dd4d26909	0.008017166192349838
163	0x3f86d35a662942fc	0.011145311587058775
164	0xbf9a1748ea6289e1	-0.025479449563713067
165	0x3f9138e71873e4de	0.01681862913844589
166	0xbfa928c8c43945a0	-0.049139284089174895
167	0xbfa10b2d53e1e092	-0.03328839920953998
168	0x3fd345c009529a0a	0.30113221083084396
169	0x3fd140bacb2260d3	0.26957578503926277
170	0x3fd0ad9f62cb8ada	0.26059708259542236
171	0xbfd6975282166c09	-0.35298598007074183
172	0xbfce268764d8b94a	-0.23555080818318636
173	0xbfd6d36c21a48c9f	-0.3566541985075648
174	0xbfc13bee4d3ba6e4	-0.1346414448847134
175	0xbfdd104da1fa7e3a	-0.4541200715848138
176	0xbfc54083adfce00a	-0.16603132243631108
177	0xbff02f8c946e7de3	-1.0116086767301276
178	0xbff09f476ed4700d	-1.038886483124773
179	0xbff0e36d13f42d42	-1.0555239467092439
180	0x3fa27d07a6c53462	0.036110152347284666
181	0xbfa4233f419661ea	-0.039331413990286127
182	0x3fc51b0fbddfe0f3	0.16488835116593456
183	0xbfc1011e08a7bd04	-0.1328465978872161
184	0xbfca903a77a30aaa	-0.20752650109905818
185	0xbfcaf1f2a6da87db	-0.21050866267347498
186	0x3fbcaf522844f509	0.11205018504275101
187	0x3fa8e7069de38b0e	0.04863758733133326
188	0x3fb7ca58ab04e9d2	0.09293131041787397
189	0x3fe73ffe454647e9	0.7265616753595597
190	0x3fc647e25693c326	0.17406872966196224
191	0x3fecb8d444e4db7a	0.8975621553025654
192	0x3fe22144ca385ae4	0.5665611219036149
193	0x3fcc699f84d4c569	0.22197336183448194
194	0x3fd8d045b64db351	0.3877119331653392
195	0x3fcfaca4882bc66e	0.24745613717054787
196	0x3fe06bec8d7b23e3	0.5131743205357647
197	0xbfd042271762f2c5	-0.25403764041747606
198	0xbfc37c272aba55e6	-0.15222634874650892
199	0xbfbb2ba2fa257376	-0.10613459212386353
200	0xbfbca39dd4e9f259	-0.11187159011928695
201	0xbfd845d83ba925d8	-0.37926297975772405
202	0xbfbfc4337ec62436	-0.12408754201000324
203	0xbfc37eb1b91fea18	-0.15230390109339065
204	0xbfcab312bb83113b	-0.20858987956865768
205	0xbf8712353b202292	-0.01126519762694159
206	0xbf8eb39db62d33be	-0.014991027948463184
207	0x3fc738f71a31eae4	0.181425941267512
208	0xbf91f39d4de7d0da	-0.017530877952553016
209	0x3fd18e30cda46f36	0.2743036277986336
210	0xbfb7c60a0961a743	-0.09286558846511377
211	0xbf96b87590340910	-0.022188031126469332
212	0x3fcbe3ed4f37c916	0.21789327972471345
213	0x3fa652ce480bb040	0.04360050801719284
214	0x3fd0409232d3cccf	0.2539411064492016
215	0xbfdc0dcdab6b2f04	-0.43834249248605794
216	0xbf6369fa7be9a09b	-0.0023698704019815115
217	0xbfdaf165ea2de01e	-0.42098377102911566
218	0x3f8a80a1ba4c8659	0.012940658090488432
219	0xbf439f441fab77cc	-0.0005988199839881358
220	0xbfd75b0739db6c75	-0.3649309220324491
221	0xbf8cae8aa87a3efa	-0.014004786745573029
222	0x3fbee6bb897a06d0	0.12070819956172874
223	0xbfdbac27e5c44d8d	-0.43238255918660046
224	0x3fc054218fd1b979	0.1275674774401059
225	0xbfc48eeeb699031c	-0.16061195293334485
226	0xbfc40d20566c196c	-0.15665058345639282
227	0x3fc434cf3c77c994	0.1578616185430063
228	0x3fc7880bc910c658	0.18383929555561696
229	0xbfd8d63712471d9f	-0.38807465348187437
230	0x3fbc1ca8eafc98e3	0.10981231438617871
231	0x3fd7a29a4486a4e7	0.3692994755934493
232	0xbfe10362f00c425f	-0.5316633881030376
233	0x3fd457b81aeb5bb6	0.31785395268291994
234	0xbfc4049878f7db2d	-0.15639024645471392
235	0xbfa6f52d4195782c	-0.04483930039963044
236	0x3fb9cfac423efee0	0.10082508675895552
237	0xbf9f181b12584095	-0.030365393633531374
238	0xbfa8d78400004d8b	-0.04851925373091167
239	0x3fb0792c8ffc0a84	0.06434896960494468
240	0xbfd0a94014bb00ec	-0.26033021950207913
241	0xbfa68799d835bd6a	-0.04400330318719166
242	0x3f403f61abc75628	0.0004958369168501274
243	0xbfe0ec78f3245356	-0.5288662670960587
244	0xbfd523910d28caad	-0.33029581341831254
245	0xbfcaaa27dc1fe973	-0.20831773994707312
246	0xbfa0c902b3fd9629	-0.03278358885908645
247	0xbfd85752dcf8dbd1	-0.38032981471354527
248	0xbfea89bf0c6b7bd3	-0.8293147318435053
249	0xbfe65931ee14f00b	-0.698388066295139
250	0xbfc7dcb86e11f5da	-0.18642335295218865
251	0xbfd6f707c5169334	-0.3588275360764783
252	0x3fbea4d83408bb8e	0.11970282812465724
253	0xbfbb46077a9aec21	-0.10653731101312804
254	0x3fcb257e29b784a8	0.21208169018703882
255	0xbfade4c2c822af2a	-0.05838593190250514

conv1.bias f8 [16]
0	0xbfd96f7735ff251b	-0.39742832444297144
1	0x3fd63f129186ce34	0.34759964191036663
2	0xbfcc3b53e136fa92	-0.2205605363542032
3	0x3fcff0853f32b4d8	0.2495276030144058
4	0xbfe20d0d553cdedb	-0.5640932717132857
5	0x3fd5ae1e007b8db4	0.33875227019435816
6	0x3fc4702aa1e99e09	0.15967305093657583
7	0xbfe45514d7f2a7fa	-0.6353859155399271
8	0x3fbfdbb812f5580b	0.12444639647341675
9	0x3fd508a157a46f0c	0.32865174826450594
10	0x3fd3edcde1df1daf	0.3113894181992362
11	0xbf802eeb0df2640e	-0.007901989329456096
12	0xbfe2a36fd2da8724	-0.5824507826075416
13	0x3fd7fe3ca115a2a1	0.37489238482388926
14	0xbfc3d6af3cab1c5f	-0.1549891515953474
15	0xbfbcaf88a7f18ae1	-0.11205343342002606

conv2.weight f8 [16, 16, 3, 3]
0	0xbfa6ec7580298d84	-0.04477278890115158
1	0x3fbd3e307f6fde23	0.11423018561605906
2	0xbf83c9be7c0a6405	-0.00966214004556499
3	0x3fbd5797af466c5c	0.11461780575921082
4	0xbfc600237c25faf0	-0.17187923013621953
5	0x3facef5ff8455716	0.05651378541612766
6	0x3fb0fe1b26bfdb8c	0.06637735076934187
7	0x3fa92fd2805602cf	0.04919297997094462
8	0x3fc5c22a18558061	0.16998792827780831
9	0xbf81951f26ba4189	-0.00858520829140798
10	0xbfb158f3e3ea1c64	-0.06776356043165915
11	0xbfc7e106e301e6b9	-0.1865547760424329
12	0xbfc11cab5510ac14	-0.13368741658754912
13	0xbfb87117b251b461	-0.09547565558905681
14	0x3fb0a550d98dc96b	0.06502251922009854
15	0x3fb431f798d3dee2	0.07888743859427508
16	0x3fb5edab5bb566fb	0.08565779675464207
17	0xbfd470e40f652817	-0.31939031127387935
18	0x3fcd1c03cd745f20	0.22741744548761123
19	0x3faa5dce90a074bd	0.0514969398065914
20	0x3fca6ede9ae1e55c	0.20650847017877083
21	0x3fbb733ac39ca7ff	0.107227013356038
22	0x3fb38b6c33200038	0.07634617088479068
23	0xbfca40b6f9d18411	-0.20509993742146596
24	0x3f5fa62f36a3eb85	0.0019317112988221652
25	0x3fa95e27df63c02d	0.04954647638248875
26	0x3fc26dab72eca68d	0.14397185431998985
27	0xbf9d2bf172c69dbf	-0.02848794234310303
28	0xbf914b4eec68241e	-0.01688884084618191
29	0xbfb14abe0c09f93d	-0.06754672807617097
30	0xbf96e4ce117149f6	-0.022357196631057584
31	0xbf99da8242b269da	-0.0252476075371336
32	0x3faaaa9a5048cbdb	0.05208284597428988
33	0xbf626582e7892c15	-0.002245670006492793
34	0x3fae69ec7b1aad50	0.05940188410508063
35	0xbfc83588585c9ca6	-0.18913368525065727
36	0x3fb10131105c5885	0.06642443322593479
37	0x3fb14d0d8317a29e	0.06758198214050501
38	0x3fd0ea903e601797	0.26431661692947145
39	0x3fb27caeab2cbbf1	0.07221500090666645
40	0xbfbc50b344380a44	-0.11060638823986674
41	0x3fb2478287fb5f0d	0.07140365428801605
42	0x3fc059e0d039d808	0.12774286429674953
43	0x3fc7992696f6942d	0.18436128970384527
44	0x3fb52d4e3848a395	0.0827225577746858
45	0x3fc58dbbebfb8a2a	0.16838788054072157
46	0xbfc1a88ad361d5f6	-0.13795600243945189
47	0x3fc3853906182357	0.15250313565800397
48	0x3fb3502689e1b268	0.07544175020456978
49	0xbf989525366704da	-0.024006444402179784
50	0x3fb1a4f06ad86805	0.06892302139786473
51	0x3fb82726a9a5de19	0.09434739724917342
52	0xbf955cc3bdaaf56a	-0.02086168141498971
53	0x3fd45e3c13c66ba8	0.3182516282192247
54	0x3fb2deb19953c597	0.07371053689327876
55	0x3fb344cf662b60f2	0.07526870960589685
56	0xbfc04d67ab1901c8	-0.12736221174601625
57	0xbfa7685c32cec525	-0.04571807975970391
58	0xbf711a3052412aaa	-0.004175366168122233
59	0xbf8c280ceb0ed949	-0.01374826519336793
60	0xbf95169376c72daa	-0.020593933224331153
61	0x3f6d62bab54c0b33	0.0035871168751112847
62	0xbfa7905e95b82f3c	-0.04602332666044481
63	0x3fd885316bd4ba5d	0.38312945871704135
64	0x3fa5a4b6cbf4ce0a	0.042272293469434244
65	0x3fd846e90c0285c2	0.37932802365147833
66	0xbfc437c588c7dce5	-0.15795201472040002
67	0x3fc11bad384a09f0	0.1336571240281752
68	0xbfb5a6ee89768630	-0.08457842689542683
69	0x3fd48752990fa716	0.32075943896653436
70	0x3fa0d8feea0fd63c	0.03290554625702355
71	0x3fe061522acff02c	0.5118800007035182
72	0x3fc3f8553e4518b8	0.15601602116129754
73	0x3fc6e80e64418b5f	0.17895679374040704
74	0xbf8b1a051d78ca03	-0.013233222925099325
75	0x3fc62af1ecbe8e76	0.17318557796271578
76	0xbfc011bb654f56a2	-0.12554113814137674
77	0xbf9476122741bc2e	-0.01998165478329044
78	0xbfabf925feffb4ce	-0.05463522660998309
79	0xbfb33a8bf9c34001	-0.0751121029636579
80	0x3fa66456be2ae6b8	0.043734274591270716
81	0xbfc3af87257c9cb6	-0.15379418688210017
82	0x3f94c65451ed0f3f	0.02028781652485567
83	0xbfd116c44edecae2	-0.26701457693267916
84	0xbf74774458be476a	-0.004996554354777286
85	0xbfaa64a5409ff7f0	-0.05154911435964482
86	0xbfaeb59a8db71ae0	-0.05997927646563084
87	0xbfbee4d1516f17d1	-0.12067898023732872
88	0xbf8508891fd08963	-0.010270186694530897
89	0xbfc9e743d738fe65	-0.20237014779012266
90	0x3fcdc68f8075a357	0.2326220872157829
91	0x3fbca048c0822e38	0.11182074260630592
92	0x3fd21df7b7c8baa1	0.28307908008256716
93	0xbfc6efaa88e7b086	-0.17918903050247453
94	0xbfb1ef9baf3c54c1	-0.07006238010611111
95	0xbf9c836de51bd372	-0.027845112904248244
96	0x3f839ab8acf3181d	0.009572451379778408
97	0xbfb19e4cd6581963	-0.0688217185307614
98	0x3fd1fbbcd7466ba8	0.28098984740216304
99	0xbfa9de10c19ce2af	-0.05052234996259607
100	0xbf74660d19e804ab	-0.004980136086033908
101	0x3f78474e25de00cd	0.005927377000148404
102	0xbf92df2dae02bfe1	-0.018429483171246267
103	0x3fa1c14083f0e43a	0.034677520853116
104	0xbfa6736da3d5140c	-0.04384939789682826
105	0x3fc00fe36f0a6063	0.12548487588788068
106	0xbf89659b12c4fae8	-0.012400828848169579
107	0x3fb1a9dc50dad133	0.06899811719887765
108	0xbfad4a821b00605b	-0.05720907764060775
109	0xbfd381ae75431e5c	-0.3047901291979309
110	0xbfb1e2b930a32474	-0.06986577451165649
111	0xbfc34cb57ab03477	-0.15077846995010066
112	0x3fca11852324f135	0.2036596700289778
113	0x3f91041f8b9137df	0.016617291348943183
114	0x3fcabc6b30d61bb5	0.20887508282268433
115	0xbfb5e9f37cb7b8b2	-0.08560106081833643
116	0x3fb3e9d65498ec87	0.07778682294240201
117	0xbfe00c224f434aa9	-0.5014812038519568
118	0x3fd0715f015ade32	0.2569196236831629
119	0xbfdd1f2952e0361e	-0.4550269421896206
120	0xbfb7ada455952dd4	-0.0924933155958379
121	0xbfbbf2a1d1bfd001	-0.10917102213699083
122	0xbf950c354d23f59a	-0.02055438311889688
123	0xbfac05d1868c51e2	-0.054731891321498485
124	0x3faa3c643cd41cf5	0.051242000985490956
125	0xbfd3d44f08277f9f	-0.3098332957870244
126	0x3fb849fe91d9f8ba	0.09487906514002278
127	0x3fb8581fa6b8776d	0.0950946599991462
128	0x3fd0c795fc383972	0.2621817553598681
129	0x3faaf7e12794ecc1	0.0526724205796767
130	0x3fb7cde12d3acabc	0.09298522333373688
131	0x3fda348c41284982	0.40945726740860533
132	0xbfb013014555be6b	-0.06278999274013024
133	0xbfb32807627dc6d2	-0.0748295417268097
134	0x3fb14a9a9345e400	0.06754461379559018
135	0x3fd28a2499407fc0	0.28968157735834765
136	0xbf8cf239b1024052	-0.014133883203868578
137	0x3fe0abdcf1aa07d9	0.5209793777469215
138	0x3fd14da548e9ece1	0.27036411400304244
139	0xbf8b52ada8351612	-0.013341290183812613
140	0x3fc5d86d1d3fc691	0.1706673043077456
141	0x3fccb590ee5e33b2	0.224290958777059
142	0x3fa2b0447000c198	0.0365010630342823
143	0x3fdf9b2b23a0539f	0.4938457343972064
144	0x3faf2606ae65fe9a	0.06083699110876957
145	0xbf8f82731f098cca	-0.01538553179233872
146	0xbfe56c88e2a518c3	-0.6694988657625561
147	0x3faf196dd7eb742e	0.060740883452787706
148	0x3fb476404e23eef4	0.07992937000011208
149	0x3f9dd84bd30b3c66	0.029145416980835746
150	0x3fa5ac4fc454d316	0.04233025809882045
151	0xbf5b00ca58080aad	-0.0016481376661664868
152	0x3fb200c291219ee5	0.07032409709210759
153	0xbfb191c406caaaf3	-0.0686304585057476
154	0x3f701bade85bcd08	0.003932647063027213
155	0x3fe4372d6b228168	0.6317355244137106
156	0x3f8dae8de167f51f	0.014493092004153994
157	0xbf9d1f020a5b4c49	-0.02843859852039213
158	0xbfb135384148ea6f	-0.06721831888072825
159	0xbf87a1644a261f21	-0.011538299095959883
160	0x3fb7db5a08a0a5dd	0.09319079123147085
161	0x3f73bbf0a67c56ce	0.004817905464525386
162	0x3fb1155fe0ba9efb	0.06673239933536117
163	0x3fb46f44a7a5c26a	0.07982281773525704
164	0xbfdef2721a78efaa	-0.4835477121848678
165	0xbf91e069190256f3	-0.01745762076514885
166	0x3fbd1c1942603dd1	0.11371000166422297
167	0xbfa92b48c0435bf6	-0.04915835711442888
168	0xbfa31fde30459b04	-0.037352507965627196
169	0xbf8a067188e8de1a	-0.012707602491999249
170	0x3fa352f873e71750	0.03774238982036471
171	0xbfc26b5a32f381ea	-0.14390113342143646
172	0x3fb274275fdd9be1	0.07208486643285951
173	0x3fdca11c6880ec91	0.4473334332030357
174	0xbf7580d9b1422e2f	-0.005249834404945682
175	0xbfb60a8bebacb087	-0.08609842780851028
176	0x3f81e9dfb2a0350e	0.008746860159613703
177	0xbfabe46d9bba1543	-0.05447714353526092
178	0xbfa70690023a8e80	-0.04497194316107045
179	0xbf93d2e0db7d85d8	-0.019359124561907
180	0x3f9a5d5c479772a1	0.02574676691971212
181	0xbfa659650e0e86c1	-0.04365077778426275
182	0x3fe9e5a31eb5864f	0.8092818832194072
183	0xbfb3e7205bbc6fa6	-0.07774545898104054
184	0x3fa8894d1901039e	0.04792252474044932
185	0x3fc5306bfb126642	0.16554021605843344
186	0x3fba5b8bd6d1a709	0.10295938486674684
187	0xbfb0ece3bd4f7036	-0.0661146485503544
188	0xbfae9d3495760bd4	-0.05979313206173456
189	0x3fc12f622da6a18a	0.13425852994010895
190	0x3f8036d158654925	0.007917056570168566
191	0xbfd892cf0941c700	-0.3839604940795738
192	0x3fb5962fb4f7414e	0.0843229119120725
193	0xbfb50080896453c4	-0.0820389113835765
194	0xbfb6156f5daa99a2	-0.08626457249429234
195	0x3fb41f6141518af9	0.07860381931963535
196	0x3f9b4d9f0265fe1a	0.026663288613688697
197	0xbf8851917b91f573	-0.011874329169809105
198	0x3faadcead21dc354	0.05246671500106595
199	0xbfb4c48c6bb615be	-0.0811240923850027
200	0xbfe52c468f8805d4	-0.6616547396990264
201	0xbfb07447d6c6e0f4	-0.06427430146766594
202	0x3f8f90b5c221c768	0.015412731158196372
203	0xbfb66705191c25c1	-0.08750945914302745
204	0xbfb0e235efa1e633	-0.06595170116806841
205	0x3f7e169cd991d339	0.007345783896302299
206	0x3f718613d3ab4792	0.004278256844104338
207	0x3fc8123b68071494	0.18805639819598652
208	0x3fc678b375b613f6	0.1755585026513981
209	0xbfeff0756f91707e	-0.9981028727593324
210	0xbf9ab7012af296a0	-0.02608873200065054
211	0xbfa0bf10a4e02a41	-0.0327077103866782
212	0x3fc134d8aebc0230	0.1344252446360925
213	0xbf8baaac6cd3e917	-0.01350912768474592
214	0x3f8f2b0643e68218	0.015218781420856906
215	0x3fad3e87d5195c1d	0.0571176955824557
216	0x3f6db438457ed0e1	0.0036259745647503204
217	0x3f983486f49425a2	0.023637875249766467
218	0xbfe2d95571ffb9ec	-0.5890300013105025
219	0x3fa69b7c67cb0a82	0.04415501372343035
220	0x3fa95e4aacf5870f	0.04954751359288256
221	0x3fba62e01589482c	0.10307121778285538
222	0xbfab2dd6fd74cb0e	-0.05308410495708503
223	0xbf8a435e05787e30	-0.01282380537219216
224	0x3fa08041310bbf35	0.03222850536064784
225	0xbfae2408158b5b64	-0.058868649129798084
226	0xbfa66a3d77f927a4	-0.04377929772870395
227	0x3fd3849ce8a86eab	0.3049690506029303
228	0x3f95f8ef1f4eae2c	0.02145742062172766
229	0xbf9e6bc3a3c682a3	-0.02970796286683942
230	0x3fb4696bcd1828d9	0.07973359830080841
231	0xbf956e765b810776	-0.020929192862474598
232	0xbf7d82c00ce953e4	-0.007204771229756244
233	0x3fb1d7d588a32b7c	0.06969961725114432
234	0x3fa79ca57ff4f2d2	0.04611699282620453
235	0x3fbaa2ca478abcd8	0.1040464806235265
236	0xbfd18eaadd5e9a50	-0.2743327295123992
237	0x3f8fb04a789db79b	0.015472966962729198
238	0xbf997bb7341c7728	-0.02488600020944101
239	0x3fb4d8befa0f3b6e	0.0814322815415218
240	0xbfa6ae43d5bd625e	-0.04429828628662301
241	0xbfb3a16174b48731	-0.07668122386214972
242	0x3fc0bec5effb10a8	0.13082193582352386
243	0x3f98d3506c533b53	0.024243599521294467
244	0x3fabdae92ebf725e	0.05440453239109354
245	0x3fe0c957005f6daa	0.5245776183395965
246	0xbfa287b758bf9afb	-0.036191682418396064
247	0x3fb545404744fef6	0.08308793773630527
248	0xbfbae93ad89b7657	-0.10512130535377061
249	0x3f840e6637c56903	0.009793089463233878
250	0x3f686a84ea07e753	0.0029804798107279456
251	0xbf7fd2990473da69	-0.007769201015654128
252	0xbf8b5f113880cf67	-0.013364920174445861
253	0x3f99c32b83b7e7ba	0.025158576883746987
254	0x3fe6f7d333d4ec15	0.7177520763719963
255	0xbf7ac9dc1a941bdb	-0.006540164738232125

conv2.bias f8 [16]
0	0xbfc6810b43277efb	-0.17581311015145915
1	0x3fa853e120d4ade3	0.0475149490906366
2	0x3fa85f92c88cfed1	0.04760416696671899
3	0x3f9a8a48bcc04be1	0.0259181370930256
4	0xbfb70a791ac87c20	-0.09000355628857948
5	0x3fb4645983b0f2a3	0.07965621438138241
6	0x3f83a2011c622139	0.009586342505159539
7	0x3f6155f0be7772cd	0.0021161748916099566
8	0x3fa1764c0250af3b	0.03410565880071067
9	0xbfb0244d86b2f655	-0.06305393732596916
10	0xbfb52f20074c3d75	-0.08275032213372475
11	0x3fb7b80aefecb4fb	0.09265201909575531
12	0x3fb3ea8918bf9543	0.07779747823913845
13	0xbfb31237f999d665	-0.07449674457333229
14	0x3fb2729ea50fc839	0.07206145791840947
15	0x3fc8efbd83ae422a	0.19481629304620302

fc_1.weight f8 [128, 400]
0	0xbfc9ecad3932ae25	-0.2025352982794725
1	0xbfca76f2ec8d9772	-0.20675503302043868
2	0x3fc875159ffc8c99	0.19107313453523458
3	0xbf4da65b03b0bd09	-0.0009048408895803449
4	0xbf70437b74525b01	-0.003970606082609463
5	0x3fab91397aa9105a	0.05384235021895796
6	0x3fc26f395860382a	0.14401928725459473
7	0x3fc3d83b6f125c2a	0.15503638194488306
8	0xbfc236e702cbc9f8	-0.14230048786664873
9	0x3fcb8cb9cf131a6a	0.21523211108270185
10	0xbf8b76e886025181	-0.013410393323547211
11	0x3fc4722881a645c8	0.15973383265058616
12	0x3f83652bf28627d1	0.009470313395258419
13	0x3fa26b98f60e114a	0.035977153812413024
14	0x3fbd9d91275b447c	0.11568553171970736
15	0xbf8c1dcf769452b2	-0.013728733831649496
16	0xbfa9c23ac6a2ab9c	-0.05030997919796862
17	0xbfb4da04cc1496f5	-0.08145170195038161
18	0x3fb445999ac98747	0.0791870119951713
19	0xbfa55b4200106b49	-0.04171186686308787
20	0xbfd03c1277f339ff	-0.25366651262166323
21	0xbfb61ea91b3aa850	-0.08640534319661808
22	0x3fb49432577cc0d8	0.08038630138321723
23	0xbfbfc2ee0c2845ec	-0.12406814381417747
24	0xbfd74dc51d750a6b	-0.36412170292547924
25	0x3fb92e82f538de76	0.09836595999592554
26	0xbfe394c6d3acf367	-0.6119112142838333
27	0xbfcc208b5be0b01f	-0.21974317537512975
28	0xbfa1646c1e9faee8	-0.03396928666901805
29	0xbf91dfa7c8e3639c	-0.017454740177388225
30	0xbfa0104cf7d58399	-0.031374364140680906
31	0x3f8e6413f8cba04f	0.014839321165212164
32	0x3f9fee1a8fd44f49	0.03118173125137894
33	0x3f9ce94a514c6159	0.028233681881006365
34	0x3fb5598667d9178b	0.08339729342796269
35	0x3fbf300d947a74a4	0.12182698130569009
36	0x3fbd4aaaf9f3ce20	0.1144205913768066
37	0x3f9937788ce2fc94	0.02462566718963595
38	0x3fbe433e18cb650e	0.11821354012808546
39	0x3fb0bab6f11ca91d	0.0653490389492259
40	0x3fc436f8fd75bc1b	0.1579276311490226
41	0x3fc4728e05dc2331	0.15974593435410037
42	0x3fa42d4a1a270aa4	0.039408031170315355
43	0x3fb2232b17785b5c	0.07084912608148158
44	0x3fae6e078be867c4	0.05943320830210966
45	0xbf83501f37997aab	-0.009430164226782741
46	0x3f974c41660610d2	0.022751829006225695
47	0x3fb64805310c4519	0.08703644225558484
48	0xbfb60509570e009c	-0.08601435065611657
49	0x3fb7870631f7c24f	0.0919040557853432
50	0xbfc9a4c32c4a9339	-0.20034064924871034
51	0xbfcae50070a8d502	-0.2101135778517929
52	0xbfbb4c40b97b7cb7	-0.10663227585199563
53	0x3fc21b4706b64630	0.1414574415944556
54	0xbf9977bba528a881	-0.024870807605261284
55	0xbfa64a509481e414	-0.0435357266696387
56	0x3fcf4e8cd998bd26	0.24458466172061682
57	0xbfa21f07b052ae90	-0.035392990373421473
58	0x3fbb080fc92ed5fc	0.10559176122372799
59	0xbfa8acb3354b1638	-0.048192596679239974
60	0xbf957f8c52804f1c	-0.020994370017503802
61	0xbfb7e864a9cba55e	-0.09338978906057124
62	0x3fcbb4ce7a3f72f6	0.2164552781022377
63	0xbf8d40edc2af60e0	-0.014283998016182797
64	0x3fb1bb9b67a9b2c2	0.06926890641052366
65	0xbf8270d257974771	-0.009004252718032043
66	0x3fcb904560522476	0.2153403015438788
67	0xbfd37eb814a559a3	-0.3046093179340465
68	0xbfb3503975417a37	-0.07544287789048885
69	0xbfc5bcefb19a6fa9	-0.16982837841066825
70	0xbfaa4aab4a8fadc5	-0.05135093007251216
71	0x3fae74c4a431aa47	0.05948462013551086
72	0xbf9dc88198b497ac	-0.02908518309154544
73	0x3fa49c7eb06d821d	0.04025646117839108
74	0xbfc1097c79b7ccae	-0.13310199683437446
75	0x3fae682cc9683a92	0.05938854178031251
76	0x3fb432e781b81dcc	0.07890173832867403
77	0x3fa7ac385bfbe755	0.04623581049777551
78	0x3fd5cf7d1dd34277	0.3407891074430504
79	0x3fa5546248ed27ac	0.04165942325796776
80	0x3fc181f72391f3fa	0.13677872883627612
81	0x3fc53de3c8a73cf4	0.16595122621081482
82	0xbfbf51aee239e108	-0.12234013579461955
83	0xbfb22db22096bff4	-0.07100976272226928
84	0xbfc29898c34cb78b	-0.1452818826305101
85	0xbfbd40a63c2a788d	-0.1142677208794984
86	0x3f7c5fa86abe13cd	0.006927163962136396
87	0x3f7c82c3dccceb79	0.006960644805810706
88	0xbf8932c81429de24	-0.01230388938459643
89	0x3f417acd2949c67d	0.0005334378971168643
90	0x3fcd522924e15f8c	0.22906984616087944
91	0xbfb32a9a301423df	-0.07486880945010864
92	0x3fb16c13dee93e1f	0.06805538360753659
93	0xbfc5d32dbc85d466	-0.17050716119016157
94	0x3f984b503725d6a4	0.023724797597842198
95	0xbfc2160087728944	-0.1412964497913639
96	0x3f8cea297ca4def1	0.014118503681501223
97	0xbf919130951a8687	-0.017155417538225606
98	0x3fba059dfa165767	0.10164821010252255
99	0xbfcfe5ba2e262209	-0.2491982198082641
100	0xbfc1b3084e8e3b85	-0.13827613673899122
101	0x3fb1b229892fc8c4	0.06912479018481849
102	0x3fa5618e287553be	0.04175991290927737
103	0x3fa2b3a3ea80b7c2	0.03652679669936233
104	0x3fbcf34ac7acfdd0	0.11308734297653378
105	0x3fa00c488556103a	0.03134371402396181
106	0xbfa27b3cd5fb309f	-0.036096478577378514
107	0xbfc29ba70b00920c	-0.14537513768404187
108	0x3fb063a79c33e21f	0.06402061046163297
109	0x3f8e11c1b880c931	0.014682305758559085
110	0xbfb0c4107023c128	-0.06549170244011704
111	0x3f7ea26d54b03789	0.007479121278277997
112	0xbfb362c2d201b40c	-0.07572572352519574
113	0xbfb0b72c29c5a10a	-0.06529499072860659
114	0x3fa48c63e2ea8eb5	0.04013359208081849
115	0xbfc35bd9a48bf776	-0.15124054464825648
116	0x3f9c6093c04e0548	0.02771216260180623
117	0x3fc197d962a6d9d9	0.13744656865101382
118	0x3f9c8d67f820283a	0.027883171576867684
119	0x3fcdd79f15602db6	0.2331427435277484
120	0xbfbd1389bb1a90b1	-0.113579376392013
121	0xbf5afe39bdc85624	-0.0016475261574034972
122	0x3f9363da15740663	0.018935592231179032
123	0xbfa8f78ab4d399a6	-0.048763594220690806
124	0x3fac396a5db9cb02	0.05512554544556815
125	0x3fc190c832430558	0.13723089651288478
126	0x3f9f1458b0fee14a	0.03035105304999889
127	0x3f724f5f46a2db13	0.004470226451465792
128	0xbfb7f44ceb29f33e	-0.09357147923760764
129	0x3fc95ee7f8d15401	0.19820880555440115
130	0xbfc5ec0407fad685	-0.17126512899055882
131	0x3fcaac1c544ccbe2	0.20837740055284742
132	0x3fb8634be22f8b61	0.09526514312851254
133	0x3fa08080f5e06d6f	0.03223040582107727
134	0x3fc4b36935273397	0.16172518821113321
135	0xbfc30d837b14f23e	-0.1488499022469955
136	0x3f99d95b22f24edf	0.025243209846464217
137	0xbf90cc7662188aba	-0.016404962289139326
138	0xbf9402967f978c06	-0.019541121995541054
139	0xbfa0b6927f305815	-0.032642915750486313
140	0xbfc924818e693912	-0.19642657712615424
141	0xbf724e74e56c92c8	-0.004469353318914578
142	0xbfc4ca6d88215ee5	-0.16242760798444703
143	0x3fc11d0fb296d9f5	0.1336993810670745
144	0x3fbd32a21538a4a5	0.11405385034653877
145	0xbfc0be3beeb6d3e0	-0.1308054843517814
146	0x3f6c30e370badb66	0.0034412805742606743
147	0x3fa7ebe0fddbbe05	0.04672148798806223
148	0xbf7874e3aa4662ea	-0.005970849339427467
149	0xbfb28d2406633383	-0.07246613651223126
150	0xbf9ff02519d4519a	-0.03118951769018139
151	0x3fa457902140f306	0.039730552729883725
152	0x3f88c593b0fd6e50	0.01209559806709773
153	0x3fa381bc3c39cd31	0.03809917674234454
154	0xbfb915a5aebcc94f	-0.09798656002093263
155	0x3fcf3ca2ed85701f	0.24403797719685458
156	0xbf7063dfdf44cabc	-0.00400149774604824
157	0xbfbf97f494b82b41	-0.12341240530819865
158	0xbfb3da8e933d688b	-0.07755366415713831
159	0x3fd1a2344d805851	0.27552516525736787
160	0xbfd1b85d6beb9a46	-0.2768777421864893
161	0x3fa2e5320d95723c	0.036904873045135095
162	0x3fa117c1c5589ffd	0.03338437589655994
163	0xbfa742e8d9baf89a	-0.045432354525005894
164	0xbfb3392b8b38f9ea	-0.07509109639156689
165	0xbfd066fb38755337	-0.25628548158174475
166	0x3fba3be5b2f740d2	0.10247645968707111
167	0x3fc1fcf84b919c0f	0.14053252878076747
168	0xbf8e7f9bae702f48	-0.014891830693180133
169	0x3fad6505ef66ad77	0.05741137072922247
170	0xbf9e0dee12423976	-0.029350013603612855
171	0xbfc70bbe6340a090	-0.18004588934241328
172	0x3fb07c64002f9d2f	0.06439805035153222
173	0xbfba50adbf4e1a57	-0.10279355927023325
174	0xbfc0a696f4481057	-0.13008391311462006
175	0xbf8a027d1ee3b267	-0.012700059418841293
176	0x3fc581b70213d221	0.16802108384548922
177	0x3fae12ced0c87d77	0.058737242685533646
178	0x3fc28d35978048cd	0.1449343671561735
179	0xbfaa1863c3bf505c	-0.05096732868665363
180	0x3fd11aa452fb9cd2	0.267251091993285
181	0xbfb1c4914d6d1c99	-0.06940563335693851
182	0x3fb1c76f124cf12b	0.06944936939993755
183	0xbfb8e760efb77ae7	-0.09728055813273394
184	0xbfc90662570275e4	-0.19550732849613361
185	0xbf948643c14ba811	-0.020043429062674593
186	0xbf922895059a3e84	-0.01773293348975226
187	0x3fbebec31b831446	0.12009829923324941
188	0x3fa4b7890d892e9d	0.04046276369316824
189	0xbfc6e66e042f3631	-0.1789071579391233
190	0x3fbce0aa7cad90a6	0.11280313056846811
191	0x3f418a0bf59f7f9b	0.0005352552791428768
192	0xbfa337d18d3e302d	-0.03753523682743807
193	0xbfb76e313274b175	-0.09152514917213302
194	0xbf9c7543d1fd2203	-0.027791080180834992
195	0x3faf8f41c73326f1	0.06163983875883428
196	0x3fcf9da87e8b285c	0.24699884585271803
197	0x3fc6521193a3744f	0.1743795367137033
198	0xbfc0cf6ca142fc1c	-0.1313300883684584
199	0x3fb3771a708a8ddf	0.07603612182224805
200	0x3faf1c1c2f36bc3d	0.06076133800831272
201	0xbfd2d207996ad408	-0.2940691946235465
202	0xbfab9a8732bf2099	-0.05391333097901558
203	0x3fac90df5b823e76	0.05579278938341485
204	0xbfa29b40e3ad487d	-0.036340740006054674
205	0x3fbae90376cd770f	0.10511800432638217
206	0x3fab56bca9ca3b62	0.053396125532450225
207	0xbfb800e7aefb1082	-0.09376380941381693
208	0x3fbdc625711c92f5	0.11630472194208237
209	0x3fb25a8704b9f7d7	0.07169383874312928
210	0x3fbedfd2542736db	0.12060274652977958
211	0xbfb0d7b70795b289	-0.0657915490643949
212	0xbfadf5e8dc6d4dc9	-0.05851676646002663
213	0xbfc31a296e4f572c	-0.14923589597918274
214	0x3f9a6d692c896997	0.025807994216259535
215	0x3faf36a8d1caab9d	0.060963893517814706
216	0x3fbfff4a74145e2c	0.12498917898153
217	0xbfc01684524dbc49	-0.1256871606705963
218	0xbfa956ed8101d104	-0.04949133109849593
219	0x3fc5f60ae9c8efd0	0.1715711251762273
220	0xbf7737d106dce2df	-0.005668465147942141
221	0x3fa13de792732c71	0.033675419451889683
222	0x3fb939722f18fe7a	0.0985328068718391
223	0xbfc46078e510d8ce	-0.1591940992818252
224	0xbfd894f8b727bcc7	-0.3840925015092122
225	0x3f703536894d467b	0.0039569979024506275
226	0xbf912c710028a809	-0.016771093020146597
227	0x3fc8a3db7fda62a0	0.19250053160501057
228	0x3fa7544fc1e258d7	0.04556512109518145
229	0xbfac43159e205aa8	-0.05519931369069769
230	0xbfd886501daa89ea	-0.38319781205259906
231	0x3fb323af75586157	0.07476326575158986
232	0x3f9935d701605316	0.02461944528484413
233	0x3f7abaaad44ed9ba	0.006525676061690461
234	0x3fa4e0ef9afb64b2	0.040778625172330676
235	0xbfc1c65cb1a3d758	-0.1388660304434619
236	0x3fc98556d5e9ae1b	0.1993816895004422
237	0xbfbf2a2318be911f	-0.12173671106444715
238	0x3f903156b73b2990	0.015813212331332205
239	0x3fb2d8d055055ab8	0.07362081599908776
240	0x3fc3b313408d3456	0.15390244152004823
241	0xbf90a78af61c252f	-0.0162641251290882
242	0x3fc6a9978ed11f5d	0.1770505378101416
243	0x3fba3d33bd422b98	0.10249637003486922
244	0x3fc0868b87f1eac5	0.12910598886431593
245	0xbfdcfcbf7de0cbe8	-0.45292651455673516
246	0xbfc2a869b499037c	-0.14576455419776468
247	0x3fc116bdd9fdc1d4	0.133506518784556
248	0x3fc18ca62481d3fa	0.1371047666795276
249	0xbfb709194afe24ed	-0.08998258667829236
250	0xbfa7ad479b955c53	-0.046243894331092016
251	0x3fbc6f8fc4eadc08	0.11107729489855
252	0x3fbb1f77ee100867	0.10594892084194073
253	0x3fc1a36470e297bb	0.13779883872956397
254	0x3fb143b96118c0ac	0.06743963833355576
255	0xbfba3a4837adb7e4	-0.10245181426373012

fc_1.bias f8 [128]
0	0x3fad5e0a3b0cc009	0.057358092983463456
1	0x3fbaaff592c7b353	0.10424742539880798
2	0x3fb4e78480cfb572	0.08165767807778027
3	0xbf9b404afff95494	-0.026612445710573043
4	0xbfa997ea34222c90	-0.049987143386794775
5	0xbd28557b110d1bae	-4.3225705854484924e-14
6	0xbfb1f901b7c3cf5d	-0.07020579086730323
7	0xbf7ffbd368bdba19	-0.007808519188854856
8	0xbf62de25040e6265	-0.0023031924215042737
9	0x3fad2cb7340773a6	0.05698177824135735
10	0xbf9fd5081ffef1bd	-0.031086089089272784
11	0xbf74798b30fdcd84	-0.004998725620555592
12	0x3f98f797cda873c9	0.02438199227082175
13	0xbf43277e1281db68	-0.0005845418536541804
14	0x3fc37aa286e9f663	0.15218001926034494
15	0xbfb1a8a66e86e6ad	-0.06897964666759533
16	0x3fc37b29f1eee832	0.15219616234918615
17	0xbf857c0d5c641f7a	-0.010490517026951574
18	0x3fb5c7999481b996	0.08507690311100755
19	0xbc9d672491d93a95	-1.0201180788863448e-16
20	0x3f953ed579c91310	0.02074750476664905
21	0xbf84d93817cddaa5	-0.01017993757862474
22	0xbf6ec9b6be6d09b1	-0.003758294030746977
23	0x3fb5f28a2d9e9df7	0.08573211301574434
24	0xbfa3973e8f134b1b	-0.03826327797437142
25	0xbdb8adfd89febc41	-2.2446010870025335e-11
26	0xbeb5d51f2e4304c1	-1.301318826072131e-06
27	0xbf794547f9b468a9	-0.0061695872821251685
28	0x3fb85838e5f28d5e	0.09509616483642477
29	0xbfc75231f613764f	-0.1821958972495161
30	0xbfa587b5b00cec55	-0.04205100797704434
31	0xbf75fbbf534b0d72	-0.005367038120940181
32	0xbf54835b1b2a5a25	-0.0012520208080438824
33	0x3f7894902969093b	0.0060010558432302364
34	0xbfb65f3efa515774	-0.08739083873055425
35	0x3fb0f071999f7db2	0.06616888046800432
36	0xbaf1666f1d3987da	-8.995657904108522e-25
37	0xbf599d76f68e63d6	-0.0015634214161990199
38	0xbf047a74ff1dad7d	-3.905934853673085e-05
39	0xbf7c51cd4a043265	-0.006913949881220381
40	0xbfbbe9e35cafe70a	-0.10903759968632812
41	0x3fa3d9cf108b390c	0.03877112461997187
42	0xbfa7bf3c4e1fa5aa	-0.04638088658959856
43	0x3fa3e1b317c49f28	0.03883132615220425
44	0xbf15d1eff24b7dd1	-8.323695199007683e-05
45	0xbfa388f6d4fc27d8	-0.03815432882227271
46	0xbf931ed92e029ec4	-0.018672364648095977
47	0xbfcf7e24b38b4c83	-0.24603708998492743
48	0xbf7607731660acf5	-0.005378198204236674
49	0xbf6d5123286df1d4	-0.0035787283590577954
50	0xbd44a996ab2ed708	-1.4681557496245582e-13
51	0x3fb475d3b1969af4	0.07992289624835874
52	0xbf36f08b76cd2a9f	-0.00035003094562983424
53	0xbfbaa2106c3be679	-0.10403540270262991
54	0x3f84585a5b9d1426	0.009934144898247576
55	0xbfb00730922068e5	-0.06260970656913718
56	0x3fbd741d19e7e2d3	0.1150530040976137
57	0xbf7e17b32d8dfc5f	-0.007346820749147913
58	0xbfc689dfde02ebf0	-0.17608259525681502
59	0x3faa72028decd786	0.051651077103470874
60	0xbe194d18fee20353	-1.4727214964304598e-09
61	0x3fa3aad29516531f	0.03841264791404896
62	0x3fae590a8eb21a27	0.05927308074847231
63	0xbf986d638601ca42	-0.023854785017144893
64	0x3fb8d55a31b86826	0.09700549806476086
65	0x3fa1f43a82970965	0.03506644100299886
66	0xbfba776c96006571	-0.10338476812503018
67	0xbfba5f9b576861ad	-0.10302134403207815
68	0xbf07864fde72d29c	-4.486972084675087e-05
69	0xbf830a7fa6e52eaa	-0.009297368317354799
70	0xb9cd8c3eb88b6764	-2.9136411917560503e-30
71	0xbef02bade710094a	-1.5421507161058897e-05
72	0xbfa1ec0748b9aebc	-0.035003879191973536
73	0xbfb50e268dfbc1bd	-0.08224717108146869
74	0xbf9b23f2bd836a56	-0.026504319016434096
75	0xbf79a282d8799353	-0.006258498302121068
76	0x3fa9f0a72bc265cc	0.0506641617695994
77	0x3f58dd1e30ef58d0	0.0015175623736829909
78	0x3fb0ecbb0577d874	0.06611222156047508
79	0xbd8e98a05cc21a55	-3.4783848758559558e-12
80	0xbf7a45e8ecbf6480	-0.006414327490312677
81	0xbf02d8827a8e13e3	-3.594539823040929e-05
82	0xbfcaef91bbe407ce	-0.21043607401230563
83	0xbf927add9680c436	-0.018046819983457328
84	0x3fc183023c69e7d5	0.1368105692852725
85	0x3f9b999fde4a1603	0.026953218405216372
86	0xbfb8395bf58e76e9	-0.09462523217231546
87	0x3fbf4f1abb4f616e	0.12230078766822824
88	0x3fc07b2c9e8184eb	0.1287589811281927
89	0xbf8524a0c157d250	-0.010323768520700188
90	0x3fb3a765d33ed4ac	0.07677303702696986
91	0xbfb27999690ef129	-0.07216795744802042
92	0xbf531dbfd4ff63c9	-0.0011667607650365111
93	0xbed00fd3df1be3b1	-3.829437888341304e-06
94	0x3faccf2584846840	0.05626790278093141
95	0x3faa80c6877b073a	0.05176372913184797
96	0x3f93589cd7ac529b	0.018892717994349977
97	0xbf0e490b70a8629f	-5.7764684317789356e-05
98	0x3fa2f8cf51865958	0.03705451841522017
99	0x3fab679bbff9b3c3	0.05352484434556672
100	0x3fb097f72ce48afc	0.0648188099481039
101	0xbae928844ca69c01	-6.5032600431081345e-25
102	0x3faa4ffce969d2be	0.05139150952610326
103	0x3f731dbfa90d8762	0.0046670424206654865
104	0x3fa5a259241f3b9f	0.04225424352590967
105	0x3f98117bf755a696	0.023504197093109434
106	0x3fc10f4ed4e0c8c6	0.13327966112553308
107	0xbf801a3bb5b39252	-0.00786253593691658
108	0xbfb98a63f68f16f7	-0.09976792115693543
109	0x3fb274a0b5ae19a5	0.07209209857510375
110	0xbf06624bd30d6dfe	-4.2694033601544515e-05
111	0xbf77d376475e9a23	-0.005816900278580425
112	0x3fc4e7b36f1d27a4	0.16332095075113984
113	0x3fa816626455640a	0.04704577898764491
114	0xbf6b8ddfa69ccfdb	-0.0033635490589407463
115	0xbfb60eca79ac8239	-0.08616319151452324
116	0x3fb7fce6ee633c36	0.09370272941599542
117	0xbf6a120b4981c6cb	-0.0031824322177776746
118	0xbf747d22d1410f9f	-0.0050021514944695025
119	0xbf7c0abb28e3c439	-0.00684617146747351
120	0xbc964927e379b13b	-7.731927910898349e-17
121	0xbfb837de0721e860	-0.09460246729023103
122	0xbfacacf3bd0ad72a	-0.05600701983114072
123	0xbec368531f8f11fc	-2.313556475704588e-06
124	0xbfadab8e6b008d28	-0.05794949585131298
125	0xbf90b38e2a2ca51a	-0.01630994923030924
126	0x3fba140d529aa8f1	0.10186846987440724
127	0x3fb8961cce3b5971	0.09604053530651925
