models/model_15.pt (torch, 64647 bytes, 9 tensors)

weight f4 [64, 1, 3, 3]
00000000: 4a1c 45be 15dc 99bd 4576 e83d 9495 213e
00000010: ef86 c23d 72a5 48be 5d55 19bd 016c fbbd
00000020: 62ee 80be c574 de3c 342f 983e 4058 a93e
00000030: 5bf4 223e 8083 a33e c27f b9bc daf4 95be
00000040: 60d0 183e 4b3b 5fbe 6314 6dbe 0001 993e
00000050: ab49 9b3e 38b2 723e 57d0 00be 5a4e b33d
00000060: da07 5abd 9729 243e 6a59 3f3e 01df 533e
00000070: d66a f73c 6482 64be eaf9 09be 5151 2dbd
00000080: 8acd 69be 392a 4f3e 6b68 43be c604 ab3d
00000090: 116f 853e 16e2 913e 9649 08bd a984 37bd
000000a0: ffcc 983e f7e0 283e 74bb a83e a026 adbd
000000b0: 909e e63c 1d63 b23d 176b a7be 5ab3 b9bd
000000c0: b582 1cbe 36fc 1a3e 1338 383e ea8b 73be
000000d0: 0c95 633e 9e0e 8cbe a8e5 8d3e 088c 87bd
000000e0: 849e a0be 9146 3f3d a2e6 8dbd 565b 993e
000000f0: b0d3 613e 3376 00bd 0179 a03d 87ac ed3d
00000100: 637a 6d3c 471a 253d 1051 27bb 62c9 0ebe
00000110: 7082 1ebe de35 68bd 2c55 123e 61fb c9bd
00000120: b682 a13d 9f87 463d d930 9b3e 9d75 a03e
00000130: 696f 54be 1958 4f3e 4ab7 a3bd ea51 a0be
00000140: 72eb 7ebd ce08 58be a47b 10be 3539 8b3e
00000150: 5f8c a2be 87c1 ad3e a52c 003e 88a0 a0be
00000160: 8044 1dbe 2d4d 4f3d 8505 dbbd 4b8d 07bc
00000170: 2ce4 a4be 5344 1fbe 1303 a13e 7c80 c6ba
00000180: 5591 60be 0157 90be ad24 15bd 604e 97bc
00000190: f726 b5bc fc1b 30be 9277 393e ea3d 173e
000001a0: 846c a4bc b06a 2dbc 9346 70be b81c 9fbd
000001b0: 601d 873e aae5 c13d 7aee 86be 08b9 70bc
000001c0: d6a8 a5be d502 70be 6673 a3be f88e 39be
000001d0: 5d05 74be 2765 90bc 803f a9be 9c4a dcbc
000001e0: e0be 813d aeed 9fbe 016e 2fbe 9fde 79be
000001f0: 13d6 72be d0ea ff3a 4c22 1bbd a1f7 5bbd
00000200: c4fd 37be d308 a03e 467c 87be 4270 863d
00000210: a821 923e dc3c 88be 072d 3abe 3468 23bd
00000220: d196 033e 514e 8f3e fdf1 083d b7be 813e
00000230: e500 3c3e 83e5 993e 515b 103e 20bc e03c
00000240: 390a 60be e0d4 903d 2255 8b3d ee6d 2e3e
00000250: 154f 6a3e 0b81 0b3d 109a 203e edda fe3c
00000260: 5867 8ebe 64b3 9b3d 8bb7 1cbd e4cd 043e
00000270: 6bdf 7cbe 3522 013e 21e1 993e 3446 403e
00000280: c04f 9d3e 0b5b a53e 7c72 933e 8673 d03a
00000290: 3db1 5fbe 1a8b 8e3e 56c7 993e 1f5a a73e
000002a0: c819 8d3e 156c d039 265e cc3c a472 1dbe
000002b0: 7610 533e 3423 9a3e 077f 883e c753 023e
000002c0: 3011 683e d876 36be c2ab b93b 86d9 d63d
000002d0: bf93 97be 637d 9b3e 0aee 2fbe df01 403e
000002e0: e7ab 41be adb0 0abe a6a6 9b3e 97e1 183e
000002f0: 3824 453e c4c0 883e 08c8 c63c b690 99be
00000300: 95cc 39be 75b0 8c3d f55d 94bd 7975 5abe
00000310: d7a8 a2be d05e 0d3e 6b07 41bd 4918 263e
00000320: b5e4 003d fcd2 443e 1e73 ca3d ed10 943b
00000330: 47fb 8ebd daf4 a33e 0732 f6bc 4a05 cdbd
00000340: 0784 513e fb5c 79be 1e68 7abd 836b 3a3e
00000350: 3036 7c3e a4e8 d83b 5701 89be 7933 8d3e
00000360: eb0d 80bc e1e0 233e 4f22 143e 868a c33d
00000370: c544 a2be aad9 7abe d6ce f43d 7606 dabd
00000380: 70cd a63d 42a2 733d 13dd 52be 3877 f83d
00000390: ccc1 13be 64f0 813d cdea 67be f14f 0ebe
000003a0: e4f4 913e 4862 623e ea6b 513e 97ff 8e3e
000003b0: 1731 a93d f3ca 653b 555d 9e3d f787 cc3d
000003c0: 029a 38be e9a5 033e 8ce4 473e fa5d 32be
000003d0: 94cc 2d3e 8a1b e8bd 60d2 50be 6dd4 e5bd
000003e0: 013d 94be 7c3d 9a3e 072e 233d 98c8 c73c
000003f0: 9614 9d3e 851f 05bd 0855 e63d 83db babc
-0.19249073 -0.075126804 0.11350683 0.15779716 0.09498393 -0.19594362 -0.037434924 -0.122764595
-0.25181872 0.02715529 0.29723513 0.33075142 0.15913527 0.31936264 -0.022643927 -0.2928837
0.14923239 -0.21799962 -0.23152308 0.29883575 0.30329642 0.23700798 -0.12579475 0.08755179
-0.053230144 0.1603149 0.18686453 0.20690538 0.03020231 -0.22315365 -0.13474241 -0.042313877
-0.22832313 0.2023095 -0.19082801 0.0835052 0.260613 0.28492802 -0.033273302 -0.04480425
0.298439 0.16492067 0.32955515 -0.08454633 0.02815178 0.087103106 -0.3269889 -0.09067412
-0.15284236 0.15135273 0.1799014 -0.23783842 0.22224826 -0.27354902 0.27714276 -0.06618506
-0.31370938 0.046698157 -0.06928755 0.29952496 0.22053409 -0.031362724 0.0783558 0.116051726
0.014494511 0.040308263 -0.0025530495 -0.13944009 -0.15479445 -0.056691997 0.14290303 -0.098624
0.07886259 0.048469182 0.30310705 0.31339732 -0.20745625 0.2024845 -0.07993944 -0.31312495
-0.062236257 -0.21097109 -0.14109665 0.27192083 -0.3174772 0.33936712 0.1251703 -0.31372476
-0.15358162 0.05061071 -0.10694412 -0.008273433 -0.3220533 -0.15553407 0.31447658 -0.0015144492
-0.2193044 -0.2819138 -0.03641193 -0.01846999 -0.022113306 -0.17198175 0.18112019 0.14769712
-0.020071276 -0.010584518 -0.23464422 -0.077691495 0.263896 0.09467633 -0.26353818 -0.014692552
-0.32355374 -0.2343858 -0.3192398 -0.18120944 -0.23830171 -0.017626358 -0.3305626 -0.026891045
0.06335235 -0.31236023 -0.17131807 -0.2440133 -0.23714475 0.0019524936 -0.037874505 -0.053702954
-0.17967898 0.31256732 -0.26462 0.0656438 0.28541303 -0.26608932 -0.18181239 -0.039894298
0.128505 0.27989438 0.033433903 0.25340816 0.18359716 0.30057916 0.14097334 0.027433455
-0.218789 0.07071853 0.06803347 0.17034122 0.2288173 0.03405861 0.1568377 0.031110251
-0.2781322 0.076025754 -0.038260978 0.12969166 -0.24694602 0.12610705 0.30054572 0.1877678
0.30724907 0.32296023 0.28798282 0.0015903569 -0.21844955 0.278405 0.30034894 0.32685944
0.27558732 0.0003975338 0.024947237 -0.15375763 0.20611748 0.30104983 0.26659414 0.12727271
0.22662807 -0.17818773 0.005666227 0.10490708 -0.2960491 0.303691 -0.17180648 0.18750714
-0.18913232 -0.13543959 0.3040058 0.14929806 0.19252098 0.26709569 0.024265304 -0.29993218
-0.18144448 0.06869594 -0.072444834 -0.21333875 -0.3176944 0.138057 -0.047126215 0.16220202
0.031468112 0.19221109 0.09885238 0.0045186193 -0.06981521 0.32022744 -0.030053152 -0.100107744
0.2046052 -0.24351875 -0.06113445 0.18205075 0.24630046 0.00661953 -0.26758835 0.27578333
-0.015631637 0.16003753 0.14466213 0.095479056 -0.31693092 -0.24497095 0.11953513 -0.106457636
0.08144653 0.059480913 -0.20592146 0.12132114 -0.14429396 0.06344679 -0.22648163 -0.13897683
0.2850715 0.22107804 0.20451322 0.27929375 0.08261316 0.0035063594 0.077326454 0.09986871
-0.180275 0.12856258 0.19520777 -0.17418662 0.16972572 -0.11333378 -0.20392752 -0.112221576
-0.28952792 0.30125034 0.039838817 0.024387643 0.30679768 -0.032500762 0.11246687 -0.02280975

bias f4 [64]
00000000: 902a eebc 366c 14bd 6060 003e d61d 2a3e
00000010: bb67 e83b 2939 2abd 0887 42bd 2eba ecbd
00000020: 55d6 1ebe 2d46 b7bc e2f1 d8ba 267c c0bd
00000030: 32a9 2dbe b00c d3bd ee73 533e aea0 1dbe
00000040: 8b27 c5bb effb 83be 391c 2f3e b83c 96bd
00000050: f4d2 98be c48a 133e 116a 7e3e 3ba2 43bd
00000060: 8672 273e aa11 a1bd ba52 31bd cf9b 983e
00000070: d821 553e 9061 9fbe d459 6e3e 33d8 b9bd
00000080: 652f 493e 0736 6e3e 6edd 8ebe c801 8b3e
00000090: 9e8b 49be ccc6 2bbe 2b8e 51be be08 c9bd
000000a0: 4361 00be d146 68be 486d 623e 0ae9 35be
000000b0: 11a2 a13e 0716 653e f6c2 0d3e 38a3 01be
000000c0: a387 88be e6ff 023e 5820 12be 066d 613d
000000d0: fddc f8bd 89b3 933e 4f5b 783a c394 693e
000000e0: 0713 32bd 861d 71be 1c59 8ebe b739 99be
000000f0: 8f77 333e 53f2 fc3d 37ce 9a3e fe6a 433e
-0.02907303 -0.03623601 0.12536764 0.16612944 0.0070924438 -0.04155842 -0.047492057 -0.115589485
-0.15511449 -0.02237233 -0.0016551579 -0.093986794 -0.16959074 -0.10305154 0.20649692 -0.15393326
-0.006016677 -0.25778148 0.1710061 -0.073358 -0.29848444 0.14408404 0.24845149 -0.047762137
0.16352281 -0.07864697 -0.043291785 0.29806373 0.20813692 -0.31129122 0.23276454 -0.0907444
0.19646986 0.23262797 -0.27903312 0.27149796 -0.19682166 -0.16775054 -0.20464389 -0.098161206
-0.12537102 -0.22683264 0.22112 -0.17764679 0.3156896 0.22371684 0.13843903 -0.1265992
-0.26665983 0.1279293 -0.1427015 0.055035613 -0.12151525 0.28847912 0.0009474055 0.22810654
-0.043475177 -0.23546419 -0.2780236 -0.29926845 0.17526077 0.12350907 0.30235454 0.19083783

weight f4 [32, 64, 1, 1]
00000000: 229b ac3d 4c58 403d c6da 10bd 1a2c 603c
00000010: 77da 3b3c 1efc 053d 12f7 8fbd 9308 d5bd
00000020: f572 543d 979c b53d 1753 983c f58c b93d
00000030: c21d cebc a6cf 683d 0244 283d d978 0fbd
00000040: c3dd c43d d107 bb3d 40ea bd38 e0a5 6a3c
00000050: 2e73 a3bd 46cd bd3d 2af9 ecbd 6a1a ba3d
00000060: f148 38bd 58a2 c73b 5fea f8bc 5af5 293d
00000070: b52f 7b3d 582c 923c 3214 843d 2a45 03be
00000080: 5322 013d e4da b93c 3086 e3bb a7fe cd3d
00000090: 8e2f 3d3b cd48 d6bd e936 a73d d314 28bd
000000a0: 4635 bfbd e0a3 45bd 100d 373d dd4f a63d
000000b0: 9aae 6f3d bc29 d93c c34c 3cbd ef94 5bbc
000000c0: beee bebd 93e1 6b39 7cf8 3a3d 9c2b b5bc
000000d0: e750 44bd 99e8 853b a8e3 d0bc a188 9c3d
000000e0: 675f 713c 7c08 af3c 557d 883d 0f12 033c
000000f0: 3981 0b3b 612a 083d c533 253c 9ef7 5bbd
00000100: 0209 f93c ec83 c23d f00e ac3c f8ce ab3d
00000110: ae3f 33bd 15a9 203d 6c10 4d3c a067 dc3d
00000120: 3323 cd3d 179f babb fbd2 023e c198 1abd
00000130: 4ef5 e93c 5ac7 da3d 7b33 fcbd b9ad 84bd
00000140: 39aa 6fbd bb1b aebd 92c9 a03b 9462 0a3c
00000150: 0ff6 ebbc 649d edbd 80e5 f03c d7a6 1c3b
00000160: 9bf1 6bbd 1313 f93d e08d bfbc 366e fabd
00000170: 137c 09bd 882f 423d e724 023d 8cf8 01bd
00000180: 9910 34bd 7394 09bd f446 9cbd f79c 663c
00000190: 0763 c83d 3281 3fbd adaa 9f3d 022a b53d
000001a0: 0a9f b5bd 997b 00bd 32de e43d 8142 bf3d
000001b0: 231e b23d 021c d2bd 9d88 fe3d 7fcb 583d
000001c0: c2e9 ba3d ace4 bc3d 4177 dd3c 49a4 f53a
000001d0: 5a9e a5bd 6e0c 643d 0d7f 13bc 27e7 e5bd
000001e0: 6df7 7d3d a683 e3bd 4bed f63c 3049 743d
000001f0: 232b 8d3c 7aae b43d ca40 5fbd efe0 3d3d
00000200: 462b ddbd 723d 0e3d 9d91 903d 6667 6b3d
00000210: 46c5 a03d 3589 d0bd 4497 80bd fd1b e0bd
00000220: 3d0b cf3c e99c 2f3c 8f3e bb3d 351d d7bd
00000230: 8251 613d 1794 91bd 4267 bdbb 814b a73c
00000240: 4544 b13d 7dae 75bd 25d8 283c 442a 05bd
00000250: 64f1 54bd 8972 74bd 4553 21bd 2a94 f8bd
00000260: 5e54 a5bc b09a eb3d 2e39 863d c8a0 c5bd
00000270: acf0 92bd 1846 d1bc 507b d3bc 7582 aa3d
00000280: 2216 32bd 3345 ccbd 86c8 9e3d 0ab1 203d
00000290: 837e 913d a738 90bd ef9b 9a3d ee93 373c
000002a0: 5bc9 013e a70b 373d bf29 b23d e7e1 ac3c
000002b0: f852 91bd c5a6 2dbd cc28 393d a6a6 d9bd
000002c0: 120f e9bd 0fad 423d d3d2 123b 90ca 96bd
000002d0: de71 b73c 7b9a aabd 0021 c53c 12ab b7bd
000002e0: 204d 563d c55e 943d 5b92 b4bd 6951 8bbd
000002f0: 2748 cebc 4ab3 51bb e324 9cbc 4d56 babd
00000300: e692 ed3d 2ee3 b9bd 1386 c23d 0d8b d6bb
00000310: 6646 bd3d 3c5b 943d e1dc bf3d 4cba e83c
00000320: 30c5 ba3d 3c00 833d 8413 9fbd 15e9 e2bc
00000330: 62db 483d be1c 313d 73a6 a5bd 8eb3 74bc
00000340: 8345 af3d fbfb 43bd 7eb7 8eb9 5a0a d4bd
00000350: dd44 a13b 6be5 b3bd fd17 c83d aa05 9dbc
00000360: d33b 193d d706 5ebd b9c2 9b3d b89f 633d
00000370: 500e f7bc 8cee 7c3c a713 d6bd d03f c73d
00000380: 7862 ba3d 20a5 8bbd 5771 603d a7ab 183d
00000390: 38cf a43c b547 463d 39f1 023e b5be a1bd
000003a0: 5799 c9bd 3f65 bb3c dc8f 99bd e430 38ba
000003b0: 3c7f f63d 1311 7cbb 2664 a43d 8206 063e
000003c0: 3723 e5bd d20c 5d3d 4978 2fbc 4672 f83c
000003d0: 0782 7cbd 9dc7 d9bc 7f88 85bd b315 893d
000003e0: be06 843c 9ddf e13d f137 d8bc 63ed 903d
000003f0: d4c2 ecbd c5bf 213c 6c5b 08bd b66d b0bc
0.08428027 0.046959206 -0.03536489 0.01368239 0.01146566 0.03271114 -0.07029547 -0.10402026
0.051867444 0.08867758 0.018594308 0.090600885 -0.025160674 0.056838654 0.041080482 -0.03502736
0.0961261 0.0913235 9.055855e-05 0.014321774 -0.07980953 0.092676684 -0.11570962 0.09087069
-0.044991437 0.006092351 -0.030385194 0.04149375 0.061324794 0.01784341 0.064491645 -0.12819353
0.031526875 0.022687383 -0.0069434866 0.10058337 0.0028867456 -0.104631044 0.0816477 -0.041035485
-0.09336333 -0.048251987 0.04469019 0.081207015 0.058516122 0.026509158 -0.045971643 -0.013402208
-0.0932288 0.0002249538 0.04564713 -0.022115521 -0.047928717 0.0040865657 -0.02549918 0.076432474
0.014732218 0.02136635 0.0666453 0.007999911 0.002128674 0.03324354 0.010083144 -0.053702943
0.030399803 0.09497818 0.021003217 0.083890855 -0.0437619 0.03922375 0.012516122 0.107619524
0.10016479 -0.0056952345 0.12775795 -0.037743334 0.028559353 0.106825545 -0.123145066 -0.064784475
-0.058511946 -0.08501383 0.0049068416 0.008446354 -0.028803853 -0.116022855 0.02940631 0.0023903155
-0.05760346 0.12161841 -0.023383081 -0.12228052 -0.033565592 0.04740861 0.031773474 -0.031731173
-0.04396114 -0.033588838 -0.07630721 0.014075509 0.09784513 -0.04675407 0.07796226 0.08845903
-0.08868225 -0.031367872 0.11175193 0.093388565 0.086971544 -0.10259248 0.12428401 0.052928444
0.09126617 0.09223303 0.027034404 0.0018740977 -0.08086844 0.055675916 -0.009002459 -0.112257294
0.06200354 -0.11109094 0.030142447 0.05964011 0.017232483 0.08822341 -0.054505147 0.04635709
-0.107992694 0.034726568 0.070590235 0.057471655 0.07850127 -0.1018242 -0.06278852 -0.10942838
0.025273914 0.010718563 0.091427915 -0.10503618 0.055009373 -0.07108324 -0.0057801316 0.020421745
0.086555995 -0.059980858 0.010305439 -0.03251101 -0.05198802 -0.05967954 -0.039386053 -0.12137635
-0.020181831 0.11504114 0.06553875 -0.09649807 -0.07174811 -0.025546119 -0.025815636 0.08325664
-0.04347814 -0.09974136 0.077530906 0.039231338 0.07104208 -0.070420556 0.07549273 0.011204703
0.12674467 0.044688847 0.08699369 0.021103812 -0.07095903 -0.042395372 0.045204923 -0.10627489
-0.113798276 0.047528323 0.0022403493 -0.073628545 0.022393163 -0.08330246 0.024063587 -0.08968176
0.052319646 0.07244638 -0.088169776 -0.06802637 -0.02518089 -0.0031997734 -0.019060558 -0.09098492
0.11600284 -0.09076534 0.09498229 -0.006547338 0.09241943 0.07243964 0.09368301 0.028409146
0.09119642 0.06396529 -0.07767394 -0.027699033 0.049037345 0.0432403 -0.08088388 -0.014935387
0.0855818 -0.04784773 -0.00027221063 -0.10353537 0.004921539 -0.087839924 0.097702004 -0.01916774
0.03741057 -0.05420574 0.076055 0.05557224 -0.030158192 0.015437733 -0.10452967 0.09728968
0.09100813 -0.068186045 0.05479559 0.037273075 0.02011834 0.04840823 0.12787332 -0.078977026
-0.098437004 0.022875426 -0.07498142 -0.0007026328 0.12035987 -0.0038462325 0.08026914 0.1308842
-0.11188357 0.053967305 -0.010709831 0.030327927 -0.06164744 -0.02658444 -0.06520175 0.06693592
0.016116496 0.11028979 -0.026393862 0.07076528 -0.11560598 0.009872382 -0.03329031 -0.02153669

bias f4 [32]
00000000: 6c92 24bc 4b5f 35bd 251f a33d 2b1c c3bd
00000010: 536c bcbd 3a29 88bd 64ba c3bd 2c9d f53d
00000020: 5c0e fabd 56a9 96bc ca12 6abd bf05 dcbd
00000030: a787 e1bd 096d 963b c744 e9bd eb8c 91bd
00000040: f663 b23c e372 9cbc 83d5 6d3d 1617 80bd
00000050: bd6b fabd 96bf 513b a273 afbc 29fa ebbd
00000060: ce65 2e3c 78db 983d 8709 ef3d 2cd2 98bd
00000070: f70e 953d 5163 953d 27dc 983d ba81 7bbd
-0.010044675 -0.04428033 0.07964925 -0.09526857 -0.09200349 -0.06648488 -0.095570356 0.11992869
-0.1220977 -0.018391293 -0.057146825 -0.107432835 -0.11012202 0.0045906347 -0.11390071 -0.07106956
0.02177618 -0.019097751 0.05806495 -0.06254403 -0.12227581 0.0032005063 -0.021417443 -0.11522324
0.010644389 0.07463735 0.11671739 -0.07461962 0.07278245 0.07294334 0.07463866 -0.061403014

weight f4 [16, 32, 1, 1]
00000000: de45 313e a1ea 5ebd dc6e 9fbd ba92 13be
00000010: 7274 673d cdbc 63bd bfb2 853d aa9c 9fbd
00000020: d0b4 0ebe 7814 a3bc 2763 d6bd aa73 a03d
00000030: 2243 15be 354f 22be 61c2 5d3d d5fa d5bd
00000040: 8da6 273e ee78 1fbc a82e 9c3d 619b 1ebe
00000050: ebcd 063e b706 14be 3f30 f1bc 0007 f9bd
00000060: 239c 213d ad0c 143e 69db a4bd db5d bc3d
00000070: 49bc 0abe 7058 9a3d d0cb 30be 6fcd 253e
00000080: 2e9d aa3b e98b cebd 7ee3 01be 16d5 0c3d
00000090: c759 1dbe fa63 2c3d a9f6 1c3d fff7 47bd
000000a0: 84b5 0cbd a3aa e9bd a1a2 a43d 1a6a 073e
000000b0: c498 85bd 8a00 edbd 161a b73d 616a 35be
000000c0: eb31 81bd 2deb b6bc cd45 223d 3a26 8dbd
000000d0: 5a7e 763c 6810 0c3e 69ab 403d 1dc9 0b3e
000000e0: 6d7e 69bd 45a9 02be f113 d1bd ac8c 303d
000000f0: 2008 b73d 2ad7 e2bc 4c5c b6bd 1e59 253d
00000100: ed36 fd3c 53b2 c1bd 09e6 f4ba 2812 09be
00000110: 63de 213e 029a 9b3d 368d babd db6d 01bd
00000120: 0993 a73d 78de cabd a0f6 0f3d 8f5e d03b
00000130: d678 033e 787c ef3d e1f1 253e b0d2 04be
00000140: 100c f3bd 72df a83d 5324 24be ec84 983d
00000150: 1f08 033d 4546 1fbe 896e aa3d 7ded 9dbc
00000160: 7c27 b63d 158f 8fbd dcb2 0bbd 427f 94bd
00000170: e2c6 d03a 3cf3 ed3d becd f93c 016d b43d
00000180: 7872 cabd 986c 41bd ceaa 18be 4b80 64bd
00000190: 5d8f 57bd 2723 e23d 911e 193e 6704 efbb
000001a0: a634 233e 98d1 2e3e 90f1 1d3e 986c 183e
000001b0: dcba a8bc f502 de3d 9e14 a63d 7206 02bb
000001c0: d1b9 2abe 08fa 26be a0ee ea3d 7f22 193d
000001d0: 14bd 1b3e 7641 22be d847 1c3d 0980 39bc
000001e0: 27f2 debd cc23 c83d 03c4 473c cfb7 253d
000001f0: 5768 fc3d 12d5 19be 28c4 88bd 6b0e f2bd
00000200: 58f3 1ebd 5296 af3d bcd4 25be e836 a43c
00000210: a9c6 253e 96fb 9e3d fc1b 443d 5416 923d
00000220: b84f 4b3d d127 32be 00c7 b9bb fe30 2fbe
00000230: 0ae0 23be a5c1 18be fa2b a1bd 6224 01be
00000240: 1240 c73d 7275 09be a462 143d 604f 553d
00000250: 00b7 643c 1812 e0bc 2003 04be 9ce0 8c3d
00000260: 824a a63d 03fd 273e 0c4b c5bd 9ab5 fd3d
00000270: 5a97 f53d 28b2 b53c 97ae 163e b49a 863d
00000280: d99d 0fbd f22c f63b 6266 95bc 365b 1bbe
00000290: 727d 8ebd 3c76 00be 2de8 cabc 016b d33c
000002a0: 881c 103b 8485 05be ca2d 3d3e efd4 243e
000002b0: b8e1 0fbc aefc 003e 6060 893d 9548 993d
000002c0: b103 c0bd a4d2 39bd 4936 803d 15df 97bd
000002d0: a84d 033c 2a2b ed3c 8063 003e ef69 3dbe
000002e0: 438b a3bd 67df 27be 82a6 d03d 7d03 a0bd
000002f0: c1ff 833d 2b03 92bd 48eb c83d 0d15 35be
00000300: f51b 723d b605 00be 41f7 cbbd 9e62 e3bd
00000310: 4b61 eabd d86d f5bd c3b2 113e efc5 df3d
00000320: 2437 d9bd 318c 1c3e 2234 a4bd 72b7 123e
00000330: 2e0a 903d b931 76bd 181c 9a3d c72c 0c3e
00000340: 71e8 d13d babc e73d a4aa 94bd 4bca 053e
00000350: 27fb 13bd ca3f 713d 02a4 2fbd 3d53 6f3d
00000360: 812a 313a b053 acbd 63ae 88bd 6136 b03d
00000370: c722 0f3e eb2b eb3c 8cc9 19be 85ae f2bc
00000380: bd4d 913d d0be 96bc 6bfb af3d db7e b8bc
00000390: c265 c6bd 9b7e 413d dc34 0bbe 3cd1 f93d
000003a0: 7243 06be 8f32 09be ca32 d4bd 6adc 2b3e
000003b0: 6b88 053e 3e77 64bc 5622 e13d 1ba2 c0bd
000003c0: c8ed a13c 3cc0 003e a1b6 16be a56c f8bc
000003d0: bd34 053e 54b2 1d3e 9146 05be cfc9 df3d
000003e0: 185b 1c3d e6db 1dbd c69c f9bd b23a 103e
000003f0: 5050 01be be31 353e dca9 cebd 4173 8bbd
0.17311808 -0.05442298 -0.077848166 -0.1441144 0.056507535 -0.055599976 0.06528234 -0.07793553
-0.13936162 -0.019907221 -0.104681306 0.07834561 -0.1457639 -0.15850528 0.054140452 -0.10448233
0.16372128 -0.009733422 0.076260865 -0.1548896 0.13164489 -0.14455687 -0.02944195 -0.12159538
0.039455544 0.1445796 -0.08049662 0.09197589 -0.13548388 0.07536399 -0.17265248 0.16191648
0.0052067256 -0.100852795 -0.12684438 0.034382902 -0.15366279 0.042087533 0.03832117 -0.048820492
-0.034352794 -0.114094995 0.080388315 0.13224068 -0.06523278 -0.115723684 0.089405224 -0.17716362
-0.06308349 -0.022328937 0.03961735 -0.06892057 0.015044773 0.13678133 0.04703847 0.13650937
-0.057005335 -0.12759884 -0.10208882 0.043102905 0.089370966 -0.027690489 -0.08904323 0.040368192
0.03090998 -0.09457841 -0.0018684278 -0.13385832 0.1580749 0.07597734 -0.09108965 -0.031598907
0.081823416 -0.09905714 0.03514731 0.0063589285 0.12839064 0.116936624 0.1620555 -0.12970996
-0.11867535 0.08245744 -0.16029482 0.07447228 0.031990167 -0.1555415 0.08321864 -0.019278282
0.0889425 -0.070097126 -0.03410612 -0.07250835 0.0015928412 0.11618659 0.030493613 0.08809853
-0.098851144 -0.047222704 -0.14908907 -0.055786412 -0.052626956 0.11041861 0.14953066 -0.007294226
0.15938053 0.17072141 0.1542418 0.14885175 -0.020596914 0.10840408 0.08109401 -0.0019840267
-0.16672446 -0.16306317 0.11471295 0.037386414 0.15208846 -0.15845284 0.038154453 -0.01132203
-0.10886031 0.09772453 0.012192729 0.040458497 0.12324589 -0.15022686 -0.06678039 -0.11819156
-0.03880629 0.08573593 -0.16194433 0.020045713 0.16189064 0.0776283 0.04787825 0.07133165
0.049636573 -0.17398001 -0.0056694746 -0.17108533 -0.16003433 -0.1491762 -0.07869716 -0.12611535
0.09729017 -0.13423708 0.036226884 0.05207765 0.013959646 -0.027352378 -0.12891817 0.06878778
0.0811968 0.1640511 -0.09633455 0.123881534 0.11991759 0.022179678 0.14715038 0.06572476
-0.035062645 0.007512682 -0.018237296 -0.15171513 -0.069575205 -0.12545103 -0.024768913 0.02580786
0.0021989662 -0.13039213 0.18474498 0.16096853 -0.008781843 0.1259639 0.06707835 0.07484547
-0.09375704 -0.0453669 0.06260354 -0.074155964 0.00801412 0.028951246 0.12537956 -0.18497442
-0.079855464 -0.16393815 0.10188009 -0.07813165 0.064452656 -0.071295105 0.09810501 -0.17683811
0.059108693 -0.12502179 -0.09959269 -0.11102794 -0.114443384 -0.11983842 0.14228348 0.10926425
-0.1060622 0.15287854 -0.08017756 0.14327791 0.070331916 -0.060106013 0.0752489 0.13688956
0.10249413 0.113152936 -0.072591096 0.1306545 -0.03612819 0.058898725 -0.04288102 0.05842899
0.0006758348 -0.084143996 -0.066738866 0.08604122 0.1397811 0.028707465 -0.1501829 -0.029624233
0.070949055 -0.018401533 0.08592876 -0.022521427 -0.096873775 0.04723988 -0.13594383 0.121981114
-0.13111666 -0.13398193 -0.1036125 0.167833 0.1304032 -0.013944445 0.10992877 -0.09405919
0.019766703 0.12573332 -0.14718105 -0.030325243 0.130084 0.15400058 -0.130152 0.10927164
0.03817281 -0.03853979 -0.12188105 0.1408489 -0.12628293 0.17694756 -0.10090992 -0.06809092

bias f4 [16]
00000000: 6557 89bc 6f42 193e 4d39 2c3b eefe 133e
00000010: eff8 24be e92a 253e 9a82 36bc ddd0 7e3d
00000020: 7e97 6fbd d56c aabc 7f67 efbd f3c2 01be
00000030: 0bc8 a4bd 6cd4 003d 8386 25be af71 b7bc
-0.016765306 0.14966749 0.002627927 0.14452717 -0.16110586 0.1612965 -0.011139536 0.062210906
-0.058494084 -0.020803848 -0.11689662 -0.12672023 -0.08045968 0.03145258 -0.16164593 -0.022393076

weight f4 [81, 144]
00000000: 6292 05bd 105b 383c a382 b7bd 53d1 a33c
00000010: b786 92bd e8a4 b23d 1c4b bdbd 88ab d9bc
00000020: 194f 243c c826 843d 560c b13b 4cd6 b33d
00000030: a39a 623c 7856 a3bc 77af 153d 06e6 1e3d
00000040: 79c9 613a 2463 bcbb 7ace 2bbc 936a 70bd
00000050: 8770 cb3c 11e4 b4bb 1322 813c 5641 14bc
00000060: 5f66 1bbd c439 c93c c49d 653c 61a0 5c3d
00000070: 0892 70bd 7167 15bd 0f5c 063b b176 333c
00000080: e7b5 89bd 0da9 bb3d bfe6 023d b25c a1bc
00000090: 6338 08bd 761e 84bd 260f 2bbd c4d8 ff3c
000000a0: bf89 92bd 10a2 a0bd d7a4 81bd 6f94 8dbd
000000b0: dcd6 a5bd c9c8 7fbd 894d 0ab9 cd30 a63c
000000c0: c7e1 4e3c d35e 19bd ee8f 4c3d 9e76 c83d
000000d0: 0f26 993d defa 3fbc 303f 1b3d 7798 21bd
000000e0: 4ed3 8ebd 6db8 abbd 9bee a93d 51e6 62bc
000000f0: e927 3b3d 78d3 743d 9865 d93c e0cb febb
00000100: 0045 e9bc f3d9 9bbc 6541 1ebd 245c 9f3d
00000110: a7ec 36bd 0647 ad3d 60c0 b53d 80cf 973d
00000120: 5a72 9bbd 91ee fcbc 087e 4abc ef58 93bd
00000130: 50c1 e7bc 9f50 e23b 325d 763d 0faf b43c
00000140: 647b b53c 8365 733c e013 773d 8dc0 a93d
00000150: 11c4 813d 3a2e 8dbd ca2c 22bd d639 943d
00000160: 9baa 3bbd 7520 943d bb82 28bd 204d 2bbc
00000170: 30af 853d 9bf1 6b3b a4cc 86bc d5cd b5bc
00000180: 76bc 8d3b 7caa 8c3d c9f2 24bd 19fd 7e3d
00000190: ba0b 513c 80d3 463d bbef 40bd b36b 8dbd
000001a0: 52db 9c3c 472e 1fbd 0e10 5c3c 1a27 a33c
000001b0: de01 d33c 6bc6 8abd 7601 5f3c 068c 993d
000001c0: 2487 423d 70d1 53bd fc29 823c 67ec b5bd
000001d0: 224c 233d bb49 51bd c8d3 533d 965e c4bc
000001e0: 957e 9abc 47c6 df3b 52b5 7ebc 54dd 61bc
000001f0: 9f52 9d3c bf4b 08bd 8a3f 3a3d 6268 173d
00000200: eb8b 26bd 3662 45bd 5c50 90bc 80cb 68bd
00000210: 78e8 4cbd 71e8 9e3d 8043 2fbb a4fb c1ba
00000220: 5f38 2d3c 22fc 92bd 3a32 d03c 23dd cf3c
00000230: 5bd4 01bd 6221 503b e973 c93c 8b9a 373d
00000240: 2adc 243d 8c8f 91bd 0238 12bd 5ea8 d8bc
00000250: a358 9ebd cf8d bfbd 3639 86bb f538 643c
00000260: 08c9 923d 1bdf 8d3d cc6e 46bc 27d8 613d
00000270: 6dd6 ebbc 036e 43bd e907 353d 42b1 c33c
00000280: 8611 83bd c778 ddbc 9813 01bd 89aa 363d
00000290: 9355 f4bc 2417 58bd 94d4 b63c f0aa 56bc
000002a0: 1772 88bd 72c2 783d 4168 923c 31d1 dc3c
000002b0: 9b65 a43d ecd3 88bb b150 6abc fe57 76bc
000002c0: ffdb 763d b205 993c d998 f33b 742e 823d
000002d0: 338c 07bd f80c 4abc 80be 923b 109b 133d
000002e0: d684 c8bc d864 353c 68b1 4bbd 66d6 febc
000002f0: ba86 363d 1020 a33d 09a8 cabc 9748 56bd
00000300: 49ba e1bb efcb b9bc 05f9 94bd 769e a7bc
00000310: 3f93 90bd 343e b0bc 0f3d 8cbd 0a92 c3bc
00000320: 3a3e a93c b89c 3ebd 35df 24bd 0881 d7bc
00000330: 2dc5 9d3b 6266 023c 9227 9ebd eeb8 373d
00000340: 24a6 563d 0d04 9d3d 7628 92bd 618b 49bd
00000350: 476b 97bd 5b72 8a3d 4c91 053d 2265 d2bb
00000360: a08e 84bc dfe3 6c3d 3c57 92bd 2a55 94bd
00000370: 6d7a 403c db05 5c3d 8c56 9dbd de4d 3f3d
00000380: 158a 803d fd9f 73bd 8951 b5bc 1364 8bbd
00000390: 6f29 013d 8679 0f3c 9a51 8dbd 7032 8cbd
000003a0: db9b 2abd f44d 6239 4c09 1ebd bb27 9cbd
000003b0: fcc9 75bd 736d 86bc e4dc 86bd d613 973d
000003c0: 578d 8dbd 255b 213d 6bd1 23bd d1b8 493d
000003d0: 848f 8bbd cc9b b1bc 28ea 7f3d 1462 8e3d
000003e0: 945e b3bc 922f 09bc 90e1 d03c 8803 07bd
000003f0: 6350 d13c 3d95 a9bc 3031 2abd 0a6b 0bbd
-0.032610305 0.01125218 -0.08960464 0.019997275 -0.07154601 0.087228596 -0.092428416 -0.02657105
0.010028624 0.064527094 0.005403082 0.08781108 0.013830814 -0.019938692 0.03654429 0.038793586
0.00086130906 -0.005749123 -0.01048624 -0.058695387 0.02483393 -0.0055203517 0.015763318 -0.00904878
-0.037939426 0.024563678 0.014014665 0.053863887 -0.058733016 -0.036475603 0.0020501649 0.010953591
-0.06724148 0.09163103 0.031958338 -0.01969752 -0.0332569 -0.064511225 -0.041762494 0.031231292
-0.07155179 -0.07843411 -0.06330269 -0.06913077 -0.08097622 -0.062447343 -0.0001318959 0.020286942
0.012627072 -0.037443947 0.04994195 0.097882494 0.07477962 -0.011717526 0.037902057 -0.039452042
-0.06973897 -0.08384786 0.082974635 -0.013848857 0.04569236 0.059771985 0.026537701 -0.0077757686
-0.028475285 -0.019024825 -0.038636584 0.07781246 -0.044659283 0.08460812 0.08874583 0.07412624
-0.0759017 -0.030875476 -0.01235915 -0.07194697 -0.02829042 0.0069065834 0.06014747 0.02205613
0.022153564 0.014855745 0.06032169 0.08288679 0.06336225 -0.06893583 -0.039593495 0.07237594
-0.045817 0.07232753 -0.0411403 -0.0104554 0.06527555 0.0036002162 -0.016455002 -0.022192875
0.004325445 0.06868455 -0.0402706 0.06225309 0.0127591435 0.048541546 -0.047103625 -0.069053076
0.019147549 -0.038862493 0.013431562 0.019916106 0.025757726 -0.067761265 0.013611188 0.074974105
0.04749216 -0.051713407 0.01588916 -0.08882981 0.039867528 -0.051095705 0.051715642 -0.023970883
-0.018859187 0.0068290564 -0.01554616 -0.013785679 0.019204436 -0.033275362 0.04547075 0.03696478
-0.04066078 -0.048189364 -0.017616443 -0.056834698 -0.050026387 0.077591784 -0.0026743114 -0.0014799726
0.010572522 -0.07176997 0.025414575 0.025374 -0.03169666 0.003175818 0.024591403 0.044825118
0.040249027 -0.071074575 -0.035697944 -0.026447471 -0.0773175 -0.0935322 -0.0040961755 0.013929595
0.0716725 0.069273196 -0.012111377 0.05513778 -0.02878877 -0.047712337 0.044196997 0.023888234
-0.06399827 -0.02703513 -0.031512827 0.04459623 -0.029825961 -0.052756444 0.022318162 -0.013102278
-0.06662386 0.060732313 0.017871978 0.026955219 0.08027192 -0.0041756537 -0.014301465 -0.015035627
0.0602684 0.018679474 0.0074339923 0.063565165 -0.03309269 -0.012332194 0.004478276 0.03603655
-0.024477404 0.011071406 -0.049729735 -0.031108093 0.04456208 0.079651 -0.024738329 -0.05231532
-0.006888662 -0.02268025 -0.07274059 -0.020461302 -0.07059335 -0.021514036 -0.068475835 -0.023873348
0.020659555 -0.046536177 -0.04025193 -0.026306644 0.004814765 0.00795898 -0.07722391 0.044854097
0.052404538 0.07666788 -0.071366236 -0.049205188 -0.073935084 0.06760093 0.03260927 -0.0064207474
-0.01618129 0.057834502 -0.07145545 -0.07242806 0.011747939 0.05371652 -0.07682523 0.04670512
0.06276337 -0.05947875 -0.022133606 -0.06806197 0.031533655 0.008757001 -0.0690033 -0.06845558
-0.04165254 0.0002158208 -0.038583085 -0.076247655 -0.06000708 -0.016409611 -0.065851 0.0737683
-0.06911724 0.039393563 -0.03999464 0.04924852 -0.06814483 -0.021680735 0.06247917 0.06952301
-0.021895684 -0.008373158 0.025498182 -0.032962352 0.025551027 -0.020701045 -0.041550815 -0.034037627

bias f4 [81]
00000000: 9282 abbc 1ac4 66bd d82c 2abd 089c d13c
00000010: 5705 a3bd 2df2 ec3c 4419 9c3d ff8f 54bd
00000020: 3128 a9bc 8ff8 893c b74a 5f3d 236e 043c
00000030: b3e5 6f3a 830a 603d 97da 50bd a4d9 5dbc
00000040: b31f 4b3d a264 883d db26 aebc ebb9 923d
00000050: 7740 4bbd bea8 ee3c 59cd 933c 668c 58bc
00000060: fd3c a0bd f6b4 563d 0ab9 8e3d dd82 373d
00000070: 2e30 173d 7471 27bd 3c08 63bd e5b7 0e3d
00000080: 85a6 f83c 21a2 883d b4de 243d 5e8c 48bb
00000090: 75e3 07bd cc36 873c 09d5 8e3d 26c7 6e3c
000000a0: a25e 3c3d 26f2 043d cfc3 4cba ab95 6e3d
000000b0: a35e c5bc 081c d6bc 92ae adbc 46b6 633d
000000c0: 5a5d 753d 224c 0ebd e112 b43c 3ae2 1bbd
000000d0: 7bd6 91bd 9603 e6bc a9df 163d a309 8d3d
000000e0: 8806 a5bc 6db8 953d 6934 6fbc 7b1b 3cbd
000000f0: 4e02 d13c c06c b83c 1e21 51bd b5ec a93a
00000100: cc46 32bc 167b cd3c e916 bc3b 5847 ac3b
00000110: 6c47 b53b 673a ca3c 3997 03bd edf0 6dbd
00000120: b5dc 1dbc b7af 7cbd c954 2f3d de41 9fbd
00000130: bb46 d63c ef4c 71bd 1921 93bc b1f3 cdbc
00000140: 29be 9d3d
-0.020936284 -0.05633936 -0.041546673 0.025587097 -0.07960003 0.028924072 0.076220065 -0.051895138
-0.020649048 0.016842155 0.054514613 0.008082899 0.00091513543 0.054697525 -0.050989714 -0.013540659
0.049590778 0.06659819 -0.021258762 0.07164367 -0.049622025 0.029133197 0.018042253 -0.013217067
-0.078241326 0.05241867 0.06968887 0.044802535 0.036911182 -0.04087968 -0.055427775 0.034843344
0.03035284 0.06671549 0.04025145 -0.0030601243 -0.033175904 0.016505621 0.06974227 0.014573848
0.045988686 0.032457493 -0.000781116 0.058248203 -0.024092978 -0.026136413 -0.021201406 0.05559375
0.05990348 -0.034740575 0.021981658 -0.038057543 -0.07120987 -0.028077882 0.036834393 0.06886604
-0.020144716 0.07310567 -0.014599898 -0.045924645 0.025513794 0.022512794 -0.051056974 0.0012964221
-0.010881137 0.025083106 0.005740036 0.0052575283 0.005532196 0.024686052 -0.03212664 -0.058091093
-0.00963514 -0.061691012 0.042805467 -0.07776235 0.026156774 -0.05891126 -0.017960118 -0.025140615
0.07702286

weight f4 [1, 144]
00000000: cbdc 003c 6af6 473d 3010 94bd fd13 9ebd
00000010: 0af9 9d3d 4ee0 923d 3798 9f3d 18cd aa3d
00000020: de80 813d 1759 56bd d55f 55bd 56ef 8b3c
00000030: 6ed8 0a3b 7695 863c fa50 2f3d 6a3e 0e3d
00000040: df45 083d f59a 2bbc 6c04 893a 1322 aabd
00000050: 328e 3a3d a12d 953c 9e05 40bd 4a37 873d
00000060: 3f15 efbc 989f 20bd fc16 9dbd 117d 97bc
00000070: 5cdb 04bd 5b71 56bd 056b 783d 4216 183d
00000080: b971 46bc 250f d1bc ff8c aa3d afd1 a93c
00000090: 107a d63b 5cd7 84bc e247 7c3d 521b 353d
000000a0: 247a 84bd 5fab 9cbd 9091 283d b615 a2bd
000000b0: aa14 623d ed7e a83d 9b8d 363d 45ac 91bd
000000c0: 22bc 68bd b63b 1b3d ff0a 71bd 3a72 7b3c
000000d0: 232b 5d3d b4dc 02bd abb8 8e3d dd3c 7e3d
000000e0: 5cf8 8abd f2cc 9a3d ff10 a2bd d10d 3b3d
000000f0: 491f 8abd 5177 5a3d 5cdf 863d f9f7 3bbd
00000100: ab38 0c3d 3179 8a3d 227f 163d 4c7f 533d
00000110: 0602 d33c c74a 783d 4935 e43c 241a 863d
00000120: 5c32 ec3c 0ef5 80bd 4f11 a6bd b0bb d1bc
00000130: 2dbc 5fbd b5d0 f63b 722b 423d c846 ca3b
00000140: 2aee 773d 2296 62bd cc89 7e3d fbb5 50bd
00000150: e1ca a3bd 87c5 bbbc 3746 27bd f8d4 0b3d
00000160: 2f2e 5bbd cd55 a03d 6664 b7bd 2324 073d
00000170: 759c 1b3d 9d8a 9d3d dee3 5ebd 5953 3bbd
00000180: 46e4 d13c 9c9b a7bd e1f0 d3bb ad32 e13b
00000190: dbd5 33bd 58ac 913d 5b08 82bd 4547 60bd
000001a0: a924 e23c c0d8 9fbd cb2a fc3c 8a58 84bd
000001b0: c1e7 a33c 6465 f2bc 7736 913d 4a86 8a3d
000001c0: 7cc2 c03a f3d2 3b3d 73d5 5d3c a506 abbd
000001d0: e21d 42bd e133 14bc fb5d 093d 55f7 363c
000001e0: 1879 413c a833 363d 8b3f 313d 43be 083d
000001f0: 777b a6bd f9d0 aebc 6d4b 913d 2403 96bd
00000200: 04df ef3c e50c a13d 60a6 20bc de4f 173d
00000210: 9ec6 823d 9852 0d3d 14be ac3c 43f7 693d
00000220: 00da 6dbd e9ce e33c ea12 e43c d033 993c
00000230: 0507 b23d 6305 453d 1b9e ec3b 3612 643d
0.007865141 0.048818983 -0.0722965 -0.07718656 0.07713516 0.07171689 0.077927046 0.083399
0.063234076 -0.052331056 -0.052093346 0.017081898 0.002118613 0.01642869 0.042801835 0.03472749
0.03326976 -0.010473956 0.0010453588 -0.083072804 0.045545764 0.018210234 -0.046880357 0.066023424
-0.029184936 -0.0392147 -0.076703995 -0.018492253 -0.03243576 -0.052354198 0.060648937 0.0371306
-0.0121120745 -0.025519917 0.08327674 0.020729868 0.0065453127 -0.016215973 0.06159199 0.044215508
-0.06468609 -0.07649874 0.041154444 -0.07914297 0.055195488 0.08227334 0.04456864 -0.07112936
-0.056820042 0.03789874 -0.058848377 0.015347058 0.053996217 -0.03194876 0.06968816 0.062069762
-0.06785652 0.075586215 -0.07913398 0.045667473 -0.067442484 0.053336445 0.06585571 -0.045890782
0.03423373 0.06761397 0.036742337 0.05163507 0.0257578 0.06061819 0.02785744 0.06547955
0.028832607 -0.062967405 -0.0810877 -0.025602192 -0.054622818 0.007532204 0.047404714 0.0061729886
0.060529865 -0.05531896 0.062143132 -0.0509548 -0.079976805 -0.022921337 -0.040838446 0.03413865
-0.05351084 0.07828865 -0.08954696 0.032993447 0.037991006 0.07692454 -0.05441653 -0.045733783
0.025621545 -0.08183977 -0.006467924 0.006872496 -0.04390512 0.0711295 -0.0634925 -0.054755468
0.027605372 -0.07805014 0.030782124 -0.064622 0.02000797 -0.029589362 0.070904665 0.06763895
0.0014706398 0.045855474 0.01353966 -0.08350877 -0.04739178 -0.009045572 0.033536892 0.011167367
0.011808656 0.044482857 0.04327349 0.033384573 -0.08129018 -0.02133988 0.070944645 -0.07324818
0.029281147 0.078637876 -0.009805292 0.0369414 0.063855395 0.034502596 0.02108673 0.057120573
-0.05806923 0.027808623 0.02784105 0.018701464 0.08692745 0.04810084 0.007220996 0.05568143
