models/model_0.pt (torch, 64647 bytes, 9 tensors)

weight f4 [64, 1, 3, 3]
0	0xbe46f2f3	-0.19428615
1	0xbd9262fc	-0.07147786
2	0x3e00caea	0.12577406
3	0x3e237326	0.15961894
4	0x3dc18754	0.0944964
5	0xbe453186	-0.19257173
6	0xbcff5340	-0.031167626
7	0xbe039f4e	-0.12853739
8	0xbe7cdf80	-0.24694633
9	0x3cdc8050	0.026916653
10	0x3e9b4a41	0.3033009
11	0x3eaa49bd	0.33259383
12	0x3e1ac0b6	0.15112576
13	0x3ea6b8d7	0.32562897
14	0xbcc01730	-0.023448557
15	0xbe96ffa2	-0.29491907
16	0x3e16ab2a	0.14713731
17	0xbe5f52a8	-0.21808875
18	0xbe6e4393	-0.23267965
19	0x3e93fe31	0.2890487
20	0x3e9ef3ad	0.31045285
21	0x3e6aeaa2	0.22941068
22	0xbe01c466	-0.12672576
23	0x3dad4c30	0.08461797
24	0xbd6ee480	-0.058323383
25	0x3e1d628e	0.15369627
26	0x3e434722	0.19070104
27	0x3e57562a	0.21028963
28	0x3cbc1e40	0.022963643
29	0xbe56625b	-0.20935957
30	0xbe23d2a8	-0.15998328
31	0xbd14a9c8	-0.03629473
32	0xbe7141f6	-0.23560318
33	0x3e4cf382	0.20014766
34	0xbe3d28ae	-0.1847255
35	0x3da73e3c	0.08166167
36	0x3e878f45	0.26476493
37	0x3e91b0f7	0.28455326
38	0xbd219408	-0.039447814
39	0xbd6b3518	-0.05742368
40	0x3e9d3311	0.30703023
41	0x3e281b8a	0.16416755
42	0x3ea5067d	0.32231513
43	0xbdabc9d6	-0.083881065
44	0x3cadc300	0.021211147
45	0x3db59d0c	0.08867845
46	0xbea34b32	-0.31893307
47	0xbdca5726	-0.098799035
48	0xbe08cb08	-0.133587
49	0x3e16fb38	0.1474427
50	0x3e39e0b2	0.1815212
51	0xbe7c2606	-0.2462388
52	0x3e612b02	0.21989062
53	0xbe91516c	-0.28382432
54	0x3e8f2271	0.27955964
55	0xbd756e88	-0.059919864
56	0xbe9bc99b	-0.3042725
57	0x3d329b00	0.04360485
58	0xbd818e3c	-0.06325957
59	0x3e994567	0.29935762
60	0x3e52910e	0.20563146
61	0xbd050d58	-0.03248343
62	0x3d958db4	0.07302418
63	0x3deda03c	0.11602828
64	0x3cb8a8d0	0.022541434
65	0x3d003f38	0.03131029
66	0xbb923800	-0.004462242
67	0xbe160dc8	-0.14653695
68	0xbe2015bb	-0.1563329
69	0xbd3b4920	-0.045724034
70	0x3e0a6480	0.135149
71	0xbdd64e9c	-0.10464212
72	0x3d9e86c4	0.07740548
73	0x3d8d3bd0	0.06896174
74	0x3e9701e5	0.29493633
75	0x3ea5867d	0.3232917
76	0xbe58345b	-0.21113722
77	0x3e5aaac2	0.21354201
78	0xbdb67dec	-0.089107364
79	0xbea2bdd4	-0.31785452
80	0xbd8dfdcc	-0.069331735
81	0xbe5d18db	-0.21591513
82	0xbe2190d0	-0.15777898
83	0x3e88bb3d	0.2670535
84	0xbea39260	-0.31947613
85	0x3ea980e9	0.33106163
86	0x3df3482c	0.11879
87	0xbea0a73e	-0.31377596
88	0xbe21fe70	-0.15819716
89	0x3d3ce480	0.046116352
90	0xbdf7c61c	-0.12098333
91	0xbc98e090	-0.018661767
92	0xbea84db6	-0.3287179
93	0xbe12f8e3	-0.14352755
94	0x3e9eb00b	0.30993685
95	0x39240800	0.00015643239
96	0xbe54de68	-0.20787966
97	0xbe939ea2	-0.28831965
98	0xbd041aa0	-0.032251954
99	0xbc6e1c80	-0.014533162
100	0xbcf9afd0	-0.030479342
101	0xbe1b6646	-0.15175733
102	0x3e2568b0	0.16153216
103	0x3e170c18	0.14750707
104	0xbccdacf0	-0.025106877
105	0xbc938500	-0.018007755
106	0xbe6b51eb	-0.22980468
107	0xbd9ccb30	-0.076559424
108	0x3e8451ef	0.2584376
109	0x3dcf81c4	0.10132173
110	0xbe89af7b	-0.26891693
111	0xbc1eaa60	-0.009684175
112	0xbea8f268	-0.3299744
113	0xbe6af0ae	-0.22943375
114	0xbea146d4	-0.3149935
115	0xbe3d8596	-0.1850799
116	0xbe763f4b	-0.24047582
117	0xbca0bc90	-0.019621164
118	0xbea9620c	-0.33082616
119	0xbce91c10	-0.028455764
120	0x3d69cd28	0.057080418
121	0xbe9cbae6	-0.30611342
122	0xbe36fde0	-0.17870283
123	0xbe721c96	-0.23643717
124	0xbe797be6	-0.2436367
125	0x3bfb6740	0.0076722205
126	0xbd18f4b8	-0.037342757
127	0xbd64c620	-0.05585301
128	0xbe291a30	-0.16513896
129	0x3e97b523	0.29630384
130	0xbe847668	-0.25871587
131	0x3d88dd70	0.06682861
132	0x3e901255	0.28138986
133	0xbe87a510	-0.2649312
134	0xbe378428	-0.17921507
135	0xbd176308	-0.036959678
136	0x3e1017e8	0.1407162
137	0x3e8e82e9	0.27834252
138	0x3cf439f0	0.029812783
139	0x3e82da45	0.2555715
140	0x3e34b90e	0.17648718
141	0x3e982c95	0.29721513
142	0x3e0e21e2	0.13880113
143	0x3cb874c0	0.022516608
144	0xbe617258	-0.22016275
145	0x3db187bc	0.086684674
146	0x3daa4bac	0.083152145
147	0x3e28a05e	0.16467425
148	0x3e693aea	0.2277638
149	0x3d00d9e8	0.03145781
150	0x3e18d6e8	0.1492573
151	0x3d0278c8	0.031853467
152	0xbe90a4a3	-0.28250608
153	0x3db49914	0.0881826
154	0xbd1de080	-0.038544178
155	0x3e06e8e6	0.13174781
156	0xbe84ea3f	-0.25959966
157	0x3e0b07ea	0.13577238
158	0x3e98f999	0.29877928
159	0x3e377056	0.17913947
160	0x3e9b2221	0.30299476
161	0x3ea0ad69	0.313823
162	0x3e8dc001	0.2768555
163	0xbbf8e740	-0.0075959265
164	0xbe694d18	-0.22783315
165	0x3e8eeda5	0.27915683
166	0x3e955169	0.29163674
167	0x3ea8c083	0.32959375
168	0x3e941d35	0.28928533
169	0xba67c000	-0.0008840561
170	0x3d281b88	0.04104188
171	0xbe1b611e	-0.15173766
172	0x3e472f0e	0.19451544
173	0x3e9a4ecf	0.3013825
174	0x3e87a021	0.26489356
175	0x3e03fd0e	0.12889501
176	0x3e60cdd6	0.2195352
177	0xbe2f4d10	-0.17119241
178	0x3b881a40	0.00415352
179	0x3dd8a0b4	0.10577527
180	0xbe99793f	-0.29975316
181	0x3e970d0d	0.29502144
182	0xbe3af1d8	-0.18256319
183	0x3e2cf70e	0.16891119
184	0xbe3d99c6	-0.18515691
185	0xbe194eb3	-0.14971428
186	0x3ea509dd	0.32234088
187	0x3e15e780	0.14639091
188	0x3e5075da	0.20357457
189	0x3e87c595	0.2651793
190	0x3c823f10	0.015899211
191	0xbe985130	-0.2974944
192	0xbe497106	-0.19672021
193	0x3d8e277c	0.06941125
194	0xbd828c84	-0.063744575
195	0xbe4c14d0	-0.19929814
196	0xbea3f7c3	-0.32024965
197	0x3e0d347e	0.13789555
198	0xbd41dd58	-0.04733023
199	0x3e352656	0.17690405
200	0x3cdb14b0	0.026743263
201	0x3e544c2e	0.20732185
202	0x3dba2dd0	0.09090769
203	0x3b2de380	0.0026533306
204	0xbd6e1820	-0.058128476
205	0x3ea6b285	0.32558075
206	0xbcdf8970	-0.027287215
207	0xbdbf734c	-0.09348163
208	0x3e481692	0.1953986
209	0xbe713ad8	-0.23557603
210	0xbd92ed8c	-0.07174215
211	0x3e3fb7e6	0.18722495
212	0x3e7d2c5a	0.2472395
213	0x3c353300	0.011059523
214	0xbe83b4e0	-0.25723934
215	0x3e88b095	0.2669722
216	0xbc431ae0	-0.011908263
217	0x3e2e472a	0.17019334
218	0x3e231d6e	0.15929195
219	0x3dbcddb0	0.09221971
220	0xbe9befe3	-0.30456457
221	0xbe7ade88	-0.24498951
222	0x3df97e24	0.121822625
223	0xbdd0de76	-0.10198681
224	0x3daf0bd0	0.08547175
225	0x3d4557e8	0.048179537
226	0xbe5e6fcb	-0.21722333
227	0x3df9deac	0.122006744
228	0xbe13ba4e	-0.14426538
229	0x3d954dec	0.07290253
230	0xbe74cadb	-0.23905508
231	0xbe182d86	-0.14861116
232	0x3e8c420d	0.27394143
233	0x3e66ee7a	0.22551909
234	0x3e4e451a	0.20143548
235	0x3e906521	0.28202155
236	0x3d9ef68c	0.07761869
237	0x3c79e760	0.015252918
238	0x3d84fac4	0.06493142
239	0x3dd93f2c	0.10607752
240	0xbe28f38b	-0.16499154
241	0x3e00bf60	0.12573004
242	0x3e484072	0.19555834
243	0xbe2e4000	-0.17016602
244	0x3e2b2856	0.16714606
245	0xbda60380	-0.08106136
246	0xbe51eddb	-0.20500891
247	0xbdce29d0	-0.10066569
248	0xbe989da7	-0.2980778
249	0x3e8c2fdd	0.27380267
250	0x3cf7b900	0.030239582
251	0x3b90c7c0	0.0044183433
252	0x3e9efca1	0.31052116
253	0xbd3d0b68	-0.046153456
254	0x3df0db50	0.117605805
255	0xbd2213f8	-0.039569825

bias f4 [64]
0	0xbd0784a8	-0.033085495
1	0xbd14c868	-0.036323935
2	0x3dfd8fd0	0.12380946
3	0x3e28764a	0.16451374
4	0x3ae75400	0.0017648935
5	0xbd2f69c8	-0.04282549
6	0xbd64d000	-0.055862427
7	0xbdf2453c	-0.11829612
8	0xbe185bb0	-0.14878726
9	0xbcdc8210	-0.026917487
10	0x3bc4acc0	0.0060020387
11	0xbde04e56	-0.109524414
12	0xbe296d60	-0.1654563
13	0xbddebb86	-0.10875611
14	0x3e49d632	0.19710615
15	0xbe1ebddb	-0.15502112
16	0xbb6db180	-0.0036269128
17	0xbe857dce	-0.26072544
18	0x3e31cffe	0.17364499
19	0xbda34af0	-0.079732776
20	0xbe950e66	-0.29112548
21	0x3e0fa616	0.140282
22	0x3e7fb626	0.24971828
23	0xbd747560	-0.05968225
24	0x3e2e8bfe	0.1704559
25	0xbd8e6750	-0.06953299
26	0xbd4575a8	-0.04820791
27	0x3e9559e1	0.29170135
28	0x3e4f66ea	0.20254102
29	0xbea2fc6b	-0.31833205
30	0x3e7a4412	0.2444003
31	0xbdcd96ec	-0.10038552
32	0x3e44e3be	0.19227502
33	0x3e6ac726	0.22927532
34	0xbe89f5b0	-0.26945257
35	0x3e88d845	0.267275
36	0xbe4864a8	-0.19569647
37	0xbe2908b3	-0.16507225
38	0xbe479803	-0.19491582
39	0xbdb70ef6	-0.089384004
40	0xbe041c50	-0.12901425
41	0xbe63694e	-0.2220814
42	0x3e6bde22	0.23033956
43	0xbe2ecdb8	-0.17070663
44	0x3ea00727	0.31255457
45	0x3e6871f2	0.22699717
46	0x3e080748	0.13284028
47	0xbe011ca6	-0.12608585
48	0xbe87a2b3	-0.26491317
49	0x3e062526	0.13100109
50	0xbe1e22db	-0.15442984
51	0x3d6089e0	0.054818988
52	0xbdfbdb4c	-0.12297687
53	0x3e920705	0.2852098
54	0xbb898bc0	-0.0041975677
55	0x3e74108a	0.23834434
56	0xbd277a48	-0.0408881
57	0xbe814107	-0.25244924
58	0xbe89bd32	-0.26902157
59	0xbe94d5b4	-0.29069293
60	0x3e2e601a	0.17028847
61	0x3dfef8e0	0.12449813
62	0x3e99ebf5	0.30062833
63	0x3e409e9a	0.18810502

weight f4 [32, 64, 1, 1]
0	0x3db81bbe	0.089896664
1	0x3d7152f0	0.058916986
2	0xbd05d8ac	-0.032677338
3	0x3c6c32d0	0.0144164115
4	0x3c108500	0.008820772
5	0x3d3d7efc	0.04626368
6	0xbda902ca	-0.08252485
7	0xbde1879e	-0.11012195
8	0x3d48af44	0.04899527
9	0x3dd2db4a	0.10295732
10	0x3c8b5af0	0.017011136
11	0x3da3b516	0.07993524
12	0xbcea69d8	-0.028614923
13	0x3d70a094	0.05874689
14	0x3d038f08	0.032118827
15	0xbcd442a0	-0.025910676
16	0x3dd0573c	0.10172889
17	0x3dc123a0	0.09430623
18	0xbc2036a0	-0.009778649
19	0x3c7ae9b0	0.0153145045
20	0xbdb01b28	-0.0859893
21	0x3dc31e66	0.095272824
22	0xbde9f09c	-0.11422846
23	0x3daa23c8	0.08307606
24	0xbd316188	-0.043305904
25	0x3c40b0a0	0.011760861
26	0xbd030530	-0.03198737
27	0x3d2e1644	0.042501703
28	0x3d85b498	0.06528586
29	0x3cc197f0	0.02363202
30	0x3d90eca2	0.07076384
31	0xbdf9b358	-0.1219241
32	0x3ce36af8	0.027760968
33	0x3cc97160	0.024590194
34	0xbb765300	-0.0037586093
35	0x3dc9604c	0.0983282
36	0x3abfd700	0.0014636219
37	0xbdcf35c0	-0.10117674
38	0x3d8723b2	0.06598605
39	0xbd2cc9d8	-0.04218468
40	0xbdd416ee	-0.10355936
41	0xbd3aeda4	-0.045636788
42	0x3d3e32e4	0.04643525
43	0x3dc02d8a	0.09383686
44	0x3d6fd1f4	0.058549836
45	0x3cfb6ff0	0.030693024
46	0xbd6b46ec	-0.057440683
47	0xbc8187c0	-0.015811801
48	0xbdd21baa	-0.10259183
49	0xbc1dd410	-0.009633079
50	0x3d09a57c	0.033605084
51	0xbc401240	-0.011723101
52	0xbd502a70	-0.05082172
53	0x3b24d140	0.0025149137
54	0xbd01e398	-0.03171119
55	0x3da0ca86	0.07851128
56	0x3c3f4330	0.011673734
57	0x3cd3e640	0.025866628
58	0x3d92953e	0.07157372
59	0x3c0bdee0	0.008537024
60	0xbbdcf4c0	-0.0067430437
61	0x3cfa2780	0.030536413
62	0x3bbb8e80	0.0057237744
63	0xbd491548	-0.04909256
64	0x3d094f04	0.03352262
65	0x3dd50c78	0.10402769
66	0x3cd0ad78	0.025473341
67	0x3da4d086	0.08047585
68	0xbd39b908	-0.045342475
69	0x3d1b49f8	0.03791234
70	0x3c13b1d0	0.009014562
71	0x3df1f1cc	0.11813697
72	0x3dcea88c	0.100907415
73	0xbc95fc80	-0.018308878
74	0x3df1d28e	0.11807738
75	0xbd15fd20	-0.036618352
76	0x3d017ae0	0.031611323
77	0x3dcf4272	0.10120095
78	0xbdf86946	-0.12129454
79	0xbd771784	-0.06032516
80	0xbd5a3548	-0.05327347
81	0xbdaa52a8	-0.08316547
82	0x3b9d4b20	0.0048002154
83	0x3c56d4b0	0.013112232
84	0xbcc8af30	-0.024497598
85	0xbdfcba58	-0.1234023
86	0x3d1a0380	0.037600994
87	0xbc097a80	-0.008391023
88	0xbd5ed83c	-0.054405436
89	0x3deb04f2	0.114755526
90	0xbcd99558	-0.02656047
91	0xbdfa370c	-0.122175306
92	0xbd0ee3a4	-0.034885064
93	0x3d2ce54c	0.042210862
94	0x3cc5dee0	0.024154127
95	0xbd0700ec	-0.032959864
96	0xbd3fc07c	-0.046814427
97	0xbd26baec	-0.040705606
98	0xbd9cd04a	-0.076569155
99	0x3ca43860	0.020046413
100	0x3dc64792	0.0968162
101	0xbd3f7f94	-0.046752527
102	0x3dab3bfa	0.08361049
103	0x3d93ed7e	0.072230324
104	0xbdc96968	-0.09834558
105	0xbd27d96c	-0.040978834
106	0x3ddd1760	0.10795474
107	0x3dbcfa24	0.09227398
108	0x3da58626	0.080822274
109	0xbde4f650	-0.11179793
110	0x3dfd3510	0.123636365
111	0x3d306dbc	0.0430734
112	0x3dc74922	0.09730746
113	0x3db5b4a6	0.088723466
114	0x3d04fbec	0.032466814
115	0xbbf0eee0	-0.007352695
116	0xbdb5c880	-0.08876133
117	0x3d6e3530	0.058156192
118	0xbbdbf2a0	-0.0067122728
119	0xbdee1dae	-0.11626755
120	0x3d7b2bcc	0.061321065
121	0xbdf13a20	-0.117786646
122	0x3cba7998	0.022763059
123	0x3d6f2940	0.05838895
124	0x3c888980	0.016667128
125	0x3dc54260	0.09631801
126	0xbd711da4	-0.058866158
127	0x3d1fde98	0.03903064
128	0xbde00492	-0.10938372
129	0x3d1af220	0.037828565
130	0x3da495b0	0.08036363
131	0x3d8466b2	0.064649
132	0x3d9e3d54	0.07726541
133	0xbdbd28b2	-0.09236278
134	0xbd809bda	-0.06279726
135	0xbdcc2146	-0.09967284
136	0x3cde3520	0.027124941
137	0x3b6cd740	0.0036139041
138	0x3dc1ae9a	0.09457131
139	0xbdcb617a	-0.099307016
140	0x3d8f2270	0.0698899
141	0xbd8dbb10	-0.06920445
142	0x3bf86e00	0.0075814724
143	0x3cb491c0	0.022042155
144	0x3db3bdda	0.08776446
145	0xbd7a8a9c	-0.061167344
146	0x3c73b400	0.014874458
147	0xbcd56838	-0.026050672
148	0xbd096534	-0.03354378
149	0xbd5d1368	-0.053973585
150	0xbcad7320	-0.02117306
151	0xbde42be8	-0.11141187
152	0xbc289eb0	-0.01029174
153	0x3de37e7a	0.11108108
154	0x3d979480	0.07401371
155	0xbdb0bae0	-0.086293936
156	0xbd9a12ba	-0.07523103
157	0xbd01eb8c	-0.031718776
158	0xbcaeec00	-0.021352768
159	0x3d9bd2b8	0.07608551
160	0xbd3263bc	-0.043552145
161	0xbdbc6968	-0.09199792
162	0x3d93c8fa	0.072160676
163	0x3d3bd69c	0.045858964
164	0x3d800850	0.062515855
165	0xbd924f90	-0.071440816
166	0x3dbbc64e	0.09168683
167	0x3c964ab8	0.018346176
168	0x3df412de	0.11917661
169	0x3d5246c8	0.051337034
170	0x3dac2d24	0.084070474
171	0x3cb2c618	0.021822974
172	0xbda18d96	-0.078883335
173	0xbd182934	-0.03714867
174	0x3d51231c	0.051058874
175	0xbdd79240	-0.10525942
176	0xbde248b0	-0.1104902
177	0x3d629c60	0.055324912
178	0x3ca93460	0.020654857
179	0xbd9afa4a	-0.0756727
180	0x3c3c0630	0.011476085
181	0xbd907634	-0.070537955
182	0x3d0de208	0.03463939
183	0xbdb2f946	-0.087389514
184	0x3d415ee0	0.04720962
185	0x3d9cab38	0.07649845
186	0xbda9ce88	-0.08291346
187	0xbd92ee9e	-0.07174419
188	0xbc25d380	-0.010121226
189	0x3c389680	0.011266351
190	0xbc6dc6e0	-0.0145127475
191	0xbdb67634	-0.08909264
192	0x3deced3e	0.11568688
193	0xbda22926	-0.07918005
194	0x3dd3dd76	0.10344975
195	0xbc1d0960	-0.009584755
196	0x3dc7b800	0.09751892
197	0x3d827b0a	0.06371124
198	0x3daaeaba	0.08345552
199	0x3ce53510	0.027979404
200	0x3dbe016a	0.092776135
201	0x3d7ce61c	0.061742887
202	0xbd9fd656	-0.07804553
203	0xbcf46ab0	-0.029836029
204	0x3d5adcbc	0.053433165
205	0x3d0ff870	0.035149038
206	0xbdb5341a	-0.08847828
207	0xbc2cd2f0	-0.010548338
208	0x3dab237c	0.083563775
209	0xbd41e1f8	-0.04733464
210	0xbbaa7cc0	-0.0052028596
211	0xbdc0bdec	-0.09411225
212	0x3b6617c0	0.003510937
213	0xbdab97a2	-0.08378531
214	0x3dd2a45a	0.10285254
215	0xbc928918	-0.017887637
216	0x3d23e278	0.0400109
217	0xbd64de08	-0.055875808
218	0x3daf7d0c	0.08568773
219	0x3d5917fc	0.05300139
220	0xbce782a8	-0.028260544
221	0x3c4b4cf0	0.01240848
222	0xbde08ea4	-0.109647065
223	0x3dc3e36a	0.0956486
224	0x3dabac80	0.08382511
225	0xbd914eba	-0.07095094
226	0x3d67bba0	0.056575418
227	0x3d1f0080	0.038818836
228	0x3c8fa1f0	0.017533273
229	0x3d466b18	0.048441976
230	0x3df5120c	0.11966333
231	0xbdb0420a	-0.08606346
232	0xbdc90618	-0.098156154
233	0x3d217554	0.039418533
234	0xbd9e2df6	-0.0772361
235	0xba7ad700	-0.00095687807
236	0x3de9a822	0.11409022
237	0xbbee0440	-0.0072636902
238	0x3d89b620	0.06724191
239	0x3de970f2	0.11398496
240	0xbde7ab0e	-0.11311923
241	0x3d4522fc	0.048129067
242	0xbc092aa0	-0.008371979
243	0x3cabf7a0	0.0209921
244	0xbd8dbddc	-0.069209784
245	0xbcddd2b8	-0.027078018
246	0xbd8c4612	-0.06849302
247	0x3d87a70e	0.0662366
248	0x3bbf90c0	0.005846113
249	0x3de4e502	0.11176492
250	0xbcf641c8	-0.030060664
251	0x3d9a2426	0.07526426
252	0xbdf909ee	-0.12160097
253	0x3c097950	0.00839074
254	0xbd33b86c	-0.04387705
255	0xbcb6fd78	-0.02233766

bias f4 [32]
0	0xbc188ba0	-0.009310633
1	0xbd3e5938	-0.046471804
2	0x3db5bee8	0.08874303
3	0xbdc5f58c	-0.09665975
4	0xbdc31676	-0.095257685
5	0xbd91d46a	-0.07120593
6	0xbdbfa350	-0.09357321
7	0x3df1ce68	0.11806947
8	0xbdf88b6a	-0.12135966
9	0xbc85b978	-0.01632379
10	0xbd8cd72c	-0.06876978
11	0xbdde33ea	-0.108497456
12	0xbdde1668	-0.108441174
13	0xb90d4800	-0.0001347363
14	0xbdf31fe8	-0.1187132
15	0xbdadb152	-0.08481087
16	0x3caae7c0	0.02086246
17	0xbcb31480	-0.021860361
18	0x3d5d8d98	0.054090112
19	0xbd88283a	-0.066482976
20	0xbde4e5ac	-0.11176619
21	0x3be936c0	0.0071171224
22	0xbc9b8bb8	-0.018987522
23	0xbdfcf832	-0.12352027
24	0x3beafa00	0.0071709156
25	0x3d9a50d6	0.075349495
26	0x3ded91dc	0.11600086
27	0xbd954b24	-0.072897226
28	0x3d9bc99c	0.07606813
29	0x3d8c4de6	0.068507954
30	0x3d9e0248	0.07715279
31	0xbd81ae74	-0.063321024

weight f4 [16, 32, 1, 1]
0	0x3e3493b5	0.17634471
1	0xbd79c9ca	-0.060983457
2	0xbda7e286	-0.08197503
3	0xbe0f55a8	-0.13997519
4	0x3d83ab7e	0.06429194
5	0xbd69d8ec	-0.05709164
6	0x3d6669c4	0.05625321
7	0xbda0e419	-0.07856006
8	0xbe0716d4	-0.13192302
9	0xbc99ea78	-0.018788561
10	0xbdc97289	-0.09836299
11	0x3d9655f6	0.073406145
12	0xbe116c7b	-0.14201538
13	0xbe25b6d5	-0.16183026
14	0x3d461530	0.04836005
15	0xbdc71738	-0.097212255
16	0x3e2aa39b	0.16663973
17	0xbc5f4010	-0.0136261135
18	0x3d98b3e2	0.07456185
19	0xbe05c098	-0.1306175
20	0x3e018b01	0.12650682
21	0xbe1160c8	-0.14197075
22	0xbcc70760	-0.024295509
23	0xbdd6ef12	-0.10494818
24	0x3d184f74	0.037185147
25	0x3e0c4115	0.13696702
26	0xbda58217	-0.08081453
27	0x3daf21a2	0.08551337
28	0xbe0a6d78	-0.13518322
29	0x3d947612	0.072490826
30	0xbe2fcd64	-0.17168194
31	0x3e25e5cf	0.16200946
32	0x3c5cadb0	0.013469145
33	0xbddbc838	-0.10731548
34	0xbdf9eea5	-0.12203721
35	0x3d085ba8	0.033290535
36	0xbe05ad24	-0.13054329
37	0x3d1c5e1c	0.038175687
38	0x3d122cb4	0.035687163
39	0xbd6613a2	-0.056171067
40	0xbd1df0bc	-0.03855966
41	0xbdee1ba2	-0.11626364
42	0x3dbf3bee	0.093376026
43	0x3dfb2f2e	0.12264858
44	0xbdb39577	-0.087687425
45	0xbe0715f6	-0.13191971
46	0x3d9ff8da	0.078111365
47	0xbe19acbc	-0.15007299
48	0xbd715ae2	-0.058924563
49	0xbce52448	-0.027971402
50	0x3d207828	0.03917709
51	0xbd766de6	-0.0601634
52	0x3bd1fd80	0.0064083934
53	0x3e06cb09	0.1316339
54	0x3d7caf54	0.061690643
55	0x3e0bff55	0.1367162
56	0xbd6b677c	-0.057471737
57	0xbe0b1d0e	-0.13585302
58	0xbdda79d3	-0.106677674
59	0x3d44cf38	0.04804918
60	0x3dba1c6e	0.09087454
61	0xbd1f2a4c	-0.038858697
62	0xbdb0817b	-0.086184464
63	0x3cb3e0b0	0.021957725
64	0x3ce16028	0.027511671
65	0xbdd07c1c	-0.10179922
66	0xbc12f950	-0.008970574
67	0xbe08584c	-0.13314933
68	0x3e1ce645	0.15322216
69	0x3d889d66	0.06670646
70	0xbdc9e666	-0.09858398
71	0xbce694c8	-0.028147116
72	0x3dac80b2	0.08422984
73	0xbdb8f080	-0.09030247
74	0x3d150590	0.036382258
75	0x3c134c20	0.008990318
76	0x3dfbe0da	0.122987464
77	0x3de925c6	0.11384158
78	0x3e16cb93	0.14726095
79	0xbe021974	-0.12705022
80	0xbe00199e	-0.12509772
81	0x3db3c922	0.087785974
82	0xbe28eaf6	-0.1649588
83	0x3d87b538	0.066263616
84	0x3bbbe400	0.005733967
85	0xbe2612a4	-0.16218048
86	0x3db5d41e	0.08878349
87	0xbc9bf420	-0.019037306
88	0x3da6a3e6	0.0813673
89	0xbd9eb395	-0.07749096
90	0xbd006120	-0.031342626
91	0xbd974558	-0.07386273
92	0x3c18d160	0.009327263
93	0x3de77a5a	0.113026336
94	0x3d06eea8	0.032942444
95	0x3dab9e9a	0.0837986
96	0xbdc9a39a	-0.09845658
97	0xbd2bc49c	-0.04193555
98	0xbe1fdb3b	-0.15610974
99	0xbd60e1a6	-0.054902695
100	0xbd5f1ba0	-0.054469705
101	0x3df20342	0.11817028
102	0x3e18de45	0.14928539
103	0xbc3670e0	-0.01113531
104	0x3e268429	0.16261353
105	0x3e2fb451	0.17158629
106	0x3e2038d5	0.1564668
107	0x3e188761	0.14895393
108	0xbd0731e4	-0.033006564
109	0x3de50356	0.11182277
110	0x3db3245a	0.08747168
111	0x3b0dea00	0.0021654367
112	0xbe28668b	-0.16445367
113	0xbe18ca31	-0.1492088
114	0x3df4e242	0.11957218
115	0x3d706ae0	0.058695674
116	0x3e2125f7	0.15737139
117	0xbe1c8469	-0.15284885
118	0x3d228968	0.039681822
119	0xbb8f8aa0	-0.004380539
120	0xbde505e7	-0.111827664
121	0x3dd3f61a	0.103496745
122	0x3c48fb90	0.012267008
123	0x3d1b9fd0	0.037994206
124	0x3df9fdde	0.122066244
125	0xbe15db51	-0.14634444
126	0xbd8561db	-0.06512805
127	0xbde7b37f	-0.11313533
128	0xbd1ef358	-0.03880629
129	0x3daf9652	0.08573593
130	0xbe25d4bc	-0.16194433
131	0x3ca436e8	0.020045713
132	0x3e25c6a9	0.16189064
133	0x3d9efb96	0.0776283
134	0x3d441bfc	0.04787825
135	0x3d921654	0.07133165
136	0x3d4b4fb8	0.049636573
137	0xbe3227d1	-0.17398001
138	0xbbb9c700	-0.0056694746
139	0xbe2f30fe	-0.17108533
140	0xbe23e00a	-0.16003433
141	0xbe18c1a5	-0.1491762
142	0xbda12bfa	-0.07869716
143	0xbe012462	-0.12611535
144	0x3dc74012	0.09729017
145	0xbe097572	-0.13423708
146	0x3d1462a4	0.036226884
147	0x3d554f60	0.05207765
148	0x3c64b700	0.013959646
149	0xbce01218	-0.027352378
150	0xbe040320	-0.12891817
151	0x3d8ce09c	0.06878778
152	0x3da64a82	0.0811968
153	0x3e27fd03	0.1640511
154	0xbdc54b0c	-0.09633455
155	0x3dfdb59a	0.123881534
156	0x3df5975a	0.11991759
157	0x3cb5b228	0.022179678
158	0x3e16ae97	0.14715038
159	0x3d869ab4	0.06572476
160	0xbd2ee650	-0.042700112
161	0x3c3a3e40	0.011367381
162	0xbcd86ec0	-0.026419997
163	0xbe1fa1bc	-0.1558904
164	0xbd871de0	-0.06597495
165	0xbe0293df	-0.12751721
166	0xbca44750	-0.020053536
167	0x3ca3d788	0.020000234
168	0xbbdcd1e0	-0.0067388862
169	0xbe075bc0	-0.13218594
170	0x3e3450f3	0.17609005
171	0x3e2a9371	0.16657807
172	0x3b2cc9c0	0.002636537
173	0x3e09bfd1	0.13452078
174	0x3d92b74a	0.07163866
175	0x3d855df4	0.06512061
176	0xbdb1e574	-0.08686343
177	0xbd24b3ec	-0.04021065
178	0x3d7d2d68	0.06181088
179	0xbd8df530	-0.069315314
180	0x3cbe8f58	0.023261711
181	0x3d11268c	0.03543715
182	0x3dee2fba	0.11630197
183	0xbe2ca6ad	-0.16860457
184	0xbdb5f6a3	-0.08884933
185	0xbe2747d2	-0.16335991
186	0x3dc9f7d6	0.09861724
187	0xbdaff05f	-0.08590769
188	0x3d821000	0.06350708
189	0xbd96b572	-0.07358827
190	0x3ddb0fba	0.10696359
191	0xbe24c0a9	-0.16089119
192	0x3d73ea30	0.05954951
193	0xbddf7493	-0.10910907
194	0xbdc41f39	-0.09576268
195	0xbddb8f22	-0.1072066
196	0xbdf7e63f	-0.12104463
197	0xbde70d97	-0.11281889
198	0x3e0fa573	0.14027958
199	0x3de5cbb6	0.112204954
200	0xbddb9c64	-0.107231885
201	0x3e22342f	0.15840219
202	0xbdaa912e	-0.08328472
203	0x3e153093	0.14569311
204	0x3d97d386	0.07413392
205	0xbd7366d8	-0.05942425
206	0x3db0e2b6	0.08636992
207	0x3e072641	0.13198186
208	0x3dd6244e	0.10456143
209	0x3dfaf68e	0.12254058
210	0xbd8efb67	-0.06981545
211	0x3e0be7bb	0.13662617
212	0xbd2bc634	-0.041937068
213	0x3d88c2ee	0.06677805
214	0xbd2ca7f0	-0.042152345
215	0x3d82fe22	0.06396128
216	0x3a4ae800	0.0007740259
217	0xbd9d540d	-0.07682047
218	0xbd86dbce	-0.06584893
219	0x3db018f2	0.08598508
220	0x3e0995c7	0.13436042
221	0x3cfa73c0	0.030572772
222	0xbe138772	-0.14407137
223	0xbcc908b0	-0.024540275
224	0x3d8e9a6c	0.069630474
225	0xbc8f9148	-0.01752533
226	0x3daf1f9e	0.085509524
227	0xbce19908	-0.027538791
228	0xbdc47391	-0.09592355
229	0x3d4407a0	0.047858834
230	0xbe0fe8a8	-0.14053595
231	0x3df19fda	0.117980674
232	0xbde7019d	-0.112796046
233	0xbe0fdf9e	-0.14050147
234	0xbdc589a8	-0.096453965
235	0x3e26e6e1	0.16299011
236	0x3dfd7122	0.12375094
237	0xbc935128	-0.017983034
238	0x3ddfb746	0.109236285
239	0xbdb657f4	-0.089034945
240	0x3c8d9260	0.017281711
241	0x3dec17f2	0.11528005
242	0xbe1762ff	-0.14783858
243	0xbd031cac	-0.032009766
244	0x3e02c341	0.12769796
245	0x3e2020d9	0.1563753
246	0xbe066913	-0.1312602
247	0x3dcae3a6	0.09906702
248	0x3d2aeedc	0.0417317
249	0xbd1e6d70	-0.038678586
250	0xbe00ef8e	-0.12591383
251	0x3e1235d3	0.14278345
252	0xbe074d92	-0.13213184
253	0x3e327237	0.17426382
254	0xbdde824a	-0.108646944
255	0xbd97a122	-0.074037805

bias f4 [16]
0	0xbc8d3028	-0.017234877
1	0x3e164c49	0.14677538
2	0x3a987280	0.0011630803
3	0x3e11c97f	0.14237021
4	0xbe24f8ef	-0.16110586
5	0x3e1d55db	0.15364783
6	0xbc2e1820	-0.010625869
7	0x3d743f7c	0.059630856
8	0xbd57a98c	-0.052651927
9	0xbcb4b108	-0.022057071
10	0xbde8b1b1	-0.11362017
11	0xbe044f2d	-0.12920828
12	0xbdb154e0	-0.08658767
13	0x3ced1f58	0.02894561
14	0xbe2e59b8	-0.17026412
15	0xbccebbc0	-0.02523601

weight f4 [81, 144]
0	0xbd52c840	-0.051460505
1	0xb9b1cb00	-0.00033911318
2	0xbda7f9b6	-0.082019255
3	0x3d02d97a	0.031945683
4	0xbda44b7f	-0.08022212
5	0x3da111f3	0.07864752
6	0xbd9a981e	-0.07548545
7	0xbcd71e76	-0.026259642
8	0x3c223d20	0.009902269
9	0x3d587f0e	0.052855544
10	0xbc0e0278	-0.008667581
11	0x3d92aa21	0.07161356
12	0xbafdd340	-0.0019365326
13	0xbd0ade18	-0.03390321
14	0x3cd8618c	0.026413701
15	0x3ce2f9d4	0.027707018
16	0xbc0193e8	-0.007908799
17	0xbc7278c0	-0.014799297
18	0xbaeefec0	-0.001823388
19	0xbd91c07b	-0.07116791
20	0x3cc3d420	0.02390486
21	0xbc93bfec	-0.018035851
22	0x3c011458	0.0078783855
23	0xbbd76db0	-0.006574355
24	0xbd4988c8	-0.04920271
25	0x3c196228	0.009361781
26	0x3c498540	0.012299836
27	0x3d36e216	0.044649206
28	0xbd90025e	-0.070317015
29	0xbd56e7be	-0.0524671
30	0xbc565680	-0.013082147
31	0x39991700	0.0002919957
32	0xbda5050c	-0.08057603
33	0x3d97cf41	0.074125774
34	0x3c945a84	0.018109567
35	0xbcf97310	-0.030450374
36	0xbd083863	-0.0332569
37	0xbd841e76	-0.064511225
38	0xbd2b0f26	-0.041762494
39	0x3cffd8c4	0.031231292
40	0xbd9289bf	-0.07155179
41	0xbda0a210	-0.07843411
42	0xbd81a4d7	-0.06330269
43	0xbd8d946f	-0.06913077
44	0xbda5d6dc	-0.08097622
45	0xbd935daf	-0.07195603
46	0xbc6e80c0	-0.014557064
47	0x3bdc3e50	0.0067212954
48	0xbab59fc0	-0.0013856813
49	0xbd4464bb	-0.047947627
50	0x3d16f0f2	0.036850877
51	0x3da38085	0.079834975
52	0x3d6fa9f2	0.05851168
53	0xbcb90b4c	-0.022588395
54	0x3d059e12	0.03262145
55	0xbd26aba8	-0.040691048
56	0xbda69730	-0.081343055
57	0xbd880f18	-0.06643504
58	0x3d994e57	0.07485645
59	0xbd04dabe	-0.03243517
60	0x3d259956	0.040429436
61	0x3d72c3ea	0.05926887
62	0x3c9d3674	0.019191004
63	0xbc99f1ec	-0.018792115
64	0xbd3de8cb	-0.046364587
65	0xbc75b960	-0.01499781
66	0xbd1c3fb0	-0.038146675
67	0x3d714e8a	0.05891279
68	0xbd68bb4e	-0.056819253
69	0x3da0daad	0.07854209
70	0x3d936d93	0.07198634
71	0x3d789db6	0.06069728
72	0xbd9b725a	-0.0759017
73	0xbcacba66	-0.021084975
74	0xbc4a7e08	-0.01235915
75	0xbd9358ef	-0.07194697
76	0xbcd73cc0	-0.026274085
77	0x3b656b20	0.0035006478
78	0x3d765d32	0.06014747
79	0x3cc42db0	0.023947567
80	0x3cb57b64	0.022153564
81	0xbb2244e0	-0.002476029
82	0x3d527332	0.05137939
83	0x3da2b59b	0.07944795
84	0x3d828bb9	0.06374306
85	0xbd9a94b7	-0.07547896
86	0xbd45f08e	-0.048325114
87	0x3d644a02	0.05573464
88	0xbd666a1b	-0.056253534
89	0x3d7828ae	0.06058567
90	0xbd0b2176	-0.033967458
91	0xbc5069a8	-0.012720503
92	0x3d9566cd	0.07294998
93	0x3af991c0	0.0019040629
94	0xbcbfbd40	-0.023405671
95	0xbc7fea88	-0.015619881
96	0x3d5d1bba	0.05398152
97	0x3d89f8bb	0.06736895
98	0xbd1ee778	-0.038794965
99	0x3d9f43f1	0.07776631
100	0x3c8e003c	0.017334096
101	0x3d308372	0.043094106
102	0xbd324ceb	-0.043530386
103	0xbd4ec67b	-0.050482254
104	0x3c4eb538	0.012616448
105	0xbccca1f0	-0.024979562
106	0xbb8fd8b0	-0.004389845
107	0x3c18b618	0.009320758
108	0x3d0ed082	0.034866817
109	0xbda5464e	-0.0807005
110	0x3c789698	0.015172623
111	0x3d9a3df9	0.075313516
112	0x3d40380e	0.046928458
113	0xbd449fd3	-0.048003983
114	0x3cbf5490	0.023355752
115	0xbda48d6f	-0.08034789
116	0x3d3fbfce	0.04681378
117	0xbd7a3e80	-0.06109476
118	0x3d193ee0	0.037413478
119	0xbd1d3490	-0.038380206
120	0xbd012a2b	-0.031534355
121	0xbb480100	-0.0030518174
122	0xbcea3140	-0.028587937
123	0xbce1122c	-0.027474485
124	0xb8682800	-5.5350363e-05
125	0xbd35fe5b	-0.044432025
126	0x3d3a3f8a	0.04547075
127	0x3d176862	0.03696478
128	0xbd268beb	-0.04066078
129	0xbd456236	-0.048189364
130	0xbc90505c	-0.017616443
131	0xbd68cb80	-0.056834698
132	0xbd246153	-0.040131878
133	0x3d9ee871	0.077591784
134	0xbb2f4380	-0.0026743114
135	0xbc1efce0	-0.009703845
136	0x3ae78740	0.0017664209
137	0xbda20d60	-0.07912707
138	0x3c84a38c	0.016191266
139	0x3c8dd724	0.017314501
140	0xbcee43a6	-0.029084992
141	0xbbe85db0	-0.0070912465
142	0x3c403708	0.0117318705
143	0x3d38cd66	0.04511776
144	0x3d71bcca	0.059017934
145	0xbd57b2c3	-0.052660715
146	0x3c28b658	0.01029738
147	0xbc63c2e0	-0.013901442
148	0xbd80355c	-0.062601775
149	0xbd9b3c8c	-0.07579908
150	0x3cec92e0	0.02887863
151	0x3cdaf554	0.02672831
152	0x3d972789	0.073805876
153	0x3d8c8e85	0.06863121
154	0xbc55d828	-0.013052024
155	0x3d4d72c2	0.05015827
156	0xbd00511b	-0.03132735
157	0xbd5cac98	-0.053875536
158	0x3d2be70a	0.041968383
159	0x3cd4a750	0.025958687
160	0xbd88eb43	-0.066854976
161	0xbd038c5e	-0.032116286
162	0xbc958eac	-0.018256508
163	0x3ce05ae4	0.02738709
164	0xbd11f6d6	-0.03563579
165	0xbd7f67d0	-0.062354863
166	0x3cdc429c	0.02688723
167	0xbb71fa00	-0.0036922693
168	0xbd7461b0	-0.059663475
169	0x3d8fe649	0.07026345
170	0x3d1afa10	0.037836134
171	0x3cc346b4	0.023837425
172	0x3da82875	0.082108416
173	0xbb9c06c0	-0.004761547
174	0xbc8b0e04	-0.016974457
175	0xbca47070	-0.020073146
176	0x3d60203a	0.054718234
177	0x3c58e348	0.013237782
178	0x3bcd9bf0	0.0062746927
179	0x3d63a3b2	0.055576034
180	0xbd078c33	-0.03309269
181	0xbc4a0cf8	-0.012332194
182	0x3b92be80	0.004478276
183	0x3d139b10	0.03603655
184	0xbcc884d6	-0.024477404
185	0x3c3564d8	0.011071406
186	0xbd4bb168	-0.049729735
187	0xbcfed666	-0.031108093
188	0x3d3686ba	0.04456208
189	0x3d96383d	0.07334945
190	0xbcbb0580	-0.022829771
191	0xbd52bafb	-0.05144785
192	0xbc044180	-0.008072257
193	0xbcd362c6	-0.025803935
194	0xbda15146	-0.0787683
195	0xbcdd01f6	-0.026978474
196	0xbd8e28f7	-0.06941407
197	0xbcea9fb0	-0.028640598
198	0xbd8d5237	-0.06900447
199	0xbcac37fc	-0.02102279
200	0x3cb1105c	0.021614246
201	0xbcdc4e40	-0.026892781
202	0xbd4a0dd0	-0.04932958
203	0xbd00c10b	-0.0314341
204	0x3b4c9e00	0.0031222105
205	0xbb2c1700	-0.0026258826
206	0xbdaa1e2a	-0.083065346
207	0x3d3a5966	0.045495413
208	0x3d2bd30a	0.04194931
209	0x3da1458f	0.078745954
210	0xbda84026	-0.0821536
211	0xbd436bb8	-0.04771015
212	0xbd8b12cb	-0.06790694
213	0x3d9dbf9d	0.07702563
214	0x3d3ab77e	0.045585148
215	0x3c328a28	0.010897197
216	0xbc848ea0	-0.01618129
217	0x3d893a0b	0.06700524
218	0xbd92573c	-0.07145545
219	0xbd94552a	-0.07242806
220	0x3cabaf2c	0.020957552
221	0x3d4f67da	0.05063615
222	0xbd9d568c	-0.07682523
223	0x3d470ff2	0.04859919
224	0x3d808a15	0.06276337
225	0xbd49d3ee	-0.049274378
226	0xbcfafc36	-0.030637842
227	0xbd7296f0	-0.059225976
228	0x3cccc5c0	0.024996638
229	0xbab4d2c0	-0.0013795719
230	0xbda9d092	-0.08291735
231	0xbd9e9102	-0.07742502
232	0xbd428458	-0.047489494
233	0x3cc22b9c	0.023702435
234	0xbccb5190	-0.024819165
235	0xbd95727b	-0.07297226
236	0xbd6583eb	-0.05603401
237	0xbc94a220	-0.018143713
238	0xbd51ed56	-0.05125173
239	0x3d9d6f47	0.0768724
240	0xbd276316	-0.04086598
241	0x3d8ddf19	0.06927318
242	0xbd198aae	-0.03748577
243	0x3d9ad99d	0.07561038
244	0xbd7ada1b	-0.061243158
245	0xbca36d7c	-0.019949667
246	0x3d94e789	0.07270724
247	0x3da91f7d	0.08257959
248	0xbca935cc	-0.020655535
249	0xbc898364	-0.016786285
250	0x3cf21d60	0.029555023
251	0xbcf2b88c	-0.029629014
252	0x3d1f330e	0.03886705
253	0xbc42fb48	-0.01190073
254	0xbd3bd176	-0.045854054
255	0xbcee6a06	-0.02910329

bias f4 [81]
0	0xbd0ad2d8	-0.033892483
1	0xbd7ab156	-0.061204277
2	0xbd3b94b8	-0.045796126
3	0x3d09b778	0.033622235
4	0xbd90729b	-0.07053109
5	0x3cb967dc	0.022632532
6	0x3d9a763f	0.07542085
7	0xbd41e4d3	-0.047337364
8	0xbce1ea20	-0.02757746
9	0x3ca88f30	0.02057609
10	0x3d7fc5ca	0.062444486
11	0x3c147ed8	0.009063445
12	0x3b929bc0	0.0044741333
13	0x3d3f7836	0.0467455
14	0xbd781500	-0.060566902
15	0xbc1bbe68	-0.009505846
16	0x3d3f0fe2	0.046646006
17	0x3d837a95	0.06419865
18	0xbc96f520	-0.018427432
19	0x3d806089	0.062684126
20	0xbd4c785b	-0.049919467
21	0x3d160d62	0.036633857
22	0x3c8f73b0	0.017511219
23	0xbc42cd80	-0.011889815
24	0xbd920f6b	-0.07131847
25	0x3d47cade	0.048777454
26	0x3d74f7a6	0.05980649
27	0x3d66d17e	0.05635213
28	0x3d6c5d76	0.05770632
29	0xbd3d50c3	-0.0462196
30	0xbd5d1f2b	-0.053984802
31	0x3d0a0cb6	0.03370353
32	0x3cedc214	0.029023208
33	0x3d841d79	0.06450934
34	0x3d4075da	0.046987392
35	0x3c532cc8	0.012889095
36	0xbd05d8ae	-0.032677345
37	0x3cc7b3a0	0.024377644
38	0x3da79a35	0.081837095
39	0x3ce97384	0.028497465
40	0x3d0414da	0.032246448
41	0x3d4fba4a	0.05071477
42	0xbc51a888	-0.012796529
43	0x3d806021	0.06268335
44	0xbccb6f50	-0.024833351
45	0xbcb635c6	-0.022242438
46	0xbc8a8db4	-0.016913272
47	0x3d8fa2f9	0.070135064
48	0x3d79ec56	0.061016403
49	0xbd0f6dce	-0.035016827
50	0x3ca841ec	0.020539246
51	0xbd16a883	-0.0367818
52	0xbd8b907c	-0.068146676
53	0xbcbd1df6	-0.023085576
54	0x3d535072	0.05159039
55	0x3d89d2bd	0.06729648
56	0xbc02fe18	-0.007995151
57	0x3da274a1	0.079324014
58	0xbbccf690	-0.0062549785
59	0xbd319508	-0.043355018
60	0x3d0671de	0.032823436
61	0x3cc13314	0.023583926
62	0xbd31ff08	-0.043456107
63	0x3b771100	0.0037699342
64	0xbc81e494	-0.015856065
65	0x3d1879c6	0.037225507
66	0x3c814a1c	0.015782408
67	0xba6b8280	-0.00089839846
68	0x3c2458a8	0.010030903
69	0x3d00fc92	0.03149087
70	0xbd02c8a8	-0.031929642
71	0xbd669400	-0.056293488
72	0xbcd3af46	-0.025840413
73	0xbd8b02d4	-0.06787649
74	0x3d804a63	0.06264188
75	0xbd92f473	-0.07175531
76	0x3d3315c2	0.04372192
77	0xbd68b0fe	-0.056809418
78	0xbc3da928	-0.0115759745
79	0xbcdcd596	-0.026957314
80	0x3da024d1	0.07819522

weight f4 [1, 144]
0	0x3b888730	0.004166506
1	0x3d65617a	0.056001164
2	0xbda3301f	-0.07968163
3	0xbd9d9467	-0.07694321
4	0x3d9363ed	0.07196794
5	0x3d8cb569	0.06870539
6	0x3da0edb1	0.07857836
7	0x3da9881d	0.08277915
8	0x3d698902	0.057015426
9	0xbd6165c8	-0.055028707
10	0xbd5c3190	-0.053758204
11	0x3c5f7b00	0.013640165
12	0x39987300	0.0002907738
13	0x3c65ba38	0.014021449
14	0x3d22f730	0.039786518
15	0x3d06c6ee	0.032904558
16	0x3d021b32	0.031764217
17	0xbc5d4408	-0.013504989
18	0x3b847af0	0.0040429756
19	0xbd9d75b3	-0.07688465
20	0x3d39607a	0.045258023
21	0x3ca454f4	0.02006004
22	0xbd42cfa0	-0.047561288
23	0x3d4cfb86	0.05004456
24	0xbcf3219c	-0.029679112
25	0xbd0c2276	-0.034212552
26	0xbda2bad2	-0.079457894
27	0xbca87fb4	-0.020568706
28	0xbd0fc5a3	-0.03510059
29	0xbd5921b3	-0.053010654
30	0x3d74407a	0.059631802
31	0x3d108ac0	0.035288572
32	0xbc804740	-0.015658975
33	0xbce99510	-0.028513461
34	0x3da5c4ed	0.08094201
35	0x3c9906d0	0.018680006
36	0x3bd67a10	0.0065453127
37	0xbc84d75c	-0.016215973
38	0x3d7c47e2	0.06159199
39	0x3d351b52	0.044215508
40	0xbd847a24	-0.06468609
41	0xbd9cab5f	-0.07649874
42	0x3d289190	0.041154444
43	0xbda215b6	-0.07914297
44	0x3d6214aa	0.055195488
45	0x3d9fde15	0.07806031
46	0x3d330ee2	0.043715365
47	0xbd915033	-0.07095375
48	0xbd6df6e6	-0.05809679
49	0x3d1a8e02	0.037733085
50	0xbd711e00	-0.0588665
51	0x3c4ff118	0.012691759
52	0x3d501356	0.05079969
53	0xbd0e4d26	-0.034741543
54	0x3d98deb7	0.074643545
55	0x3d75acfe	0.05997943
56	0xbd8bf1f8	-0.06833261
57	0x3d9ce47f	0.0766077
58	0xbda134f0	-0.07871425
59	0x3d5c1f3e	0.053740732
60	0xbd91689a	-0.07100029
61	0x3d4e1542	0.05031324
62	0x3d7cee62	0.061750777
63	0xbd2e13db	-0.042499404
64	0x3d207a40	0.039179087
65	0x3d804a25	0.06264142
66	0x3d24fc3a	0.040279604
67	0x3d511922	0.05104936
68	0x3ca1b4ec	0.01973959
69	0x3d7220aa	0.059113182
70	0x3ccac4f4	0.024752118
71	0x3d8046df	0.062635176
72	0x3cec325c	0.028832607
73	0xbd7a3978	-0.061089963
74	0xbda6114f	-0.0810877
75	0xbcd1bbb0	-0.025602192
76	0xbd64a903	-0.055825245
77	0x3c3c7948	0.011503525
78	0x3d422b72	0.047404714
79	0x3c016c78	0.007899396
80	0x3d77ee2a	0.060529865
81	0xbd50bb60	-0.050959945
82	0x3d7f3892	0.06230981
83	0xbd5d9f50	-0.05410701
84	0xbd9d2a1a	-0.07674046
85	0xbcde3a90	-0.027127534
86	0xbd32861b	-0.043584924
87	0x3cf1d27c	0.029519312
88	0xbd524743	-0.05133749
89	0x3d9516c9	0.072797365
90	0xbd9ae18b	-0.0756255
91	0x3d140ce8	0.03614512
92	0x3d245a26	0.040125035
93	0x3da8a99d	0.08235476
94	0xbd5361f6	-0.051607095
95	0xbd615afe	-0.055018418
96	0x3c72bb98	0.014815234
97	0xbd939427	-0.07205992
98	0xbb4aa420	-0.003092058
99	0x3b7b9be0	0.003839247
100	0xbd279216	-0.040910803
101	0x3d8900ad	0.06689582
102	0xbd84eb92	-0.06490244
103	0xbd6157f3	-0.055015516
104	0x3cc4330c	0.023950122
105	0xbdaa38b0	-0.083115935
106	0x3d1a2bce	0.03763943
107	0xbd8792ce	-0.06619798
108	0x3d047968	0.032342345
109	0xbcbd183c	-0.023082845
110	0x3d8f4fdd	0.069976546
111	0x3d9a0e11	0.07522214
112	0x3b8cdcc0	0.0042987764
113	0x3d0d2e46	0.034467958
114	0x3cadd194	0.021218099
115	0xbd8d6977	-0.069048814
116	0xbd3c6b4b	-0.04600076
117	0xbc29b6c0	-0.010358512
118	0x3cf3a3f4	0.029741265
119	0x3c1855e8	0.009297825
120	0x3c21f2f8	0.009884588
121	0x3d34b92a	0.0441219
122	0x3d22778e	0.039664797
123	0x3cf1bae4	0.029508062
124	0xbda73027	-0.08163481
125	0xbcbf1e80	-0.023329973
126	0x3d914b6d	0.070944645
127	0xbd960324	-0.07324818
128	0x3cefdf04	0.029281147
129	0x3da10ce5	0.078637876
130	0xbc20a660	-0.009805292
131	0x3d174fde	0.0369414
132	0x3d5c6baa	0.053813614
133	0x3d0d5298	0.034502596
134	0x3cacbe14	0.02108673
135	0x3d669c32	0.056301303
136	0xbd78d51e	-0.06075012
137	0x3cce478c	0.0251806
138	0x3cef5df0	0.029219598
139	0x3caa2a1c	0.020772032
140	0x3da461cd	0.080264665
141	0x3d464fd2	0.048415966
142	0x3c1d76c0	0.009610832
143	0x3d662062	0.056183226
