models/model_5.pt (torch, 64647 bytes, 9 tensors)

weight f4 [64, 1, 3, 3]
00000000: 67fe 41be a431 8bbd 069e f53d e1b4 243e
00000010: a3a3 c03d 68b2 42be 10c3 edbc 253f 02be
00000020: e155 80be d80f cf3c 7385 983e 96d4 ac3e
00000030: 474e 1d3e f406 a73e 1e05 bcbc e958 96be
00000040: 8c1b 1a3e c803 61be fac3 6cbe 5fb4 943e
00000050: 121a 9b3e 9163 6c3e 7aaf 02be 941b af3d
00000060: f2e8 67bd 41a4 223e 5de1 453e c19f 563e
00000070: e88f ae3c 6729 57be b6b1 21be 72ce 25bd
00000080: 3c31 72be 4797 4b3e 497b 3fbe da67 ad3d
00000090: 72bc 883e 3fa8 923e f0ca f2bc 128e 5ebd
000000a0: 86a1 9c3e ee5a 253e 41c2 a73e 6352 aabd
000000b0: b29d 9b3c d118 bb3d d832 a3be a58d c7bd
000000c0: aff1 0cbe d9e8 163e 799c 433e d844 7bbe
000000d0: 7b80 623e 3338 90be b1f2 8e3e 0746 6bbd
000000e0: 4602 9bbe beba 303d 3928 85bd 796f 9c3e
000000f0: 3db8 593e 851b 09bd c177 953d 693e f23d
00000100: 8462 963c 17f0 f03c e17a 96bb be89 11be
00000110: 8840 1dbe b2c2 42bd 7262 0c3e 55ae d1bd
00000120: 7151 993d 8678 8e3d e8b1 963e 467c a63e
00000130: b95d 58be f3cb 563e 7834 abbd 72ca a1be
00000140: a9a7 87bd 783f 59be 83f9 1abe a7d3 843e
00000150: feb4 a2be 450b a93e b8f8 fa3d b9ee a1be
00000160: c9d6 20be de37 2c3d 187e e8bd 8c99 7ebc
00000170: 9e91 a9be b919 17be 2f34 9f3e 499f eab9
00000180: 056a 56be 026a 94be 3f68 fabc 28e5 5cbc
00000190: 5b9e 06bd 851d 1ebe 5b3e 293e 2952 183e
000001a0: ed6c cbbc c453 bbbc 3024 6dbe 80cf a8bd
000001b0: b225 863e 0e9d c93d 6456 8cbe 3de2 61bc
000001c0: 99de a7be 8e66 6bbe c439 a4be 8656 3dbe
000001d0: 006c 79be 1892 afbc 9ae8 a8be 8afb ffbc
000001e0: 70d0 6c3d ac5e 9fbe a284 39be b53f 74be
000001f0: e5b1 79be 434d ad3b fa54 1bbd f8e3 75bd
00000200: 9b22 29be 9eb5 983e 76cc 84be 1c8e 863d
00000210: e2c5 8f3e 89d2 87be 2b61 3ebe b06d 0abd
00000220: 7f9d 0d3e 8bad 8e3e 5f15 fd3c cb99 823e
00000230: 2c6a 363e d085 993e a73d 113e 0b1d ac3c
00000240: c30e 65be 3f8e ab3d ef34 b73d 51ac 2c3e
00000250: a8de 6c3e b332 043d 1246 1a3e 1144 fe3c
00000260: 411d 92be 1aeb b33d 0534 1dbd 2325 083e
00000270: c1e9 82be 59a9 063e cd0a 983e 8dfd 3a3e
00000280: e690 9b3e a2c8 a33e b937 8c3e 4ca5 06bc
00000290: cb40 6dbe ee64 8e3e d83c 983e 234f a63e
000002a0: dc42 923e aa12 19bb 79e1 0c3d 1661 1cbe
000002b0: 75c7 433e 6010 993e b91c 863e b5ff 063e
000002c0: 6b94 623e f151 39be 9f64 ae3b 6d3f dd3d
000002d0: 6f8c 9dbe 6c2f 953e 7c8d 35be 5c3b 2d3e
000002e0: 61d4 3cbe 1069 1bbe 3b57 a03e 80ba 143e
000002f0: 7c2f 4f3e 9847 8b3e c96a 123c 3dc3 9abe
00000300: 6544 46be 47b3 7e3d 8529 89bd 68f6 54be
00000310: 6a26 a2be a51e 083e 3cd7 55bd 5236 323e
00000320: d0be 063d 51c2 4e3e 34e3 c23d 7da0 f63b
00000330: 5ecb 73bd 8c05 a43e d5fe d8bc 13ed aebd
00000340: 4434 463e 92a6 75be 4a19 96bd fb6a 3f3e
00000350: bfa4 7d3e 52b0 263c 354a 83be 6fd5 8a3e
00000360: ab05 6bbc 2f1a 2c3e 34d7 273e 78c7 bd3d
00000370: 84d8 9abe 3d5e 7bbe 637d f53d 1bd4 cabd
00000380: 82d1 b83d 8221 603d db5d 56be a74d 003e
00000390: 2252 11be 5a77 9d3d 06c1 6ebe 1259 12be
000003a0: 0b83 8c3e aced 623e db8d 523e cdaa 913e
000003b0: ac1e 9b3d 3080 723c 5e66 923d d9b6 de3d
000003c0: 6674 2ebe 22bb fc3d cd15 4b3e 4965 2dbe
000003d0: 4a2f 283e 899d bbbd 559a 54be 161f e1bd
000003e0: 194d 97be 0639 8c3e 1027 173d b6ab 603c
000003f0: 0070 a03e 1766 22bd e466 d93d 218d 08bd
-0.18944703 -0.067965776 0.11993031 0.16084625 0.09406211 -0.19013369 -0.029023677 -0.127194
-0.2506552 0.02527611 0.29789314 0.3375594 0.15361892 0.32622492 -0.022951659 -0.29364708
0.15049571 -0.21974099 -0.23121634 0.29043862 0.30293328 0.23084857 -0.12762251 0.08550182
-0.05661864 0.1588297 0.1932425 0.20959379 0.021308854 -0.21011887 -0.15790448 -0.040480085
-0.23651594 0.19881926 -0.18699373 0.08467074 0.26706272 0.28643987 -0.029637784 -0.054334708
0.30591983 0.16147968 0.3276539 -0.08316495 0.018996093 0.09135593 -0.31874728 -0.097438134
-0.1376407 0.14737262 0.19102658 -0.2453798 0.22119324 -0.28167877 0.27919534 -0.05743983
-0.30275172 0.04314684 -0.065018125 0.30553797 0.21261688 -0.03347351 0.07298232 0.1182831
0.018357523 0.029411359 -0.004592285 -0.142127 -0.15356648 -0.047548957 0.13709429 -0.10238329
0.07486237 0.06956582 0.29432607 0.32516688 -0.21129502 0.20976238 -0.08359617 -0.31599766
-0.066237755 -0.21215618 -0.15134244 0.25942728 -0.3177871 0.3301641 0.122544706 -0.31627443
-0.15706934 0.042045467 -0.113521755 -0.015539538 -0.3311891 -0.14755906 0.310945 -0.00044750635
-0.2093888 -0.28987128 -0.030567287 -0.0134823695 -0.032865863 -0.15440948 0.16527693 0.14875092
-0.024832213 -0.022867091 -0.23158336 -0.082427025 0.26200634 0.09844409 -0.2740966 -0.01378685
-0.32787016 -0.2298834 -0.32075322 -0.18490037 -0.24357605 -0.021431968 -0.3298996 -0.031247873
0.05781597 -0.31126916 -0.18117002 -0.23852427 -0.24384268 0.0052887513 -0.037922837 -0.06003186
-0.16517107 0.29826063 -0.2593724 0.06570074 0.2808066 -0.26527813 -0.18591754 -0.033796012
0.13829611 0.27866778 0.03089398 0.2550796 0.17813939 0.29984903 0.14183675 0.021009943
-0.22368912 0.08376741 0.08945643 0.16862608 0.23131812 0.032274913 0.15065792 0.031038316
-0.28537944 0.087850764 -0.038379688 0.13295417 -0.25568965 0.13150539 0.2969574 0.18260784
0.30383986 0.31989008 0.27386263 -0.008218121 -0.23169248 0.27811378 0.2973392 0.32482252
0.28566635 -0.0023357072 0.034394715 -0.1527141 0.19119056 0.29895306 0.2619379 0.13183482
0.2212693 -0.18097664 0.0053220536 0.10803113 -0.30771205 0.29137743 -0.17729753 0.16917175
-0.18440391 -0.15176797 0.31316552 0.14524269 0.20232958 0.2720306 0.008936592 -0.3022708
-0.19362028 0.06218269 -0.06697372 -0.20797122 -0.31669933 0.1329294 -0.052207217 0.17403534
0.032896817 0.20191313 0.09515992 0.007526456 -0.059520118 0.32035482 -0.0264887 -0.08541312
0.19355875 -0.23989323 -0.07329042 0.18693154 0.24769877 0.010173874 -0.25642553 0.27115962
-0.014344613 0.16806863 0.16390687 0.09266561 -0.30243313 -0.24547668 0.11986806 -0.09903737
0.090243354 0.054719456 -0.2093424 0.12529622 -0.14191487 0.0768878 -0.2331582 -0.1429179
0.27443728 0.22160977 0.20561926 0.28450623 0.075742096 0.01480107 0.07148431 0.10874719
-0.1703659 0.1234038 0.19832535 -0.16933168 0.1642429 -0.09160907 -0.20761998 -0.10992257
-0.29551008 0.27387255 0.036902487 0.013712814 0.3133545 -0.03964814 0.10615328 -0.033337716

bias f4 [64]
00000000: 7238 10bd 2800 07bd 064f ff3d ff18 293e
00000010: 3dca 953b c44c 2fbd d465 64bd 1dcd f6bd
00000020: 6c4c 1bbe 430e eebc 762f fb3b 6536 d3bd
00000030: 80a3 23be 52ee d7bd 8fab 4d3e 16e2 1dbe
00000040: 030c 9fba 4f8f 85be 2812 313e eb6a a5bd
00000050: d8af 96be cf7d 113e 7954 7f3e 2ac2 6ebd
00000060: 4dea 2e3e 7b06 9dbd 0f3f 30bd 6d7b 953e
00000070: f2e8 523e 112c a3be 2218 773e f52d cebd
00000080: 9cfc 463e d607 693e 1341 89be abe3 8a3e
00000090: cbe1 47be db01 2abe de56 4abe 4fa9 b7bd
000000a0: 2a30 02be 60d9 61be 02b8 633e 27c1 30be
000000b0: 0faa a03e 40f6 673e c650 083e 007d 01be
000000c0: 16f2 89be 2e65 053e 8081 1abe e7bc 5e3d
000000d0: 4f35 01be c090 923e 9921 90bb f21d 753e
000000e0: f598 1fbd 03bc 7dbe c58c 8bbe 9a2a 94be
000000f0: 8425 303e 29f8 fc3d 6960 9a3e 8209 3f3e
-0.03521008 -0.032959133 0.124662444 0.16513442 0.004571228 -0.04279782 -0.055761173 -0.12050841
-0.15165871 -0.029059535 0.00766557 -0.10313109 -0.15980339 -0.10543503 0.20084976 -0.15418276
-0.0012134317 -0.26085898 0.17292082 -0.080770336 -0.29431033 0.14208148 0.24934568 -0.058290638
0.17081566 -0.07667252 -0.043028887 0.2919573 0.20596674 -0.31869557 0.241303 -0.10067359
0.194323 0.22756895 -0.2680746 0.27126822 -0.19519727 -0.1660227 -0.197597 -0.0896784
-0.12713686 -0.22055578 0.22238162 -0.17261182 0.31379744 0.2265253 0.13312063 -0.1264534
-0.2694251 0.13026878 -0.15088463 0.05437937 -0.12617992 0.2862606 -0.0043985364 0.23937204
-0.03896423 -0.24778752 -0.27255836 -0.28938752 0.17201811 0.1235202 0.3015168 0.1865597

weight f4 [32, 64, 1, 1]
00000000: 2d35 c53d 3170 7c3d fe0d fdbc fd43 5d3c
00000010: 630f bd3b a970 353d de93 a5bd 5851 ddbd
00000020: 306c 663d ca77 d13d 0efa 7e3c 4d35 ab3d
00000030: c765 babc d5a6 873d ff49 133d d4e0 b6bc
00000040: 5b33 dd3d 8ccb bf3d 05a9 31bc 3e26 943c
00000050: bf60 b2bd e004 c03d 87af e8bd 1743 a63d
00000060: bb69 27bd 7540 413c b0c2 0cbd 1a48 2e3d
00000070: 131f 843d 55d8 e33c 380e 913d ca5d f3bd
00000080: f1cb 073d 447c ce3c 8e96 34ba ff57 cc3d
00000090: 7df1 403a df85 d1bd c2a2 8e3d 619f 3bbd
000000a0: 04e6 c9bd cc26 44bd dadd 3d3d b893 be3d
000000b0: cc98 733d da8f f43c 1b2b 6bbd 4d6b 5abc
000000c0: 209f c6bd bdda efbb 208f 1b3d 4d65 1abc
000000d0: 87e9 3abd 30fc da3b d4fd debc d9a6 a13d
000000e0: a390 683c 455b d03c 4b63 9a3d b378 4e3c
000000f0: 6a34 cfbb b2db ff3c 8989 f23b dc42 52bd
00000100: 0327 033d 188c c93d 66ba d53c 68dd a33d
00000110: 13b7 47bd 234a 023d 6b1c a23b dc27 e63d
00000120: ae3c c93d b59b 7cbc a5e1 f13d 6fd4 1abd
00000130: 568f db3c 3461 d43d 213e fdbd 835a 83bd
00000140: d13d 69bd 8cad acbd 0844 7e3a 75c2 683c
00000150: 90df adbc 8e38 fdbd 1c99 033d 75e3 f1bb
00000160: f795 6abd d569 f03d cc43 e4bc 8502 fabd
00000170: 006d 22bd a400 2f3d 0fa5 db3c 2da3 17bd
00000180: 8b67 46bd 3bf1 26bd 6d73 9abd cfe5 703c
00000190: 1f72 bc3d 184e 5dbd a963 ac3d 0bcd a23d
000001a0: 9bca c7bd 5362 40bd b9d5 d73d 7e64 b33d
000001b0: 1d17 a83d f894 debd b8b6 f73d 9fc1 363d
000001c0: 7da0 ba3d ae1a b53d b677 f63c 0bf5 31bb
000001d0: 390a b8bd b8b6 623d db0a 2cbc e626 f1bd
000001e0: 5303 713d d5e5 e2bd 4d73 b53c 2e18 673d
000001f0: e9d9 873c 9a46 b93d a293 72bd cf8c 203d
00000200: c44e d3bd ee46 253d 6c61 b33d 4c6d 883d
00000210: f44a ab3d 153d c3bd eb8d 81bd 67e4 cfbd
00000220: 5676 fd3c eaf1 8b3c 0cb6 bc3d d409 c9bd
00000230: ce8b 873d 5a41 87bd 2aa0 243c 3b0f f93c
00000240: 2269 bd3d f10c 52bd b6d1 753c 920b b7bc
00000250: 73a6 03bd e87f 66bd acab aabc 57c4 ecbd
00000260: 36fa a2bb 55d8 f63d abcb 963d dc10 a6bd
00000270: 5202 8abd 98b5 cabc 28be 81bc 1280 ad3d
00000280: a0f9 19bd 3aa4 b2bd d31b a83d c298 523d
00000290: 92e0 8b3d 753c 8abd 3d1d be3d fdd3 883c
000002a0: dccc ff3d 8ee4 3f3d 2492 bd3d 7549 c33c
000002b0: 603d 86bd ef4d 0abd 7e23 463d 5dc7 d0bd
000002c0: e41a ddbd fd38 613d 7815 ac3c cc9c 80bd
000002d0: 1a2e ba3c e347 8bbd 2375 283d 622e a4bd
000002e0: 0465 5a3d b520 ab3d e085 a7bd 4509 88bd
000002f0: acd4 f6bb 55c7 503c f732 4bbc 50ec b1bd
00000300: 758a f93d 7570 97bd 02b7 e03d 703a aebb
00000310: b12a cf3d c9cf 803d a33e b33d c54f e83c
00000320: 9f44 ce3d a24e 923d 7b35 9cbd 9e95 ccbc
00000330: cf1c 513d 091d 293d 1842 a4bd 8091 54bb
00000340: dfaa be3d 1868 1cbd c7ae 283b 8b7a b5bd
00000350: 7d67 083c e142 b5bd 3d33 e03d a7d5 81bc
00000360: b425 423d 9558 4fbd 3711 b33d 80a2 813d
00000370: 133f b8bc 3964 863c 5ae5 d1bd 9ba0 ce3d
00000380: 8a71 bb3d 0278 86bd fa14 833d 0632 4a3d
00000390: f274 9d3c 69a7 4b3d 5702 ff3d fd05 a1bd
000003a0: effb b8bd 2f26 113d 7185 91bd 2e69 7a3b
000003b0: 8a1d 013e 60ab a9b9 f20f 9f3d 5031 003e
000003c0: 2c47 d7bd fd6a 5b3d a4c5 39bb cf1d 013d
000003d0: 9602 83bd 2351 aabc a160 7cbd ca42 943d
000003e0: 0acc 413c 5f30 ef3d c884 f4bc f890 a23d
000003f0: 090a dfbd 4ca1 673c 63ec 0bbd abec aebc
0.09629283 0.06163043 -0.030890461 0.013504979 0.0057696565 0.044296894 -0.08084844 -0.10806531
0.05625552 0.10227926 0.015562547 0.08359776 -0.02275361 0.066236176 0.03595924 -0.022324003
0.10800811 0.09364995 -0.01084352 0.018084642 -0.08709859 0.0937593 -0.11361604 0.08118265
-0.040872317 0.011795153 -0.034365356 0.04254923 0.064512394 0.027813116 0.0708279 -0.11883123
0.033153478 0.025205739 -0.00068888895 0.099777214 0.00073602033 -0.10230612 0.06964637 -0.045806292
-0.09858325 -0.047888562 0.046354152 0.09305519 0.05947189 0.02985375 -0.057414155 -0.013331247
-0.096983194 -0.007319777 0.03797829 -0.009423566 -0.045632865 0.006682895 -0.027220644 0.07893152
0.01419464 0.025434146 0.0753847 0.012602019 -0.006323387 0.031232689 0.0074016494 -0.051333293
0.032019626 0.09841174 0.026089858 0.08001214 -0.048758578 0.031808984 0.0049472353 0.11238071
0.09826027 -0.015417983 0.118106164 -0.03780025 0.026801746 0.103701025 -0.12365366 -0.06413748
-0.05694372 -0.08431539 0.00096994685 0.014206518 -0.021224767 -0.123643026 0.03212844 -0.0073818513
-0.057271924 0.11738936 -0.02786436 -0.12207512 -0.03965473 0.04272522 0.026812105 -0.03702085
-0.04843859 -0.0407574 -0.07541547 0.014703228 0.09201454 -0.054029554 0.08417446 0.07949265
-0.09755441 -0.04696877 0.10538811 0.08759402 0.082075335 -0.10868257 0.12095398 0.044618245
0.09112642 0.08842979 0.03008638 -0.0027154114 -0.08986325 0.055350035 -0.010500635 -0.117749974
0.05884106 -0.11078993 0.022149706 0.056419544 0.0165834 0.09046669 -0.059222825 0.039196786
-0.10317758 0.040350847 0.08758816 0.06661472 0.083639055 -0.09533135 -0.06325897 -0.10150986
0.030940216 0.017083127 0.0921441 -0.09816328 0.066184625 -0.06604262 0.010047952 0.03040277
0.09248568 -0.051281873 0.015003612 -0.022344384 -0.03214116 -0.056274325 -0.020833813 -0.11560886
-0.004973675 0.12052981 0.07363065 -0.081086844 -0.06738724 -0.024744794 -0.015837744 0.08471693
-0.037591577 -0.0872273 0.08208432 0.051415212 0.06829943 -0.067498125 0.092829205 0.016702646
0.12490246 0.046848826 0.0925639 0.023838738 -0.06554675 -0.03376573 0.04837369 -0.101942755
-0.107961446 0.05498599 0.02100633 -0.06279907 0.022727061 -0.06800821 0.041127335 -0.08016659
0.053318992 0.08355848 -0.081798315 -0.06642393 -0.0075326767 0.012742837 -0.012402288 -0.08687651
0.12184612 -0.07394496 0.10972406 -0.005317025 0.101155646 0.06289632 0.087521814 0.02835835
0.10071682 0.07143904 -0.07627388 -0.024973687 0.051052865 0.041287456 -0.08020419 -0.0032435358
0.09309935 -0.03818521 0.002573894 -0.08861264 0.008325455 -0.08850647 0.10947273 -0.015848948
0.047399238 -0.050621588 0.08743518 0.063298225 -0.022491014 0.016405212 -0.102488235 0.10089227
0.09152515 -0.065658584 0.06400485 0.049364112 0.019220803 0.0497202 0.12451618 -0.0786247
-0.090324275 0.035436805 -0.0710553 0.0038209665 0.12608925 -0.00032361876 0.07766713 0.12518811
-0.10511622 0.05356883 -0.0028346563 0.03152257 -0.063969776 -0.020790642 -0.06161559 0.072393015
0.011828432 0.11679148 -0.029848471 0.07937807 -0.10890586 0.014137577 -0.034160983 -0.021353086

bias f4 [32]
00000000: 624d 0fbc 6dd5 45bd 94e6 c33d 5fed b0bd
00000010: 3542 c1bd c71f 91bd 1ed0 bbbd aeb0 f23d
00000020: 1f43 f8bd 36db 96bc e95e 72bd 38af dfbd
00000030: 4578 dfbd d95b 9b3b c66d eebd 6bdc a7bd
00000040: b2a7 b53c 28bc 9bbc 8114 6a3d 5252 88bd
00000050: aee1 f2bd b24a ce3b 7155 a9bc edf5 fabd
00000060: 8a5c 103c e4f8 9e3d 6297 ef3d 5fee 9dbd
00000070: 1ca0 a03d dfdb 8e3d 589b 9d3d 6ef9 72bd
-0.008746477 -0.04829924 0.09565464 -0.08639025 -0.09436456 -0.07086139 -0.091705546 0.11850105
-0.12122177 -0.018415075 -0.059172545 -0.10922092 -0.109116115 0.0047411737 -0.11642031 -0.08196338
0.02217469 -0.019010618 0.05714846 -0.06656326 -0.11859451 0.0062955255 -0.020670624 -0.12253938
0.0088111255 0.07762316 0.11698796 -0.07711481 0.078430384 0.06975531 0.07695645 -0.059319906

weight f4 [16, 32, 1, 1]
00000000: fcef 333e 13b4 82bd fb26 a1bd ef68 0ebe
00000010: a4b1 873d cf27 66bd d224 6d3d b444 9ebd
00000020: d416 07be c6da 96bc bc15 d6bd a89a 983d
00000030: edf3 12be c793 25be b49f 3a3d 07af d2bd
00000040: 7412 2a3e 71d1 79bc e64f 9a3d ea46 06be
00000050: 8f73 013e 4aa3 15be a265 ccbc 8385 d6bd
00000060: a34f 213d 35a9 0b3e 2357 a4bd d386 b23d
00000070: 79f8 09be d3fc 963d 567e 32be c559 253e
00000080: 4cd6 a13b 8b7a d4bd e1ef f5bd ff3a ff3c
00000090: dcd8 08be d3ef 083d ec68 153d e20b 6bbd
000000a0: dc78 1fbd 9a17 ecbd ab9b be3d 7b4d f63d
000000b0: 8643 b1bd bd3a 07be 3752 963d d7bd 20be
000000c0: bd70 84bd 4e17 01bd 4f99 0f3d 50c7 75bd
000000d0: adbe 1b3c f866 093e ec52 663d 07e2 0b3e
000000e0: 23f6 74bd a300 11be 0f12 e3bd bff9 333d
000000f0: 4bf4 bf3d 3077 34bd bb64 b3bd a9b9 b03c
00000100: cf9f e03c d57e c3bd 6c45 1cbc 0213 0abe
00000110: 8a90 193e 2ceb 8c3d 5b74 cabd 7c24 e5bc
00000120: 57ad ac3d 076a bfbd a62e 163d af19 143c
00000130: 025b f33d 67d7 ed3d 338f 1b3e 4511 00be
00000140: 3542 febd 2b69 b53d 88a4 2abe 336f 903d
00000150: a08a 213c b3a9 1fbe 5573 b13d 3722 9fbc
00000160: 21ee a33d e2aa a1bd 6b35 04bd d33d 8fbd
00000170: 856f 0e3c db8f ea3d bbe8 153d dfc6 a93d
00000180: 5214 d4bd 9025 3ebd f0ae 17be 162b 6ebd
00000190: 0311 60bd b0b9 f13d 7fac 193e d3c4 27bc
000001a0: dedc 243e fea1 293e 95c8 233e 86c5 173e
000001b0: e229 b7bc 8fd5 e33d 4f55 b23d a282 463b
000001c0: 4ec5 2abe f2ab 20be 3272 f43d 6119 603d
000001d0: bcbc 223e c80b 1dbe 570c 1d3d 8ed8 0ebb
000001e0: c782 ddbd 2dfc cb3d af83 3f3c 38c0 1e3d
000001f0: 7901 f93d 3314 1bbe 1ee6 92bd a776 e6bd
00000200: 58f3 1ebd 5296 af3d bcd4 25be e836 a43c
00000210: a9c6 253e 96fb 9e3d fc1b 443d 5416 923d
00000220: b84f 4b3d d127 32be 00c7 b9bb fe30 2fbe
00000230: 0ae0 23be a5c1 18be fa2b a1bd 6224 01be
00000240: 1240 c73d 7275 09be a462 143d 604f 553d
00000250: 00b7 643c 1812 e0bc 2003 04be 9ce0 8c3d
00000260: 824a a63d 03fd 273e 0c4b c5bd 9ab5 fd3d
00000270: 5a97 f53d 28b2 b53c 97ae 163e b49a 863d
00000280: 09d2 36bd 3a58 bc3b 71c2 01bd 75ac 28be
00000290: 2458 8fbd a352 04be 355f a2bc c5ea f53c
000002a0: 250a 6dbb 4972 05be 86a5 373e 83ea 1d3e
000002b0: f0ea a8bb 6719 0d3e 5e6b 8e3d 54bf 7a3d
000002c0: 2b5c c4bd 3fad 44bd 1961 8c3d 4f3f 93bd
000002d0: 1f45 9f3c 0d52 fb3c 5a27 f53d 7b55 33be
000002e0: daee b5bd 4e24 23be d590 cf3d d117 b1bd
000002f0: 1cab 803d fdd6 91bd 1da3 c53d 20a9 29be
00000300: 245a 683d 2db5 e5bd 518a cfbd ff35 e2bd
00000310: 39c3 fdbd eb31 e6bd c275 0e3e 7353 de3d
00000320: 7385 dabd 37f2 1a3e d550 a6bd cc84 163e
00000330: a5d8 9a3d f82f 75bd bc12 b13d 7842 093e
00000340: 2f7f d43d f094 f23d a444 9cbd f49a 083e
00000350: b6cd 2abd 577f 843d 0935 37bd a6e2 793d
00000360: 08a2 b2b9 d4bf 9bbd 8ff6 8bbd ed7a b33d
00000370: 4f28 093e 9084 f63c 600f 16be 5d0f e3bc
00000380: a683 8f3d 9395 91bc 8047 b33d 253f d0bc
00000390: 311b bfbd bba6 443d 3565 0cbe 4648 f13d
000003a0: a836 f6bd 6dbe 0ebe 1e54 c8bd 30a1 283e
000003b0: d403 013e 6f90 8ebc f953 e03d 98fd b7bd
000003c0: 392b 973c 9a46 f13d 3673 16be 5c4b 06bd
000003d0: b41f 033e d8d0 1d3e e2a2 06be 9764 cc3d
000003e0: 5acf 2f3d d129 23bd c946 00be f538 0e3e
000003f0: f81e 07be e5fa 323e 9d34 ddbd 3a2f 94bd
0.17572016 -0.06382003 -0.07868763 -0.13907216 0.06625679 -0.05619031 0.057896443 -0.07727948
-0.13192302 -0.018414866 -0.10453364 0.07451373 -0.14350863 -0.16169654 0.04556246 -0.1028729
0.16608602 -0.015247689 0.07534771 -0.13112989 0.12641738 -0.14613071 -0.024950806 -0.10474684
0.039382588 0.13638766 -0.080244325 0.08717122 -0.13473691 0.07372441 -0.17431006 0.16147526
0.0049388763 -0.10374936 -0.12008644 0.031156061 -0.13363975 0.03343184 0.036477014 -0.05738438
-0.03893362 -0.11527939 0.09307035 0.12026497 -0.08655457 -0.13206 0.073399 -0.15697418
-0.064668156 -0.031516366 0.035058316 -0.060004532 0.00950591 0.13418186 0.056231424 0.13660441
-0.059805047 -0.14160399 -0.11087429 0.04393935 0.09372767 -0.04405898 -0.08759447 0.021572905
0.027419953 -0.09545676 -0.009538036 -0.13483813 0.14996544 0.06880793 -0.09885474 -0.027971499
0.084314995 -0.09346395 0.03666558 0.009039327 0.11882593 0.1161335 0.15191345 -0.12506588
-0.12414972 0.0885795 -0.16664326 0.070524596 0.009859711 -0.15592079 0.08664576 -0.019425495
0.08004404 -0.078939214 -0.032277506 -0.06994214 0.0086935805 0.114532195 0.036598902 0.08289885
-0.10355438 -0.04642254 -0.14812827 -0.05814656 -0.054703724 0.11802995 0.15007208 -0.010239798
0.16099879 0.16565701 0.15994485 0.14821443 -0.022358838 0.111247174 0.087076776 0.0030290266
-0.16676828 -0.15690592 0.119358435 0.054711703 0.15892309 -0.15336525 0.038341846 -0.0021796557
-0.108159594 0.09960208 0.011689111 0.038757533 0.12158484 -0.15144424 -0.071727976 -0.112531
-0.03880629 0.08573593 -0.16194433 0.020045713 0.16189064 0.0776283 0.04787825 0.07133165
0.049636573 -0.17398001 -0.0056694746 -0.17108533 -0.16003433 -0.1491762 -0.07869716 -0.12611535
0.09729017 -0.13423708 0.036226884 0.05207765 0.013959646 -0.027352378 -0.12891817 0.06878778
0.0811968 0.1640511 -0.09633455 0.123881534 0.11991759 0.022179678 0.14715038 0.06572476
-0.0446339 0.005747822 -0.031679574 -0.16472037 -0.06999233 -0.12922148 -0.019820789 0.030019173
-0.0036169377 -0.13031878 0.17934236 0.1542149 -0.00515496 0.13779221 0.069540724 0.06121762
-0.09587892 -0.048016783 0.068544574 -0.071898095 0.01944214 0.030678773 0.11970396 -0.17513077
-0.08883448 -0.15931818 0.101350464 -0.08647121 0.062826365 -0.07121084 0.09650252 -0.16568422
0.05672659 -0.11216197 -0.10133804 -0.11045455 -0.123907514 -0.1123999 0.13912109 0.108557604
-0.10669985 0.1513146 -0.08120886 0.14699095 0.07560853 -0.0598602 0.086461514 0.13404262
0.10375821 0.11844814 -0.0763028 0.1334036 -0.041700087 0.06469601 -0.044728313 0.061007164
-0.00034071528 -0.07604948 -0.06834137 0.087636806 0.13394283 0.030092508 -0.14654303 -0.027717287
0.07007532 -0.017771518 0.08753872 -0.025420735 -0.09331358 0.04801057 -0.13710482 0.11781363
-0.120221436 -0.13939829 -0.09781669 0.16467738 0.12599117 -0.017402856 0.109535165 -0.08983916
0.018453227 0.11781044 -0.14692387 -0.032786712 0.12805063 0.15411699 -0.13148072 0.099801235
0.042922355 -0.0398348 -0.12527002 0.13888915 -0.13195407 0.17478521 -0.10801051 -0.0723557

bias f4 [16]
00000000: 7353 8abc 975d 173e 3372 6cb8 2e2a 123e
00000010: eff8 24be db89 1d3e 71dd 5ebc d1c8 783d
00000020: 8d98 6fbd ad47 b4bc 5c29 d9bd bb05 ffbd
00000030: 4796 acbd cb3b f43c b859 2ebe 0834 bdbc
-0.016885495 0.14781795 -5.637314e-05 0.14273903 -0.16110586 0.15384619 -0.0136026 0.06073839
-0.058495093 -0.022006834 -0.10603592 -0.12452265 -0.08427101 0.029813668 -0.17026412 -0.0230961

weight f4 [81, 144]
00000000: 2023 49bd cb7a 2839 a47a b8bd a908 be3c
00000010: e30f 9abd fed0 9f3d 0b44 a1bd a38d f6bc
00000020: 5038 fc3b 6785 6b3d 6a91 a5bb c535 9d3d
00000030: a0c7 583a 0a56 ecbc deff ef3c 6b3a 023d
00000040: 0c58 e1bb 89f4 3abc 5b53 4abc d2cc 88bd
00000050: 2e19 783c 2431 57bc f436 d63b ecb9 10bc
00000060: 1779 34bd f051 5b3c eb0c afba 616c 463d
00000070: a396 8bbd 1a63 43bd fd49 2ebc 7243 3e3b
00000080: 612d 9bbd 2271 9e3d 819b a23c 2f9d ccbc
00000090: 6338 08bd 761e 84bd 260f 2bbd c4d8 ff3c
000000a0: bf89 92bd 10a2 a0bd d7a4 81bd 6f94 8dbd
000000b0: dcd6 a5bd 8697 8dbd 6d71 3ebc 47bf 2e3c
000000c0: 5b4f e33a df13 33bd c19f 293d 5d83 ac3d
000000d0: 33d4 7d3d e8eb 8fbc a551 1c3d 5103 2dbd
000000e0: cb1a 98bd 4949 9abd 0d37 913d e688 d6bc
000000f0: ee45 333d 7d07 6b3d 50df b93c 652b a5bc
00000100: e736 22bd a980 e6bc 3a92 20bd 0612 863d
00000110: 628e 69bd 9d42 ab3d 6020 a13d 3b4b 6e3d
00000120: 5a72 9bbd 57ee fcbc 087e 4abc ef58 93bd
00000130: a7d9 e7bc 9f50 e23b 325d 763d 0faf b43c
00000140: 647b b53c 99e4 593b 55ee 683d 8c5d ab3d
00000150: 580b 8b3d 523d 99bd 4369 3bbd 0710 713d
00000160: 323a 5cbd 7b30 7d3d 7b86 4cbd 3c45 37bc
00000170: cc5c 6d3d 69a0 853b 6a2f 98bc 98dc 00bd
00000180: 36b0 3e3d 36cd 6a3d a4ff 45bd 6e85 813d
00000190: 9008 5a3c 5e10 153d bc9c 49bd 95b0 66bd
000001a0: aad2 5f3c 6c63 b4bc 4154 03bc 935e 723c
000001b0: 1752 b43c f19e 98bd 336a df3b ab1e 9e3d
000001c0: 5c50 543d 246e 5fbd 506a 903c 0fb8 bcbd
000001d0: 9805 2d3d a287 7bbd 763d 2b3d 5c38 14bd
000001e0: 080b 00bd a007 7cba 11bb c6bc a829 c5bc
000001f0: a026 8e3b 35ee 2bbd 8a3f 3a3d 6268 173d
00000200: eb8b 26bd 3662 45bd 5c50 90bc 80cb 68bd
00000210: 5361 24bd 71e8 9e3d 8043 2fbb 5350 53bc
00000220: 6b8a 893b 3544 abbd 7655 583c e800 883c
00000230: c16c 16bd 5301 1ebb 603f 4f3c 5cc8 053d
00000240: 8536 343d 54e0 91bd 2b42 5dbc 4fca f6bc
00000250: 5d7f 9abd e558 c0bd 74b5 873a d2ac 7c3b
00000260: acd3 813d 394f 8b3d 38ca 64bc 05e0 523d
00000270: cc5d 0abd bbaa 59bd 87ba 213d 80bb d53c
00000280: 9428 8abd aa98 00bd 7ac9 11bd c450 0b3d
00000290: eeed 36bd 4a61 62bd 9e58 da3c ac3b 5bb9
000002a0: a11a 6dbd c189 793d 3d76 b43c 69de cb3c
000002b0: c775 a23d ed94 0abc 53ad 7dbc a315 88bc
000002c0: 1445 693d a42b 843c 5d51 cc3b c195 6a3d
000002d0: 338c 07bd f80c 4abc 80be 923b 109b 133d
000002e0: d684 c8bc d864 353c 68b1 4bbd 66d6 febc
000002f0: ba86 363d 82d3 973d 56e6 c4bc dc51 65bd
00000300: 396a edbb c903 bfbc 21ef 9ebd f956 c6bc
00000310: 0b6e 8fbd f8d7 eebc 30ff 96bd e432 a5bc
00000320: 30c4 953c 46b3 2ebd eef2 3bbd fd15 dabc
00000330: 0654 3ebb 787e b739 35ba 9dbd fccd 203d
00000340: db08 3c3d 48e8 993d 93f3 9dbd 2e7b 46bd
00000350: b593 88bd ac3b 8f3d ddd5 143d 37cd 1bbc
00000360: a08e 84bc f9e3 6c3d 3c57 92bd 2a55 94bd
00000370: b594 403c db05 5c3d 8c56 9dbd de4d 3f3d
00000380: 158a 803d dd76 62bd 06fd 12bd 8c84 8abd
00000390: d43d d73c 9354 0f3b bfa9 9cbd f7db 99bd
000003a0: b0fe 46bd 1027 373c c1c8 29bd 9d78 9fbd
000003b0: 296f 88bd 335f 51bc 1894 89bd 1ea5 a33d
000003c0: c268 20bd e5b4 603d 2f11 41bd 5270 6f3d
000003d0: ef6f 86bd 58a2 d9bc 9aff 9b3d 9519 b03d
000003e0: 60ba 8ebc 8139 6abc 2d93 c83c d0ff febc
000003f0: 90eb d53c 3499 64bc 29ca 5fbd af78 cdbc
-0.049105763 0.00016067472 -0.09007767 0.023197489 -0.075225614 0.07803534 -0.07874306 -0.030096835
0.0076971427 0.05750027 -0.005052735 0.07676271 0.00082694925 -0.02884962 0.029296812 0.031793993
-0.006876951 -0.011410841 -0.012348975 -0.066796914 0.015142722 -0.013134275 0.0065373126 -0.00883339
-0.044060793 0.013386235 -0.001335529 0.048443202 -0.06815841 -0.047701932 -0.010637757 0.00290319
-0.07577015 0.07736422 0.01984954 -0.024977295 -0.0332569 -0.064511225 -0.041762494 0.031231292
-0.07155179 -0.07843411 -0.06330269 -0.06913077 -0.08097622 -0.069136664 -0.0116237225 0.010665721
0.0017342375 -0.043720122 0.04141212 0.08423493 0.061969947 -0.017568544 0.0381638 -0.04223949
-0.07426985 -0.07533509 0.07090578 -0.026188325 0.043767862 0.05738019 0.022689492 -0.020162294
-0.03960314 -0.028137522 -0.039201953 0.065464064 -0.057020552 0.08362315 0.07867503 0.058177214
-0.0759017 -0.030875368 -0.01235915 -0.07194697 -0.028302027 0.0069065834 0.06014747 0.02205613
0.022153564 0.0033247827 0.056867916 0.08367452 0.06789273 -0.07482399 -0.045754682 0.058853175
-0.053766437 0.061813813 -0.049932938 -0.01118594 0.057949826 0.0040779603 -0.018577296 -0.031460375
0.046554767 0.05732461 -0.0483395 0.06324278 0.0133077055 0.036392562 -0.04922174 -0.056320745
0.013661066 -0.022020064 -0.008015693 0.014793056 0.0220118 -0.07452191 0.00681808 0.07720693
0.05183445 -0.054548398 0.017628819 -0.09214794 0.042241663 -0.061408646 0.04180666 -0.03618656
-0.03126052 -0.00096141733 -0.024259122 -0.024067715 0.0043381006 -0.04197522 0.04547075 0.03696478
-0.04066078 -0.048189364 -0.017616443 -0.056834698 -0.040131878 0.077591784 -0.0026743114 -0.012897569
0.004197409 -0.08362619 0.013203969 0.016601995 -0.03672481 -0.0024109676 0.012649387 0.03266178
0.043997306 -0.07122865 -0.013504545 -0.030125765 -0.07543824 -0.09391955 0.001035376 0.0038555157
0.06339201 0.0680222 -0.013964228 0.051483173 -0.033780858 -0.053141337 0.039484527 0.026090384
-0.06746021 -0.03139559 -0.035592534 0.03401257 -0.0446605 -0.055268563 0.026653584 -0.00020907697
-0.057886723 0.060922388 0.022029037 0.024886327 0.079326205 -0.008458358 -0.015483218 -0.01661188
0.056950644 0.01613409 0.006235285 0.057271723 -0.03309269 -0.012332194 0.004478276 0.03603655
-0.024477404 0.011071406 -0.049729735 -0.031108093 0.04456208 0.07413389 -0.024035614 -0.05598627
-0.0072453287 -0.023317235 -0.07760454 -0.024211394 -0.07003411 -0.029155716 -0.07372892 -0.020165868
0.018282026 -0.042651437 -0.045885973 -0.026621813 -0.002904178 0.00034998707 -0.07701532 0.039258942
0.045906883 0.07515007 -0.07712474 -0.048457317 -0.06668798 0.069938034 0.03633677 -0.009509376
-0.01618129 0.0578346 -0.07145545 -0.07242806 0.0117542045 0.05371652 -0.07682523 0.04670512
0.06276337 -0.055289138 -0.035885833 -0.067635626 0.0262746 0.0021870479 -0.07649564 -0.07512658
-0.048582733 0.011178747 -0.04145122 -0.07786677 -0.06661827 -0.012779045 -0.067177 0.07990478
-0.039162405 0.054860014 -0.04713553 0.058456726 -0.065643184 -0.02656667 0.076171115 0.085986294
-0.017422855 -0.014295937 0.024484241 -0.03112784 0.026113302 -0.013952542 -0.054636154 -0.02508196

bias f4 [81]
00000000: d7e1 f6bc e236 79bd 5ef9 28bd baeb bf3c
00000010: 9e3c 94bd 1e6c d23c 9596 983d 7b99 3fbd
00000020: 57b4 c5bc 0f7b 873c 2bc3 5d3d ebca 063c
00000030: 4841 183b caf9 4b3d 59f6 71bd fc6f 3dbc
00000040: 9a9d 3f3d 72ce 903d 2f11 80bc 0ef0 813d
00000050: cc44 5bbd f306 fc3c 3b42 113c 7389 5bbc
00000060: a10e 99bd a666 593d 880b 693d 07d5 3c3d
00000070: cf96 633d 456c 4cbd 26bc 4ebd 3509 153d
00000080: a4b6 8b3c dd8e 7a3d 0c78 343d df7f 76bb
00000090: 806c 18bd dc01 9d3c bf0c aa3d fe3b ae3c
000000a0: 3405 0e3d ddbf 313d b709 53bc 9e35 743d
000000b0: 6b73 b9bc 23fa a2bc b8df cbbc ae99 753d
000000c0: 3be8 823d 641a 00bd a279 943c 5dbd 1cbd
000000d0: 1082 8bbd 2c8e dcbc 1a6a 3c3d 375f 8a3d
000000e0: 8e5c 09bc 834a 9a3d ff95 23bc 5f93 32bd
000000f0: ca50 0e3d c7e5 bd3c d6ea 42bd 66f7 8d3a
00000100: 296f 71bc 7d16 ef3c ae26 4b3c 46e4 c5ba
00000110: 3447 673c c98d ee3c 953e edbc 5ef2 6bbd
00000120: 8de2 d2bc f309 88bd b5c4 673d 1502 8fbd
00000130: fb1e 053d e084 74bd 26ae 28bc 90f8 cfbc
00000140: f221 a83d
-0.030136986 -0.060843356 -0.04125344 0.023427833 -0.07238124 0.02568632 0.07450596 -0.04677723
-0.024133844 0.016538171 0.054141205 0.00822709 0.002323227 0.049798764 -0.059072826 -0.011562344
0.04678116 0.07070626 -0.015633194 0.06344615 -0.053532407 0.030765032 0.008865888 -0.01339947
-0.07473493 0.05307641 0.056895763 0.046101596 0.055563744 -0.04990794 -0.0504724 0.036385734
0.017054863 0.0611714 0.044059798 -0.0037612838 -0.03721285 0.019165926 0.083032124 0.02126884
0.03467293 0.043395866 -0.012880734 0.059621446 -0.022638043 -0.019894665 -0.02488695 0.059961013
0.06391951 -0.031275168 0.018124405 -0.03826653 -0.06811917 -0.026923262 0.045999624 0.06756442
-0.008383883 0.07533743 -0.009984492 -0.043597575 0.034745015 0.023180855 -0.04758724 0.0010831177
-0.014735975 0.029185528 0.012399359 -0.0015097938 0.014116097 0.029120343 -0.028960506 -0.057604186
-0.025742793 -0.06642523 0.05658408 -0.06982819 0.03250025 -0.059697032 -0.0102954265 -0.025387079
0.082095996

weight f4 [1, 144]
00000000: 2d9a c23b ca62 6d3d e4a5 96bd 2142 9dbd
00000010: 1c5a 943d da83 883d dc8a a33d ea28 a73d
00000020: ad48 743d 15e3 5cbd 2995 5abd 5909 713c
00000030: fffe 833a ac6b 7d3c 4f86 283d f136 093d
00000040: 28db 073d 7737 3ebc 4d20 e33b b4f1 9cbd
00000050: 2e55 3e3d d0c2 a83c bd79 5fbd 0ea1 573d
00000060: bb05 0abd 94c4 f9bc 504e 9ebd 8c40 a1bc
00000070: 5a92 0bbd 6151 5abd 35dc 773d 6ead 173d
00000080: 8fbd 76bc 022e dbbc 7402 a93d 2c92 8c3c
00000090: 107a d63b 5cd7 84bc e247 7c3d 521b 353d
000000a0: 247a 84bd 5fab 9cbd 9091 283d b615 a2bd
000000b0: aa14 623d 846f a23d fe40 373d f96a 91bd
000000c0: 2c23 69bd 6ebc 1f3d 040f 6dbd 71b4 673c
000000d0: fbfb 563d 5d68 13bd 97ef 953d d9b8 743d
000000e0: ab47 92bd c411 a03d f356 9ebd 1449 523d
000000f0: a24e 8dbd f3b8 3c3d c532 7a3d bf0e 26bd
00000100: d714 223d d7ee 853d 4708 293d f8c0 4a3d
00000110: f98a b43c 7c41 683d b74f d73c c8dc 873d
00000120: 5c32 ec3c 0ef5 80bd 4f11 a6bd b0bb d1bc
00000130: ddb7 5fbd b5d0 f63b 722b 423d c846 ca3b
00000140: 2aee 773d c76b 5cbd ecb3 7f3d b611 60bd
00000150: 735b 9fbd f0ec e1bc 0b19 2cbd 046d ea3c
00000160: 7634 61bd 939b 903d 9eda a8bd 23d6 313d
00000170: 792f 1d3d f87f a93d 8e84 6abd e8e4 5dbd
00000180: b687 ac3c 7762 94bd 211d a2bb ba9e 823a
00000190: 4171 20bd 7b2c 893d 4524 83bd 1f14 6bbd
000001a0: 7887 943c bc3a afbd e6e2 1c3d b35c 90bd
000001b0: da4d cd3c eb6f bcbc a01e 933d 312b 9c3d
000001c0: 95d2 d738 8e47 fa3c f926 7e3c 05c3 95bd
000001d0: 6fc1 3ebd 22cd 10bc 6b7f fb3c 02d4 1e3c
000001e0: 5232 353c d5b0 333d cd89 223d 2818 f93c
000001f0: 3e56 a4bd 49ae c6bc 6d4b 913d 2403 96bd
00000200: 04df ef3c e50c a13d 60a6 20bc de4f 173d
00000210: aa6b 5c3d 9852 0d3d 14be ac3c 0df8 6e3d
00000220: 517b 77bd 351c d83c cf74 f43c 8c2d 943c
00000230: 43ea a93d 8a44 403d ae6a 2d3c 376a 683d
0.0059387893 0.05795554 -0.0735586 -0.07678629 0.072437495 0.06665774 0.0798547 0.081621006
0.05963962 -0.0539275 -0.053364906 0.014711701 0.0010070502 0.0154675655 0.04114371 0.03349966
0.033167988 -0.011609904 0.006931341 -0.07663289 0.046467952 0.020600706 -0.054559458 0.052643828
-0.03369687 -0.030489244 -0.07729781 -0.019684099 -0.03407512 -0.053300265 0.06051274 0.03703063
-0.015059843 -0.026755337 0.08252421 0.017159544 0.0065453127 -0.016215973 0.06159199 0.044215508
-0.06468609 -0.07649874 0.041154444 -0.07914297 0.055195488 0.07931426 0.044739716 -0.071004815
-0.05691831 0.03899806 -0.05787565 0.014142142 0.0524864 -0.0359882 0.07321089 0.059746597
-0.07142576 0.078158885 -0.07731428 0.051339224 -0.06899764 0.04607482 0.061083574 -0.040541407
0.039570656 0.06539696 0.04126766 0.049500436 0.022038924 0.056703076 0.026283128 0.066339076
0.028832607 -0.062967405 -0.0810877 -0.025602192 -0.054618705 0.007532204 0.047404714 0.0061729886
0.060529865 -0.053813722 0.062427446 -0.05470439 -0.077811144 -0.0275788 -0.04201607 0.028616436
-0.05498167 0.070609234 -0.08244823 0.043417107 0.03837535 0.08276361 -0.05725532 -0.05417338
0.021060806 -0.07245343 -0.00494732 0.0009965517 -0.039170507 0.06697937 -0.06403402 -0.057392236
0.018131003 -0.085561246 0.038302325 -0.07048931 0.025061537 -0.023002585 0.07183576 0.076254256
0.00010291223 0.030551698 0.0155122215 -0.07312588 -0.04657119 -0.00883797 0.030700406 0.009694101
0.011059361 0.043869812 0.0396822 0.030407026 -0.08024262 -0.024253028 0.070944645 -0.07324818
0.029281147 0.078637876 -0.009805292 0.0369414 0.053813614 0.034502596 0.02108673 0.05834203
-0.060420338 0.026380638 0.029840855 0.018088125 0.08296635 0.046940364 0.010584516 0.05674192
