models/model_10.pt (torch, 64647 bytes, 9 tensors)

weight f4 [64, 1, 3, 3]
0	0xbe428f3c	-0.18999952
1	0xbd95da0d	-0.073169805
2	0x3deade5e	0.114681944
3	0x3e22626a	0.15857854
4	0x3dc143ac	0.094367355
5	0xbe45fd11	-0.19334818
6	0xbd1079f2	-0.035272546
7	0xbe00f8d1	-0.12594916
8	0xbe81d0b6	-0.25354546
9	0x3cd75bed	0.02628895
10	0x3e98d0cc	0.298468
11	0x3ead43d6	0.33840817
12	0x3e1d2ec1	0.15349866
13	0x3ea3a330	0.3196044
14	0xbcc17ab7	-0.023618085
15	0xbe92f86e	-0.28705162
16	0x3e18658b	0.14882486
17	0xbe616d91	-0.22014453
18	0xbe6dc8f4	-0.23221189
19	0x3e9492e4	0.2901832
20	0x3e9c7a06	0.30561846
21	0x3e6d88f8	0.2319678
22	0xbdf9bde6	-0.121944234
23	0x3dadd108	0.08487135
24	0xbd55531f	-0.052081224
25	0x3e1e50bd	0.15460487
26	0x3e43fe04	0.19139868
27	0x3e58e35e	0.21180484
28	0x3cc804f8	0.024416432
29	0xbe56366d	-0.209192
30	0xbe18518d	-0.14874859
31	0xbd33fb5d	-0.04394089
32	0xbe730a26	-0.2373434
33	0x3e4ad252	0.19806793
34	0xbe469eae	-0.19396469
35	0x3dab998a	0.083788946
36	0x3e85688e	0.2605633
37	0x3e90921a	0.28236467
38	0xbce62e3e	-0.028098222
39	0xbd5fe7a1	-0.054664258
40	0x3e9cb4b2	0.3060661
41	0x3e25ee76	0.16204247
42	0x3ea70c8d	0.32626763
43	0xbdb1af31	-0.08675993
44	0x3cc1e517	0.023668809
45	0x3db7abf4	0.08968344
46	0xbea3dbf6	-0.32003754
47	0xbdcb2068	-0.099182904
48	0xbe15eced	-0.14641161
49	0x3e184308	0.1486932
50	0x3e3cdeb0	0.18444324
51	0xbe7100df	-0.23535489
52	0x3e6645a5	0.22487505
53	0xbe8c5ce1	-0.2741461
54	0x3e8e27b6	0.27764672
55	0xbd846102	-0.06463815
56	0xbe9ee8bd	-0.3103694
57	0x3d2d1f8f	0.042266425
58	0xbd83af0a	-0.064298704
59	0x3e98f1fc	0.2987212
60	0x3e5a8428	0.21339476
61	0xbd0be5b9	-0.034154627
62	0x3d9b8a33	0.07594719
63	0x3deb1883	0.114792846
64	0x3c8220fc	0.015884869
65	0x3d0b28df	0.033974525
66	0xbb1c56f1	-0.0023855532
67	0xbe0bd2c5	-0.13654621
68	0xbe210228	-0.15723479
69	0xbd5f6e2e	-0.054548435
70	0x3e0db535	0.13838656
71	0xbdcded19	-0.100549884
72	0x3da67f60	0.081297636
73	0x3d725aa5	0.059168477
74	0x3e93c3b5	0.2886025
75	0x3ea6c61d	0.32573023
76	0xbe5b8bdb	-0.2144007
77	0x3e516ad1	0.20450903
78	0xbda3fb42	-0.08006908
79	0xbe9f88f7	-0.31159183
80	0xbd825d37	-0.063654356
81	0xbe55bb71	-0.20872284
82	0xbe1674f2	-0.14693049
83	0x3e8776a5	0.26457706
84	0xbea02791	-0.31280187
85	0x3eaa51cf	0.3326554
86	0x3dfc19a0	0.12309575
87	0xbea26e47	-0.3172476
88	0xbe280ed7	-0.16411911
89	0x3d3e5746	0.04646995
90	0xbde79d85	-0.11309341
91	0xbc0e5cc6	-0.008689111
92	0xbea901a1	-0.33009055
93	0xbe18a1fa	-0.14905539
94	0x3ea03764	0.3129226
95	0x3bbe6039	0.0058098105
96	0xbe600112	-0.21875408
97	0xbe925d96	-0.28587025
98	0xbd0f7e6e	-0.035032682
99	0xbc6576b1	-0.014005349
100	0xbcfe26f9	-0.031024443
101	0xbe22c111	-0.15893961
102	0x3e2d604a	0.16931263
103	0x3e1795af	0.14803194
104	0xbcd2778f	-0.025691776
105	0xbc863a7a	-0.016385306
106	0xbe73f6e1	-0.23824646
107	0xbd97cb52	-0.07411827
108	0x3e86c288	0.2632029
109	0x3dc8caf5	0.09804336
110	0xbe8a84f0	-0.27054548
111	0xbc028c84	-0.007968072
112	0xbea66955	-0.32502237
113	0xbe6b9edc	-0.23009819
114	0xbea3e5a4	-0.3201114
115	0xbe3c72d6	-0.18403181
116	0xbe774f70	-0.24151397
117	0xbcb93b64	-0.022611327
118	0xbea7c314	-0.3276602
119	0xbcc3aa31	-0.023884865
120	0x3d7f3f48	0.06231621
121	0xbea0ac8d	-0.31381646
122	0xbe34ca9d	-0.17655416
123	0xbe79dc56	-0.24400458
124	0xbe78947e	-0.24275395
125	0xbabd967b	-0.0014464402
126	0xbd0775cb	-0.03307132
127	0xbd7cf449	-0.061756406
128	0xbe2857f5	-0.16439803
129	0x3e97e4e9	0.29666832
130	0xbe8506c4	-0.25981724
131	0x3d794142	0.06085325
132	0x3e910742	0.2832585
133	0xbe890e58	-0.26768756
134	0xbe3ccca3	-0.18437438
135	0xbd19a699	-0.037512396
136	0x3e073cab	0.13206737
137	0x3e8eced8	0.27892184
138	0x3d111cbb	0.03542779
139	0x3e8361e7	0.2566063
140	0x3e370be2	0.17875627
141	0x3e983f8e	0.29735988
142	0x3e0f62a1	0.14002468
143	0x3cada2df	0.021195827
144	0xbe622797	-0.22085415
145	0x3d9b0d79	0.07570929
146	0x3da09026	0.07839994
147	0x3e29be32	0.1657646
148	0x3e6b8507	0.22999965
149	0x3cee18be	0.029064532
150	0x3e1e5c42	0.15464881
151	0x3d0d2e3b	0.034467917
152	0xbe8fd355	-0.2809092
153	0x3db26d8d	0.087123014
154	0xbd171286	-0.0368829
155	0x3e0b65d0	0.13613057
156	0xbe82d597	-0.2555358
157	0x3e011685	0.12606247
158	0x3e9760b7	0.29565975
159	0x3e3ff801	0.1874695
160	0x3e9b63be	0.30349535
161	0x3ea2f20e	0.31825298
162	0x3e8f1058	0.27942157
163	0xba7e22e0	-0.0009694528
164	0xbe64ca91	-0.22342898
165	0x3e900e5d	0.28135958
166	0x3e9b3922	0.30317026
167	0x3ea8e44c	0.32986677
168	0x3e8f6ecc	0.2801422
169	0xbb5e9246	-0.0033961697
170	0x3cf1b818	0.029506728
171	0xbe1d62ef	-0.15369771
172	0x3e4afeec	0.19823807
173	0x3e991651	0.2989984
174	0x3e871aec	0.26387727
175	0x3dfc724a	0.123264864
176	0x3e65cbf4	0.22441083
177	0xbe3e425e	-0.18580005
178	0x3b4a6b50	0.0030886717
179	0x3ddb6b83	0.107138656
180	0xbe9a9691	-0.30192998
181	0x3e9626e0	0.29326534
182	0xbe2d15cb	-0.16902845
183	0x3e2ecf79	0.17071332
184	0xbe37e07d	-0.17956729
185	0xbe1b7ff6	-0.15185532
186	0x3ea096a9	0.31364945
187	0x3e156bdc	0.14591926
188	0x3e4c0ba8	0.19926322
189	0x3e892b39	0.2679079
190	0x3c726e76	0.014796844
191	0xbe962a94	-0.2932936
192	0xbe43b275	-0.19111045
193	0x3d86c0d5	0.065797485
194	0xbd8dee0e	-0.06930171
195	0xbe57a135	-0.2105759
196	0xbea4727e	-0.321186
197	0x3e0c9170	0.13727355
198	0xbd56902c	-0.052383587
199	0x3e2a637f	0.16639517
200	0x3ceec186	0.029145014
201	0x3e48e65c	0.19619125
202	0x3dca0afd	0.09865377
203	0x3bb01537	0.0053736228
204	0xbd70cc50	-0.058788598
205	0x3ea5f0d4	0.324103
206	0xbcd22535	-0.025652507
207	0xbdb88499	-0.09009666
208	0x3e4733ad	0.19453306
209	0xbe7173ba	-0.23579302
210	0xbd97c987	-0.07411485
211	0x3e3ff8e8	0.18747294
212	0x3e771b71	0.24131562
213	0x3c0e6051	0.008689956
214	0xbe87edcf	-0.2654862
215	0x3e8d21a4	0.27564728
216	0xbc7ab4db	-0.015301908
217	0x3e24e753	0.16103868
218	0x3e1edefe	0.15514752
219	0x3da72895	0.08162037
220	0xbe9fa68a	-0.31181747
221	0xbe7ade65	-0.244989
222	0x3e00ccb5	0.1257809
223	0xbdc0c5f6	-0.09412758
224	0x3db430ef	0.08798396
225	0x3d81fca9	0.06347019
226	0xbe530b88	-0.20609868
227	0x3dfab11e	0.12240814
228	0xbe120738	-0.14260566
229	0x3d9053eb	0.07047256
230	0xbe6ad6d8	-0.22933519
231	0xbe102d48	-0.14079773
232	0x3e8dfa7b	0.27730164
233	0x3e5ffe46	0.21874341
234	0x3e4d1f00	0.20031357
235	0x3e8f33c5	0.27969185
236	0x3d9846b5	0.07435361
237	0x3be9a4e5	0.0071302527
238	0x3da11969	0.07866175
239	0x3dda6b31	0.106649764
240	0xbe335507	-0.17512904
241	0x3e0110d5	0.12604077
242	0x3e49b07b	0.19696228
243	0xbe2f630f	-0.17127632
244	0x3e27cca9	0.16386665
245	0xbdc44788	-0.09583956
246	0xbe55d1a9	-0.2088076
247	0xbdf5d1bd	-0.12002895
248	0xbe960bb5	-0.29305807
249	0x3e93e72f	0.28887317
250	0x3d2b10f7	0.041764226
251	0x3ca2b275	0.019860486
252	0x3e9d4c27	0.30722162
253	0xbd23f466	-0.040028
254	0x3de39aa2	0.11113478
255	0xbd022091	-0.03176934

bias f4 [64]
0	0xbcda34c9	-0.026636498
1	0xbd081f4a	-0.033232965
2	0x3df71874	0.12065211
3	0x3e2a2798	0.16616666
4	0x3b84fe56	0.0040586395
5	0xbd325e1f	-0.043546792
6	0xbd677ef4	-0.056517556
7	0xbdf4af35	-0.119474806
8	0xbe1c93ab	-0.15290706
9	0xbcd251d4	-0.025673784
10	0x3b8f856e	0.0043799197
11	0xbdc7e492	-0.09760393
12	0xbe27a91d	-0.16373105
13	0xbdd7d219	-0.1053812
14	0x3e4ed31c	0.2019772
15	0xbe1fa53d	-0.15590377
16	0xbbdc811c	-0.006729258
17	0xbe871a51	-0.26387265
18	0x3e317f4f	0.1733372
19	0xbda148f6	-0.07875244
20	0xbe98a9e5	-0.2981712
21	0x3e11a84d	0.14224358
22	0x3e7ebfb2	0.24877813
23	0xbd6c61cd	-0.057710458
24	0x3e2c0607	0.16799174
25	0xbd9da479	-0.07697386
26	0xbd3c8e2f	-0.046034034
27	0x3e963947	0.29340574
28	0x3e532b96	0.20622095
29	0xbea045a0	-0.3130312
30	0x3e721d72	0.23644045
31	0xbdc48b54	-0.09596887
32	0x3e46719d	0.19379278
33	0x3e6c315d	0.23065706
34	0xbe89eaa9	-0.26936844
35	0x3e8dcaf2	0.27693897
36	0xbe484313	-0.19556837
37	0xbe280f56	-0.164121
38	0xbe4b536c	-0.19856042
39	0xbdb97a22	-0.09056498
40	0xbe0236e4	-0.12716252
41	0xbe679ad5	-0.22617657
42	0x3e610d44	0.21977717
43	0xbe33c762	-0.17556527
44	0x3ea01644	0.31266987
45	0x3e688931	0.22708584
46	0x3e0a5dd9	0.13512363
47	0xbe01d673	-0.12679462
48	0xbe8979d9	-0.26850775
49	0x3e043e3e	0.12914369
50	0xbe17a6ea	-0.14809766
51	0x3d5a837f	0.05334806
52	0xbdfac6fa	-0.12244983
53	0x3e9339d4	0.28755057
54	0xbb54eb9c	-0.0032489067
55	0x3e737942	0.23776725
56	0xbd274b56	-0.04084333
57	0xbe7936dc	-0.24337333
58	0xbe8e2445	-0.27762046
59	0xbe97afaf	-0.29626223
60	0x3e30e91c	0.17276424
61	0x3dff2e7e	0.124600396
62	0x3e9ae884	0.3025552
63	0x3e3fcee9	0.18731274

weight f4 [32, 64, 1, 1]
0	0x3db6ce35	0.089260496
1	0x3d5afe13	0.05346496
2	0xbd02bfcc	-0.031921193
3	0x3c656f06	0.014003521
4	0x3bf9c1f5	0.0076219984
5	0x3d0cefbd	0.03440832
6	0xbda07b69	-0.078360386
7	0xbdd7b384	-0.10532287
8	0x3d661318	0.056170553
9	0x3dc34d24	0.09536198
10	0x3c4b8344	0.012421433
11	0x3dad98d4	0.08476415
12	0xbcaecb6b	-0.021337232
13	0x3d859690	0.06522858
14	0x3d1f15fd	0.03883933
15	0xbd024528	-0.031804234
16	0x3dcad3f7	0.0990371
17	0x3dbbd078	0.09170622
18	0xbc0d4005	-0.0086212205
19	0x3c88da5b	0.016705683
20	0xbdaa0633	-0.08301964
21	0x3dc03672	0.093853846
22	0xbdeaf259	-0.114720054
23	0x3da9a5c7	0.08283573
24	0xbd24d859	-0.040245388
25	0x3c03bde7	0.008040882
26	0xbcfa2f76	-0.03054021
27	0x3d2d78ac	0.04235141
28	0x3d8282d3	0.06372609
29	0x3cd2b808	0.025722519
30	0x3d8be8d3	0.06831517
31	0xbdfd972c	-0.12382349
32	0x3d046922	0.032326825
33	0x3cd99a6a	0.026562888
34	0xbb84a100	-0.004047513
35	0x3dccc5cd	0.09998665
36	0xbb49a3c7	-0.0030767785
37	0xbddce689	-0.107861586
38	0x3d9ed3e8	0.07755262
39	0xbd416c49	-0.04722241
40	0xbdc9e610	-0.09858334
41	0xbd4c9fcd	-0.049957085
42	0x3d3ef3d9	0.04661927
43	0x3db2a93c	0.08723685
44	0x3d725209	0.059160266
45	0x3cec4b46	0.028844487
46	0xbd6407ba	-0.05567143
47	0xbc3e87fa	-0.011629099
48	0xbdbc8494	-0.09204975
49	0xbb0ebb48	-0.0021779109
50	0x3d2555a6	0.040364884
51	0xbc573e0e	-0.013137354
52	0xbd445066	-0.047928236
53	0x3bc42355	0.005985657
54	0xbcd4aa20	-0.025960028
55	0x3da39bec	0.07988724
56	0x3c470629	0.012147465
57	0x3cc14e29	0.02359684
58	0x3d9ae837	0.07563823
59	0x3c5f9656	0.013646683
60	0xbb7d01c9	-0.00386058
61	0x3d084bfd	0.033275593
62	0x3bf3da41	0.0074417894
63	0xbd5cd07a	-0.053909756
64	0x3d09b7f4	0.033622697
65	0x3dcd8604	0.10035327
66	0x3ce47293	0.027886664
67	0x3da8ae51	0.08236373
68	0xbd358bc7	-0.044322755
69	0x3d132ea7	0.035933163
70	0x3c2edfc1	0.010673464
71	0x3decb430	0.115578055
72	0x3dcc0f58	0.09963864
73	0xbc4c10f7	-0.012455217
74	0x3df7c96f	0.12098967
75	0xbd1e945f	-0.038715716
76	0x3cfd7f2a	0.030944426
77	0x3dcf3834	0.10118142
78	0xbdf88e09	-0.12136466
79	0xbd75b756	-0.059989296
80	0xbd5c06e3	-0.053717505
81	0xbda6dd02	-0.08147623
82	0x3b83f4a3	0.0040269657
83	0x3c51afb5	0.0127982395
84	0xbcac06bd	-0.020999307
85	0xbdfc772b	-0.12327417
86	0x3d15d28e	0.036577754
87	0xbbd51c64	-0.0065036286
88	0xbd5bf5c8	-0.053701192
89	0x3deda5e1	0.116039045
90	0xbcd0eebe	-0.025504466
91	0xbdf62c11	-0.12020124
92	0xbd182f7c	-0.03715466
93	0x3d235783	0.03987838
94	0x3ce72a51	0.02821842
95	0xbd1622a5	-0.036654133
96	0xbd3bd7a5	-0.04585995
97	0xbd1f21d1	-0.03885061
98	0xbda8e7d8	-0.08247346
99	0x3c98f473	0.01867125
100	0x3dbf3742	0.093367115
101	0xbd4daeda	-0.05021558
102	0x3db29352	0.08719505
103	0x3da6054b	0.08106478
104	0xbdc1cbf8	-0.09462732
105	0xbd04c579	-0.032414887
106	0x3ddfc781	0.10926724
107	0x3db85218	0.09000033
108	0x3da9d525	0.08292607
109	0xbde129aa	-0.10994275
110	0x3dff50cd	0.124665834
111	0x3d501cdc	0.050808772
112	0x3dc010d6	0.09378211
113	0x3db3d65d	0.08781121
114	0x3d05b6da	0.032645084
115	0xbaba77ea	-0.0014226411
116	0xbdb71b5c	-0.08940765
117	0x3d6e3c58	0.058163017
118	0xbbcb0166	-0.006195235
119	0xbdec5bbe	-0.11540936
120	0x3d73a9cf	0.059488114
121	0xbde74cc4	-0.11293939
122	0x3cbd1ab1	0.023084017
123	0x3d6a342d	0.057178665
124	0x3c9b2002	0.018936161
125	0x3dc5f61c	0.09666082
126	0xbd6bbb51	-0.057551686
127	0x3d26c302	0.040713318
128	0xbdcaee21	-0.09908701
129	0x3d2ecb00	0.042674065
130	0x3daabb7c	0.08336541
131	0x3d6f74a7	0.058460858
132	0x3db7624f	0.08954298
133	0xbdc2c140	-0.09509516
134	0xbd6a442f	-0.05719393
135	0xbdd5f81a	-0.10447712
136	0x3d109174	0.035294965
137	0x3c569af4	0.013098467
138	0x3db778dd	0.089586
139	0xbdc81f6c	-0.09771618
140	0x3d7d5f4a	0.061858453
141	0xbd8de426	-0.069282815
142	0x3c3ee3d7	0.011651001
143	0x3d0f6e65	0.03501739
144	0x3dcd200a	0.100158766
145	0xbd549d38	-0.051907748
146	0x3cb708b5	0.022343019
147	0xbcbd30db	-0.023094585
148	0xbd24b4b7	-0.040211406
149	0xbd7d2587	-0.061803367
150	0xbcb23080	-0.021751642
151	0xbdf1d9fa	-0.11809154
152	0xbc350d33	-0.01105051
153	0x3de79eb1	0.11309565
154	0x3d968daa	0.07351239
155	0xbdb88a0d	-0.09010706
156	0xbd860101	-0.0654316
157	0xbcd00707	-0.025393976
158	0xbcdb159a	-0.026743699
159	0x3dac6c43	0.08419087
160	0xbd03e861	-0.032204036
161	0xbdbf03d0	-0.09326899
162	0x3d94852f	0.07251965
163	0x3d707025	0.0587007
164	0x3d90e5a3	0.0707505
165	0xbd968cb0	-0.07351053
166	0x3db4c65f	0.08826899
167	0x3bf82443	0.007572682
168	0x3e02784d	0.12741204
169	0x3d463a71	0.048395578
170	0x3db7560f	0.08951961
171	0x3cc8b185	0.02449871
172	0xbd88b865	-0.066757955
173	0xbd32728d	-0.043566275
174	0x3d6d9dc4	0.058011785
175	0xbdd3195c	-0.10307571
176	0xbdd85959	-0.10563917
177	0x3d5796bb	0.052633982
178	0x3c8d81ce	0.01727381
179	0xbd8ab150	-0.06772101
180	0x3c9b4172	0.018952105
181	0xbd899781	-0.0671835
182	0x3d1da7fd	0.038490284
183	0xbdadac85	-0.08480171
184	0x3d616853	0.055031132
185	0x3d94e32c	0.07269892
186	0xbdb1220e	-0.086490735
187	0xbd8893fa	-0.06668849
188	0xbc1bb59f	-0.009503751
189	0x3c39c06f	0.011337384
190	0xbc1f4e05	-0.009723191
191	0xbdc2dd39	-0.09514851
192	0x3df81787	0.121138625
193	0xbdad5389	-0.08463199
194	0x3dce68e1	0.10078598
195	0xbc124ff2	-0.008930193
196	0x3dc38eed	0.09548745
197	0x3d89ca5e	0.067280516
198	0x3db29401	0.08719636
199	0x3cce31e9	0.025170283
200	0x3dbe96eb	0.09306129
201	0x3d8a5783	0.06754973
202	0xbd9eb23e	-0.07748841
203	0xbce256c3	-0.027629262
204	0x3d38a390	0.04507786
205	0x3d23d2a1	0.039995793
206	0xbdab2bd9	-0.08357973
207	0xbbde4044	-0.0067825634
208	0x3dbae826	0.0912631
209	0xbd2b86ae	-0.041876487
210	0xba81fc73	-0.0009917155
211	0xbdcde762	-0.100538984
212	0x3bf5b9d9	0.0074989614
213	0xbdb9b5a6	-0.0906785
214	0x3dd436f2	0.103620425
215	0xbcaa8bdd	-0.020818645
216	0x3d1f884f	0.038948353
217	0xbd52db34	-0.05147858
218	0x3da409f5	0.08009712
219	0x3d746f7a	0.059676625
220	0xbce10b35	-0.027471164
221	0x3c785d7b	0.015159006
222	0xbdd14749	-0.10218675
223	0x3dcb3c84	0.09923652
224	0x3db8143e	0.08988236
225	0xbd8f6545	-0.070017375
226	0x3d7d872c	0.061896488
227	0x3d2af3bb	0.041736346
228	0x3cbd6417	0.023119016
229	0x3d5839b5	0.05278941
230	0x3e016408	0.12635815
231	0xbd9f07e8	-0.0776518
232	0xbdc40b9b	-0.09572526
233	0x3ce034b8	0.027368888
234	0xbd96e431	-0.07367743
235	0x3ad2294f	0.001603404
236	0x3dfaa8f5	0.12239257
237	0xbb553a83	-0.0032536096
238	0x3d9ef734	0.07761994
239	0x3e04cc57	0.12968574
240	0xbde29231	-0.1106304
241	0x3d4506f7	0.048102345
242	0xbc17b084	-0.009258393
243	0x3cf5e7c8	0.030017748
244	0xbd7170c5	-0.058945436
245	0xbcd2debf	-0.02574098
246	0xbd83b42c	-0.064308494
247	0x3d89e8f9	0.06733889
248	0x3c80ea96	0.01573686
249	0x3de75bb4	0.11296788
250	0xbd061cd0	-0.03274232
251	0x3d94fa49	0.072743006
252	0xbde9ff32	-0.11425628
253	0x3c33d50d	0.010976088
254	0xbd1676a1	-0.036734227
255	0xbcc37b7c	-0.023862593

bias f4 [32]
0	0xbc13013c	-0.008972462
1	0xbd3a69fe	-0.04551124
2	0x3dbc325e	0.09189294
3	0xbdbeb186	-0.09311204
4	0xbdb65a4e	-0.08903943
5	0xbd937e2e	-0.07201801
6	0xbdc38a60	-0.09547877
7	0x3df46b55	0.119345345
8	0xbdfbd6ac	-0.12296805
9	0xbc98c8e9	-0.018650489
10	0xbd680481	-0.05664492
11	0xbdddebe0	-0.10836005
12	0xbddcd1ad	-0.1078218
13	0x3b8c9d9a	0.0042912485
14	0xbded0c16	-0.11574571
15	0xbda18c3d	-0.078880765
16	0x3cb3f3b3	0.02196679
17	0xbcaab7d6	-0.020839613
18	0x3d757670	0.059927404
19	0xbd8675e6	-0.06565456
20	0xbdef6099	-0.116883464
21	0x3ba3d963	0.0050002798
22	0xbcb0873d	-0.021548862
23	0xbdf553df	-0.11978888
24	0x3c18e1db	0.009331192
25	0x3da187d8	0.07887238
26	0x3dedbb92	0.11608042
27	0xbd985139	-0.07437367
28	0x3d9a00fe	0.075197205
29	0x3d910525	0.07081059
30	0x3d9dccdc	0.077050894
31	0xbd7dac99	-0.06193218

weight f4 [16, 32, 1, 1]
0	0x3e33c8be	0.17557046
1	0xbd72f261	-0.05931318
2	0xbda66412	-0.08124556
3	0xbe1285e7	-0.14308892
4	0x3d7e679b	0.062110525
5	0xbd72e945	-0.059304494
6	0x3d7cd924	0.06173052
7	0xbd9beac6	-0.07613139
8	0xbe0ffb15	-0.14060624
9	0xbc895169	-0.016762452
10	0xbddbe0bf	-0.10736226
11	0x3da024ff	0.078195564
12	0xbe189998	-0.14902341
13	0xbe226e5f	-0.15862416
14	0x3d47adae	0.04874962
15	0xbdd201ae	-0.102542266
16	0x3e29fddf	0.1660075
17	0xbc2dafdd	-0.010601011
18	0x3d9b4f66	0.075835034
19	0xbe14b778	-0.14523113
20	0x3e0084e8	0.125507
21	0xbe12704a	-0.14300647
22	0xbcdd7eb8	-0.027037963
23	0xbde203e3	-0.110358976
24	0x3d14ed33	0.036359023
25	0x3e10ae83	0.14129071
26	0xbda310f5	-0.07962219
27	0x3dbc5ddb	0.09197589
28	0xbe083a7f	-0.13303564
29	0x3d9b936e	0.07596479
30	0xbe318776	-0.1733683
31	0x3e25a88f	0.16177581
32	0x3be3697a	0.006940064
33	0xbde35f05	-0.11102108
34	0xbe022c18	-0.12712133
35	0x3ccc6831	0.024952026
36	0xbe16c831	-0.14724804
37	0x3d20dc02	0.039272316
38	0x3d0b99d8	0.034082264
39	0xbd3d7712	-0.046256132
40	0xbd35004f	-0.044189747
41	0xbde3222b	-0.110905014
42	0x3db54e66	0.08852844
43	0x3dfa39ef	0.12218081
44	0xbd9cf7b4	-0.07664433
45	0xbdf63bc4	-0.12023118
46	0x3da29b72	0.07939805
47	0xbe271bef	-0.1631925
48	0xbd81d739	-0.063398786
49	0xbcbb0e50	-0.022833973
50	0x3d2429f8	0.040079087
51	0xbd818995	-0.0632507
52	0x3bde8aef	0.0067914645
53	0x3e0c5b75	0.13706763
54	0x3d6a52f7	0.057208028
55	0x3e111b2b	0.1417052
56	0xbd86aa4d	-0.06575451
57	0xbe0b40e4	-0.13598973
58	0xbdd080e3	-0.10180833
59	0x3d3789bb	0.044809084
60	0x3db65960	0.08903766
61	0xbd064842	-0.032783754
62	0xbdb81757	-0.08988827
63	0x3cf91de6	0.030409764
64	0x3d0581ff	0.032594677
65	0xbdcc3888	-0.0997172
66	0xbc0d8879	-0.008638495
67	0xbe0ce701	-0.13759996
68	0x3e206a93	0.15665655
69	0x3d94cf68	0.07266122
70	0xbdc4ff44	-0.096190006
71	0xbce711f5	-0.028206805
72	0x3db1e4b7	0.08686202
73	0xbdc4126a	-0.09573825
74	0x3d1f7c57	0.03893694
75	0x3b03a4e0	0.0020087287
76	0x3def753a	0.11692281
77	0x3df43cc3	0.11925652
78	0x3e1b9345	0.15192898
79	0xbe018bb8	-0.12650955
80	0xbdf5d811	-0.12004102
81	0x3db0bfee	0.08630358
82	0xbe2221b8	-0.15833175
83	0x3d9b57c2	0.07585098
84	0x3c3efcf2	0.011656987
85	0xbe1e3da7	-0.15453206
86	0x3db67626	0.08909254
87	0xbcb02dbe	-0.021506187
88	0x3da9433f	0.08264779
89	0xbd9af69f	-0.075665705
90	0xbd0108f3	-0.031502675
91	0xbd9c3ca6	-0.07628755
92	0x3b23245b	0.0024893496
93	0x3dedcba3	0.11611106
94	0x3d13e23f	0.036104437
95	0x3dad2a90	0.08455384
96	0xbdd3b580	-0.10337353
97	0xbd51a772	-0.05118508
98	0xbe1c5511	-0.15266825
99	0xbd757ee8	-0.05993548
100	0xbd72a7f0	-0.05924219
101	0x3de83297	0.11337774
102	0x3e189ae9	0.14902844
103	0xbb4b48b0	-0.0031018667
104	0x3e244dfe	0.16045377
105	0x3e2eb069	0.17059483
106	0x3e24a571	0.16078736
107	0x3e17df9a	0.14831391
108	0xbca7eca7	-0.020498587
109	0x3df0a184	0.11749557
110	0x3db28a67	0.087178044
111	0xbb763444	-0.0037567774
112	0xbe2e37e7	-0.17013513
113	0xbe25dd3b	-0.16197674
114	0x3df45592	0.11930384
115	0x3d2c6f36	0.042098247
116	0x3e227eae	0.15868637
117	0xbe1d6041	-0.15368749
118	0x3d1f1e9d	0.038847554
119	0xbbcd5f1d	-0.006267442
120	0xbde40ba6	-0.11135034
121	0x3dca68c7	0.09883266
122	0x3c72158b	0.014775644
123	0x3d2afac8	0.04174307
124	0x3dfe8192	0.12427057
125	0xbe185fce	-0.14880297
126	0xbd8f8346	-0.0700746
127	0xbde1b273	-0.110203646
128	0xbd1ef358	-0.03880629
129	0x3daf9652	0.08573593
130	0xbe25d4bc	-0.16194433
131	0x3ca436e8	0.020045713
132	0x3e25c6a9	0.16189064
133	0x3d9efb96	0.0776283
134	0x3d441bfc	0.04787825
135	0x3d921654	0.07133165
136	0x3d4b4fb8	0.049636573
137	0xbe3227d1	-0.17398001
138	0xbbb9c700	-0.0056694746
139	0xbe2f30fe	-0.17108533
140	0xbe23e00a	-0.16003433
141	0xbe18c1a5	-0.1491762
142	0xbda12bfa	-0.07869716
143	0xbe012462	-0.12611535
144	0x3dc74012	0.09729017
145	0xbe097572	-0.13423708
146	0x3d1462a4	0.036226884
147	0x3d554f60	0.05207765
148	0x3c64b700	0.013959646
149	0xbce01218	-0.027352378
150	0xbe040320	-0.12891817
151	0x3d8ce09c	0.06878778
152	0x3da64a82	0.0811968
153	0x3e27fd03	0.1640511
154	0xbdc54b0c	-0.09633455
155	0x3dfdb59a	0.123881534
156	0x3df5975a	0.11991759
157	0x3cb5b228	0.022179678
158	0x3e16ae97	0.14715038
159	0x3d869ab4	0.06572476
160	0xbd1c8d1e	-0.038220517
161	0x3c0c34ab	0.008557479
162	0xbc8ad53d	-0.016947383
163	0xbe1c7338	-0.15278327
164	0xbd8e06b8	-0.06934875
165	0xbdfa010f	-0.12207233
166	0xbcb1f7fc	-0.021724693
167	0x3ced2382	0.028947596
168	0xbaf3204e	-0.0018549056
169	0xbe094a28	-0.13407195
170	0x3e35f2d0	0.17768407
171	0x3e2a60af	0.16638444
172	0xbb240cc9	-0.0025032035
173	0x3e06b778	0.13155925
174	0x3d98910b	0.0744954
175	0x3d8b76f0	0.06809795
176	0xbdb917f4	-0.09037772
177	0xbd3ced91	-0.046125
178	0x3d764b29	0.060130272
179	0xbd92b005	-0.07162479
180	0x3ca445fb	0.0200529
181	0x3cda339d	0.02663594
182	0x3df00cb8	0.11721176
183	0xbe2f570b	-0.17123048
184	0xbda713bc	-0.08158061
185	0xbe24581a	-0.16049233
186	0x3dcd5d70	0.100275874
187	0xbd98d67d	-0.074627854
188	0x3d82f7e1	0.063949354
189	0xbd8a465d	-0.06751702
190	0x3dce676a	0.100783184
191	0xbe281e2a	-0.16417757
192	0x3d5c5223	0.05378927
193	0xbdff62e7	-0.12470036
194	0xbdd71aca	-0.105031565
195	0xbdf0f1d4	-0.11764875
196	0xbdf6f9e1	-0.12059379
197	0xbdfebcf5	-0.124383844
198	0x3e122af8	0.14274204
199	0x3dd7f4c7	0.105447344
200	0xbdd77aff	-0.105215065
201	0x3e1a2746	0.15054044
202	0xbda2aa93	-0.07942691
203	0x3e10c1de	0.14136454
204	0x3d8c5672	0.06852426
205	0xbd834cfc	-0.06411168
206	0x3d989fba	0.074523404
207	0x3e08baa0	0.13352442
208	0x3dcbb548	0.09946686
209	0x3de5d166	0.1122158
210	0xbd9bac6c	-0.07601246
211	0x3e0663a0	0.13123941
212	0xbd2cade1	-0.04215801
213	0x3d79d491	0.060993735
214	0xbd3567a4	-0.044288293
215	0x3d5cdbfa	0.053920723
216	0xbbccb2fe	-0.0062469235
217	0xbdaa3b3e	-0.08312081
218	0xbd905c65	-0.07048873
219	0x3da6a344	0.08136609
220	0x3e0d6262	0.13807061
221	0x3cc9fcf5	0.024656752
222	0xbe1de696	-0.15419993
223	0xbcfba714	-0.030719317
224	0x3d906d09	0.07052047
225	0xbc826c43	-0.015920764
226	0x3db41f5a	0.08795042
227	0xbcbb9615	-0.022898713
228	0xbdc5631a	-0.09638043
229	0x3d453a9a	0.04815159
230	0xbe0b75d0	-0.1361916
231	0x3df5fc0e	0.12010966
232	0xbe00de15	-0.12584718
233	0xbe0a5b0c	-0.13511294
234	0xbdd00495	-0.10157124
235	0x3e2d193d	0.16904159
236	0x3e05177d	0.12997241
237	0xbc7a2115	-0.015266676
238	0x3de5a5a0	0.11213231
239	0xbdbd7b02	-0.092519775
240	0x3ca1eae1	0.01976532
241	0x3dfaf695	0.12254063
242	0xbe1658a7	-0.14682256
243	0xbcf49cb9	-0.029859887
244	0x3e04b698	0.12960279
245	0x3e1ca2c7	0.1529647
246	0xbe05b143	-0.13055901
247	0x3dd8aa6f	0.10579383
248	0x3d282476	0.041050397
249	0xbd2123a0	-0.039340615
250	0xbdfbd91e	-0.12297271
251	0x3e12b31f	0.14326142
252	0xbe02f7d1	-0.12789847
253	0x3e3453dc	0.17610115
254	0xbdd78e72	-0.10525216
255	0xbd8d4262	-0.06897427

bias f4 [16]
0	0xbc850516	-0.016237777
1	0x3e17fb85	0.14842041
2	0x3ae9184f	0.0017783734
3	0x3e131b07	0.14365779
4	0xbe24f8ef	-0.16110586
5	0x3e22ea81	0.15909769
6	0xbc7fd1d2	-0.01561399
7	0x3d7df47e	0.062000744
8	0xbd6f977e	-0.058494084
9	0xbcb483f4	-0.022035576
10	0xbde85703	-0.11344721
11	0xbdfe134d	-0.12406025
12	0xbdac325b	-0.08408042
13	0x3cfa283c	0.030536763
14	0xbe258683	-0.16164593
15	0xbcb9bcc2	-0.022673015

weight f4 [81, 144]
0	0xbd384157	-0.044984188
1	0x3aabcc11	0.0013107081
2	0xbdb98e03	-0.0906029
3	0x3cac9bf2	0.021070454
4	0xbda11079	-0.0786447
5	0x3d9d5d0d	0.07683764
6	0xbda8d2eb	-0.082433544
7	0xbcf5ffdb	-0.030029228
8	0x3c019c35	0.007910778
9	0x3d69b9f8	0.05706212
10	0xbb95f58e	-0.0045763915
11	0x3da29491	0.07938493
12	0x3a9d6f8a	0.0012011391
13	0xbce171f0	-0.02752015
14	0x3ced092b	0.028935036
15	0x3d038ea0	0.03211844
16	0xbbb73770	-0.0055913255
17	0xbc339802	-0.010961534
18	0xbc688cc1	-0.014193715
19	0xbd8d1d43	-0.06890347
20	0x3cc903b4	0.024537899
21	0xbc462b5d	-0.0120953
22	0x3bfbf809	0.00768948
23	0xbc7f40c7	-0.015579409
24	0xbd4cf46d	-0.05003779
25	0x3c992d9a	0.018698502
26	0x3c224895	0.009905
27	0x3d50206e	0.050812177
28	0xbd855e5f	-0.065121405
29	0xbd40782b	-0.0469896
30	0xbbefb3c1	-0.0073151295
31	0x3b1647e8	0.0022931043
32	0xbd97cd3f	-0.074121945
33	0x3da27bb2	0.07933749
34	0x3cb5765c	0.022151165
35	0xbcc94617	-0.024569554
36	0xbd083863	-0.0332569
37	0xbd841e76	-0.064511225
38	0xbd2b0f26	-0.041762494
39	0x3cffd8c4	0.031231292
40	0xbd9289bf	-0.07155179
41	0xbda0a210	-0.07843411
42	0xbd81a4d7	-0.06330269
43	0xbd8d946f	-0.06913077
44	0xbda5d6dc	-0.08097622
45	0xbd8bd28a	-0.068272665
46	0xbc10d857	-0.008840642
47	0x3c262921	0.010141642
48	0x3b49650b	0.0030730392
49	0xbd3b49eb	-0.04572479
50	0x3d366713	0.044531893
51	0x3daefbaa	0.08544095
52	0x3d820356	0.063482925
53	0xbc95ce8a	-0.018286962
54	0x3d1269e3	0.035745513
55	0xbd1f24e5	-0.038853545
56	0xbd9a838c	-0.07544622
57	0xbd979ec0	-0.07403326
58	0x3d9b4c57	0.0758292
59	0xbce3152f	-0.027720062
60	0x3d45bbaa	0.048274674
61	0x3d6f364d	0.058401395
62	0x3cadc437	0.021211727
63	0xbcbb5e8e	-0.022872236
64	0xbd2de489	-0.042454276
65	0xbcb2249e	-0.021745976
66	0xbd2b6fbf	-0.041854616
67	0x3d8f48da	0.06996317
68	0xbd6e9078	-0.058243245
69	0x3dad2b93	0.08455577
70	0x3dabdce4	0.08391741
71	0x3d8bccc6	0.06826167
72	0xbd9b725a	-0.0759017
73	0xbcfcee91	-0.030875476
74	0xbc4a7e08	-0.01235915
75	0xbd9358ef	-0.07194697
76	0xbce7c150	-0.02829042
77	0x3be2509f	0.0069065834
78	0x3d765d32	0.06014747
79	0x3cb4af0f	0.02205613
80	0x3cb57b64	0.022153564
81	0x3bd7be1a	0.006583941
82	0x3d7aa4c4	0.06119229
83	0x3d95c412	0.07312788
84	0x3d8c0918	0.06837672
85	0xbd9bf0fe	-0.07614325
86	0xbd322127	-0.043488648
87	0x3d7f894b	0.062386792
88	0xbd5d3192	-0.054002352
89	0x3d8a1068	0.067414105
90	0xbd3bfb80	-0.045894146
91	0xbc403a0b	-0.0117325885
92	0x3d89c00a	0.06726082
93	0x3bb60ba2	0.005555586
94	0xbc9cb3af	-0.019128649
95	0xbd02aac3	-0.031901132
96	0x3c996eef	0.018729655
97	0x3d7afbd7	0.06127533
98	0xbd2679ed	-0.04064362
99	0x3d86b8f0	0.06578243
100	0x3c84cf98	0.01621227
101	0x3d09262d	0.033483673
102	0xbd33face	-0.043940358
103	0xbda7f583	-0.082011245
104	0x3ca453b6	0.020059448
105	0xbd2ffe65	-0.04296722
106	0xbb9d63f7	-0.0048031765
107	0x3c7c73fc	0.015408512
108	0x3cc0aa66	0.023518752
109	0xbd9da922	-0.07698275
110	0x3c6f379a	0.014600659
111	0x3da31d9a	0.079646304
112	0x3d407a64	0.04699172
113	0xbd7f4f0d	-0.062331248
114	0x3b85a9cc	0.0040790793
115	0xbdb2c44a	-0.087288454
116	0x3d404c11	0.046947543
117	0xbd763896	-0.06011256
118	0x3d30c2eb	0.04315464
119	0xbd03e0ef	-0.032196935
120	0xbce1aa99	-0.027547168
121	0xbb3d9aea	-0.0028931447
122	0xbcb4967b	-0.02204441
123	0xbccfb383	-0.025354153
124	0x3be7469d	0.0070579783
125	0xbd22c8f0	-0.03974241
126	0x3d3a3f8a	0.04547075
127	0x3d176862	0.03696478
128	0xbd268beb	-0.04066078
129	0xbd456236	-0.048189364
130	0xbc90505c	-0.017616443
131	0xbd68cb80	-0.056834698
132	0xbd4ce86e	-0.05002635
133	0x3d9ee871	0.077591784
134	0xbb2f4380	-0.0026743114
135	0xbc53c9fe	-0.012926577
136	0xbad81994	-0.0016487115
137	0xbd9c5a6b	-0.07634433
138	0x3c81e599	0.015856551
139	0x3c93b203	0.018029219
140	0xbd14b867	-0.036308672
141	0xbbb99dd5	-0.005664567
142	0x3c86d75c	0.016460113
143	0x3d244f04	0.040114418
144	0x3d25798a	0.04039911
145	0xbd9d757b	-0.07688423
146	0xbca01367	-0.019540502
147	0xbcee9c62	-0.029127304
148	0xbda93de0	-0.08263755
149	0xbdc22955	-0.0948054
150	0xbc362bae	-0.0111188125
151	0x3a610a31	0.00085845875
152	0x3d751103	0.059830677
153	0x3d8be6e5	0.06831149
154	0xbc8309ed	-0.015995944
155	0x3d4cf7cb	0.050041
156	0xbd10dc21	-0.03536618
157	0xbd641f72	-0.05569405
158	0x3d1e873a	0.03870318
159	0x3cc83286	0.024438154
160	0xbd8da49f	-0.069161646
161	0xbd03daaf	-0.032190975
162	0xbd1995e5	-0.037496466
163	0x3d0e9a02	0.034814842
164	0xbd2d68c2	-0.042336233
165	0xbd6aaa54	-0.057291344
166	0x3c8dedc8	0.017325297
167	0xbb890988	-0.0041820444
168	0xbd84a8f1	-0.064775355
169	0x3d6e1bfc	0.058132157
170	0x3c9561f5	0.018235186
171	0x3cbf99ce	0.02338877
172	0x3d9b7321	0.075903185
173	0xbc4d6442	-0.01253611
174	0xbc81ac1c	-0.015829138
175	0xbc8f3d98	-0.017485425
176	0x3d634924	0.055489674
177	0x3c7019a5	0.014654552
178	0x3bab31cc	0.005224442
179	0x3d65fbcb	0.05614833
180	0xbd078c33	-0.03309269
181	0xbc4a0cf8	-0.012332194
182	0x3b92be80	0.004478276
183	0x3d139b10	0.03603655
184	0xbcc884d6	-0.024477404
185	0x3c3564d8	0.011071406
186	0xbd4bb168	-0.049729735
187	0xbcfed666	-0.031108093
188	0x3d3686ba	0.04456208
189	0x3d945415	0.072426
190	0xbce686e1	-0.028140487
191	0xbd7b8c0f	-0.061412867
192	0xbc07487f	-0.0082570305
193	0xbcc79fd4	-0.024368204
194	0xbda5a0f6	-0.080873415
195	0xbcd303c6	-0.025758635
196	0xbd90db54	-0.070730835
197	0xbcf1989a	-0.029491711
198	0xbd984411	-0.07434858
199	0xbcb11af7	-0.021619303
200	0x3ccdc9b4	0.025120594
201	0xbd113b15	-0.035456736
202	0xbd3d48b5	-0.046211917
203	0xbcdd9777	-0.027049763
204	0xba8e3398	-0.0010849116
205	0x3b150c59	0.0022742955
206	0xbda27a9f	-0.07933544
207	0x3d2c6b63	0.0420946
208	0x3d3f9f94	0.046783045
209	0x3d9d38f7	0.07676881
210	0xbda0ab9b	-0.07845231
211	0xbd70ac0e	-0.058757834
212	0xbd91bc56	-0.07116
213	0x3d90b709	0.07066161
214	0x3cf8df96	0.030380052
215	0xbc0d5be1	-0.008627863
216	0xbc848ea0	-0.01618129
217	0x3d6ce3df	0.057834502
218	0xbd92573c	-0.07145545
219	0xbd94552a	-0.07242806
220	0x3c407a6d	0.011747939
221	0x3d5c05db	0.05371652
222	0xbd9d568c	-0.07682523
223	0x3d3f4dde	0.04670512
224	0x3d808a15	0.06276337
225	0xbd5f40a0	-0.05450499
226	0xbd0af4ed	-0.033924986
227	0xbd88a171	-0.066714175
228	0x3cced2c6	0.025246989
229	0x3b9d851f	0.004807129
230	0xbd9a5725	-0.07536153
231	0xbd9cebe0	-0.07662177
232	0xbd414634	-0.04718609
233	0xba1f3c05	-0.0006074312
234	0xbd36d2e9	-0.044634733
235	0xbd9ff250	-0.07809889
236	0xbd839fb0	-0.06426942
237	0xbc6eb4c0	-0.014569461
238	0xbd916001	-0.070983894
239	0x3da03f9f	0.07824635
240	0xbd840f8e	-0.06448279
241	0x3d492701	0.049109463
242	0xbd362b34	-0.044474795
243	0x3d659a4f	0.056055363
244	0xbd868efb	-0.0657024
245	0xbcd93580	-0.026514769
246	0x3d95de94	0.07317844
247	0x3da1b204	0.07895282
248	0xbca7014f	-0.020386366
249	0xbc87d551	-0.01658121
250	0x3cdc703e	0.02690899
251	0xbcfd1427	-0.030893398
252	0x3cb7c3eb	0.022432288
253	0xbc79b0f3	-0.015239942
254	0xbd67a232	-0.056551166
255	0xbcebe042	-0.028793458

bias f4 [81]
0	0xbcefc5b5	-0.029269079
1	0xbd7e1afd	-0.062037457
2	0xbd3c7209	-0.04600719
3	0x3cd8ed65	0.026480386
4	0xbd91c38e	-0.07117377
5	0x3ce50198	0.027954862
6	0x3d8d1df6	0.0689048
7	0xbd403ece	-0.046934895
8	0xbcc1ba04	-0.02364827
9	0x3c8bebdc	0.01708024
10	0x3d5a7cee	0.0533418
11	0x3c311bcd	0.010809851
12	0xba8ccdb0	-0.0010742452
13	0x3d42d09f	0.047562238
14	0xbd7ad5b5	-0.061238963
15	0xbc77589b	-0.015096809
16	0x3d385f03	0.045012485
17	0x3d8d7318	0.06906718
18	0xbc4d50fd	-0.012531516
19	0x3d87ea26	0.06636457
20	0xbd49e904	-0.049294487
21	0x3ceda924	0.029011317
22	0x3c3f3d46	0.011672324
23	0xbc8822ca	-0.016618151
24	0xbda2f532	-0.079569235
25	0x3d4253c6	0.047443174
26	0x3d70b7e2	0.058769114
27	0x3d386766	0.045020483
28	0x3d4f5509	0.050618205
29	0xbd2f9c0a	-0.04287342
30	0xbd5b3f23	-0.05352701
31	0x3d19882f	0.03748339
32	0x3cddaac2	0.027058963
33	0x3d7defea	0.061996378
34	0x3d291c80	0.041286945
35	0xbacaf400	-0.0015484095
36	0xbd00da97	-0.031458464
37	0x3ca8218e	0.020523813
38	0x3d9e9388	0.07742983
39	0x3cc5164b	0.024058482
40	0x3d14bdf9	0.036313985
41	0x3d09d066	0.03364601
42	0xbbef6413	-0.007305631
43	0x3d82c70c	0.063856214
44	0xbcb242f9	-0.02176045
45	0xbca1a096	-0.019729894
46	0xbc91bee7	-0.017791225
47	0x3d5f8391	0.05456883
48	0x3d82a564	0.06379202
49	0xbd0ab227	-0.033861306
50	0x3c935a6a	0.017987449
51	0xbd258b07	-0.04041579
52	0xbd8c6598	-0.06855315
53	0xbcf6a76e	-0.030109134
54	0x3d37d683	0.04488231
55	0x3d81e06c	0.06341633
56	0xbc8783f1	-0.016542407
57	0x3d915ad4	0.07097402
58	0xbc53ab81	-0.012919308
59	0xbd33b903	-0.043877613
60	0x3d1ce9a2	0.038308747
61	0x3cccc07d	0.02499413
62	0xbd4131bb	-0.047166567
63	0x3b94df02	0.004543186
64	0xbc5ff67f	-0.013669609
65	0x3cd52070	0.026016444
66	0x3c33fef7	0.010986081
67	0x3990014b	0.00027466784
68	0x3c1a8415	0.009430905
69	0x3cfca7a1	0.03084165
70	0xbd049b28	-0.03237453
71	0xbd6dceac	-0.058058426
72	0xbc9173f8	-0.017755494
73	0xbd785fcb	-0.06063823
74	0x3d50b29d	0.05095159
75	0xbd9e76c1	-0.07737494
76	0x3cf7d69d	0.030253703
77	0xbd5da166	-0.054109
78	0xbc553054	-0.013012011
79	0xbcce9541	-0.025217654
80	0x3da8cfea	0.082427815

weight f4 [1, 144]
0	0x3c042adc	0.008066859
1	0x3d6bf5a0	0.057607293
2	0xbd924e3a	-0.07143827
3	0xbda203c5	-0.07910875
4	0x3d9c12af	0.07620751
5	0x3d8f9b0f	0.07011997
6	0x3da427a9	0.08015377
7	0x3da4f7be	0.080550656
8	0x3d81193e	0.06303643
9	0xbd5a7080	-0.053329945
10	0xbd5638b4	-0.05230017
11	0x3c82b690	0.015956193
12	0x3ad7695c	0.0016434598
13	0x3c80da19	0.015728997
14	0x3d27b0b5	0.040940005
15	0x3d0b35a5	0.033986706
16	0x3d0733ee	0.03300851
17	0xbc33f093	-0.01098265
18	0x3b9e7587	0.0048357877
19	0xbd9965bc	-0.074901074
20	0x3d42f23a	0.047594287
21	0x3ca2a3ec	0.019853555
22	0xbd5014c0	-0.05080104
23	0x3d6cd600	0.057821274
24	0xbd058aac	-0.03260295
25	0xbce54d98	-0.027991101
26	0xbda687ab	-0.08131345
27	0xbca459fe	-0.020062443
28	0xbd0c2254	-0.034212425
29	0xbd5be7a9	-0.053687725
30	0x3d7fb41f	0.062427636
31	0x3d1448eb	0.036202352
32	0xbc5b8220	-0.013397723
33	0xbcde22c7	-0.027116193
34	0x3daa5e75	0.083187975
35	0x3c9a4a01	0.018834116
36	0x3bd67a10	0.0065453127
37	0xbc84d75c	-0.016215973
38	0x3d7c47e2	0.06159199
39	0x3d351b52	0.044215508
40	0xbd847a24	-0.06468609
41	0xbd9cab5f	-0.07649874
42	0x3d289190	0.041154444
43	0xbda215b6	-0.07914297
44	0x3d6214aa	0.055195488
45	0x3da4a1ff	0.08038711
46	0x3d31286e	0.043251447
47	0xbd91f5b7	-0.071269445
48	0xbd6262db	-0.055270057
49	0x3d1934f6	0.037404023
50	0xbd6c6ca8	-0.05772081
51	0x3c60a82b	0.013711969
52	0x3d59ca9a	0.05317173
53	0xbd0c7bbb	-0.034297686
54	0x3d8ea7b3	0.0696558
55	0x3d7272df	0.05919158
56	0xbd957f95	-0.07299725
57	0x3d9fbfa3	0.07800224
58	0xbd989791	-0.07450784
59	0x3d467c6a	0.048458494
60	0xbd83d77a	-0.06437583
61	0x3d4aaa86	0.04947903
62	0x3d86ad3c	0.065760106
63	0xbd2fa6ad	-0.042883564
64	0x3d2398a2	0.039940484
65	0x3d8bb444	0.06821492
66	0x3d13c1a3	0.03607334
67	0x3d59b6fe	0.05315303
68	0x3ca65c4e	0.020307686
69	0x3d7926a9	0.060827885
70	0x3cf6f972	0.030148242
71	0x3d8312d8	0.064000785
72	0x3cec325c	0.028832607
73	0xbd80f50e	-0.062967405
74	0xbda6114f	-0.0810877
75	0xbcd1bbb0	-0.025602192
76	0xbd5fbc2d	-0.054622818
77	0x3bf6d0b5	0.007532204
78	0x3d422b72	0.047404714
79	0x3bca46c8	0.0061729886
80	0x3d77ee2a	0.060529865
81	0xbd5e2aa9	-0.054239903
82	0x3d8252b2	0.06363429
83	0xbd572cb1	-0.052532855
84	0xbd9f3361	-0.077734716
85	0xbcbd356b	-0.02309676
86	0xbd2666b2	-0.04062528
87	0x3ce117a1	0.027477087
88	0xbd5928f4	-0.05301757
89	0x3d956c6a	0.07296069
90	0xbdb4a470	-0.088204265
91	0x3d30b2de	0.04313933
92	0x3d223147	0.039597776
93	0x3da202e8	0.079107106
94	0xbd611a99	-0.054957006
95	0xbd569e01	-0.052396778
96	0x3ca2e754	0.019885696
97	0xbd9129a6	-0.07088022
98	0xbbef25ae	-0.007298193
99	0x3b53c9c3	0.0032316304
100	0xbd243da9	-0.040097866
101	0x3d881d6b	0.06646236
102	0xbd75b2b3	-0.059984874
103	0xbd7503d1	-0.059818093
104	0x3cd3927d	0.025826687
105	0xbda3f86b	-0.08006366
106	0x3d13a0f9	0.036042187
107	0xbd91ae10	-0.07113278
108	0x3cbd3344	0.023095734
109	0xbc9c4acd	-0.019078637
110	0x3d965cf8	0.07341951
111	0x3d92a403	0.07160189
112	0xba1e421e	-0.0006037074
113	0x3d129734	0.03578873
114	0x3c3888d3	0.01126309
115	0xbd8f44bb	-0.06995531
116	0xbd44a58c	-0.04800944
117	0xbc11b233	-0.008892584
118	0x3cfbfa1a	0.030758906
119	0x3c197b08	0.009367712
120	0x3c4b3ed6	0.012405118
121	0x3d30d3e4	0.043170825
122	0x3d2ee985	0.04270317
123	0x3d0274b6	0.031849585
124	0xbda1e0bb	-0.07904192
125	0xbccc34d3	-0.024927532
126	0x3d914b6d	0.070944645
127	0xbd960324	-0.07324818
128	0x3cefdf04	0.029281147
129	0x3da10ce5	0.078637876
130	0xbc20a660	-0.009805292
131	0x3d174fde	0.0369414
132	0x3d82c69b	0.06385537
133	0x3d0d5298	0.034502596
134	0x3cacbe14	0.02108673
135	0x3d6d9a41	0.058008436
136	0xbd717927	-0.05895343
137	0x3ce0607a	0.027389754
138	0x3ce904f4	0.028444745
139	0x3c93228a	0.017960805
140	0x3daf265e	0.0855224
141	0x3d401e31	0.046903793
142	0x3c3e7e9e	0.011626868
143	0x3d59a285	0.053133506
