models/model_20.pt (torch, 64647 bytes, 9 tensors)

weight f4 [64, 1, 3, 3]
000000 a6 85 46 be c7 bb 92 bd 72 a2 f7 3d f6 df 24 3e
       -0.1938692 -0.07164722 0.12091531 0.1610106
000010 d8 04 c5 3d 69 e2 48 be e1 4c 1c bd 8e 46 fb bd
       0.096200645 -0.19617619 -0.038159255 -0.122693166
000020 f0 04 83 be a9 b7 d7 3c 22 44 97 3e d0 88 aa 3e
       -0.25589705 0.026332693 0.2954417 0.33307505
000030 01 7b 1a 3e 74 2c a4 3e 86 13 c8 bc 0c 74 94 be
       0.15085985 0.32065165 -0.024423372 -0.28994787
000040 c7 83 20 3e cd d8 5d be f9 4f 6e be 9e 04 9a 3e
       0.15675269 -0.21664734 -0.23272695 0.30081648
000050 07 ed 9e 3e 16 8a 75 3e 57 f5 f5 bd a3 d3 ae 3d
       0.31040213 0.23978457 -0.120096855 0.0853646
000060 04 33 51 bd c0 c1 25 3e 95 62 41 3e 6c f0 59 3e
       -0.051074043 0.16187191 0.18885262 0.2128312
000070 8e 2e bf 3c fa f2 5c be 65 cf 11 be 75 2a 27 bd
       0.023337629 -0.21577063 -0.14239271 -0.040811975
000080 88 f2 6d be e1 27 4f 3e 1e e6 3d be 1b c2 a1 3d
       -0.2323705 0.20230056 -0.18544814 0.07898351
000090 10 97 86 3e 53 39 92 3e fa 68 e7 bc ae 56 42 bd
       0.26287127 0.2855936 -0.028248299 -0.047445945
0000a0 3f fe 98 3e fd 7c 27 3e 21 c0 a9 3e 0f b7 9f bd
       0.29881474 0.16356273 0.33154395 -0.077985875
0000b0 5c 05 b7 3c 86 c4 b1 3d 4c 70 a6 be 28 88 c8 bd
       0.022341423 0.08680062 -0.3250755 -0.09791595
0000c0 eb 99 1a be ae 75 17 3e d8 ae 37 3e e0 bb 77 be
       -0.15097778 0.14790985 0.17937791 -0.24192762
0000d0 60 32 62 3e dd 87 8a be 01 24 90 3e 46 82 8d bd
       0.22089529 -0.2705678 0.2815247 -0.06909613
0000e0 b1 69 9f be 6c 45 3d 3d 99 1d 85 bd 53 37 95 3e
       -0.31135324 0.046208784 -0.06499786 0.29143772
0000f0 02 c9 68 3e 52 45 d6 bc ff 7d 9b 3d 3d 43 f1 3d
       0.22732928 -0.026156101 0.07592391 0.11780403
000100 11 80 7c 3c da 41 2e 3d a1 f7 b6 3b 38 ea 0d be
       0.015411393 0.04254327 0.005583719 -0.13858879
000110 80 52 20 be 26 98 63 bd 38 a2 16 3e e3 55 c5 bd
       -0.15656471 -0.055565022 0.14710319 -0.09635522
000120 38 1e 9c 3d 75 8c 4f 3d 21 5d 98 3e 10 7f a6 3e
       0.07622951 0.05067106 0.29758552 0.32518816
000130 02 02 59 be d7 6a 51 3e 3b 6b a5 bd c4 95 a2 be
       -0.21192172 0.20450912 -0.08077093 -0.31754887
000140 44 d9 75 bd 6d 5d 55 be 38 93 0e be bb 9c 8c 3e
       -0.060021654 -0.2083642 -0.13923347 0.27463326
000150 a8 8a a2 be 63 87 ab 3e 49 35 03 3e 21 23 a4 be
       -0.3174641 0.3350173 0.12813295 -0.3205805
000160 6a ac 1c be fa e7 5e 3d 1c ca d9 bd 72 f6 3a bc
       -0.15300146 0.05442045 -0.106342524 -0.011411296
000170 f1 6a a5 be b6 17 1e be 6c be a0 3e b3 72 52 3b
       -0.32308152 -0.15438733 0.3139528 0.0032111823
000180 f9 68 62 be ae db 90 be 18 8d 0f bd ba b4 9b bc
       -0.22110356 -0.28292602 -0.035046667 -0.019007076
000190 22 df ad bc 64 1f 2d be a7 07 2f 3e b6 da 15 3e
       -0.021224562 -0.16906506 0.17092763 0.14634213
0001a0 f8 1f c3 bc 0a ef fe bb 5b 20 6c be 00 8a 9f bd
       -0.023818955 -0.0077799605 -0.23059218 -0.07789993
0001b0 c1 95 86 3e 39 81 c5 3d 76 3e 86 be 06 e6 4b bc
       0.26286128 0.09643788 -0.2621953 -0.012444979
0001c0 44 54 a7 be 25 2f 70 be 19 73 a4 be c2 5e 3f be
       -0.32681477 -0.23455484 -0.32119063 -0.18688491
0001d0 3f 5b 76 be 28 94 bd bc 85 e2 aa be 28 68 ea bc
       -0.24058245 -0.023141935 -0.33375946 -0.028614119
0001e0 32 e8 88 3d d1 49 a2 be 60 aa 2b be b9 09 7d be
       0.06684913 -0.31696942 -0.16764212 -0.2471074
0001f0 cb 04 73 be db 4e 42 bb ba d8 19 bd ed e8 54 bd
       -0.23732297 -0.0029649052 -0.037560202 -0.051979948
000200 65 e4 35 be 72 bf 9d 3e b6 c9 86 be 12 11 7a 3d
       -0.17762907 0.30810124 -0.26325768 0.061051436
000210 20 60 93 3e 67 96 87 be d5 fd 3b be 3f f8 24 bd
       0.28784275 -0.26481935 -0.18358548 -0.04027581
000220 f3 ce 00 3e 17 19 8e 3e ed 4f 06 3d de 3e 80 3e
       0.12578945 0.27753517 0.032791067 0.25047964
000230 28 9e 3a 3e de 81 9a 3e c5 ba 10 3e dc 41 bd 3c
       0.18224394 0.30177206 0.14133747 0.023102693
000240 16 60 63 be 20 ba 8a 3d 54 27 8e 3d 66 19 34 3e
       -0.22204623 0.06773782 0.06941095 0.17587814
000250 5d 47 6d 3e ba 68 03 3d 81 f0 23 3e ee 2c 27 3d
       0.23171754 0.032082297 0.16009714 0.040814333
000260 26 a0 91 be bf 0b 9a 3d 7a 44 20 bd 28 f1 03 3e
       -0.28442496 0.07521772 -0.039127804 0.12884963
000270 9e 84 7a be 63 2e 01 3e a1 b8 99 3e 95 22 48 3e
       -0.24464652 0.12615351 0.30023673 0.19544442
000280 ee f5 a0 3e bc b0 a2 3e df d3 94 3e 09 dd 66 3b
       0.3143763 0.31775463 0.29067895 0.0035226962
000290 06 c8 4f be f0 84 8c 3e 0c 86 9a 3e 02 5b a8 3e
       -0.20291147 0.27445173 0.30180395 0.32881933
0002a0 c2 5e 8c 3e a7 d6 0a 3b eb da c2 3c 93 b0 1a be
       0.27416044 0.0021185072 0.023786029 -0.1510642
0002b0 05 af 53 3e 72 c5 9c 3e 6d 2c 88 3e 20 36 00 3e
       0.20672233 0.3061939 0.26596394 0.12520647
0002c0 e3 b7 64 3e 89 52 36 be e9 da 06 3c 75 10 d7 3d
       0.22335772 -0.17804922 0.008230903 0.10501186
0002d0 f0 66 98 be 28 10 9b 3e 13 bc 25 be b5 16 3d 3e
       -0.29766035 0.30285764 -0.16185026 0.18465693
0002e0 1f 37 3f be f0 56 0e be 3b b3 9d 3e d4 75 18 3e
       -0.18673371 -0.13900352 0.30800804 0.14888698
0002f0 60 66 38 3e 00 66 8a 3e a5 f7 bd 3c 5d 11 98 be
       0.18007803 0.27030945 0.023189375 -0.29700747
000300 c8 78 45 be d9 1c 86 3d ae 41 97 bd cc d2 59 be
       -0.19284356 0.06548471 -0.07385574 -0.21271819
000310 b7 d2 a1 be b8 19 0e 3e 6c a9 49 bd 2e d0 24 3e
       -0.31606075 0.13876998 -0.04923384 0.16095039
000320 cf 42 d4 3c 7f 5c 47 3e df 4d ce 3d c1 f7 68 3b
       0.025910763 0.19468878 0.100734465 0.0035548063
000330 75 6a 8f bd 16 60 a3 3e 23 bf 0e bd 5d 18 c8 bd
       -0.07002727 0.31909245 -0.03485025 -0.09770272
000340 c2 4e 4c 3e d0 28 79 be a5 13 8d bd 3a aa 3e 3e
       0.19951919 -0.24331975 -0.068885125 0.18619624
000350 3a 92 75 3e 0e b3 e8 3b 3e 20 88 be 43 7b 88 3e
       0.23981562 0.007101423 -0.265871 0.2665654
000360 4f 96 7b bc f7 8f 24 3e ce 1c 0d 3e f1 c6 c1 3d
       -0.015355661 0.16070543 0.1378052 0.09461773
000370 22 88 a2 be b5 9c 79 be 38 4d fd 3d e7 a6 da bd
       -0.31744486 -0.24376185 0.12368244 -0.10676365
000380 ad 64 b1 3d 12 bc 5c 3d 3b c8 54 be 37 09 f8 3d
       0.086617805 0.053890295 -0.20779507 0.121111326
000390 e4 30 12 be 50 3d 66 3d c7 92 68 be dc b2 0f be
       -0.14276463 0.056210816 -0.22712241 -0.14033073
0003a0 65 87 92 3e c7 ec 67 3e 6c cb 52 3e 2f 84 90 3e
       0.28618923 0.22648917 0.20585412 0.28225848
0003b0 b6 dd a3 3d b9 7d 5f 3b 88 11 9a 3d 95 db ce 3d
       0.080012724 0.0034102036 0.07522875 0.10100476
0003c0 f2 97 39 be 94 13 ff 3d f5 ca 49 3e 76 21 33 be
       -0.18124369 0.12454906 0.19706328 -0.17493233
0003d0 e9 5b 2c 3e b5 a7 e4 bd ba 2f 51 be f1 02 e5 bd
       0.16831936 -0.111648 -0.20428362 -0.11182202
0003e0 66 e1 95 be fa 62 9c 3e 48 10 31 3d 4f 2a c5 3c
       -0.29273528 0.30544263 0.043228418 0.024068026
0003f0 b3 cb 9e 3e ac d7 e7 bc 51 3e f1 3d e2 fd cf bc
       0.31014785 -0.028301083 0.11779464 -0.025389615

bias f4 [64]
000000 56 1d eb bc 58 67 33 bd ee 10 04 3e 51 cd 28 3e
       -0.028700512 -0.04379973 0.12897083 0.16484572
000010 8f 65 39 3c 36 e5 30 bd d0 d1 54 bd 63 cc e5 bd
       0.011315717 -0.043187343 -0.051957905 -0.11220624
000020 2e 56 1c be 6c 4c ba bc 97 3b 74 3a 28 00 c8 bd
       -0.1526725 -0.022741519 0.0009316741 -0.09765655
000030 c8 97 2b be c0 91 cd bd 36 c9 52 3e e4 82 1d be
       -0.16757119 -0.10037565 0.20584568 -0.15381962
000040 29 38 a2 ba 17 c9 81 be bc 30 2f 3e 64 2f 9d bd
       -0.0012376356 -0.25348732 0.17108434 -0.07675055
000050 ca 4c 98 be c4 1a 0f 3e b2 04 7f 3e 05 37 5e bd
       -0.29746085 0.13975054 0.24904135 -0.05425169
000060 18 0e 25 3e 24 5a a2 bd 72 64 27 bd 84 85 99 3e
       0.16118658 -0.07927349 -0.040867276 0.29984677
000070 b5 54 55 3e 07 b6 a0 be c3 84 6c 3e 0b 3e ba bd
       0.20833094 -0.31388876 0.2309752 -0.09093865
000080 d2 81 4a 3e 03 1b 73 3e 82 bc 8c be cc 9f 8d 3e
       0.19776085 0.23740773 -0.2748757 0.27660978
000090 db 17 46 be d5 e6 26 be b0 fd 4a be e7 bf c9 bd
       -0.19345038 -0.16298993 -0.19823337 -0.098510556
0000a0 bd 33 00 be b3 7d 6d be 29 39 63 3e cd b1 36 be
       -0.12519737 -0.23192482 0.22189774 -0.17841263
0000b0 01 73 a3 3e 65 da 63 3e 18 7f 11 3e d7 b7 01 be
       0.3192368 0.2225128 0.14208639 -0.12667786
0000c0 77 96 85 be 70 aa 02 3e 5b 83 13 be f4 6e 5f 3d
       -0.26091358 0.12760329 -0.14405577 0.054549173
0000d0 b8 ce fe bd a0 93 90 3e 83 26 4f 3a f0 41 6c 3e
       -0.12441772 0.2823763 0.0007902162 0.23072028
0000e0 03 c3 45 bd 3b 96 6f be 5d 04 8c be 1b f5 97 be
       -0.04828168 -0.23397152 -0.2734708 -0.29679188
0000f0 df 0c 34 3e a3 4f fc 3d a2 90 99 3e 67 16 44 3e
       0.17583035 0.12319877 0.2999316 0.19149171

weight f4 [32, 64, 1, 1]
000000 41 b4 b8 3d b9 ce 3a 3d 81 0b 0b bd 70 84 47 3c
       0.09018756 0.045607302 -0.033946518 0.012177572
000010 3f fc b3 3b c6 e0 04 3d 7c da 96 bd 1d 30 cd bd
       0.0054927166 0.032440923 -0.07365891 -0.100189425
000020 c4 4c 4c 3d 58 17 b5 3d ba 8f 5f 3c e1 90 b1 3d
       0.049877897 0.08842343 0.013645107 0.086702116
000030 1c 3c e4 bc fd 91 6a 3d 80 53 27 3d 9e aa 15 bd
       -0.027860694 0.05726813 0.040851116 -0.036539666
000040 02 f9 c9 3d 2b 17 b4 3d 28 cb 03 bb 5e 02 3e 3c
       0.098619476 0.087934814 -0.0020110104 0.011597244
000050 33 f8 a4 bd 0c c3 b3 3d 4f 74 e7 bd bf c9 a7 3d
       -0.08055153 0.087774366 -0.11301481 0.08192777
000060 0b bf 2f bd ed c3 f3 3b d5 6e 0d bd 86 b0 30 3d
       -0.042906802 0.0074391277 -0.034529526 0.043137096
000070 8e 86 80 3d 14 06 87 3c 44 df 8a 3d 8e 7b fa bd
       0.06275664 0.01648239 0.06780866 -0.122305974
000080 5f 02 06 3d 44 3a b5 3c f8 3c 4b b9 a5 c9 cf 3d
       0.032717105 0.02212251 -0.00019382301 0.101458825
000090 4e 6c a5 3b bc 64 cd bd 5a 12 a8 3d 4a a2 35 bd
       0.0050483113 -0.10028979 0.08206625 -0.044344224
0000a0 61 9d ce bd 13 92 63 bd 2c 0f 42 3d 68 73 a0 3d
       -0.100886114 -0.05555923 0.04737775 0.07834512
0000b0 68 30 73 3d e8 29 d1 3c d1 a0 3c bd f4 35 50 bc
       0.059372336 0.025532678 -0.046051804 -0.012708176
0000c0 9c 13 c2 bd 6d 2e 8d bb 51 17 26 3d 21 d9 b2 bc
       -0.094763964 -0.004308513 0.04054958 -0.02183205
0000d0 e6 5d 2e bd 2e 2c 9a 3b 3e 63 d0 bc 7a a7 9f 3d
       -0.042570017 0.0047049737 -0.025437947 0.077956155
0000e0 b2 9d 9a 3c 2b 69 b4 3c c5 9c 87 3d f6 3c 32 3c
       0.018874023 0.022022804 0.06621698 0.010878792
0000f0 bb a8 c5 3a 0a b0 1c 3d f0 21 1a 3c 5a d3 60 bd
       0.0015080193 0.03825382 0.009407505 -0.05488906
000100 62 b9 06 3d 47 cd c5 3d 76 d3 a3 3c 20 20 ac 3d
       0.03289164 0.09658294 0.019998293 0.08404565
000110 79 81 3b bd 61 9e 29 3d 4e 58 6b 3c 3b b8 e2 3d
       -0.04577777 0.041410808 0.014364315 0.110702954
000120 94 d2 cc 3d 0a f3 90 bb c0 18 05 3e 18 6a 0c bd
       0.10001102 -0.0044235038 0.12997723 -0.034280866
000130 12 f0 fb 3c 02 a5 e0 3d 1a 5b f7 bd c5 10 8a bd
       0.030754123 0.10968973 -0.12077923 -0.0674148
000140 f0 f4 67 bd a9 8f ae bd cf 67 c8 3b 67 a4 02 3c
       -0.056630075 -0.08523495 0.0061158906 0.007973767
000150 20 e4 f6 bc 7e 8e ea bd f1 0a f9 3c 3d e7 9c 3b
       -0.030138075 -0.114529595 0.030400725 0.004788308
000160 2e b6 70 bd 34 f8 fb 3d 06 96 b8 bc 30 5a f8 bd
       -0.05876749 0.123032 -0.022532474 -0.12126577
000170 9a 46 06 bd 02 a5 4c 3d 97 54 08 3d 38 6c 04 bd
       -0.032782175 0.04996205 0.033283796 -0.032329768
000180 d0 48 28 bd e2 7c 02 bd f6 69 98 bd bc 69 60 3c
       -0.041085064 -0.03185738 -0.074420854 0.013697084
000190 cf fd cb 3d f7 13 3e bd 96 d8 a0 3d 50 13 bb 3d
       0.099605195 -0.04640576 0.078538105 0.09134543
0001a0 ba 13 b0 bd cf 9c fa bc df 41 e6 3d 87 38 c4 3d
       -0.085975125 -0.03059235 0.11243033 0.09581094
0001b0 e7 55 b3 3d e3 9d cf bd de 7a 02 3e 1f 80 65 3d
       0.08756619 -0.101375364 0.12742183 0.05603039
0001c0 89 84 bb 3d 4d 83 c0 3d c8 e2 ec 3c 65 e2 8f 3b
       0.091561384 0.09400044 0.028916731 0.004391002
0001d0 5c 9b a3 bd b1 af 6b 3d 63 da ce bb 0c 8f e4 bd
       -0.07988617 0.0575406 -0.006312655 -0.111600965
0001e0 11 b6 85 3d fd 7f e1 bd 14 99 02 3d e6 f2 72 3d
       0.06528867 -0.1101074 0.031884268 0.059313677
0001f0 e2 5d a2 3c ab cd b5 3d 19 96 55 bd 2c 94 42 3d
       0.019820157 0.08877119 -0.052145097 0.04750459
000200 f5 c3 d6 bd b1 37 08 3d 43 15 8d 3d 05 55 6e 3d
       -0.104865946 0.033256236 0.06888821 0.05818655
000210 64 e1 9e 3d c2 bb d7 bd 1f 7e 86 bd bf 9c e5 bd
       0.077578336 -0.10533859 -0.065670244 -0.112115376
000220 24 87 e7 3c 10 16 58 3c 78 f3 be 3d 6c 42 d0 bd
       0.028262682 0.013188854 0.09323782 -0.10168919
000230 a1 6f 56 3d 89 76 8d bd 9c 98 0a bc 33 eb 99 3c
       0.05235255 -0.069073744 -0.0084592365 0.01878891
000240 c7 81 af 3d 14 80 7b bd ad 46 0a 3c 4e de 05 bd
       0.08569675 -0.06140144 0.008439702 -0.03268271
000250 5a fc 59 bd fa d6 72 bd 9d 42 2e bd 4c 78 f4 bd
       -0.053219177 -0.05928705 -0.042543996 -0.11937007
000260 4f c5 ab bc c3 a9 e7 3d 90 f4 83 3d 76 c2 c5 bd
       -0.020968108 0.11311676 0.06443131 -0.09656231
000270 ab 8a 96 bd 9b e3 e2 bc 4c f1 de bc 69 d0 a7 3d
       -0.073506676 -0.027696421 -0.027214669 0.08194048
000280 e6 25 38 bd 54 b2 c8 bd 78 45 a2 3d 13 75 16 3d
       -0.044958018 -0.097996384 0.07923406 0.036732744
000290 5f 2f 91 3d b6 ff 90 bd 06 de 92 3d 42 d4 61 3c
       0.070891134 -0.07080023 0.07171254 0.013783516
0002a0 91 da 03 3e d3 a4 2e 3d 7d a1 ae 3d 3a ac 99 3c
       0.12876345 0.042637657 0.08526895 0.018758882
0002b0 49 9b 8f bd d8 5c 28 bd 99 c7 32 3d 26 3f d9 bd
       -0.0701204 -0.041104168 0.043647382 -0.10607748
0002c0 19 0d e8 bd 34 62 42 3d 93 f8 17 3a 88 4b 92 bd
       -0.11330623 0.047456935 0.00057972333 -0.07143313
0002d0 13 a9 d3 3c dd c8 af bd 26 c5 c0 3c 0f 19 bd bd
       0.025837457 -0.085832335 0.023531508 -0.09233295
0002e0 2a d5 58 3d e8 85 9d 3d 5b 92 b4 bd 3c c0 8b bd
       0.052937664 0.07691556 -0.088169776 -0.06823775
0002f0 0a d6 c7 bc ee 10 db bb 9b 3f 8c bc ca 8c bb bd
       -0.024394054 -0.006685368 -0.017120173 -0.09157713
000300 2e 79 f4 3d 71 19 b0 bd 59 50 d2 3d 75 be a6 bb
       0.11937176 -0.085986026 0.10269231 -0.005088622
000310 a6 8e c1 3d dd 96 9b 3d 52 dd bb 3d 62 65 0b 3d
       0.09451036 0.07597134 0.09173073 0.034032233
000320 aa 21 b4 3d a6 6f 83 3d 3b c9 93 bd e9 0a c3 bc
       0.087954834 0.064177796 -0.07216116 -0.023808913
000330 57 63 37 3d 18 61 3d 3d c5 68 9e bd 37 65 ea bb
       0.044772472 0.046235174 -0.07734827 -0.007153179
000340 b4 37 b8 3d b9 38 37 bd 32 82 97 3b 2a ee cf bd
       0.089949995 -0.04473183 0.004623675 -0.10152848
000350 b0 23 15 3c 05 ec b8 bd 81 58 d9 3d 65 7c a9 bc
       0.009102747 -0.09029392 0.10612584 -0.020689199
000360 30 7d 23 3d 35 2a 44 bd 39 87 92 3d 41 5f 70 3d
       0.03991431 -0.047891814 0.07154698 0.05868459
000370 ff ea c7 bc bb 14 b2 3c e7 2c ce bd 41 66 cc 3d
       -0.024404047 0.0217384 -0.10067158 0.09980441
000380 2b 74 c0 3d 1a c1 95 bd 08 60 6a 3d 47 e2 2e 3d
       0.09397157 -0.07312222 0.05722049 0.042696264
000390 7c db cd 3c a6 69 59 3d 0c d9 09 3e 11 c5 9d bd
       0.025129072 0.05307927 0.13461703 -0.07703603
0003a0 06 85 cd bd fd 6e bd 3c d5 7a 8c bd 75 9a bf 3b
       -0.10035138 0.023124212 -0.06859366 0.00584727
0003b0 7b 4c 00 3e 94 1a 7c bb 03 30 af 3d 9c b7 02 3e
       0.12529175 -0.003846799 0.085540794 0.12765354
0003c0 7f 98 f0 bd fb 43 65 3d 36 84 08 bc 6b 13 03 3d
       -0.11747836 0.055973034 -0.008332303 0.03200094
0003d0 66 7e 73 bd 0b 4c c1 bc eb 18 82 bd 54 90 8a 3d
       -0.059446715 -0.02359583 -0.06352409 0.0676581
0003e0 ff 53 bb 3c ab 93 e5 3d 3d 9b cd bc e9 71 8c 3d
       0.0228672 0.11209806 -0.025098437 0.06857664
0003f0 f9 a6 e5 bd ab 7e 9b 3c 77 23 ef bc 7f ba 84 bc
       -0.11213488 0.018981298 -0.029191716 -0.01620221

bias f4 [32]
000000 b5 7e 15 bc e6 0c 30 bd aa 97 a0 3d f7 52 b9 bd
       -0.009124448 -0.04298105 0.078414276 -0.090490274
000010 69 73 ba bd 16 e0 89 bd e2 1f c0 bd 28 31 f3 3d
       -0.09104044 -0.06732194 -0.09381081 0.1187461
000020 be 31 f6 bd 9d 0a 9f bc a2 71 6b bd 7e f2 d2 bd
       -0.12021206 -0.01941424 -0.057481416 -0.10300158
000030 2a 42 df bd eb a2 61 3a 20 3b ec bd 88 98 9c bd
       -0.10901292 0.00086073455 -0.11534715 -0.076462805
000040 e7 7c bd 3c b8 fa 94 bc 33 12 6f 3d 2e 2c 7e bd
       0.023130847 -0.018185958 0.058366966 -0.06205385
000050 72 53 f1 bd b9 66 df 3b 01 18 b2 bc 8b d7 e9 bd
       -0.11783494 0.0068176654 -0.021739962 -0.11418065
000060 dd 9f 2c 3c a5 91 9c 3d e3 7a f1 3d a6 f5 8f bd
       0.010536161 0.07644967 0.11791017 -0.070292756
000070 b7 1b 93 3d e4 f9 98 3d 47 a2 94 3d 40 ab 7b bd
       0.071830206 0.07469538 0.072575144 -0.061442614

weight f4 [16, 32, 1, 1]
000000 1f b5 32 3e 53 6a 56 bd 98 a7 a0 bd f9 d7 0f be
       0.17451905 -0.052347492 -0.07844466 -0.14047231
000010 da a1 71 3d 2c 70 4f bd b9 05 89 3d 8b 45 9c bd
       0.058992244 -0.050644085 0.06690545 -0.07630452
000020 73 62 0e be 30 5c a4 bc 70 03 d2 bd e5 fd a4 3d
       -0.13904743 -0.02006349 -0.10254562 0.08056239
000030 4d ba 16 be 70 ba 20 be fa 04 61 3d 06 a1 d2 bd
       -0.14719506 -0.1569612 0.054936387 -0.10284619
000040 64 05 2a 3e 78 bd 12 bc 41 58 a1 3d 7a 0d 27 be
       0.16603619 -0.008956306 0.07878161 -0.16313735
000050 bb 3f 0e 3e 61 7e 0e be 9c cf d6 bc d8 06 f9 bd
       0.13891499 -0.13915397 -0.026222043 -0.121595085
000060 98 13 2a 3d 41 b8 16 3e 3e 93 a0 bd 55 46 bd 3d
       0.041522592 0.14718725 -0.07840584 0.092419304
000070 e3 57 0c be b3 6b 9f 3d ea 61 30 be 78 4f 27 3e
       -0.13705401 0.07784214 -0.17224851 0.16338909
000080 48 07 67 3a fa c1 d0 bd c7 ba fd bd 56 de 12 3d
       0.00088130357 -0.10193248 -0.123891406 0.035856567
000090 0f f8 1a be 30 35 27 3d f8 69 20 3d 53 1c 4a bd
       -0.1513369 0.040822208 0.03916356 -0.04934342
0000a0 1c ac 27 bd 34 1b ee bd 30 63 a7 3d be 4b 04 3e
       -0.04093562 -0.11626282 0.081732154 0.12919518
0000b0 68 f4 80 bd cc 45 f2 bd 6a 7c a7 3d e4 72 33 be
       -0.06296617 -0.11829719 0.08178027 -0.17524296
0000c0 3d 45 82 bd 7f 42 d2 bc 12 5a 12 3d e2 ff 8b bd
       -0.063608624 -0.025666473 0.03573043 -0.06835915
0000d0 b7 48 49 3c 1d e2 0a 3e 90 62 48 3d d0 3c 10 3e
       0.012285403 0.13562818 0.04892212 0.14085698
0000e0 59 72 60 bd d5 5b 08 be 66 e1 d1 bd 93 e0 08 3d
       -0.05479655 -0.13316281 -0.102480695 0.033417296
0000f0 f6 10 b0 3d ba 14 04 bd 44 fa bf bd a0 a1 28 3d
       0.08596985 -0.03224633 -0.09373906 0.041169763
000100 87 a6 df 3c b2 57 d7 bd dd e0 92 ba d3 fd 08 be
       0.027301086 -0.105147734 -0.001120593 -0.13378076
000110 fe 98 21 3e 9c f2 99 3d ad b7 c0 bd 65 ad 21 bd
       0.15781018 0.07516977 -0.094100334 -0.039472003
000120 f9 fd a3 3d 11 a6 d8 bd 51 b9 0b 3d 3b 5a e4 3a
       0.08007426 -0.1057855 0.03411228 0.001742191
000130 d8 f6 02 3e 34 39 dd 3d 48 4b 1f 3e db b0 03 be
       0.12789476 0.10801926 0.15556061 -0.12860434
000140 be f6 f8 bd 4f 9b a0 3d 2d 45 25 be 5e f2 8b 3d
       -0.12156437 0.07842123 -0.1613967 0.06833337
000150 fd 11 0b 3d 1b 9a 23 be 0e 7f aa 3d c4 5a b3 bc
       0.0339527 -0.15976755 0.08325015 -0.021893866
000160 3f 3e b6 3d 86 e2 98 bd 3d f3 18 bd 2e 42 98 bd
       0.08898591 -0.07465081 -0.037341345 -0.07434498
000170 fe a2 43 39 d9 6e e4 3d 8a 6e e2 3c 82 6c ab 3d
       0.00018657368 0.11153955 0.0276406 0.083703056
000180 2f ac d4 bd e4 78 53 bd 0c 41 16 be 5b 54 6b bd
       -0.10384404 -0.051628962 -0.14673251 -0.057453495
000190 32 27 5a bd ef 87 e9 3d 32 d6 1b 3e 50 16 0a bc
       -0.053260036 0.114028804 0.15218428 -0.008428171
0001a0 6e 00 24 3e c7 8f 2a 3e a0 5e 19 3e 8f db 1a 3e
       0.16015789 0.16656409 0.14977503 0.15122817
0001b0 e3 ee 85 bc e7 11 ef 3d c1 af b2 3d a5 2c d6 bb
       -0.016349262 0.116733365 0.08724929 -0.0065360838
0001c0 d3 88 2a be eb 91 26 be e3 55 ec 3d 2a d6 19 3d
       -0.16653757 -0.16266601 0.11539819 0.03755776
0001d0 f9 b5 1a 3e de 68 25 be 1a 23 0d 3d 3b 43 1e bc
       0.1510848 -0.16153285 0.034457304 -0.009659584
0001e0 38 ac d5 bd 14 e2 c7 3d a3 d5 4e 3c a6 13 25 3d
       -0.10433239 0.09759918 0.012624177 0.04030194
0001f0 4d ab 05 3e 37 f1 1a be 21 49 8e bd c6 af df bd
       0.13053627 -0.15131079 -0.06947542 -0.10922198
000200 58 f3 1e bd 52 96 af 3d bc d4 25 be e8 36 a4 3c
       -0.03880629 0.08573593 -0.16194433 0.020045713
000210 a9 c6 25 3e 96 fb 9e 3d fc 1b 44 3d 54 16 92 3d
       0.16189064 0.0776283 0.04787825 0.07133165
000220 b8 4f 4b 3d d1 27 32 be 00 c7 b9 bb fe 30 2f be
       0.049636573 -0.17398001 -0.0056694746 -0.17108533
000230 0a e0 23 be a5 c1 18 be fa 2b a1 bd 62 24 01 be
       -0.16003433 -0.1491762 -0.07869716 -0.12611535
000240 12 40 c7 3d 72 75 09 be a4 62 14 3d 60 4f 55 3d
       0.09729017 -0.13423708 0.036226884 0.05207765
000250 00 b7 64 3c 18 12 e0 bc 20 03 04 be 9c e0 8c 3d
       0.013959646 -0.027352378 -0.12891817 0.06878778
000260 82 4a a6 3d 03 fd 27 3e 0c 4b c5 bd 9a b5 fd 3d
       0.0811968 0.1640511 -0.09633455 0.123881534
000270 5a 97 f5 3d 28 b2 b5 3c 97 ae 16 3e b4 9a 86 3d
       0.11991759 0.022179678 0.14715038 0.06572476
000280 43 1c f5 bc 8d 90 b8 3b 3f a9 94 bc 5c 9d 1f be
       -0.029920703 0.005632466 -0.01814711 -0.15587372
000290 ff 76 97 bd 0b 41 fa bd 2f aa 9e bc 8e cd 13 3d
       -0.073957436 -0.12219437 -0.01936826 0.036084704
0002a0 1c 73 cc 3b 27 9c 05 be d4 f1 3e 3e 87 91 2a 3e
       0.006239308 -0.13047849 0.18646938 0.16657077
0002b0 8c 36 34 bc f6 c3 08 3e 36 9b 8e 3d 31 c6 a0 3d
       -0.010999333 0.13356003 0.06963198 0.07850302
0002c0 2c 81 b3 bd 05 35 37 bd ec 4c 87 3d 7d 74 98 bd
       -0.08764872 -0.044728298 0.066064686 -0.074440934
0002d0 d5 fa 81 3b 84 ef ce 3c 38 10 fa 3d 6d 8f 41 be
       0.003966669 0.025260694 0.12210125 -0.18902369
0002e0 26 8d b4 bd 2b 95 24 be e6 ed de 3d 39 d5 9c bd
       -0.088159844 -0.16072528 0.10885219 -0.076578565
0002f0 4b 14 89 3d a8 bb 8c bd f7 0d d6 3d c8 5d 35 be
       0.06693324 -0.0687173 0.10451882 -0.17711556
000300 f3 69 74 3d e1 7d 00 be 4a 38 d0 bd e0 7f e1 bd
       0.059671354 -0.12548019 -0.10166986 -0.11010718
000310 d7 33 ed bd 1a 1d f2 bd 8f b8 11 3e e8 27 e0 3d
       -0.11582153 -0.11821957 0.1423056 0.109451115
000320 b7 7d da bd 29 da 1c 3e ad 9e a5 bd 4c 6e 13 3e
       -0.106685095 0.15317596 -0.08086906 0.14397544
000330 68 a1 8f 3d 78 4d 74 bd 48 37 9a 3d b7 9d 0d 3e
       0.07013208 -0.059644192 0.07530075 0.13829695
000340 29 17 d3 3d b6 88 e9 3d ea 55 93 bd 92 e0 07 3e
       0.10307152 0.11403029 -0.07194121 0.1326926
000350 a3 30 18 bd 7a 90 80 3d 93 31 2c bd 95 0e 6a 3d
       -0.03715576 0.06277557 -0.042039465 0.057142813
000360 af 72 c5 38 40 e0 ae bd ac a5 86 bd c5 19 cb 3d
       9.4150535e-05 -0.08538866 -0.06574568 0.099170245
000370 6c de 11 3e 23 d8 ef 3c c8 39 1a be ca f4 f3 bc
       0.14245003 0.029277867 -0.15061104 -0.02977981
000380 fe f2 91 3d f7 25 a8 bc 44 dc a7 3d e7 ae b9 bc
       0.07126425 -0.020525916 0.08196309 -0.022666408
000390 c2 a0 c0 bd 94 9a 44 3d 88 92 0c be 6a dd f9 3d
       -0.09405662 0.04799898 -0.13727772 0.122004345
0003a0 15 5c 04 be be 1f 08 be 57 86 d5 bd 58 f3 2b 3e
       -0.12925752 -0.13293359 -0.10426014 0.16792047
0003b0 63 75 06 3e 68 03 58 bc e1 85 e3 3d 62 d2 c3 bd
       0.13130717 -0.013184406 0.1110952 -0.09561612
0003c0 4e 2c a4 3c 29 eb 00 3e 0b b0 16 be 7f b5 df bc
       0.020040657 0.12589706 -0.14715593 -0.027308224
0003d0 4c 4b 02 3e 48 0f 22 3e e6 a3 05 be 41 15 e2 3d
       0.12724036 0.15826142 -0.13050804 0.1103921
0003e0 be 23 20 3d 30 a4 1c bd 76 ef f8 bd 89 c6 0d 3e
       0.039096586 -0.03824252 -0.121550485 0.13845266
0003f0 49 02 00 be 04 c3 35 3e 3e af d4 bd a5 e5 88 bd
       -0.12500872 0.17750174 -0.10384987 -0.06684426

bias f4 [16]
000000 30 2d 73 bc 2e 95 19 3e af 60 a5 3a 98 1f 14 3e
       -0.0148423165 0.14998314 0.0012617315 0.14465177
000010 ef f8 24 be 92 10 27 3e 77 94 34 bc 2f a2 80 3d
       -0.16110586 0.16314915 -0.011021725 0.06280934
000020 2f 21 5c bd 41 c4 a6 bc 07 96 dd bd 3c 5d 06 be
       -0.053742584 -0.020357253 -0.10819631 -0.13121504
000030 d1 75 a5 bd 1e 6d 02 3d 83 86 25 be 66 1a b7 bc
       -0.08079112 0.031842344 -0.16164593 -0.022351455

weight f4 [81, 144]
000000 ea 0c 0a bd 83 bc 56 ba 37 0f bd bd 5b 6a 88 3c
       -0.033703722 -0.00081915426 -0.092314176 0.016652277
000010 b4 b2 9e bd c3 5b b1 3d 71 cd eb bd 05 55 fa bc
       -0.07748929 0.0866008 -0.11513794 -0.030558119
000020 ed d6 63 3b 6f 91 68 3d d8 ff 85 ba 55 a8 a1 3d
       0.0034765557 0.05677932 -0.0010223342 0.07893435
000030 33 e4 0f 3c 8a b5 ef bc 9c d2 d4 3c 8b 2c e7 3c
       0.008782434 -0.02926137 0.025979333 0.028219482
000040 bf 33 d3 bb ea da 6f bc 98 db db bc 89 ac 80 bd
       -0.0064453776 -0.0146395955 -0.026838109 -0.062829085
000050 ab f7 a1 3c 18 68 19 bc 72 15 98 3b 7b 39 7b bc
       0.019771418 -0.009363197 0.0046412284 -0.015333529
000060 d0 8d 4e bd 8a 26 8f 3c 48 a5 a4 3b bb e1 2e 3d
       -0.05042821 0.017474432 0.005024586 0.042695742
000070 15 4a 90 bd 0f ee 44 bd bb 27 57 bc 55 7c 0c bb
       -0.0704538 -0.048078593 -0.013132031 -0.0021436412
000080 09 a5 9d bd f9 2a a7 3d 32 09 9e 3c e7 6d 02 bd
       -0.076974936 0.08162493 0.019291494 -0.031843092
000090 63 38 08 bd 76 1e 84 bd 26 0f 2b bd c4 d8 ff 3c
       -0.0332569 -0.064511225 -0.041762494 0.031231292
0000a0 bf 89 92 bd 10 a2 a0 bd d7 a4 81 bd 6f 94 8d bd
       -0.07155179 -0.07843411 -0.06330269 -0.06913077
0000b0 dc d6 a5 bd c9 29 92 bd 8d 29 47 bc b9 d8 12 3c
       -0.08097622 -0.07136876 -0.012155903 0.0089628035
0000c0 3a e7 01 38 cb 42 4e bd 7d 98 2c 3d 73 0b b6 3d
       3.0971343e-05 -0.050356667 0.04213761 0.088889025
0000d0 d6 a6 82 3d ce 01 bd bc 2b 54 bd 3c 82 51 4e bd
       0.06379478 -0.02307215 0.023111423 -0.0503707
0000e0 12 ac a4 bd eb 49 b8 bd a4 d8 9a 3d f2 35 8b bc
       -0.08040632 -0.08998474 0.07560852 -0.016993497
0000f0 6e f8 01 3d 65 8b 48 3d b9 4f 02 3c f4 85 82 bc
       0.03173106 0.048961062 0.007953578 -0.015933014
000100 b8 2e 03 bd 2e 9c dd bc 0b 8b 25 bd 2d 87 93 3d
       -0.032026976 -0.027052011 -0.040415805 0.07203517
000110 0d 4b 57 bd 86 33 98 3d 01 fb ab 3d 91 83 89 3d
       -0.05256181 0.07431702 0.083974846 0.067145474
000120 5a 72 9b bd d6 ea 0c bd 08 7e 4a bc 15 33 90 bd
       -0.0759017 -0.034403645 -0.01235915 -0.07040993
000130 50 c1 e7 bc 9f 50 e2 3b ca 02 51 3d 0f af b4 3c
       -0.02829042 0.0069065834 0.05102805 0.02205613
000140 64 7b b5 3c cd 0f e7 ba 9c 74 46 3d c3 15 98 3d
       0.022153564 -0.001762861 0.04845105 0.07426026
000150 98 b3 57 3d be 44 a4 bd 60 f0 35 bd 08 bb 80 3d
       0.05266151 -0.08020924 -0.044418693 0.062856734
000160 36 1e 71 bd 96 92 82 3d 4a eb 6c bd a0 08 72 bc
       -0.058866702 0.06375615 -0.057841577 -0.014772564
000170 ce a5 75 3d 05 b4 9d bb e8 89 b3 bc ee 5f e1 bc
       0.059972577 -0.0048127198 -0.021916345 -0.027511563
000180 85 83 d4 bb db 64 87 3d cc 41 4e bd 5b 69 67 3d
       -0.006485405 0.066110335 -0.050355718 0.05649696
000190 93 c8 8e bb 0e 8a 1b 3d 26 c2 55 bd 23 71 8a bd
       -0.0043574064 0.037973456 -0.052187108 -0.0675986
0001a0 76 38 45 3c a1 3e 1d bd a5 11 a3 3b 1a 27 a3 3c
       0.012037387 -0.038389806 0.0049764686 0.019916106
0001b0 0b 80 2f 3c e0 d8 96 bd 59 bf cc 3b f2 b5 87 3d
       0.01071168 -0.073655844 0.0062483964 0.066265
0001c0 14 24 04 3d c2 42 86 bd a0 75 f3 3b 28 c3 bb bd
       0.03226097 -0.06555702 0.0074297935 -0.091680825
0001d0 e9 92 00 3d 28 c5 87 bd 1d a1 1b 3d 20 96 0e bd
       0.031390104 -0.066294014 0.037995446 -0.03481114
0001e0 f5 ae 07 bd 2b 02 c2 bb 1c 1e d5 bc 1d de df bc
       -0.033125836 -0.0059206686 -0.026015334 -0.027327592
0001f0 17 12 0e 3c 56 e2 43 bd 8a 3f 3a 3d 62 68 17 3d
       0.008671305 -0.047823273 0.04547075 0.03696478
000200 eb 8b 26 bd 36 62 45 bd 5c 50 90 bc 80 cb 68 bd
       -0.04066078 -0.048189364 -0.017616443 -0.056834698
000210 78 e8 4c bd 71 e8 9e 3d 80 43 2f bb 76 1f 96 bc
       -0.050026387 0.077591784 -0.0026743114 -0.018325549
000220 89 7f 82 3b 67 b4 a9 bd e0 d4 5d 3c fd b7 8b 3c
       0.0039824885 -0.08286362 0.013539523 0.017055506
000230 fa c1 2f bd f8 8f 34 bc fd 6c 74 3c cc 17 fc 3c
       -0.0429096 -0.011020653 0.014918563 0.030773066
000240 a5 91 1e 3d f1 88 cb bd be ab 40 bd d1 9f bb bc
       0.038713116 -0.09938229 -0.047038786 -0.022903355
000250 11 b0 ba bd 20 98 da bd 78 9b 8a bc 5b 5b 71 3b
       -0.09115613 -0.10673547 -0.016919836 0.0036828134
000260 e8 af 4e 3d fc cb 3a 3d 46 d0 0f bd 95 1c 02 3d
       0.050460726 0.04560469 -0.035110734 0.03176554
000270 c4 f6 4a bd 06 d6 90 bd 9e 48 a2 3c 18 d2 dd 3a
       -0.04955174 -0.07072072 0.019810017 0.0016923575
000280 9b 98 ad bd 38 02 51 bd 96 6c 45 bd d6 36 e0 3c
       -0.08476373 -0.051027507 -0.04819926 0.027369898
000290 77 f7 0d bd 5a d8 79 bd df 62 13 3b aa d5 c7 bc
       -0.03465983 -0.060997345 0.0022489352 -0.024393875
0002a0 74 cd a5 bd 9a 1f 2d 3d 02 8a 22 b9 f6 f0 b9 3b
       -0.08095828 0.042266466 -0.00015500936 0.0056744767
0002b0 b8 b8 6f 3d f9 51 e9 bc b1 cc 1b bd fd d8 23 bd
       0.05852577 -0.02848147 -0.038037006 -0.040001858
0002c0 89 d8 14 3d 51 5a 41 bb 20 48 6f bc a5 fc 26 3d
       0.036339317 -0.0029503296 -0.014604598 0.040768284
0002d0 33 8c 07 bd f8 0c 4a bc 80 be 92 3b 10 9b 13 3d
       -0.03309269 -0.012332194 0.004478276 0.03603655
0002e0 d6 84 c8 bc d8 64 35 3c 68 b1 4b bd 66 d6 fe bc
       -0.024477404 0.011071406 -0.049729735 -0.031108093
0002f0 ba 86 36 3d 41 36 73 3d 20 c5 3b bd 1f a4 9d bd
       0.04456208 0.059377912 -0.04584229 -0.07697319
000300 9b 3f 04 bd 1b 0b 42 bd 28 75 be bd c4 ad 33 bd
       -0.03228722 -0.047373872 -0.092996895 -0.043866888
000310 89 b7 bd bd 4f 50 31 bd df 93 b6 bd d1 ea 14 bd
       -0.09263522 -0.04328948 -0.08914923 -0.03635675
000320 31 07 f7 3b 34 1f 8d bd dc a4 78 bd ef 60 25 bd
       0.007538699 -0.06890717 -0.060704097 -0.040375646
000330 71 ba 59 bc bc f4 2b bc cf 21 c9 bd 2f eb af 3c
       -0.01328908 -0.010495361 -0.098209016 0.021474449
000340 f5 86 06 3d bd f8 80 3d 89 07 a5 bd ce f0 8f bd
       0.03284355 0.06297443 -0.08058078 -0.07028352
000350 c9 ae b6 bd 87 f8 2d 3d d7 bf 45 3c 7d ca f0 bc
       -0.089200564 0.042473342 0.012069664 -0.029393429
000360 a0 8e 84 bc e0 11 52 3d 3c 57 92 bd be 65 87 bd
       -0.01618129 0.05128658 -0.07145545 -0.06611203
000370 6d 7a 40 3c db 05 5c 3d 56 31 b7 bd de 4d 3f 3d
       0.011747939 0.05371652 -0.08944957 0.04670512
000380 15 8a 80 3d 71 ac a3 bd 21 b9 33 bd e9 7d bb bd
       0.06276337 -0.07991875 -0.043877725 -0.09154875
000390 5a 6c 66 3c 90 b4 04 bc 05 71 b5 bd 9b 38 b9 bd
       0.014063919 -0.00809969 -0.088594474 -0.09044
0003a0 f2 34 8a bd 60 ab 9b bc 5f a5 5e bd 7e 33 cb bd
       -0.0674838 -0.019002616 -0.05435693 -0.09921931
0003b0 db d0 81 bd e2 b8 e5 bc 38 5d 8d bd c0 b3 89 3d
       -0.06338664 -0.02804226 -0.06902546 0.06723738
0003c0 32 34 b3 bd 20 a6 c2 3c 98 46 68 bd 0c 67 32 3d
       -0.0875019 0.023760855 -0.05670795 0.043555304
0003d0 f4 50 b3 bd 88 b6 9c bc 5c dc 62 3d 90 29 7b 3d
       -0.08755675 -0.019130006 0.055385932 0.061318934
0003e0 8a f9 e5 bc f6 b0 b7 bc 21 b1 ab 3c 88 03 07 bd
       -0.028073091 -0.022423249 0.020958485 -0.032962352
0003f0 16 4e 58 3c 1a c2 17 bd 39 86 3c bd 5b 21 3a bd
       0.013202211 -0.037050344 -0.046026442 -0.045441967

bias f4 [81]
000000 71 02 ff bc dd 81 a3 bd d2 db 30 bd ce ef ea 3c
       -0.031129094 -0.07983754 -0.043178387 0.0286788
000010 70 d2 b8 bd cc e8 16 3d 81 67 a4 3d 8b bb 61 bd
       -0.09024513 0.036843106 0.08027554 -0.055110496
000020 a6 5e 4e bc 7c ed cd b9 ca a2 72 3d be b6 02 3c
       -0.012595808 -0.00039277587 0.05923728 0.007978139
000030 1e ea 1a 3b 22 c1 5c 3d 2f 8d 79 bd ed 70 a6 bc
       0.002363808 0.053895123 -0.06092566 -0.02031752
000040 98 1f 6d 3d ef c8 82 3d 9e 35 b0 bc 2f 51 92 3d
       0.05789146 0.06385981 -0.021509942 0.07144391
000050 03 09 55 bd 3b 04 c6 3c 97 a3 9f 3c b1 b5 b0 bc
       -0.052010547 0.02417194 0.019487185 -0.021571012
000060 e6 71 93 bd 35 3f 5e 3d ed d0 8d 3d 43 eb 2f 3d
       -0.07199459 0.054259498 0.06924615 0.042948972
000070 0d 5e 22 3d 31 f7 18 bd 76 0a 8a bd f2 48 ca 3c
       0.039640475 -0.037345115 -0.067402765 0.024692986
000080 92 18 a6 3c 55 cd 88 3d 4d 1d c8 3c 5c 03 48 bc
       0.020275388 0.06679789 0.024428034 -0.012207832
000090 f3 07 03 bd cb 1e 31 3c 70 46 94 3d fe 68 7d 3c
       -0.031990003 0.010810564 0.072399974 0.015466927
0000a0 12 8f ba 3c 3c 00 c5 3c 90 db 61 3b 2e 36 6e 3d
       0.0227733 0.024047963 0.0034463145 0.05815714
0000b0 78 2d f0 bc f3 46 e6 bc ee e6 b6 bc ae a8 6c 3d
       -0.029318556 -0.028110003 -0.022326913 0.057778053
0000c0 c6 f2 57 3d d3 9f 1c bd fa 97 5e 3c f6 03 16 bd
       0.05272176 -0.038238358 0.013586039 -0.03662487
0000d0 fc e9 91 bd a7 1c e8 bc 2c 4a 9b 3c 61 13 8a 3d
       -0.07124707 -0.028333975 0.018956266 0.067419775
0000e0 e8 c7 96 bc 5e cb 8c 3d 18 c6 54 bc 82 cf 12 bd
       -0.01840587 0.06874727 -0.012986682 -0.035842426
0000f0 7a 30 78 3c 72 ac d0 3c da 2a 4f bd 9e b7 ea 3a
       0.015148276 0.025472853 -0.050577976 0.0017907505
000100 9e d3 23 bc 43 dc d5 3c de 0c 12 3c f4 69 8e 3b
       -0.009999184 0.026106006 0.008914201 0.0043461267
000110 ab 04 00 bb 36 bb 81 3c 61 4a 28 bd d7 ad 85 bd
       -0.0019534032 0.01583634 -0.04108656 -0.06527298
000120 2a 86 aa bc ad 93 72 bd a0 34 24 3d 71 67 ae bd
       -0.020815928 -0.059222866 0.04008925 -0.08515824
000130 70 ce bf 3c dd 78 47 bd 5e c2 dd bc 91 87 c2 bc
       0.023413867 -0.04869925 -0.02707022 -0.023746284
000140 47 2c 97 3d
       0.07381492

weight f4 [1, 144]
000000 4d 75 cc 3b 8d e3 64 3d ef 49 8f bd 16 f2 9e bd
       0.0062395693 0.05588107 -0.069965236 -0.07761018
000010 9d b5 a3 3d 69 75 93 3d bf 7f 99 3d b5 e2 ab 3d
       0.07993624 0.072001286 0.07495069 0.0839285
000020 8e 15 7d 3d 7f 8a 59 bd 79 87 57 bd 3a 01 92 3c
       0.061788134 -0.053110596 -0.05261943 0.01782285
000030 34 a5 6c 3b 43 c7 8b 3c e3 01 2b 3d a7 bf 0b 3d
       0.003610921 0.017062789 0.041749846 0.03411832
000040 8f 35 07 3d 20 5b 2d bc 05 c1 b4 3a 23 79 aa bd
       0.03301006 -0.010580808 0.0013790434 -0.08323886
000050 f9 c2 3b 3d 13 29 a1 3c e9 01 3c bd 33 47 7d 3d
       0.045840237 0.019672906 -0.04590026 0.06183548
000060 93 ed e9 bc 03 06 18 bd 65 a4 99 bd 7d 36 95 bc
       -0.028555667 -0.03711511 -0.07502059 -0.018214459
000070 fc 0b 03 bd 2b f2 5a bd 7b b6 75 3d b3 9e 16 3d
       -0.03199385 -0.053453606 0.05998848 0.03677244
000080 7f 1f 3f bc 2e a9 d0 bc 38 2b ab 3d 52 2b a7 3c
       -0.011665224 -0.025471296 0.08357853 0.020406399
000090 10 7a d6 3b 5c d7 84 bc e2 47 7c 3d 52 1b 35 3d
       0.0065453127 -0.016215973 0.06159199 0.044215508
0000a0 24 7a 84 bd 5f ab 9c bd 90 91 28 3d b6 15 a2 bd
       -0.06468609 -0.07649874 0.041154444 -0.07914297
0000b0 aa 14 62 3d e5 ca aa 3d 22 a5 37 3d ce 1e 93 bd
       0.055195488 0.0833948 0.044835217 -0.0718361
0000c0 11 20 74 bd 7d 87 17 3d fd ae 6a bd 3c 31 71 3c
       -0.059600893 0.036994446 -0.057295788 0.014721211
0000d0 07 3a 60 3d a6 cb 05 bd f9 32 8e 3d 21 ab 7f 3d
       0.05474284 -0.032664917 0.06943316 0.06241906
0000e0 55 38 90 bd 1e a8 97 3d 29 40 a6 bd 28 1b 3a 3d
       -0.070419945 0.07405113 -0.08117706 0.045436054
0000f0 71 6a 86 bd 3e 01 5a 3d aa 15 89 3d ff 8d 41 bd
       -0.06563271 0.05322384 0.06693585 -0.04725456
000100 6b de 0e 3d 50 08 8d 3d ff 2d 1a 3d 54 97 52 3d
       0.034880083 0.06886351 0.03764152 0.05141385
000110 1e 1d bc 3c 5e 67 7b 3d 85 3f ec 3c 04 10 89 3d
       0.022963103 0.061377876 0.028838882 0.06692508
000120 5c 32 ec 3c 08 12 79 bd 4f 11 a6 bd 46 03 fb bc
       0.028832607 -0.06080821 -0.0810877 -0.03064121
000130 2d bc 5f bd b5 d0 f6 3b ab a0 5e 3d c8 46 ca 3b
       -0.054622818 0.007532204 0.054352444 0.0061729886
000140 2a ee 77 3d de d8 5d bd ca 4f 81 3d b4 b5 57 bd
       0.060529865 -0.0541619 0.06314047 -0.05266352
000150 fa 9f a5 bd b6 fd c9 bc 46 fa 2f bd 86 66 0f 3d
       -0.08087154 -0.024657112 -0.04296329 0.035009883
000160 e6 db 50 bd 69 43 a2 3d 3c cf b8 bd 5e b3 10 3d
       -0.05099096 0.07923014 -0.09023902 0.035327308
000170 88 82 1c 3d 91 02 a3 3d 6b c2 60 bd 47 cb 4b bd
       0.03821042 0.07959474 -0.05487291 -0.049754407
000180 9c 13 db 3c 83 25 a0 bd 81 7c 01 bc 96 63 10 3c
       0.026742749 -0.07819655 -0.007903219 0.008812806
000190 a5 3f 1e bd 1c dc 83 3d 57 1f 7c bd fd 02 60 bd
       -0.038634915 0.06438467 -0.061553326 -0.05469035
0001a0 ae 61 ca 3c bd cf 96 bd bb c1 06 3d 8a 58 84 bd
       0.02470478 -0.07363842 0.0328996 -0.064622
0001b0 a6 82 a5 3c 2e ec fd bc ea ce 91 3d be 35 8e 3d
       0.0202039 -0.030996408 0.07119544 0.06943844
0001c0 c5 c7 9f ba b2 79 29 3d 2e ba 71 3c 51 58 a5 bd
       -0.0012190273 0.041375823 0.014753861 -0.08073486
0001d0 bc f3 4c bd af 14 0b bc 76 d7 06 3d dc 98 25 3c
       -0.05003713 -0.008488818 0.032920323 0.010107245
0001e0 fa 4d 40 3c 3d 2f 33 3d 73 37 2b 3d ea 77 0e 3d
       0.011737341 0.04374622 0.041800927 0.034782328
0001f0 51 a4 a4 bd a9 41 ae bc 6d 4b 91 3d 24 03 96 bd
       -0.08039153 -0.021271544 0.070944645 -0.07324818
000200 04 df ef 3c e5 0c a1 3d 60 a6 20 bc de 4f 17 3d
       0.029281147 0.078637876 -0.009805292 0.0369414
000210 9e c6 82 3d 98 52 0d 3d 14 be ac 3c b2 3c 6f 3d
       0.063855395 0.034502596 0.02108673 0.058407493
000220 a9 a4 72 bd e2 80 de 3c 32 28 e6 3c f0 49 96 3c
       -0.059239063 0.027161065 0.028095338 0.018345803
000230 cc 4f ad 3d 6a 57 4c 3d b3 b2 11 3c fc b1 63 3d
       0.08462486 0.049888052 0.008892703 0.05558966
