models/regression_model.pt (torch, 759093 bytes, 16 tensors)

conv1.weight f8 [16, 2, 3, 3]
00000000: c7fd 03e0 dad2 ce3f 4ebf d7d3 4622 bc3f
00000010: 6718 c125 85cd a5bf ffee fb18 feb7 c3bf
00000020: 8230 a27e 212c b9bf 0a38 4611 1663 c03f
00000030: 8884 f8aa 2ee4 c0bf cd45 07d0 e7d8 bf3f
00000040: 2978 6f52 2e08 b5bf 2ca6 06ed cf80 a7bf
00000050: 98cb 172c 438c c0bf 685d b04e 18bd 99bf
00000060: 7688 7a71 8329 d03f 0544 e06f 750c c93f
00000070: 7fe6 b773 9a40 c4bf 25cb 44ca 4662 c6bf
00000080: 9f64 6798 b60f 893f e890 77e3 2fe6 dabf
00000090: 5d4b 4226 4aa8 923f 8b7b 84bb d4fe 8abf
000000a0: c8a9 a9da 8f32 c0bf 56af 67ff 3e22 c33f
000000b0: bb67 03de fe91 d6bf ccec 5cd4 4bd2 c9bf
000000c0: 3306 0090 7395 b63f edba da47 eb12 b3bf
000000d0: 1c53 870c de57 d2bf be72 1322 598e d33f
000000e0: 5403 8b4c 9ca1 c13f 694e f7fa 4633 9e3f
000000f0: 77a4 57f0 d114 b03f e2ba bb78 e613 b93f
00000100: 5955 b283 32e5 b23f f858 6db0 1577 d33f
00000110: 19ae d361 ce8d b23f bbb0 e0e7 2e8d db3f
00000120: 51cf dd20 7c28 b13f c224 4ca3 50ab d3bf
00000130: 5ac6 4a4b c6eb c23f 4759 4590 e38d 983f
00000140: 3149 0204 e9c1 b4bf dac1 ef17 d40c 99bf
00000150: cdf0 83c8 868c c8bf 0d9b 589a 0bc4 ce3f
00000160: 6837 878f 1f3a afbf 1fe3 d036 b6d3 dfbf
00000170: 5e9f 1cda 3536 dc3f ca7d aa0f abe8 eabf
00000180: 3a13 1138 915f c33f cdc4 df40 5abf e9bf
00000190: 2b9d 3ec5 fefc b23f 6fcd 0255 fb56 703f
000001a0: 2dee 7246 988d b4bf 8b81 7126 c942 d63f
000001b0: ce05 5045 0594 d8bf 2d12 2940 f915 a7bf
000001c0: ca7f ec9b b6e6 aa3f 6747 1e10 e44f a7bf
000001d0: 43e9 11c7 89d9 d13f 5813 2a5f fe44 6abf
000001e0: daff 52d5 6dae 923f 6c1f 38a2 db08 a2bf
000001f0: 2498 2b54 55a7 d4bf a6bd 4594 8b25 b7bf
00000200: 66d0 ad33 e914 813f 9a92 b834 c019 c83f
00000210: 6703 d37a 6f18 8bbf b135 8815 a113 e53f
00000220: dfa5 7fff d03a c03f 2315 ed5f 9b5c bf3f
00000230: 5c6f 8e26 88a6 933f 6771 4d2d 2181 a2bf
00000240: 17ab bc26 5600 babf c738 6576 b643 d6bf
00000250: a131 5e60 99b9 e0bf cff4 9c49 5f4e a5bf
00000260: 663d c4e6 c739 d03f 2b71 c6ad ef2d c0bf
00000270: 7b8e c80c 3fd0 ba3f e06d 6a24 6394 8cbf
00000280: 5137 def5 05cb a63f 8bf9 6c76 8b52 b0bf
00000290: 15b3 59a0 7a48 c1bf a2f5 d832 8e51 e3bf
000002a0: b450 507c 3343 acbf 3c61 ab34 ea65 c93f
000002b0: 7e2e 2303 031b a5bf 1f78 b0e6 ecd6 c03f
000002c0: 6494 cabb 1a27 c4bf 2895 801f 3f14 993f
000002d0: 8466 8cf8 bc6a cbbf f765 45d8 3b9f cdbf
000002e0: 0dd8 e376 499f d3bf 52c3 ebe1 310f a93f
000002f0: 5cc3 cdda c5e1 d03f 8e48 ecbd ad34 81bf
00000300: e147 5ad8 20ab d13f 24e2 686c c676 af3f
00000310: 45dc 8c71 10f2 a73f 797f 3da4 2853 ccbf
00000320: ade8 cf29 e6b2 bfbf 54c8 c8dc 9f13 c9bf
00000330: 66a4 a084 2f69 c03f 0863 12e8 f429 c83f
00000340: 3b2b 4be1 77f3 a93f 3295 2052 3010 9d3f
00000350: 3174 027b 3887 b43f 0deb adf2 6caa c33f
00000360: d083 663c 8577 b53f 580c 86b8 1aad b2bf
00000370: 3efe 8580 2b7b a33f 23e7 a3b7 1e13 c63f
00000380: 9903 ebc2 163f c23f 0d43 cf2c 3f1a c23f
00000390: 3abe 8760 ffd5 d23f ddbe 5906 0f61 b7bf
000003a0: 7f54 ae40 7d05 d43f d136 ea4a 7181 a4bf
000003b0: 37bb 7e32 7141 a33f 638e 71c2 5da4 ae3f
000003c0: 1a77 d7d7 0597 c13f 1a2c 4f0e f150 b53f
000003d0: 585f efa4 bb2f 9d3f ca32 4393 94cb dc3f
000003e0: d2a1 6423 0b2f c0bf 796f 84b5 3b8e d23f
000003f0: a196 4073 6694 da3f d584 f8f4 ea3b abbf
00000400: e38f 7dc0 3662 b3bf da5e 6381 31a5 d43f
00000410: 2a24 45ab 2d9a c6bf a5a9 eee5 013d 9f3f
00000420: 9a9f 95ad 1086 de3f b07a 658e fe07 a0bf
00000430: 4317 58e3 934f 983f c176 6867 adff ce3f
00000440: 05bb 7134 aa3e a7bf fc9b cb92 89f4 b03f
00000450: 2f26 b488 632c c83f b5dc 2a0d da8a babf
00000460: a320 d6ea 38ff 883f 0eb6 57a0 5438 d03f
00000470: 1728 8002 d0e0 93bf 7882 010d b065 c63f
00000480: 8155 8182 e098 c13f bab1 1506 e5b9 a33f
00000490: d65d 9a8c 172b c93f 4a89 cc62 a0d4 d63f
000004a0: 5cf3 9343 fabc c83f 0ac9 0e03 167a c2bf
000004b0: 79e4 2950 c2aa a3bf 044e 3b2f 0761 9bbf
000004c0: a2c3 58e3 d03a 7b3f d829 203a 61ce d03f
000004d0: 597f 2ff4 79d1 bb3f 2c97 e55b 513b b3bf
000004e0: 6957 b37c a72a d7bf fd8e c1ed 9b55 da3f
000004f0: 95c0 b9ac fb1d cc3f 93cf 80c9 9245 d33f
00000500: 95fe 0c19 9f1a aabf 69c3 1e88 df53 993f
00000510: 5848 d37f cb34 59bf e78a dbe8 879b 83bf
00000520: 36b8 da17 29e9 99bf 5391 24de 4a32 ab3f
00000530: 410d 71a6 22e1 a2bf 5d90 cb2f 0db2 94bf
00000540: 5cfc b5af d821 d53f 35cc b2c1 a6d5 d23f
00000550: a34d 3ebe f990 ce3f 6d0c 890a 2192 c3bf
00000560: fe8a 1413 cfe6 aabf 1c00 071a ba31 c3bf
00000570: 8d7b 2f62 1c6a 7fbf a111 7da1 169b c4bf
00000580: bf40 6fe5 e7bf c2bf d3d3 82b2 ca21 f0bf
00000590: 5aa8 d604 8de2 b3bf 32f8 ba61 b7be 91bf
000005a0: d7cc be1a ac55 ae3f 215e 52e4 04e1 843f
000005b0: 5128 2f9b 4ed0 ba3f 372d bdf8 ce82 c1bf
000005c0: 6a7d dde0 3f1c c0bf 8c7b 9fef 4612 c4bf
000005d0: cb6f 8a81 9902 b73f 877d 521e 5a0c 0cbf
000005e0: f5f8 bb76 f6b4 b83f 50c4 210c 1b69 e53f
000005f0: 9d2f 6173 c9a4 d33f 7cf5 e59d d6c5 e43f
00000600: e8d3 92dc bf6f d73f 0139 b060 0901 e33f
00000610: 08cc f21c 642e 9fbf 86cc 200d 3126 e33f
00000620: 596c 93ae 9431 cd3f 9635 5f9a 33d7 e53f
00000630: 0544 15c5 9b80 d0bf 93da 680d 86e0 bebf
00000640: 3d46 0ff4 6474 b4bf c34c efdd 7ee9 d2bf
00000650: 0e33 5705 2fa1 c7bf 4b70 a769 fd4e 64bf
00000660: f349 23bd cf1c c9bf cceb 0eaa 969c 8c3f
00000670: 53b3 555a a903 a03f 9849 0803 faef e7bf
00000680: b3c4 a467 f914 b4bf d4c9 4e2b 7424 bcbf
00000690: d01a 4941 7c51 aabf 1869 9899 9745 e0bf
000006a0: ec74 c641 5061 d1bf 6356 f1ae a144 cfbf
000006b0: 49a8 4825 573a c3bf 850b 449d b0ed d2bf
000006c0: f6db a975 cf7f 9b3f 530f 6eca 8c73 d8bf
000006d0: 7e8d 251e 44c8 8f3f b384 7c3d 5897 afbf
000006e0: 73b6 bdd4 e167 e0bf e60b 575e 4637 bbbf
000006f0: a3b0 780b 3122 b23f 4e76 21cb 7314 d8bf
00000700: 87fb 0087 cf2c 94bf 73c9 5e72 d0ae 8f3f
00000710: 455a b40b 2201 d1bf 401c 33c8 3731 b63f
00000720: 6317 bce7 fe37 a23f 9cbe 277c d8a9 ddbf
00000730: dafc ad78 414a a33f 4e9c 3284 58ee b03f
00000740: cb3f ad15 de42 cabf 134f 33c2 047f b93f
00000750: 2bdf 0cf0 456b c9bf 85f0 38bd f7a0 c43f
00000760: f4c0 8ffe d614 c63f 6a2a d5e0 39aa bf3f
00000770: d2c3 668e e0a5 c9bf bac2 1122 5210 b33f
00000780: 02b1 1dd2 3204 c33f 9553 7b13 07b2 b93f
00000790: 7067 415f 5a30 c4bf c179 db5a 7b72 c8bf
000007a0: 1f3b 2bbc ab00 973f 93cd c519 60fa c13f
000007b0: 2648 93c4 e36f 903f 608d 6b4e ba11 b23f
000007c0: 2972 384f 758c c83f 421c efad 67c0 bdbf
000007d0: 9e68 ee66 efae bc3f 29c5 0a15 dfa3 c2bf
000007e0: fb60 d61d 73d5 d53f 3f1b ca3b 9917 c0bf
000007f0: c4c4 456a 559e 98bf 246e 1472 fe07 ccbf
0.2408097833467606 0.1098980204767461 -0.04258361898296031 -0.1540525075905563 -0.09832963315619916 0.12802387088271444 -0.13196357105428924 0.12440346554583144
-0.08215608131965325 -0.04590463417418919 -0.12928046849227992 -0.025135402491370057 0.2525337799253359 0.19569271052071727 -0.1582215371161517 -0.1748741614952333
0.012237001920697486 -0.42029950345592093 0.018220099053518058 -0.013181364033298745 -0.12654302765743197 0.14948260756443216 -0.3526608627413414 -0.20173023099218879
0.08821794763209638 -0.07450743202455685 -0.28661299918648964 0.30556324317675976 0.13774446237041593 0.029492482249976613 0.06281768911107287 0.09795990417090253
0.07380977359055886 0.3041433546944883 0.07247629059173057 0.43049214023882215 0.06702400019076761 -0.30733123728766654 0.1478202693593172 0.023978763275715378
-0.08108383510469676 -0.02446299930665128 -0.19178852835455587 0.24035782848769607 -0.06099032046368685 -0.4972968612014927 0.4408087377546418 -0.8409018808342179
0.15135398137695139 -0.8046084658691598 0.0741729003481068 0.003989202276147948 -0.08028556556649198 0.34782627825008977 -0.38403445977027395 -0.04508952053268831
0.05254145291678432 -0.04553139397388755 0.27890247764993975 -0.00320672685603755 0.018243518967892537 -0.03522383074965671 -0.32271321506266504 -0.09041664476330044
0.008340665711991057 0.1882858521868414 -0.013230200706290508 0.6586461468265751 0.12679493403929507 0.12250681964822667 0.019189956048293197 -0.036141430645076515
-0.10156763501860798 -0.347882857914453 -0.52265614339699 -0.04161355756375828 0.25352666412159974 -0.12640186295619435 0.1047400861939937 -0.013954901264972841
0.04451769472426171 -0.06375953332187671 -0.13502438382729368 -0.6037055008998105 -0.055200203824058575 0.1984226948905049 -0.04122170842455562 0.1315590025341757
-0.15744337243555429 0.02449129705214151 -0.21419489036707173 -0.23142192897903133 -0.3065971051249797 0.048944052532425744 0.26378008239321615 -0.008401257856835789
0.2760698426073969 0.06145305703507045 0.046768678532707976 -0.22128780383627225 -0.12382353325657176 -0.19591139107211808 0.12821001029923024 0.18878041583663951
0.05068564057508814 0.02838206769242397 0.08018830302394588 0.15363847589090832 0.083854987379268 -0.07295386319133124 0.03804908698930064 0.1724584957772147
0.14255032079202293 0.14142598808259557 0.2943113749197185 -0.0913247480873411 0.31283503834249154 -0.04005006827820313 0.03760865918535788 0.05984776495531887
0.13742135085242851 0.08326632117602664 0.028502399389111005 0.44992555981734184 -0.12643565395525386 0.2899312279348503 0.41530762915713565 -0.0531915115391343
-0.07571737479662448 0.3225826037937459 -0.17658015120312714 0.030506162318184277 0.47693268729789795 -0.03131099212872834 0.023741064787848442 0.24217765378209857
-0.04539996996105881 0.0662313445460398 0.18885463881479 -0.10368120976896729 0.012205547968520419 0.2534381452413478 -0.01941227927458308 0.1749782622819287
0.1374779355270839 0.03852763842846536 0.196627563146406 0.35672769211136723 0.19326713847831456 -0.1443507685594983 -0.03841216305313195 -0.026737320192138384
0.0066478881540640595 0.26259642292339214 0.10866510592995605 -0.07512386792731424 -0.3619784086016496 0.4114751645886228 0.21966501172892508 0.3011214225582474
-0.050984355743364386 0.024734013255229757 -0.001538466195871743 -0.00957399539351429 -0.025303499299006847 0.05311807595924969 -0.03687389642484585 -0.02021046261042191
0.3301908222128469 0.29429024616109994 0.23879930295207172 -0.1528970052187079 -0.052542182044154714 -0.14995504637590862 -0.007669554589454186 -0.1609829224127113
-0.1464815016065639 -1.008249947842377 -0.07767564170959088 -0.017329087581622278 0.059247377648171166 0.010194814889742667 0.10474101341893173 -0.13680445809800698
-0.12586210708375783 -0.1568077726396634 0.0898834172498361 -5.3497791477892394e-05 0.09651127241884068 0.6690802800131994 0.30693279521505606 0.6491501888228153
0.3661956457174811 0.5938765419430468 -0.030450405375358286 0.5984120613487824 0.2280755855962038 0.6825197234226603 -0.2578496384276721 -0.12061345889456225
-0.07990103682029655 -0.29550143884007357 -0.18460643540165517 -0.002479071566297041 -0.19619175658461038 0.013970543923155797 0.031277935292428304 -0.7480440196252856
-0.07844504146921132 -0.10993124062841925 -0.05140293404524743 -0.508495140067029 -0.27156454490052684 -0.24428196947217193 -0.15021790810107152 -0.29575744016636235
0.026854745442019344 -0.38205261009737973 0.015518695993427253 -0.06170154333654789 -0.5126809268092088 -0.10631217768882059 0.07083422212662298 -0.37624831044181384
-0.01970218907831225 0.015470150461486231 -0.26569415228860677 0.08668850553213847 0.03558346346657861 -0.4634915554479251 0.037675901395226766 0.06613686778529024
-0.20516563471255575 0.09959439984532663 -0.19858621808247653 0.16116234530807474 0.17251098088991734 0.12369119395331443 -0.20037466958231548 0.07446778613826668
0.14856562861985628 0.10037273622158545 -0.15772561694285114 -0.1909937089576044 0.022463496551433978 0.14045335062438066 0.01605182540226493 0.07058300413659913
0.1917864453142937 -0.11621711727558284 0.11204429877253338 -0.14562595870442266 0.341152934206107 -0.12572017115982168 -0.02404149495254583 -0.21899395532897004

conv1.bias f8 [16]
00000000: eab1 33a5 f707 c8bf fe6e 7113 ab4e ca3f
00000010: 3e9f 686b b745 dabf 6b8a ac35 6034 d63f
00000020: 2eec b717 f1b9 d9bf b756 b5d9 b7a8 db3f
00000030: 11ee ab8b 06ba d9bf dbeb 96e6 c2fe e0bf
00000040: 52b0 0c28 2df2 bf3f 7808 643a 420b d73f
00000050: da88 a75f 42a2 d23f 7e35 d18c baf6 ac3f
00000060: 7241 3027 45ed e2bf 6ba1 da8a 8ed2 d93f
00000070: eba7 5ca9 cc39 d9bf f225 1a13 8b38 c73f
-0.18774314466953906 0.2055257649361621 -0.41050515641335383 0.3469467662963896 -0.40197398487333913 0.43217273960668073 -0.40197909965329 -0.5310987952901728
0.12478906848690599 0.36006217672559826 0.29115352002385253 0.056569890679933885 -0.5914636388206829 0.403476367568621 -0.39415279902698214 0.18141306336137536

conv2.weight f8 [16, 16, 3, 3]
00000000: e38e 5909 1ae4 a23f 5ee0 e2c0 616b c1bf
00000010: a2f5 6623 8298 be3f 0c92 ea04 c922 a5bf
00000020: 2125 2c33 fece b73f ce8f aea4 9595 b9bf
00000030: 090c 624d d75f 88bf 276d 4e60 3c07 c2bf
00000040: 8405 ea6c a38a b53f 180c 5b32 e612 b13f
00000050: 7631 7d4a 3a51 b3bf 6ca4 db11 19d3 b03f
00000060: 2d6d 95e4 d7df b2bf ca00 b5b5 8ef6 a8bf
00000070: 5b4a fa28 b648 b43f 957d 13e8 08f0 ae3f
00000080: a58b 02a8 a74f c03f e093 f538 d945 5fbf
00000090: d0c0 ba1c 6526 8b3f 3b1a 8ffb 0656 a8bf
000000a0: bb7b b07b f846 c03f 7d89 13d9 663f 7b3f
000000b0: 765c c2ba 7e52 723f 3b17 683d 6be8 bd3f
000000c0: 167b 0b1a 4df4 97bf 5e4a 14cb 0800 a8bf
000000d0: 7690 431a ab4b a5bf d630 7571 5d01 a53f
000000e0: bd8f 84e9 ebb5 9e3f 7d2d 4e13 a55a b5bf
000000f0: a015 5b6b 8897 b5bf db96 646c d017 b5bf
00000100: 2de3 1bff 3f39 b3bf 7e19 82e0 79f5 5cbf
00000110: 1ee9 a101 2c09 a3bf aa4c f2f3 d193 8abf
00000120: 2de3 590e 2edd ab3f 7451 ecc6 059f aabf
00000130: fd01 d22c ec8f 96bf ee76 ece7 b884 843f
00000140: 0577 e7ad 8090 a33f be11 2a22 fd4c b1bf
00000150: 0c7e daa3 1145 b63f e267 9a2a 3bd8 b03f
00000160: ffbd 7577 e28d 873f 1f24 49cb 8968 76bf
00000170: 6acd 5701 38e9 85bf 21e0 cfde f88a d83f
00000180: 05e2 69ee 3b1e 7cbf 06b9 791b 91dd 85bf
00000190: 101c 82f1 e77f ccbf e9af 014c c7b2 a5bf
000001a0: 52b8 686b 2e7b 883f c549 8d48 429f d33f
000001b0: 3918 7de2 06c7 623f f2fe 1a75 e8a2 b63f
000001c0: 9c30 e17d 4169 d0bf 8fcc 8be2 3151 a13f
000001d0: 39e5 3ff4 2f06 a4bf 82be 691b 4b41 b23f
000001e0: 4746 8d65 f882 aebf 5442 31f0 4c45 913f
000001f0: 34e8 357b 0063 7abf 0ffb f27c 19ac aebf
00000200: 634e 41e9 e3bc b03f b5d6 f308 5fe9 c83f
00000210: 2c57 c427 ca09 823f d76d 0255 d9e0 a8bf
00000220: 0e1f 4149 7627 b73f 55aa 6738 4d61 aa3f
00000230: 7207 6124 8eba b63f 1ece 66ff 37ce b1bf
00000240: 2984 50d4 f66d 79bf bb8e 142d aedd 88bf
00000250: fb1f 162d 5564 a83f 7937 a772 f61f 913f
00000260: 3b21 0c77 4a6e babf 4ed8 89d3 5dc7 af3f
00000270: 0170 9048 3977 8abf 1930 5449 3e02 be3f
00000280: 6d97 2156 6f8b a5bf 87ae b7f3 2777 abbf
00000290: 9e74 e597 922b b3bf 278b 8828 90af cdbf
000002a0: 9cb2 84e8 193f 923f 1978 91dd e8a2 afbf
000002b0: b8d1 2717 98d0 903f e9c7 189d 50e6 b23f
000002c0: 31fb bceb 79b6 aabf 1902 176d a386 b5bf
000002d0: e35b 9fcc cb25 d43f 3836 0730 bd62 c33f
000002e0: 29b3 232b 328f e43f a869 eb03 2c63 96bf
000002f0: 3b9c bdc1 f5ed a43f 0076 f472 c824 bdbf
00000300: aa6a 939a ad51 b2bf 68a4 c375 89f2 c2bf
00000310: 188b f1f8 0689 d63f 9933 1dc2 e335 99bf
00000320: 15e7 6a0c 98db 94bf 7613 dd79 1b17 b7bf
00000330: f3bb 22b2 3922 91bf a710 3783 f11c 8c3f
00000340: ec7d 3149 14a1 d1bf 42c4 d1d6 186d 973f
00000350: 9960 9d1a e100 b9bf 636e 0979 b2fb a2bf
00000360: 2107 2333 5589 af3f adec 860e e319 c9bf
00000370: 35b0 5c65 d763 cfbf 0e71 049e 58b1 97bf
00000380: 128a c9c3 b7f5 c63f a271 86b6 6f6c 923f
00000390: c4dd 4a9e df1e b63f 6c0f cf26 7569 bd3f
000003a0: c0c5 7f61 8da5 c9bf fdcf 1efa 86a1 a1bf
000003b0: de5f 5a38 215a a23f 2241 99b3 b486 cf3f
000003c0: 62f1 94ce 9c4d a7bf 6e7d 81e3 ccdb b5bf
000003d0: d2f5 e86d 0df9 a1bf fa5a e8b8 9df0 a9bf
000003e0: ab56 45cf be0d cebf 3fb5 1c82 bab5 cb3f
000003f0: bd55 e20b ca5a b33f 12dc 0769 8632 ba3f
00000400: d3dc acb0 366d a83f 1bd0 deee 21e5 b23f
00000410: a5fe 0643 d6df c13f 302b 1cbb 0d60 bd3f
00000420: 8089 21a4 e53a a0bf 7570 c2da bc8e bebf
00000430: b852 63b0 bd25 cdbf c4b7 9ec4 28f6 a33f
00000440: 7f40 a801 bd17 b0bf f405 3d88 95d8 c83f
00000450: 6361 a023 5341 85bf 2209 3b95 6791 9cbf
00000460: e001 acb7 929b c53f 7005 1c96 65a2 a9bf
00000470: b7ad dcbc 9fa6 a5bf bd4f bb1f 6b3d ca3f
00000480: 1059 9492 a955 be3f 409b ab9a f33c bebf
00000490: 6df6 98d8 6319 c03f a4ea 3232 0ca2 a3bf
000004a0: 84de cc49 8cfa c93f 85e0 3e87 324e b83f
000004b0: 5c43 73d5 7bb3 ca3f 2946 fd6e 7188 b0bf
000004c0: f2ba 1f19 ef2c 9e3f 2050 db17 071e ac3f
000004d0: 1f68 4574 5725 85bf 0d86 7161 31ab e03f
000004e0: ddc7 02c9 be05 73bf 9e18 5eff 9ea4 843f
000004f0: a579 9b08 4651 a43f 0b70 09d7 2d7a 9d3f
00000500: 7b7b 7c53 5201 b73f 3e8e 2aa0 b676 aabf
00000510: ce48 54ef 6405 c0bf 5c5c 2d72 735c cc3f
00000520: 673f 58c4 35e2 ca3f 437a 5c72 37c6 9cbf
00000530: 10e9 86e9 aaa9 aa3f a2d2 1802 386c ba3f
00000540: e74e ef0f 62d2 463f 17ac cbe0 60aa c93f
00000550: 3233 2ba6 6a75 79bf 7592 949d f904 683f
00000560: a54e 6d3b 5f50 a53f 9deb c495 1d2b d23f
00000570: ebba 6155 3675 b3bf 1d78 dccb 63cb 9e3f
00000580: 1639 7f09 418d a33f 9a37 beb7 1523 a33f
00000590: d354 54a9 c66c a63f 29b3 6b93 768c b1bf
000005a0: 3168 b085 17f6 b6bf c415 46d0 99f5 b33f
000005b0: 82fa b2ac 46ce d63f afc5 8dc5 3d26 91bf
000005c0: e11c dc00 d61a af3f 2ab3 dc92 d50d b53f
000005d0: 85df a01f ade6 b93f 3502 b803 ace9 bcbf
000005e0: 0ce5 0d83 aacf d9bf 9c7d 2a04 80e8 d03f
000005f0: cf3b b192 efac b5bf 140e d27c dea5 b1bf
00000600: 9cec beaf 96cd b33f 6abd 7ad3 5afc c03f
00000610: 9dce 99c4 99c5 c1bf 4c67 178a 6722 9dbf
00000620: 9c39 1b1e 41df 64bf 1f98 0d87 57fe adbf
00000630: cab9 3daf ad6c bebf c4d5 2d9c 0d8e b5bf
00000640: 8fb2 6950 a8de bebf 0548 9dd0 22e2 bfbf
00000650: 58ec c71e ed9c a73f 4518 ed8f 1d44 74bf
00000660: fb0d 372b ed4b 823f 3320 84e4 d566 a9bf
00000670: bbb1 c7b5 e215 a2bf 3e58 feb4 c0da 9a3f
00000680: f325 2124 1404 84bf 7356 1345 1748 e2bf
00000690: 2d09 540e e9a4 6dbf 682e fb25 5798 9b3f
000006a0: c6db 03c4 539a c33f 7abb 20ca 1747 b0bf
000006b0: e45b 3b40 7c3e b73f 6006 2416 a359 b23f
000006c0: 6c09 6909 1ff8 a6bf 6fc1 8cff 9171 cd3f
000006d0: 741f 8104 361b d0bf e585 5cfc bd24 863f
000006e0: ae63 317e de29 95bf 7008 6da3 547f bc3f
000006f0: 8e14 4d7d b661 9c3f b5ad 613d 510b c4bf
00000700: 2f4c 3746 2702 b9bf 6171 1288 3b40 b8bf
00000710: cc16 fe24 4b2e a33f 1c92 dce9 2e32 ac3f
00000720: 74a2 38dc f5b8 943f 8b1f fd44 291a a3bf
00000730: 0b73 8206 8ac3 b13f 2fac 5846 ae24 b1bf
00000740: 5cfd 1f72 103c f63e 26a8 5eac b74e 8c3f
00000750: 4181 c073 dd8b bd3f 74fa 5956 5076 c03f
00000760: fd66 9cd6 1ebd dfbf 80e2 85ad e08d a2bf
00000770: fbea 7b3d e815 a23f 3a73 ae82 2f0a a03f
00000780: f711 7854 a48b 943f d9da 9ef4 b1c4 b8bf
00000790: 43ca 5156 8240 bc3f 4382 9876 c479 a93f
000007a0: 71b9 f867 e5fb 933f ea2c f73d e38e c83f
000007b0: 9899 ccf0 6e1c b93f 97aa 5d30 f6aa a2bf
000007c0: b689 71c1 8e47 d2bf 5fb1 0ce3 898e b63f
000007d0: 63fa adb3 66fd b53f 7f4f 9f4f 82bf b2bf
000007e0: d07b 361a 0bba 803f 2c23 5e94 6de9 d43f
000007f0: ad13 c504 94c7 c53f 7b45 6ab6 9714 a93f
0.03689652790197131 -0.13608953398011442 0.11951459278403445 -0.041281015253194026 0.09300221204116045 -0.09993872900537257 -0.011901552247087126 -0.14084582045038838
0.08414670380627426 0.0666946289957625 -0.07545818632678966 0.06572109876619131 -0.07372807818085354 -0.048756084137950476 0.0792344903987127 0.060425070123297044
0.12743087485895646 -0.0019087430299233807 0.013256826342825795 -0.04753133602894307 0.12716585196991823 0.006652261495420195 0.004473204648227305 0.11682768105683021
-0.023392872538234043 -0.04687526206011648 -0.0415929288444951 0.04102603921873686 0.029990850570484662 -0.08341438027689736 -0.08434345837584667 -0.08239462515174571
-0.07509231546636093 -0.0017675104336674903 -0.03717935104301005 -0.012977257020145256 0.05442184376892665 -0.051994495899779475 -0.02203339599191344 0.010018772676228829
0.03821184275487436 -0.06758100589838187 0.08699140787438625 0.06579942503086003 0.011501092215183027 -0.005470789201873521 -0.010698735753044548 0.38348218687997543
-0.0068647709909943665 -0.010676511431679813 -0.2226533822287995 -0.04237959673704934 0.01195369973455854 0.3065953930391994 0.002292169043275141 0.08842327937145081
-0.25642430584844944 0.03382259264426423 -0.03910970551073451 0.0713087980200218 -0.05959297408720637 0.016865923080617698 -0.0064420718002740525 -0.05990676546342943
0.06538223690704963 0.19462192475446263 0.008807734812346611 -0.048590461375365095 0.09044589317738547 0.05152360261475467 0.08878410709533371 -0.06955289826765251
-0.00620838563648455 -0.01214157176088492 0.04764047789927869 0.01672349047458208 -0.10324540525846697 0.06206792075401833 -0.01292271378229515 0.1172217301393065
-0.04207942892462211 -0.05364346361224386 -0.07488361557394049 -0.2319202611843931 0.017818836991113515 -0.06178977684679427 0.016420723355581507 0.07382682643290618
-0.05217343332923575 -0.08408566869093938 0.31480689032235726 0.15145077557683506 0.6424799768989021 -0.021862685908539042 0.04087799062727312 -0.11384251410023438
-0.07155880950760243 -0.14802664041716018 0.35211347876445265 -0.02461963531759501 -0.020368934400472122 -0.09019633984742179 -0.01673212194208058 0.01372708017050457
-0.2754564966944304 0.022877109633956623 -0.09766966724180505 -0.03707654693127151 0.06159464120129444 -0.1961025067265373 -0.2452344174320175 -0.023137459416021015
0.17937371311116174 0.017991776957943302 0.08640859236299209 0.11489040563088587 -0.20036475430201328 -0.03443548014857354 0.03584388554480687 0.24629839677300774
-0.04551401159048642 -0.08538513712254822 -0.03510324446368042 -0.05066388017819708 -0.2347944747986522 0.21648341515666833 0.07560408392085712 0.1023334509298908
0.047708233897020634 0.07380878526493044 0.1396434619218684 0.11474691217533173 -0.031699348722002973 -0.11936550465401459 -0.22771426308340437 0.0389874210371626
-0.06286221781215494 0.1941096225000788 -0.010378503346189566 -0.027898424609483226 0.1688102146945445 -0.050067114423664516 -0.042286865047880644 0.20499934243582443
0.11849460438347514 -0.1181175472844247 0.12577484203386594 -0.03834570038585142 0.202958618197716 0.09494319726843699 0.20860240862250634 -0.06458195647908184
0.029468284519618977 0.054916593229478616 -0.010325129733860959 0.5208975699608246 -0.004644150976831765 0.010079614799689825 0.03968256812162289 0.028786388635452947
0.08986391580809354 -0.051686961223165614 -0.12516462026594016 0.22157137942369587 0.21002838217873007 -0.028099886279159724 0.05207571125670729 0.1032137875670949
0.0006964663333470484 0.20051203705165285 -0.006215492818864731 0.0029320597938229894 0.04162881470133798 0.2838815653409997 -0.07600726685062013 0.030072745626164122
0.038187057885453665 0.03737705104786855 0.04379864518174661 -0.06854954814089055 -0.08969256414312167 0.07796632132347897 0.3563400923266401 -0.01674744146607104
0.06075161705489918 0.08224234424114898 0.10117609045198435 -0.11294055071631066 -0.4032999305560032 0.2641906777079954 -0.08467004138331834 -0.06893721148849635
0.07735578337353605 0.13270125700135377 -0.13884279346131204 -0.028451555064612763 -0.0025478622272665074 -0.05858109973523561 -0.11884580162379801 -0.0841988092705242
-0.12058498347478007 -0.12454431145786778 0.04611912728065509 -0.004947772481335437 0.008933880692786103 -0.0496126977396333 -0.035323223771999555 0.02622510056206572
-0.009773404457649603 -0.5713001584178542 -0.0036186744570169322 0.026948320096194328 0.15314719267891358 -0.06358479199182723 0.09079720085297499 0.0716802529386995
-0.04486176481124712 0.23002839067477107 -0.251660828017058 0.010812267555197994 -0.020667530491070778 0.11131791105165845 0.02771649493958655 -0.15659537789484337
-0.09768910850770916 -0.09473011085578299 0.037462566629114485 0.05507036785846628 0.020236817899930107 -0.03730896918437939 0.06938994082379339 -0.06696595399323323
2.1204591696741756e-05 0.013822016666228686 0.11541542125678907 0.1286106511724544 -0.49591799696064226 -0.03623869054985551 0.03532338858163616 0.03132770986778728
0.02006394162710198 -0.09675132963352996 0.1103593312016438 0.0497571367998302 0.019515594931527717 0.19186058545742607 0.09809010867011236 -0.03646058407214985
-0.2856175316902879 0.08811246674730942 0.08589784514149694 -0.07323469585327123 0.008167349564983356 0.32674731720958294 0.17015314324285438 0.048985234277220756

conv2.bias f8 [16]
00000000: 3bb2 3ace 28bb dbbf 44de 12ed 5606 a1bf
00000010: 07cf 7619 0173 c13f 7645 7b57 4f3a d1bf
00000020: df23 3f3b 66f2 cabf c1f5 cd01 6a3f b63f
00000030: 8014 4be6 a3c2 b1bf 2a34 ad26 b7b8 073f
00000040: 2f3e 4819 5ad6 d4bf 62b0 8ee7 f49b c83f
00000050: 378e e741 c51b b5bf 0fe6 c0c3 134c b73f
00000060: 9a52 3d2b 1bfe b23f 0530 0a0d 7f4e ad3f
00000070: c934 5701 4406 c1bf 780b 06b2 1120 c43f
-0.4332983030279 -0.03325149196592439 0.1363221525513085 -0.2691839556037715 -0.21052244084265134 0.08690512222343384 -0.06937622425455636 4.5245255782512824e-05
-0.32558300465550166 0.19225941950333253 -0.08245499476429861 0.09100459603441656 0.07418985181477425 0.057239504186412694 -0.13300371232472788 0.15722867195662693

fc_1.weight f8 [128, 400]
00000000: f0b5 3680 4e34 d4bf 2ce2 dce6 2223 b7bf
00000010: 1600 b694 ecac abbf a414 36e4 8ed5 c4bf
00000020: 250a aab9 cca9 d23f df36 740d 2a37 a6bf
00000030: f3ca 2bfe d0b6 b83f d28b 0336 07d9 acbf
00000040: c6ae 482c aea3 be3f 333c e4e3 d133 913f
00000050: 2392 a930 d957 66bf dc31 5f4f 0476 c83f
00000060: a50f 3893 74e3 b23f b241 d421 2a28 ac3f
00000070: 73ae b799 96cd c2bf d06d 01e9 8354 c0bf
00000080: 1b48 1273 62b0 93bf 716e 593c 9a0a a7bf
00000090: 293e 0ea2 22cc 87bf 7dad e97b f638 a13f
000000a0: 923e 38b6 bfca c3bf e471 69d6 7454 d3bf
000000b0: 8573 d772 ff0c a53f 99d9 6583 5c2b 9abf
000000c0: 0cf8 fd64 b4a9 b03f 62b8 7ac9 1d41 a53f
000000d0: 6fed 974d d883 c43f 19a1 0ad8 0dd6 b1bf
000000e0: 9cc4 fd91 bb0c c7bf 60b1 fe3a 5917 923f
000000f0: 3d82 b3bc 9bb1 a7bf c49f 64d5 d71f ae3f
00000100: 7ca0 f573 82a4 b9bf 8cc4 e2c6 44ac b83f
00000110: b050 1100 a377 b63f 9105 8d86 3eb7 973f
00000120: f8b4 7603 adb7 8abf 959b cd55 5466 af3f
00000130: 1263 d876 7206 493f 6e5e ac61 1b56 b5bf
00000140: 63e8 4245 f279 af3f 3c7e a733 b0f0 95bf
00000150: c3c7 bac6 ea29 c8bf 46f2 491e 697d c63f
00000160: 8f4a b5a9 41c4 b73f 6f78 81b8 d8fe 69bf
00000170: d1a2 0bf0 73b2 bebf 1ffa fe19 d5c7 a2bf
00000180: db3a eae8 8b77 94bf bffe 2137 eea5 33bf
00000190: 8bd8 955d 12e7 bc3f 2052 5050 e54f b43f
000001a0: 24bf 7282 d126 b93f 550d 0ef6 12b6 9c3f
000001b0: 58c0 c4d6 dc09 a3bf e47f 255e 4c05 b5bf
000001c0: 84d4 69dd d3e3 ac3f ac83 66f5 9a81 b63f
000001d0: b702 5adf e17e b9bf 92cd fa36 2b37 bcbf
000001e0: 341b 53f0 578b ba3f b07d a634 763f b8bf
000001f0: a0a0 2986 9a02 9a3f 5415 2dc6 fbf6 a83f
00000200: ee02 0e24 6d72 b53f 357e bd1e 22dd 853f
00000210: db64 534e 4e3c 84bf ad3d ab63 a9c2 ccbf
00000220: 002d e6bb 8036 bd3f a36f e259 1ec3 ad3f
00000230: d44f 910e 4d03 cc3f c538 872f 2b92 c5bf
00000240: dac9 b7b0 71d2 99bf ae35 0032 9f7a 703f
00000250: a8e4 a5bb 7a4c cabf 6edd 8f47 aa5f da3f
00000260: eab0 be2d d839 a1bf ed13 7532 a3ba 99bf
00000270: f68a c2bf 0f61 a33f fad4 74a9 6080 933f
00000280: 08d4 bdfb 6dea b83f d5c2 ff61 33f6 a03f
00000290: 041a b78a 38d8 adbf 54c9 4bff c41b b13f
000002a0: 5fb1 c6bb 93af a23f 42db b6a0 2e87 c73f
000002b0: 2e07 19f8 994e bfbf 3cbc 4884 0aac 9bbf
000002c0: bbc8 5e9b 6cdd a0bf 41e8 dbee f52f 563f
000002d0: 6475 841e f81b d63f 8143 90a6 3ff0 b13f
000002e0: 1189 a633 d926 b8bf 91e0 7d4a 61fd b83f
000002f0: f7b7 f162 1f39 b93f 338b 86df 1eee bebf
00000300: 639d 4506 a58b 843f f6af 3d6e c4d9 a6bf
00000310: ee72 655f b974 9fbf 318e 8377 5f12 813f
00000320: afee f959 d312 c03f 713b 3373 3317 b0bf
00000330: 47fc e213 96fd b53f 46f6 f302 152c 9cbf
00000340: 7ac8 b8f5 bfb1 9bbf e818 a127 5b8a c53f
00000350: f5a4 6b22 e302 c13f 3c53 27d3 2f12 adbf
00000360: 8f81 055c 48e7 a43f 4665 6f5c 5088 8a3f
00000370: db0f 3317 fb08 d3bf 9234 477b 92c6 b83f
00000380: d07c 6d32 6d4f 9f3f 8d01 7219 42ee c03f
00000390: 19a2 8102 8905 c13f 2dd5 26b9 533a aabf
000003a0: d5d9 b912 f4d0 81bf 7720 6339 d220 a53f
000003b0: 393b 6958 6214 7b3f ad9c 2125 0587 b6bf
000003c0: 74ce 699b 69c0 b3bf 5618 d3f3 fe9c c5bf
000003d0: 5c82 78ad 54bb 753f 30ac 4866 8948 b13f
000003e0: 5e3d 990d 87ad c33f 8f20 8a21 54d8 9f3f
000003f0: 72b6 e5a2 9eef adbf c3f7 e453 866e 9fbf
00000400: 095e c561 b4cc b1bf d02f cd48 e982 913f
00000410: 6fdb f12c 6f0d 883f 5299 d11e e42f aabf
00000420: 615e c1e9 a214 87bf 139a 15d1 40a8 a8bf
00000430: bd60 f730 a945 ca3f 9be7 b613 54f2 af3f
00000440: 284f 7703 4b27 9d3f e99e ceb4 2de5 9b3f
00000450: 9d7a a786 f22a c2bf bc31 8e18 30c3 95bf
00000460: 370b bf47 d308 763f 0160 a66a be67 c03f
00000470: 6f5f a5e7 617f 9a3f cc8d 71f4 020f a53f
00000480: 068e c3f5 d84a bb3f 3361 c1c5 a14d cdbf
00000490: c5a8 0686 88ca b83f f58d 171e 2e20 b6bf
000004a0: 96ae 4b33 0342 abbf dd2c 09cf a603 d03f
000004b0: 9b47 2696 b34d 9f3f e487 4469 089e b0bf
000004c0: bf1f 185f 8d59 a03f fab8 b393 b55e 953f
000004d0: 0b17 c8c3 e792 903f 1f59 744e 3f20 c4bf
000004e0: cb56 e1d6 f398 ac3f 584b c68e 563c 8abf
000004f0: 6c9f bb97 1fb0 a83f 5e5a c3dd 7a02 aebf
00000500: f87e 8d01 f717 8d3f 86fb 2460 35ab bdbf
00000510: fbf3 e89a f278 94bf 2a52 9482 63fc a4bf
00000520: 127a 168c d48c b0bf 7378 ebee dec2 bbbf
00000530: dd49 a267 04b9 b0bf a77b 642f bb29 983f
00000540: e338 f6a5 46e4 c03f b8a4 0c42 2f17 b23f
00000550: 10c7 2c4a fd70 c73f c46f 1f25 9816 ba3f
00000560: e896 664b 3087 bc3f 58f1 b193 bb4f c13f
00000570: 735a 58bf 5d0c b03f 297a 192e e80f 70bf
00000580: c716 3e26 cfe0 d03f 80fc 0ff2 a8a9 b03f
00000590: 98f0 4e49 5767 ccbf 4736 59a8 0e6e bf3f
000005a0: 56e2 99b3 8834 98bf bdab b9ec cb2a adbf
000005b0: 234b 41f9 5a77 b6bf 0dde 1829 8bfe c23f
000005c0: e88f f9c5 418e 6e3f 6f7d bf89 b581 b93f
000005d0: d16b e90e 8c29 b93f da05 3562 59bc b3bf
000005e0: f4d0 58b9 5819 b33f d2f0 d1ff 7829 85bf
000005f0: d558 e3c2 b385 a1bf a11d 0e73 21ad ca3f
00000600: f5e5 be11 0b2f c7bf f47b 21e2 9654 b3bf
00000610: 1be0 3eb1 8296 85bf 574a 06e2 d134 bd3f
00000620: cfb0 c9b2 7906 a0bf a66e 4fd0 9687 853f
00000630: ac01 cef1 bfc3 733f b0fd 5bc9 be5b b1bf
00000640: f836 d088 cb76 c1bf a830 0646 9e29 bb3f
00000650: 657a 6cb8 6a19 a13f 578e eaa7 28cc b7bf
00000660: ff9c 3e7a bd5f cbbf eecb f39b f469 be3f
00000670: 2cdf cd94 2ab1 a1bf 81a9 637e 612d a53f
00000680: e430 1ac5 3272 cabf 97c0 55ac 20a9 c2bf
00000690: d102 f202 1ca8 8c3f 362a 4a13 c2c3 c13f
000006a0: 8ab4 a89c 357c c53f b0ef 2755 bee2 903f
000006b0: bd2b a627 edc0 d1bf b123 3d5a 63c6 c43f
000006c0: 5715 e562 4bc0 b5bf 428d 6e9d 15e0 be3f
000006d0: a03f 9330 b169 acbf e72f aa3b 70a8 ba3f
000006e0: 3dd5 958b 78fd d43f b5a5 6005 1f0f c13f
000006f0: 7467 63d3 e89d 8abf 71c5 2e4d 420a cfbf
00000700: 89b0 cad0 a05f a23f 77ba 13b9 3ee0 8cbf
00000710: f274 ad6e ea36 853f 40a2 05e3 f89a a73f
00000720: 21b7 8e90 88fd bdbf 8adc e8e1 5dee b4bf
00000730: 2e1e 9f50 295d d6bf c87f c955 09fc 8a3f
00000740: dad2 0739 136b 91bf b88c 2075 2a2b ccbf
00000750: 7613 86a0 ddc7 89bf 8bbf 2b8c 3daa c4bf
00000760: a9b5 7dbf 60e2 c53f c98f 8f5e 02fc 873f
00000770: 7115 bdf7 3d69 b8bf 279e 3c90 4169 9b3f
00000780: 0445 53c8 399a bcbf 360b e25c 3814 bd3f
00000790: 812e 9818 fd1c c13f 7048 f0b0 ec73 ad3f
000007a0: a47b a26f 7010 a43f 2f46 8bc3 6504 b93f
000007b0: d7fe 114b f7a1 b0bf dc40 84a0 30de c43f
000007c0: 8fe3 9398 eddc c13f 7d4f 01bf 2de5 9f3f
000007d0: 274e 66d1 9590 cbbf 20a3 8a1e 12ea 7dbf
000007e0: f701 40fc 650b c03f baa3 114d 97d8 c43f
000007f0: 751c 0f02 376b bc3f 5555 83f9 25cb 99bf
-0.3156925441824958 -0.09037988792705026 -0.0540536815196903 -0.1627672781288868 0.2916137517096636 -0.04338961996300638 0.09653955655430106 -0.056343293517577955
0.11968506413603128 0.016799239668270082 -0.002727436255826514 0.19110158801630817 0.07378319353307335 0.05499393141701904 -0.14689905648934917 -0.12757920148111035
-0.01922754123058477 -0.04500276552854821 -0.0116198259072738 0.03363771689040627 -0.15462490460821648 -0.302029809366813 0.041114790695906435 -0.025556035537613295
0.06508948770166983 0.04151242336716689 0.16027358807319156 -0.06967245602084339 -0.18007607105713397 0.017667192674410415 -0.04627691915971297 0.05883669357200419
-0.10016646700899118 0.09637861114130625 0.08776301147128396 0.023159958803494588 -0.01304564635105486 0.06132758662607 0.0007637080104273295 -0.08334513792612494
0.061477251963382405 -0.021425965454794346 -0.1887792082175662 0.17570222834537413 0.0928383864714226 -0.0031732781244918 -0.11991047487721153 -0.036680850432720506
-0.019987283793450366 -0.00029980722241161254 0.11290087494657734 0.0793441124990939 0.0982485717274782 0.028038307445524897 -0.037184621064057566 -0.0821120958185016
0.05642568662452965 0.08791512004110186 -0.09959232047004717 -0.11021680919912161 0.10368871323872214 -0.09471834931763712 0.02540055698264665 0.04875933450834205
0.08377725725405202 0.010675684512249631 -0.009880649342834882 -0.22469060293813695 0.11411289775258027 0.05812926146720023 0.2188507386332491 -0.16852321453774813
-0.02521684304333314 0.004023191315366699 -0.20545896685124387 0.41208893764947774 -0.033644443115322734 -0.02512602801768431 0.037849895628161365 0.01904440912513381
0.09732711216004486 0.033128362381722155 -0.0582902592973831 0.06682997925580497 0.03649579684437997 0.1838129315126143 -0.12229311282228814 -0.02702347214124877
-0.032939332929701824 0.0013542081537125802 0.34545710544792585 0.07007215324871476 -0.09434278021811716 0.097616272627308 0.09852787175779541 -0.12082093197981862
0.010031975988296698 -0.0446301827022068 -0.030718704650427968 0.008335824808859279 0.1255745114648241 -0.06285401880744047 0.08590066895975311 -0.02751190977595843
-0.02704524934069539 0.1682847922804236 0.13290061169326575 -0.05677937939223063 0.04082704661664415 0.01295531065072687 -0.29742314591953595 0.09677997121544227
0.030576425745832136 0.13227106325576835 0.13298142073041744 -0.05122625003006429 -0.0086993282522884 0.04126603079345242 0.006611236726327623 -0.08799774319196514
-0.0771547321726816 -0.1688536348867184 0.00530560567088453 0.06751307246365523 0.1537331406020525 0.03109866575917458 -0.05846877802364937 -0.030695055838115836
-0.06952979456888654 0.017100949352695072 0.011744373854737337 -0.05114663006024735 -0.01126982951988892 -0.04815866997050846 0.20525088206227862 0.06239569416670961
0.02847020348219967 0.02724143425044093 -0.14193564963257624 -0.021252395151849277 0.00537951022482979 0.1281660099746205 0.025876550448941268 0.041130153979590384
0.10661083221526022 -0.22893163829827187 0.09684041282767726 -0.08642853007000169 -0.053238010417627255 0.25022287577003316 0.03056984523715976 -0.06491139001857921
0.03193322931116382 0.02086909975053517 0.01618539936500611 -0.15723410921845812 0.05585443494844141 -0.012810398323187464 0.04821871497352856 -0.05861267048901618
0.014205865607152188 -0.11589368436123779 -0.019992628769831083 -0.04098807305323178 -0.06464889927017506 -0.1084422429371175 -0.06532313852429845 0.02359669186364113
0.13196642974475656 0.07066626894506356 0.18313566324064157 0.10190726190870608 0.11143781510198958 0.1352457495849062 0.06268869325172392 -0.003921420052931648
0.26372126326201023 0.06508880529144001 -0.2219037158919306 0.12277309045858785 -0.023637901269895366 -0.05696713700020648 -0.08775871835068165 0.14839305407234385
0.003729942763856176 0.09963545430172414 0.09829020847375537 -0.0770927300227621 0.0746055080897497 -0.010333009058961205 -0.03422319177632153 0.2084085284989046
-0.18112314573754387 -0.07550948162814547 -0.010540982278925573 0.1140872170274546 -0.03129940326184199 0.010512521965146359 0.0048253534158679105 -0.0678061715698195
-0.13643783741320425 0.1061037941892119 0.03339704037920369 -0.09295896625058596 -0.21385925740217002 0.11880425269536918 -0.0345547968526588 0.041361853292829494
-0.20661005615364225 -0.14578636565011457 0.01399251827229034 0.13878656331901745 0.16785307072988004 0.016489957759389717 -0.2774002921293535 0.16230432420914334
-0.08496543087411133 0.1206067571024976 -0.0554938670917402 0.1041326661745071 0.3279706347596692 0.1332739616639579 -0.012996500922259215 -0.2425005795353559
0.035885835158610276 -0.0140995884161985 0.010358649733172662 0.046104219162604654 -0.11714986352191349 -0.08176218762752022 -0.34943611977766664 0.013176033907427512
-0.01701002154910012 -0.22006731719111428 -0.01258824487809716 -0.16144532532007036 0.1709710059180172 0.011711138258711078 -0.09535586641603346 0.026768707684054285
-0.11172829762223918 0.11358978526736227 0.13369716359044406 0.05752505931754193 0.039187921168596845 0.09772335075401693 -0.06497140486498708 0.16303069913602186
0.13955469083864755 0.031147684844043056 -0.21534989094344434 -0.0073033054147025045 0.1253478509606933 0.16285983336572746 0.11101096916455495 -0.025189011911455356

fc_1.bias f8 [128]
00000000: 1c0c be6c 9783 d2bf ee26 454b 9f07 c9bf
00000010: 8c13 236f 0065 a6bf 5146 7bcb c981 b53f
00000020: 0b71 4c4c f731 d0bf c2af 1555 ba01 d13f
00000030: e0be a083 5dce 9e3f e118 d91b b1e6 c13f
00000040: e9ec b489 eb5d 79bf e3f6 a464 d1b7 d63f
00000050: 19f7 94c4 1dce bfbf 90a7 0354 0428 c4bf
00000060: 90b2 fa94 a36e c0bf 0018 8b10 a96d dcba
00000070: a813 49f0 7791 69bf 73fc 8029 6c5e 963f
00000080: f668 88f8 b4ad 77bf efdb 652c 025e b2bf
00000090: 791e c959 a0d8 b7bf a6ae 3022 58a9 b2bf
000000a0: c6b2 34a4 3b32 c6bf 6049 8b68 597a 75bf
000000b0: 5b2a b48d f166 a73f 93bb 1b92 a149 b43f
000000c0: 584a f16c d7eb 77bf 3822 ea39 2be5 bb3f
000000d0: e305 4190 0709 66bf a30d a6bd 54b8 aabf
000000e0: 33a9 c1fa a7ca c1bf d0b4 faad 7605 c5bf
000000f0: 8bb3 bb7b aa45 c33f 0e99 6207 273c c4bf
00000100: 5507 ec8a ac7c d3bf 9ba0 acef 0885 c4bf
00000110: fee3 8274 501f c1bf bf34 d0bb da5c a83f
00000120: 83cc 0d1c 8709 f8bd be17 7bdf e2b0 cabf
00000130: b229 4adc 5d44 68bf 284d c8b0 9375 ce3f
00000140: fe96 58f4 69b0 c9bf 283c dc5f 7c31 c53f
00000150: 417b c1aa 017e bbbf 45bd f5fe d049 c13f
00000160: e39f 0f5f 107c 8e3f 4b57 68d7 7098 c9bf
00000170: 3ec1 38a7 f679 a93f 7a24 a90e ad94 8dbf
00000180: 62af 0164 5721 ba3f 01bb 6006 db9a b93f
00000190: 9c64 9daf dd88 cebf 0117 d482 8e19 84bf
000001a0: 8177 8144 e1d1 ba3f b8d0 693d 3e9e cfbf
000001b0: 0540 5a93 85aa d7bf 37e1 8fa8 dda2 cebf
000001c0: 2e5f fc9c e5c4 b4bf 7599 2a32 456c c0bf
000001d0: 0b4d db04 2e9b c8bf 34d8 e25c a6ac b53f
000001e0: df87 1177 317a b43f 22f6 499d 821e 72bf
000001f0: a59d 0cfc 6e77 c83f 238e 37de 4d4b cdbf
00000200: a9d7 9fe7 55d7 d03f bed0 57fc 895c c53f
00000210: 0c0e d921 097d 66bf 1c63 fd8d b24e c5bf
00000220: 8f61 a758 3a12 cbbf 132e 95bf bf55 a6bf
00000230: 0f82 764b 2799 e03f d377 0de2 0fa9 1dbe
00000240: c1d1 4eba f3d5 c5bf 34ab 0707 0ea2 81bb
00000250: 316c a77b e383 c43f 95e4 2ae6 e4db cbbf
00000260: a73f b24d 319b 9cbf 2527 56ac bb2b 84bf
00000270: e1c9 b6d8 e3db af3f dfb5 55e5 a8eb 18bd
00000280: cd68 2f04 ed27 6ebf a097 5d1b f986 b7bf
00000290: 70ef bf91 3133 c3bf b0fd 3e14 73f0 b3bf
000002a0: c8b1 bde0 2a0d a3bf d75b ede1 6e6b c33f
000002b0: fd1b c187 124b d83f 9a14 9bd1 5967 c8bf
000002c0: 4cea 6edd a997 a73f c8f5 1f59 9b26 a43f
000002d0: 997c 12a1 512b a63f f855 79a5 5334 c7bf
000002e0: 4c32 f7fd bb34 b53f 40ae dbaf d65a 01bf
000002f0: 98a7 7f6f 3841 c6bf bad8 d322 70b1 c33f
00000300: a9cd 5703 7555 c53f 6c2d 3ef3 4890 60bf
00000310: 4a0f 85be 7ec4 98bf d70a 646b 3afa 71bf
00000320: 99fc 6777 2550 d93f df37 77ee 1556 c5bf
00000330: c41e c5e6 28eb 7cbf 5365 6c8b 7c80 c0bf
00000340: 5077 b95c ae43 c3bf df9b 1052 ecbf b0bf
00000350: ad97 ea76 0396 aebf 8806 cfd0 2650 c1bf
00000360: a332 c783 04ff c43f a801 3319 aabf a8bf
00000370: 3a59 ed9b ea6c a8bf f1fa 57e0 9d71 73bf
00000380: 2294 aac7 1af0 9f3f 601f 5f3c 1830 b4bf
00000390: ea6a c52b 2566 1ebf e3a7 459e 9522 a2bf
000003a0: c267 360a 36f2 c13f 69c1 28af ae5d d1bf
000003b0: d51f bd01 fe69 be3f 4af9 25e4 07c7 b63f
000003c0: 85c1 c47f e9e0 91bf 8cc1 6255 03a0 8dbf
000003d0: 070e c18e 2138 733f a16c 57be cdcc a83f
000003e0: c584 bf31 e2b6 d23f 40ef 8595 fca9 a23f
000003f0: ce6f da12 608d c83f 3ff0 2ffd 1940 82bf
-0.28928170794842045 -0.195545112374297 -0.04373933178570785 0.08401166169940068 -0.2530496831038966 0.26573046025327696 0.030084096106462677 0.13985265598075272
-0.006193084783542726 0.3549693568091767 -0.12423883485186273 -0.1574712190843539 -0.1283764340818334 -3.6742795378453865e-25 -0.003121122603519006 0.021844568284219833
-0.005780894200620992 -0.0717469557183532 -0.09314920608550804 -0.07289648852082084 -0.17340798871864233 -0.005243634463754837 0.045707272098373074 0.07924852196786807
-0.005840150362092254 0.10896558917932786 -0.002689852497525834 -0.052187584066838676 -0.138997075500194 -0.1642292356022268 0.15056353608761372 -0.15808570728876997
-0.30448449675178796 -0.16030990317199642 -0.133768135919837 0.047583423067501844 -3.4978755660509766e-10 -0.20852313911580994 -0.0029622872555752017 0.23796316272692164
-0.20069622450790087 0.1655726879184567 -0.10739145678369956 0.13506519746031578 0.0148850707063985 -0.1999646236224016 0.04975863257675649 -0.014443733224782419
0.1020712489277549 0.10001915841779054 -0.2385518176550122 -0.00981437050587486 0.10476501390937011 -0.2470166969175176 -0.36978282346626684 -0.23934527140205272
-0.08112940867101479 -0.1283041472390313 -0.1922357104982456 0.08466567771651584 0.07998952061600971 -0.0044236280560859004 0.191144822188318 -0.22886060095253055
0.2631430398899917 0.16688656636654814 -0.0027451685298574054 -0.16646415646644008 -0.21149377182770165 -0.04362296308189797 0.5186954950223156 -1.726462424594294e-09
-0.17059179875435684 -4.667423262793296e-22 0.16027492082398134 -0.2176481365075104 -0.027935762755589313 -0.009849039265435853 0.0622245027583579 -2.2133891071957884e-14
-0.0036811475015215756 -0.09190327566247314 -0.14999980560957793 -0.077887718623052 -0.037209834989741675 0.15171609908676828 0.37958205468424905 -0.1906540177789438
0.0460789759449268 0.039357046727655 0.04329924670423075 -0.18128438548835368 0.08283591223079972 -3.31017272240078e-05 -0.17386537021894521 0.15385247898638515
0.16667044318419968 -0.0020219254310568837 -0.024187069300082777 -0.0043890268336805515 0.3955167451931146 -0.16668962615807367 -0.007060203334112895 -0.12892109687599404
-0.15050296332895607 -0.06542851451432295 -0.05973826243034295 -0.1352585334371279 0.16403252062300053 -0.04833728368385276 -0.047705966505122224 -0.0047470252079608736
0.031189363896050655 -0.07885886644282669 -0.00011596300004638638 -0.03542010838539491 0.1402041959634613 -0.2713429174937319 0.11880481283617368 0.08897446937587464
-0.017459534095168223 -0.014465356868044642 0.004692202648644456 0.04843752811913161 0.29241232736792383 0.03645314526781229 0.19181443138665916 -0.008911326445734
